flaskProject/modules/Contrastive_Clustering/save/save_5_1000epochs/model_checkpoint.tar (torch, 183226 bytes, 24 tensors)

instance_projector.0.weight f4 [128, 20]
00000000: 81b6 a0bd 1401 f73e 98c1 aa3c ff10 32bc
00000010: b061 a8be 89bc 4dbd 4feb aebd 8144 bf3d
00000020: 0cd5 c13c 9604 99bd 5f50 f2bd 2f92 04c0
00000030: 5803 ffbf 43c2 b53d 1c3a 8bbd 3efd f4bc
00000040: 2fd1 07c0 0d36 d6be f0cf b1bf 2d3e 6bbf
00000050: 04d3 febc 6371 313e 16de 753d 56d6 453e
00000060: 848d babc 4254 f93e 2b1f 8cbd 4d21 eabe
00000070: 3afa 4bbc 9edf 90bd 78cd 303e 13c7 f7bf
00000080: d68c efbf 28ec 5ebb ba2e 033e a34b 18be
00000090: b647 0ec0 ae3f 68bf b493 06bf d143 35bf
000000a0: f812 eb3e 895f 9c3f 5460 aabf a253 01c1
000000b0: 7560 cec0 4165 92c0 269d c03f 2ea1 5ac0
000000c0: f166 d53f 3479 1ebe 6379 62c0 7bb4 41c0
000000d0: 028c 43c0 7723 1dbe 2720 5f3d b0c8 cb3d
000000e0: 7931 38c0 4e4c 273f 5a1a 8440 9ee3 95be
000000f0: c37a f9be 4b4d 593e 5bbb cf3f 4e8f e0bc
00000100: 248c a3be 2dcc f33f 3731 1cc1 fcbb 4ebf
00000110: fe30 e1bf 60e1 7d3d 6632 a5be 851f 2b3e
00000120: d064 d9be 6171 22be f4aa fe3c 3e3c a53d
00000130: 0b09 40be 2e00 2e40 08a9 0b40 53f3 babe
00000140: f35e 0cbf 50ae df3e 2d88 1ec1 bd6c e6bf
00000150: a8ad 7ac0 6c5d ab3f fa0f b4c0 bef3 84be
00000160: 1043 8e3f 2a35 0d3e 24da e9be ae07 dac0
00000170: 8ecb dfc0 abc4 92bc aa72 023e 3b60 c0bd
00000180: 9379 d9c0 f047 7abe 861b 76c0 2fa1 49bf
00000190: 35bd 9b3d 6cee 683e 8387 53c0 2975 b9c0
000001a0: 5bea 07c0 d903 6840 f00b 73be c2e3 923f
000001b0: 48a7 d33f f66f 45be 69c2 49bf 68c0 41c0
000001c0: 7361 27c0 dc36 5bbe 45ea 103e e889 a83d
000001d0: 39ef 39c0 7eeb 323f b39e 653f 7092 8dbf
000001e0: 9d6f 28bd f5f8 c1bd 6fbf 99be 829f fa3e
000001f0: f583 503f cee7 2e3f a326 223e f767 91bf
00000200: 5fe8 41be 64e9 b0bd d1c3 45bf a4e5 843f
00000210: ae0e 823f b8a7 5d3d 87cb 763d f998 1fbe
00000220: 337d ae3f 7303 c4bd b949 0b3f 2b74 5ebe
00000230: 70eb d5be 69a0 153e 881b fe3d 6c39 2abf
00000240: 28c6 84bf ac26 92bb 3335 13be 1470 a63e
00000250: 3f34 9d3e f00b 16bd 3f7f 30be f9a6 34c1
00000260: 89e3 38c1 638b bfbd 29ab a4bd ebc4 3e3e
00000270: 16a0 3ac1 e5d9 28c0 2e51 bac0 fa67 ddc0
00000280: 8e92 3cbd c81c 9b3f 8780 8abf 5045 9bc0
00000290: 0190 7ec0 9ea9 e6bf 7630 68c0 8538 95bf
000002a0: 1cee b43f 68d6 2e3d b9e7 a3c0 b8c5 9d40
000002b0: 81d4 9040 d1c4 57be 8e43 023e abf8 ab3d
000002c0: 23d5 9d40 1e32 da3e ffc2 7bbf 795c 0ebf
000002d0: 5816 a83e 9763 f9be d499 42bf 1c6b b6c0
000002e0: 4b36 c0bf f049 9f40 7e2d aa3e 1e6a 91bd
000002f0: 0044 57c0 f078 28bd 958e 8a3e 7000 0f40
00000300: 2084 e83f 52cd 99bc c5a7 5b3d 329c 11bd
00000310: f776 ec3f 1f66 03c0 9d59 78c1 16f3 e7c0
00000320: ccf3 a9bc ef9a 2bbe 29a4 b13d e427 8abf
00000330: cc14 003f b5d6 2abf 814c c8be 473d bc3e
00000340: 67f4 2b3f 3c60 3abd 4f56 cf3e 8c7c 7bbe
00000350: 6404 4a3e 56c3 89bd 3230 81bc a105 403d
00000360: de26 cd3d ab3d d23e b3df 943f aecc c13e
00000370: 36b0 80bf c9ec 24bf 7fd2 a13f e471 9740
00000380: 3ce1 6040 7ad5 a0bf 3900 7dbf 9110 dabe
00000390: 6eff d7bc 4dcd 47be 2832 6b3e fdd0 d93f
000003a0: aa6f d93f 4c58 29bd 9662 1e3e af5e e9bd
000003b0: 63f6 df3f e005 0ec0 593d 3ac0 18c0 b5bf
000003c0: 51a1 e73c 7ce2 813e 2570 9a3c 6a18 79bf
000003d0: 1d9a 58bf bc19 96bf 1c8e eb3e 0a0f c43d
000003e0: 00cb 2cbf d2f7 62be 9a0e 79be 64b2 fabe
000003f0: 2db3 cdbe 2d51 cdbb bec1 953d e255 b9bd
-0.0784731 0.4824301 0.020844266 -0.01086831 -0.3288703 -0.05022863 -0.08540975 0.09339238
0.023661159 -0.07471578 -0.11831736 -2.0714223 -1.9922895 0.08874943 -0.06798193 -0.029905912
-2.1221426 -0.41838112 -1.3891582 -0.9189175 -0.03110648 0.1732841 0.06002625 0.19320044
-0.022772558 0.48697096 -0.06841882 -0.4572853 -0.012449795 -0.070739016 0.1726588 -1.9357628
-1.8714855 -0.0034015272 0.12810794 -0.14872603 -2.223127 -0.9072217 -0.5256913 -0.70806605
0.4591291 1.2216655 -1.3310647 -8.082918 -6.4492745 -4.57486 1.5047958 -3.4160876
1.667204 -0.15475923 -3.5386589 -3.0266407 -3.0554204 -0.1534556 0.054474022 0.099503875
-2.8780196 0.65350807 4.1282167 -0.2927522 -0.48726472 0.21220891 1.6229051 -0.027412083
-0.31942856 1.9046685 -9.762015 -0.8075559 -1.7593076 0.061982512 -0.32265013 0.16711242
-0.42459726 -0.15863563 0.031087376 0.08068131 -0.1875345 2.718761 2.1821918 -0.36513767
-0.5483238 0.43687677 -9.908246 -1.8001934 -3.9168491 1.3387885 -5.6269503 -0.2596721
1.1114216 0.13789812 -0.4567424 -6.8134375 -6.993598 -0.017916044 0.12739053 -0.093933545
-6.7960906 -0.24441504 -3.84543 -0.7876157 0.07604448 0.227472 -3.305146 -5.795552
-2.123679 3.6252348 -0.23735023 1.1475756 1.6535425 -0.19280991 -0.7881227 -3.0273685
-2.6153228 -0.21407646 0.14151867 0.082294285 -2.905226 0.6989058 0.8969528 -1.1060314
-0.041122068 -0.09471313 -0.30028865 0.4894982 0.8145135 0.68322456 0.15835051 -1.1359853
-0.18936299 -0.08638266 -0.7725192 1.0382581 1.016073 0.054115027 0.060252693 -0.15585698
1.3631958 -0.095709704 0.54409367 -0.21724002 -0.41781187 0.14611973 0.12407595 -0.6649387
-1.0372972 -0.0044601765 -0.14375763 0.32507384 0.30703923 -0.03663248 -0.1723604 -11.290765
-11.555551 -0.09352758 -0.08040459 0.18629806 -11.6640835 -2.6382992 -5.8224096 -6.9189425
-0.046038203 1.2118158 -1.0820473 -4.852211 -3.9775393 -1.8020513 -3.6279578 -1.1657873
1.4135165 0.042684942 -5.1220365 4.9303856 4.5259404 -0.21071173 0.12721083 0.08397039
4.9322677 0.4261636 -0.98344415 -0.5560985 0.32829547 -0.48708794 -0.76015973 -5.700575
-1.5016569 4.9777756 0.33237833 -0.07100318 -3.3635254 -0.04113096 0.27061906 2.2344017
1.8165321 -0.018774662 0.053626794 -0.03554935 1.8473805 -2.053108 -15.521878 -7.2484236
-0.020746134 -0.16758321 0.08673889 -1.0793424 0.50031734 -0.66733867 -0.39120868 0.367655
0.67169803 -0.045501933 0.40495536 -0.2455923 0.19728237 -0.067267105 -0.015770052 0.04688037
0.10017179 0.41062674 1.1630768 0.3785147 -1.0053775 -0.64423805 1.2642363 4.7326527
3.5137472 -1.2565148 -0.98828465 -0.42590764 -0.026366916 -0.1951191 0.22968352 1.7016903
1.6987202 -0.041343972 0.15467295 -0.113950126 1.7497066 -2.2191086 -2.9099944 -1.4199247
0.028275164 0.25368106 0.018852303 -0.9730288 -0.8461016 -1.1726604 0.46006858 0.09573181
-0.67497253 -0.22164848 -0.24321976 -0.48964226 -0.40175763 -0.0062657804 0.07312344 -0.09049584

instance_projector.0.bias f4 [128]
00000000: 5d0f 323f b8d6 ea3e cbe8 953f dce1 823d
00000010: b5c9 313a 7351 2d3e ad65 bcbd af8c 13be
00000020: dd02 343f f30b 3ebf f556 d7be 4817 37bf
00000030: 567a cd3e 3cd8 f63e 875b 07bc fa70 923e
00000040: 874f 4c3f 171d d2be b727 013f 382a 42bd
00000050: fade 373c b207 3d3f 187f 433f 2def 1a3f
00000060: 6860 6f3d 8561 f3be 9219 0b3e 3178 123e
00000070: 4b28 063f eb2d 29be 2cf8 b8be e2dc 7f3e
00000080: 2d52 283e 843e 9f3e 282a d83e 6d9d 793e
00000090: 1d56 c0be a6ae b63e 074c e7be 9a4a 6a3e
000000a0: d167 583f e21e c93e 281b ce3c 02c8 c33e
000000b0: 107f 133e 4b9c 1c3e a00c 5c3e d425 303f
000000c0: 1b1e e6bf 2865 b73e 0cb8 a1bc ad81 9abe
000000d0: d79c 563f 1e31 4b3e 6f97 5dbe b91d cf3d
000000e0: c2d6 c53e 16ad b6be 6456 0f3f 64f5 46be
000000f0: f813 fabe a72c 9bbd ae85 19bf b55b b7be
00000100: bd3c f73e e189 92bd b17b ae3e bb10 dfbe
00000110: af66 59be 03fd 4bbe 4373 b6bd 89db e83e
00000120: 0f9a 783e 1d8c c1bd 460e 763f 75d1 90bf
00000130: 5963 203e cb99 fbbf 2019 443d a75d bfbe
00000140: 5c2a e93e d605 083e ac7b d83d f9d5 0a3f
00000150: c02b d1be e026 993e 0c5f 863e f751 143f
00000160: f682 bfbe e573 9f3e 3355 aabf a4c8 1e3f
00000170: 9f52 2d3f f8a1 51bc f84b 9bba e4e2 1fbe
00000180: f548 613f f26d d63e f201 d83e 251f 6f3e
00000190: 42db e1be 19a9 673f bb4e ec3e 90d0 293e
000001a0: 8879 83be 73e7 343e ac8b 98be de11 5f3f
000001b0: aedb dabc 283e 21c0 3cf5 01bf f23d 863f
000001c0: b41b 19bf 1ff4 a4bd a77b cc3e 040a 3f3e
000001d0: 73a7 a3bf 4e74 243f 0a84 ae3f ef78 d0be
000001e0: 2876 2dbf d7ea 08bd 5076 50be e04e 993e
000001f0: 06b1 923f 0bc7 d03d 0415 07bf 82aa 9fbd
0.6955469 0.45866942 1.1711668 0.063907355 0.0006782071 0.16925602 -0.091990806 -0.14409135
0.7031687 -0.74236983 -0.4205853 -0.715199 0.40132397 0.4821185 -0.008261568 0.2860182
0.7980885 -0.4103782 0.50451225 -0.047403544 0.011222595 0.7383987 0.76365805 0.60521203
0.05844155 -0.4753534 0.13583973 0.14303662 0.5240523 -0.16521423 -0.3612684 0.24986604
0.16437598 0.31102383 0.42219663 0.2437646 -0.375657 0.3568012 -0.45175192 0.2288002
0.8453341 0.39281374 0.025159433 0.3823853 0.14403939 0.15293996 0.21489191 0.6880772
-1.7977937 0.35819364 -0.01974108 -0.3017706 0.8383307 0.19842955 -0.21639799 0.10113091
0.3864041 -0.3567893 0.55991197 -0.19429547 -0.4884336 -0.07576876 -0.59969604 -0.35812154
0.48288527 -0.071552046 0.34078744 -0.43567452 -0.21230577 -0.19920735 -0.08908703 0.45479992
0.24277519 -0.094505526 0.9611553 -1.1313921 0.15662898 -1.9656309 0.047875524 -0.3737614
0.4554013 0.13283476 0.105704635 0.54232746 -0.4085369 0.29912472 0.2624439 0.5793757
-0.37404603 0.31143108 -1.3307251 0.62024903 0.67704195 -0.012794964 -0.0011848202 -0.15613896
0.8800195 0.41880757 0.42188984 0.23351724 -0.44112593 0.904924 0.46153817 0.16583467
-0.25678658 0.17666416 -0.2979406 0.8713664 -0.02671608 -2.5194187 -0.5076482 1.0487654
-0.59807897 -0.08054375 0.3993809 0.18656164 -1.2785476 0.64239967 1.3634045 -0.40717265
-0.6775842 -0.033427086 -0.20357633 0.2994299 1.1460273 0.101942144 -0.5276644 -0.07796194

instance_projector.2.weight f4 [20, 128]
00000000: f09d 80bf 60e5 13bf bcda 3d3f e5fd ad3c
00000010: 234a 13bd a2df 2ebd 0464 423e 4433 b2be
00000020: 93ed 3abe 7a62 5abe 5923 09be 3c46 f13e
00000030: d2d8 2c3f eeb3 a5be 5520 8abf 3ead 653e
00000040: e889 863d c208 073e a42a f83e 89de 043e
00000050: a741 c03e 7f07 19bb 8649 e7bd e224 8c3e
00000060: 4a87 72bd e588 70bc b65c 2c3d 5639 69be
00000070: ef74 44be a1a0 933d e4b3 a0bc 5c3e a53e
00000080: f351 e03d 9d28 87bf e744 8a3c 55ce 103f
00000090: 1eb8 7ebe 0e71 9ebe ed36 dcbd 985f cbbd
000000a0: a95e 923e 0fd4 433e 3460 81bd e6d9 e0bd
000000b0: 32bd e73c 40e0 0dbc f292 1c3d 91bd dd3c
000000c0: 2d99 aebe 46b5 9c3f 2b4b 0d3d 8d7b 2f3d
000000d0: 34e7 92be a8fb bfbe b331 0a3e a7c1 0840
000000e0: 0b04 b5be 3926 ee3d a007 1a3d bf91 f73d
000000f0: f02d d53e 68f2 75bd 6a40 a9be 39df 3ebe
00000100: 6cd9 683d e9fe 71be c776 c73e 57ac 493e
00000110: 5c23 043d 8c1e 723e 75a0 613c a26c 79bc
00000120: 1121 28bc 6f8a e43e a615 35bf 0a59 2ebe
00000130: 2658 9b3d 7078 443f 2e52 8a3d b076 053d
00000140: 1091 96be 9d83 84bd e2c3 04bd 1101 abbe
00000150: 5686 133c 48b5 74bf 330a 1f3c 1f4a ce3e
00000160: 7ca9 763c 6937 b03d f7c0 81bf ad38 b5be
00000170: 4639 893e ce6b 333c 1964 313d 3000 f8bd
00000180: 7911 9ebd 2484 ed3c 287a 07bf 22dd 8ebe
00000190: b803 353e 81e9 82bf 966d 88be 2085 cfbb
000001a0: 962d 81bd 414e e03c a28d 1abe f6cd c2be
000001b0: 57f3 dabe a311 7cbf 9018 033e 5273 2a3e
000001c0: 30de d03c 252d 463e ec1a 4e3e 003e 3e3d
000001d0: a6c3 1abd 02aa 103e b095 37bf d8f4 7dbe
000001e0: a6a5 febe 9121 0dbd 91d1 23bd b6e6 76bd
000001f0: f2a1 2bbf b330 b43d 2de3 9d3d c01e 003c
00000200: 5b5e 90be 29fe 99be 07df 0ebd 8f28 1e3d
00000210: 96a8 7e3d 5177 a83b ae7a d63d b65f 17be
00000220: 224e b03d 3376 703c 40a9 2dbe a409 00bd
00000230: 2dd2 f0be 6c13 023e b125 143f 11aa b93d
00000240: 234e 89bd 9746 3ebe a828 20bf f5b2 d0bd
00000250: 2c1c cebd ab09 0dbd fcea 1f3e 1929 0abe
00000260: 00ba 86bc a265 4f3e c031 afbb 11c4 323e
00000270: e39a 2c3d a6be a9bd ac65 0e3e 865d 803e
00000280: e86e 38be 979f 3dbf 1a1b 853d 1427 5ebf
00000290: ba73 8b3d eed2 003e 7128 b23b 666a a5bd
000002a0: 60bb 0abf c955 833d 4c05 e5bc 0a52 b3bd
000002b0: 06d8 7bbe 77ec 1cbc ff57 48be 57b8 a43e
000002c0: 69e1 793d c596 0b3f 773f 0dbd a83d 3ebe
000002d0: b557 803d 4127 1abf 9d4f e2ba ccd1 1d3e
000002e0: 10ee a0be 9f11 89bc b970 3c3e abea ba3e
000002f0: 846f 2dbf f8f1 ef3b d582 12be b476 22bd
00000300: 7441 b83d 7c0e a03e 9c27 98be bcf9 2a3f
00000310: b3bc a93d 2fcf 083d b7a0 b13d 4508 323e
00000320: 5fad 893e f9f8 03bf 5e00 29be ccb7 ee3d
00000330: 7ed1 27bd 6a05 aa3e 72ef 1e3e 5750 f5bd
00000340: 9e14 9d3e ee5b 5c3d 7d8c b4bd c0c6 1c3e
00000350: db59 51bd a459 873c 2c99 263c c83c 14bf
00000360: f8b3 603e f430 30bb 7cbb b4be 3be8 083f
00000370: 3820 f13e 6a75 5c3e 7faa ddbd db73 d23e
00000380: 1657 863e cc4c 16bf f19d 3fbf f063 9fbf
00000390: 92f7 83be 2e67 313f e63f 14be 0d40 933d
000003a0: 6802 f23d 731d bd3d 7e48 5bbe 7954 c4be
000003b0: 6319 11be c437 8d3e b55a 753e 3e71 213e
000003c0: ead3 c03b 6902 b63d e853 ae3e 6a02 0d3e
000003d0: 5eb1 4cbd 7b92 263f e59b 993f c49f 11be
000003e0: 11f5 88bd 4e44 a9bd 0eaa eabd 7fb8 263e
000003f0: 31a9 96bd cbd9 cb3c 60ed 083d 706b b9bc
-1.0048199 -0.57771873 0.7416189 0.02123923 -0.035959374 -0.04269374 0.18983465 -0.34804738
-0.1825469 -0.21326628 -0.1339239 0.47123897 0.6751834 -0.32363838 -1.0791117 0.22429368
0.06569272 0.13186935 0.48470032 0.12975515 0.3755009 -0.0023350415 -0.1129332 0.2737189
-0.059211053 -0.014681076 0.042080604 -0.22775778 -0.19185232 0.07208372 -0.019617029 0.3227414
0.109531306 -1.0559269 0.016878558 0.5656484 -0.24874923 -0.3094563 -0.10752664 -0.099303424
0.28587845 0.19123863 -0.063171774 -0.10979061 0.028288458 -0.008659422 0.038226075 0.027067931
-0.3410124 1.224282 0.034495514 0.042842437 -0.2869202 -0.37496686 0.13495521 2.1368196
-0.35354647 0.11628384 0.037604928 0.12088346 0.4163661 -0.06004563 -0.33056957 -0.1863984
0.056847975 -0.23632397 0.38957807 0.19694649 0.032260284 0.23644465 0.013771166 -0.015223654
-0.01026179 0.44636866 -0.7073616 -0.17026153 0.07585172 0.76746273 0.06753956 0.032583892
-0.2940755 -0.06470416 -0.03241337 -0.3339925 0.009004196 -0.95589113 0.0097070215 0.40290925
0.015055057 0.08604319 -1.0137013 -0.35394803 0.2680151 0.010950996 0.04330835 -0.12109411
-0.077181764 0.028993674 -0.5292077 -0.27903086 0.176772 -1.022751 -0.26646107 -0.0063330084
-0.06307523 0.027381064 -0.15093091 -0.3804776 -0.4276378 -0.9846441 0.12802339 0.16645554
0.025496572 0.19353159 0.20127457 0.046445847 -0.03778424 0.14127353 -0.7171278 -0.24800432
-0.49735755 -0.03445584 -0.03999478 -0.060278617 -0.67043984 0.08798351 0.07709346 0.007819831
-0.28196988 -0.3007672 -0.034880664 0.0386129 0.062172495 0.0051411767 0.10472618 -0.14782605
0.08608653 0.014676618 -0.16959095 -0.031259194 -0.4703535 0.12702721 0.5787001 0.09065641
-0.067043565 -0.18581615 -0.62562037 -0.10190383 -0.10063967 -0.03443305 0.15616983 -0.1349224
-0.016446114 0.20253614 -0.005346507 0.17457606 0.0421399 -0.082883164 0.13905972 0.25071353
-0.18011057 -0.7407164 0.0649931 -0.8677838 0.068091825 0.12580463 0.00543695 -0.080769345
-0.5419216 0.064128466 -0.027956627 -0.08755882 -0.24594125 -0.009577862 -0.19564818 0.3217189
0.061005984 0.5452693 -0.034484353 -0.18578207 0.06266729 -0.60216147 -0.0017266158 0.15412062
-0.31431627 -0.016732035 0.18402375 0.36507162 -0.67748284 0.007322546 -0.14307721 -0.039663985
0.08996859 0.3126105 -0.2971772 0.66787314 0.08287945 0.03340071 0.08673232 0.17385967
0.26890084 -0.5155178 -0.16504046 0.1165615 -0.04097127 0.33207256 0.15521029 -0.11978214
0.30679792 0.05379861 -0.088158585 0.15310192 -0.051111083 0.016522236 0.010168355 -0.57905245
0.21943653 -0.0026884647 -0.3529929 0.53479356 0.47094893 0.21529165 -0.10823535 0.41104016
0.26238316 -0.5871093 -0.74850374 -1.2452374 -0.2577482 0.69298065 -0.144775 0.07189951
0.11816865 0.092341326 -0.21414372 -0.38345698 -0.1416984 0.27581608 0.23960383 0.15765855
0.005884637 0.088871785 0.3404839 0.13770452 -0.049973838 0.6506726 1.20007 -0.14221102
-0.06687368 -0.08264981 -0.114582166 0.16281317 -0.073564894 0.024884125 0.033429503 -0.022634238

instance_projector.2.bias f4 [20]
00000000: 6200 923e 51d3 6c3e ace8 3bbd c375 a83e
00000010: 671f afbe 1cc8 813e 3e5a 02bf b357 263f
00000020: 1165 ee3d cab5 813e 1d31 f2bd 2e95 ecbe
00000030: cb16 f33e b471 663f b989 33be e84c 97be
00000040: 4cf2 21be 1b06 a13e 2882 f83c 6455 9bbe
0.28515917 0.23127486 -0.04587619 0.32902345 -0.34203646 0.25347984 -0.5091895 0.6497757
0.11640371 0.25334007 -0.11825774 -0.46207565 0.47478327 0.9001725 -0.17533006 -0.29550862
-0.15815085 0.3144997 0.0303355 -0.30338585

cluster_projector.0.weight f4 [128, 20]
00000000: 4718 26be 5849 75bd 8658 203e 7032 9e3c
00000010: 1468 ea3d 4809 c73c 34ed 5cbe 40f2 6c3d
00000020: 6294 c4bd df70 18be 4712 dcbd e4ba 893d
00000030: d4a3 173e 50b2 4d3d 2ef7 dbbd b2b4 2cbe
00000040: 761d 99bd 0326 fcbd f0f1 383d 7e2e 2c3e
00000050: 3306 95bc d303 223e e249 8b3d b893 13bf
00000060: af60 d8be 900b 61bf a6a4 fc3e f0d7 20bf
00000070: e8a8 3c3f c411 53bd 8547 bc3c aee5 1a3d
00000080: 7ecb 85be 5eb4 f03c 92ca 093e 7e28 34be
00000090: 5b8e ecbe 4d3c b4be ed32 f9be 16cc 873e
000000a0: fc23 c6bd 9c3a 29be 68d5 0bbe a06f f8bb
000000b0: 6a05 06be f8f2 523d a00c 7fbd 085a 62bd
000000c0: 4da2 58be 8069 69bb f4cc 5ebd 74a0 12be
000000d0: 5c96 0fbd 9b15 37be eb62 28be 680b e53d
000000e0: 986e 31bd a416 66bd 5890 b1bd b84c 543d
000000f0: b463 a93d 486c 223f 84fc 37bf 0caf febe
00000100: 98f5 c4be 2846 59bf bca6 82be 562f 45be
00000110: 55dc 563e 4844 003d ab8d a6bc ba14 d6be
00000120: 259a 15bf 9a52 fcbd 7996 60bc 4763 f63d
00000130: cc7a 1bbf 6fcb 52bd be5c 86be 4810 25bf
00000140: 0331 43bd 8975 aabc dc39 b8bf 500c 4abf
00000150: 5c23 4ebf 9e22 b0be 2c54 0f3f c813 e4be
00000160: 62be 8ebe a0aa 51bd dd0e aabe c40f aabe
00000170: d6b6 d6be eda1 a4bc 04c7 983d c67b a6bd
00000180: 4f87 dabe add5 a4bd 8e9e 2f3f 83fb 503d
00000190: 3f63 0ebe 60f4 593e f5a1 61bf 742a a0bd
000001a0: 6f14 fbbd ab46 19bd bc51 08be 909c 52be
000001b0: bf31 2a3f a441 ef3d 1ea7 563e ce4e 8f3d
000001c0: 7894 3b3e 9b80 fcbd 1774 453e 0c68 c5bd
000001d0: 63b8 35bd d823 94be 0522 4c3d 57e1 3d3e
000001e0: 836f 54bd 405b 1bbe 5b62 8f3e d734 14be
000001f0: 2404 3a3f 0e0b 003f a321 99be a5d1 52be
00000200: 04fd d5bf e2b9 233e 48a6 52bf e165 073f
00000210: 70ff 3e3e 2f95 43bd 404a c5bd fbeb eb3d
00000220: 7b04 9e3e de9b 613c bbea 113f 3077 d03e
00000230: 8818 08bd 9d77 89be 1ace d53e 2b80 c63e
00000240: 896c b33e 0433 72be 8e38 e13e 1d5e 1fbe
00000250: cd69 6d3e 8887 88bd 8cf5 c3be a3e7 f0be
00000260: af8d 61bd dd77 973d 2c2f 57bd a32f 4bbd
00000270: c338 ddbe c50d fbbb 7ae0 40bb 140e 24bd
00000280: 0e97 39bb 3d1f c33e 4244 3ebe 2039 1bbf
00000290: 37be 60be 1adc a0bd 3ed1 a3be 0655 8bbd
000002a0: da9d dabc b094 7b3c f9cd cebe 0b9c 39be
000002b0: 5fab a4be db0f 57bd 3d6f 36bc a266 2e3d
000002c0: ba1a c1be 3c24 8abd 581a ae3d 25ed 62be
000002d0: 3a8e 9abe a38c 113f e99e aabf 659f 59be
000002e0: 828c 123f b028 c7bf b8ed 29bf 29ab ec3d
000002f0: e1e7 823e 3283 c3bd 2d17 4d3c 8ee1 093e
00000300: e5b3 403c 3099 18be 0962 1dbd cdfa 143e
00000310: 299a c23d fcba d63c 6c20 76bd bd93 38be
00000320: d305 36be e135 db3d 1a82 833e 3006 0d3e
00000330: 18d7 ae3e 817a 1a3f f784 b4bd 7608 6bbe
00000340: 25da 9d3e 50bc 40be fc02 97bf 7ec3 a3bf
00000350: 4cb2 adbf 9fb1 cfbe 7311 85bf 85c8 e1bf
00000360: 4477 90bf 0722 89bf 92ba 7dbf a677 8dbf
00000370: d45d c4bd ef6d e2bd 481a a9be 1c0b fd3d
00000380: 5e9f 113f d4c2 48be 476a 783f cd85 1dbf
00000390: 7d15 b83d ee63 3abe bef0 22bf e816 18be
000003a0: 462e 28bf c3e1 df3d 92af a5ba 1704 0bbe
000003b0: 3368 48be 8d30 bbbf 62fc 44bf 948b aebf
000003c0: 8c4c 8fbb bd5e 6dbd 0531 91bf f4c6 55bf
000003d0: 67be 013f 74c5 c6be 59eb ed3e 8b40 1dbe
000003e0: 78ae 28bf f367 46be 1631 02be ece0 fa3e
000003f0: 692c 8abd 475e 01be 120c 48bd 759e 183e
-0.16220199 -0.0598844 0.15658769 0.01931116 0.114456326 0.024296418 -0.21574861 0.057848215
-0.09598614 -0.14886807 -0.107456736 0.067251 0.14808589 0.05021888 -0.10740505 -0.16865805
-0.07476322 -0.12311938 0.045152605 0.1681461 -0.018191433 0.15821771 0.068012014 -0.57647276
-0.42261264 -0.8790827 0.49344367 -0.62829494 0.7369523 -0.051530614 0.022983322 0.037816696
-0.26131815 0.02938288 0.1345618 -0.17593572 -0.4620236 -0.35202256 -0.48671666 0.26522893
-0.09674832 -0.16526264 -0.13655627 -0.007581666 -0.13088003 0.051501244 -0.0622679 -0.05526164
-0.21155663 -0.0035615861 -0.054394677 -0.1431902 -0.035055503 -0.17879336 -0.16443984 0.11183816
-0.04331836 -0.056173936 -0.086701095 0.051830977 0.0827097 0.63446474 -0.71869683 -0.49742925
-0.38468623 -0.84872675 -0.25517833 -0.19256338 0.20982487 0.031315118 -0.020331224 -0.41812688
-0.5843833 -0.123204425 -0.0137077505 0.120306544 -0.6073425 -0.05146354 -0.26242632 -0.6447797
-0.047654163 -0.020807998 -1.4392657 -0.7892504 -0.80522704 -0.3440141 0.5598781 -0.44546342
-0.27879626 -0.05118811 -0.33214465 -0.33215153 -0.41936368 -0.020096743 0.07459834 -0.08129077
-0.42681357 -0.08048568 0.6860131 0.05102111 -0.13905047 0.21284628 -0.8813775 -0.07820597
-0.12259757 -0.03742091 -0.13312429 -0.20567536 0.66482157 0.11682442 0.20962188 0.06997453
0.18318355 -0.12329217 0.19282566 -0.09638986 -0.044365298 -0.28933597 0.04983713 0.18542992
-0.05186416 -0.15171528 0.28004727 -0.14473282 0.7266257 0.5001687 -0.29908475 -0.20587786
-1.6717839 0.15988877 -0.82284975 0.5288983 0.18652129 -0.047749694 -0.09633303 0.11519619
0.30862793 0.013770072 0.56998795 0.40715933 -0.03322652 -0.2684907 0.41758806 0.3876966
0.35043743 -0.23652273 0.4398846 -0.15563245 0.23184891 -0.066664755 -0.38273275 -0.47051725
-0.05506676 0.07395909 -0.05253522 -0.049605977 -0.43207368 -0.0076615536 -0.0029430673 -0.04005249
-0.0028318795 0.3810977 -0.18580726 -0.6063404 -0.21947561 -0.07854481 -0.31995577 -0.06803326
-0.026686598 0.015355274 -0.4039152 -0.18125932 -0.32161996 -0.052505355 -0.01113492 0.042578347
-0.37715703 -0.067451924 0.085011184 -0.22160776 -0.30186635 0.5685522 -1.3329746 -0.2125221
0.5724565 -1.5559292 -0.66378355 0.11556084 0.25567535 -0.09546508 0.012517733 0.13464949
0.01176164 -0.14902186 -0.03842357 0.14548798 0.0950206 0.026212208 -0.060089514 -0.18025108
-0.1777566 0.10703636 0.25685197 0.13771892 0.34148479 0.60343176 -0.088144235 -0.22952446
0.30830494 -0.18821836 -1.1797786 -1.2794034 -1.3570037 -0.40565202 -1.039595 -1.7639319
-1.1286397 -1.0713509 -0.9911281 -1.1052139 -0.09588209 -0.110561244 -0.33027864 0.123556346
0.568838 -0.19605571 0.97037166 -0.6153229 0.089884736 -0.18202183 -0.63648593 -0.14852488
-0.6569561 0.109317325 -0.0012640825 -0.13575779 -0.19570999 -1.4624192 -0.76947606 -1.3636346
-0.004373139 -0.057951678 -1.1343085 -0.83506703 0.50681156 -0.3882252 0.4646862 -0.15356652
-0.6589122 -0.19375591 -0.12714037 0.48999727 -0.06746752 -0.1263362 -0.048839636 0.14904197

cluster_projector.0.bias f4 [128]
00000000: c869 cb3d 08d7 9b3e dc18 31bd dafd 1e3f
00000010: 5f19 a73e 8d67 d53d 66e7 debd 05ba e8bd
00000020: a29e 2f3f ca81 de3e 3889 47be d740 133d
00000030: 2b19 e0be 43c1 03be ff7a 4e3f bf45 043f
00000040: 3989 623e 4bcb c63e 563b 563d 720e 213d
00000050: b439 a33d 7b59 29bd 1934 1cbe 732c e7bc
00000060: 3ddc e8bc 5a01 983e 4bf6 19bc 2f42 223f
00000070: 1cbe 49be 22fd 17bd d3c1 733f 06e2 083f
00000080: 2315 3bbe c559 5a3f 5c5e 33bd 0bcb 033f
00000090: aff4 0d3f 27d1 553e 4e88 e93d 1943 da3c
000000a0: b669 0abe f050 0d3f 60f4 37be bd33 01bf
000000b0: 9458 f0bd 2a0a 193f c284 a7be 46df 0bbe
000000c0: 4af3 3bbe da73 d6bd 28ff 483d 11e3 553e
000000d0: a24f d5be ebe2 67bd df77 ff3e 6af9 223e
000000e0: 1a29 163f f0c9 c2bc e96a a93c f099 ce3c
000000f0: 5280 a3be 2716 db3e c0fb 333c 6295 7ebe
00000100: 5e18 2cbf 2b5a 073f 650b 1e40 7d5f 743e
00000110: 8439 60bd 7aab 8f3e 30ef e1bc c445 1a3f
00000120: cd2c 03be 5183 2abe 46cf 533e 67c9 823d
00000130: 47f4 26bf f643 08be c86e cf3d 94e0 c93f
00000140: 0c82 153f 8a7b 81be 78f1 843e 1f68 1b3e
00000150: 09d6 62be be9d c63d afcd c6bc 9749 95bb
00000160: dd48 343f 13c9 0d3e 298f 113d d6c0 a23d
00000170: a8f3 fe3e 6034 373f 13ff 66be ed53 0abf
00000180: 5f63 213f 0c7f 51be 4541 24be 8fbe 573e
00000190: 6b70 76be b05d d9bc 4062 3e3b c5d3 31bd
000001a0: ad2f 733e 0f29 1e3e 4cb0 3a3f 3dc0 c0bd
000001b0: 9134 34be 0172 753e 5283 05be 6579 f1bd
000001c0: b55f 1d3e 4cd3 0dbe 74e2 b33e 156d 83be
000001d0: fd24 a23e 0bb2 583f d862 823d 3fd9 d73e
000001e0: 842a 343d 1ac8 34be 2582 e8be 1bd2 2abe
000001f0: fa0e bbbe 1cd9 99be d4e5 f7bd a8cb 6fbe
0.099322855 0.30437493 -0.0432366 0.62106097 0.32636544 0.10420141 -0.108839795 -0.113636054
0.6860143 0.43458396 -0.19485939 0.035950508 -0.43769202 -0.12866692 0.8065643 0.51668924
0.22122659 0.38826975 0.05230268 0.039320417 0.079699904 -0.0413451 -0.15254249 -0.028219437
-0.02842533 0.2968853 -0.0093971 0.6338224 -0.19701427 -0.03710664 0.9521763 0.53469884
-0.18269782 0.8529323 -0.04379116 0.51481694 0.5545148 0.20880567 0.11402951 0.026643323
-0.13516888 0.55201626 -0.17964315 -0.5046957 -0.11735645 0.59781134 -0.32718474 -0.13659391
-0.18354526 -0.10471316 0.04907146 0.208874 -0.41662318 -0.05661289 0.49896142 0.15915456
0.58656466 -0.023777932 0.020680862 0.025219887 -0.31933838 0.42790338 0.010985315 -0.24861673
-0.6722468 0.5287196 2.4694455 0.23864551 -0.05474235 0.28060514 -0.027579874 0.60262704
-0.12810059 -0.16651656 0.20684537 0.06386071 -0.6521649 -0.13307175 0.10128552 1.5771661
0.5840156 -0.25289565 0.25965476 0.15176438 -0.2215196 0.09698056 -0.024268 -0.0045558917
0.7042368 0.13846235 0.03553692 0.07946937 0.4979527 0.7156429 -0.2255824 -0.5403431
0.63042253 -0.20458621 -0.16040523 0.21068786 -0.24066322 -0.026533931 0.002905026 -0.04341485
0.23748656 0.1544535 0.7292526 -0.094116665 -0.17598177 0.2396927 -0.13038376 -0.11790732
0.1536854 -0.13850135 0.35133708 -0.2566916 0.31668845 0.8464667 0.06366509 0.42157933
0.04398586 -0.17654458 -0.45411792 -0.16681711 -0.36534864 -0.30048454 -0.12104383 -0.23417532

cluster_projector.2.weight f4 [50, 128]
00000000: a006 e13c 871d 1dbe e64e 69bd 6918 983d
00000010: 3d0f b93d 5d8c 303e 8fed 793d add5 7abe
00000020: 560d 8a3e f98a 3d3e da2a 0abe 444f 6dbe
00000030: 9907 cebe 9ab2 94bc 39b1 a43e 4d74 233e
00000040: 02e0 803e cbca 7d3e 0bda 17bf f6ed e23c
00000050: 2a56 1cbd eff7 e7be 4539 c4bd e8fd 9c3e
00000060: 6c78 873e 64a8 963e 97fc cebd bb96 803e
00000070: d719 643e 66c3 1cbf 6433 853e 0c61 f23e
00000080: 4c90 3bbd af8f e33e 0254 64be a6ba b43e
00000090: c6a6 b13e 668f 353e 9b45 5a3e 7415 bcbe
000000a0: f287 abbd 5bcf 303e 7057 cfbc a199 cfbf
000000b0: e16f 24be 4e7f ef3e cb68 31bf ab21 39bf
000000c0: e26a 88bf 2ad3 083f 08e0 02bc 557b 113e
000000d0: b688 f5bd 9d77 383e 3cb2 ad3e 58fd 973f
000000e0: 9147 c33d 0022 1fbc 3f8c 363f 7cd4 b83c
000000f0: ac1d a43c 864e 843d aaab 293d ef8e 5abe
00000100: a06f d43c 2b5d 1d3e 5526 52bb 31ac 693e
00000110: 0baa 47be 234f 323e ee5d 8fbd 3396 203e
00000120: 6a59 243e 0a49 a73e b22b acbc eb22 a93d
00000130: 0b3e adbd 6a75 9a3c ab5d 863d 61e4 5dc0
00000140: d3a4 983e 3759 d33e ab10 4d3e da9f 3bc0
00000150: 48e0 acbc e1fa 41c0 cd28 7f3d 7d3d 493d
00000160: 0f1b da3e c1ab 46be 6791 603d 46eb 94bd
00000170: 9744 963e a3a5 07be 780a 123e 2c05 73be
00000180: 1e75 713e 4272 a0bd ce0b 7d3e 40be 7f3e
00000190: a3dd fbbc bbb1 a8bd 0067 5eba 72b0 5a3e
000001a0: 3a2a 89bf f1ec a13e 7c7f 263f c077 4cbe
000001b0: e963 febc 30c8 28bc 317e 033d 28cb 533e
000001c0: d6fc 253d 7332 afbf 9019 c23d 88c6 5f3f
000001d0: d980 733e 0d9d e13e d5da 39bd 36ba e53e
000001e0: f0e5 40bc 9731 30bf 45e8 4ebf 147d fc3e
000001f0: 4df3 d5bc d692 3e3d 8848 ae3c 35ff 3b3e
00000200: 2864 9a3c f789 93ba a271 323d ef31 86bc
00000210: 6ef6 c2be 7323 823d fe7d 28c0 6867 003e
00000220: 3bb8 d8be 9f2a 203e feaa 93bf 43d0 ed3d
00000230: 1a5f 77c0 61b0 90bf 5e9a 48bd 3afd 59c0
00000240: 20cc 32c0 02e8 47bf 8a3a 3ec0 f3dc 0fbf
00000250: 5e98 603d ee28 96bd 46b1 80c0 4198 e0bd
00000260: 1993 123e be27 29be ad72 d9bf 2d5d 383d
00000270: 7aa0 c43e 777a 16bf db8a 55bf 8d31 113f
00000280: d2ff 52bd 2335 45be 7eaf 6abf ee64 afbc
00000290: 1860 113e 7db5 b13e dd0f a9bf 06de 59bd
000002a0: 8c75 8e3c ef99 c2bd 4e0c a8bd b583 5ec0
000002b0: dbc5 f9bf a1f4 8fbc 2628 e73e bb0e eebf
000002c0: 616b abc0 65a4 5bbf 70e9 ff3c de0f fabe
000002d0: faf8 a7bf 4639 10bd aa06 403d b81b d0bd
000002e0: c4bd 103d ff18 38bd ee23 783d 16a8 91bd
000002f0: 2187 b2be ecee 19be c071 9eba c0ad 13bf
00000300: f8a5 4ebd 6536 b83d abae 223f 02dd 8bbe
00000310: 9287 eabe cd22 ab3e 7f72 48bd e13d c73c
00000320: 6c91 b73d 3931 99c0 dc57 bdbd 7e91 463e
00000330: 973c 05bf 327d bd3d 6ac5 2a3d f5a7 343e
00000340: 061b 79be 7847 233f 99fe d73d a4fc b43e
00000350: 79f2 15bd 6957 693e 40ca 0bbe fecf 12be
00000360: 85c5 dc3c 5498 fb3d c0a5 813d 7325 6ac0
00000370: d2aa 29be 1209 26be 2c2c e43e bcbb 26bf
00000380: 0d97 433e 6bbd 803d 22ec 14c0 6f69 e3be
00000390: a7d2 813e 18ac 7cc0 62ef 6dbd 485a 623e
000003a0: ecb8 62bf 61ba 633f d6f5 83bf 4efd ab3d
000003b0: 4067 e9bf 0751 33bf beb7 afbd 522c 183e
000003c0: a2e2 a9bc 7539 bdbe 3a27 3ec0 0f62 7d3e
000003d0: 396e b43d a861 33bf 7858 cabc 72ac 25be
000003e0: c429 9c3f c0e8 a3c0 d405 993d aa8a ebbe
000003f0: 889b d63d ede0 c3be cf80 043f 1bf1 843e
0.02746898 -0.15343295 -0.05696001 0.07426531 0.090361096 0.17241044 0.06101757 -0.24495573
0.269633 0.18510045 -0.13492909 -0.23174769 -0.40240172 -0.01815157 0.3216646 0.15962334
0.25170904 0.2478439 -0.5931708 0.02770136 -0.03816811 -0.45306346 -0.09581236 0.30662465
0.26459062 0.29425347 -0.101067714 0.25114998 0.22275482 -0.61235654 0.2601577 0.47339666
-0.04579191 0.4444556 -0.22297671 0.3529865 0.3469755 0.17730483 0.21315615 -0.36735117
-0.08375539 0.172666 -0.025310248 -1.6218759 -0.16058303 0.46776813 -0.69300526 -0.72317
-1.0657618 0.5344721 -0.0079879835 0.14207204 -0.11988966 0.18014379 0.33925045 1.1874189
0.095351346 -0.009712696 0.7130775 0.022562258 0.02003368 0.0646029 0.041423477 -0.21343587
0.025932133 0.15367572 -0.0032066305 0.22819592 -0.1949846 0.17413001 -0.070003375 0.15682296
0.16049734 0.32672912 -0.02101693 0.08258613 -0.084590994 0.018854816 0.065608345 -3.4670641
0.2981325 0.41279003 0.2002589 -2.9316316 -0.02110304 -3.0309374 0.06229477 0.049130905
0.4259877 -0.19401456 0.054826166 -0.07271437 0.29349205 -0.13246779 0.14261806 -0.23732442
0.23579833 -0.07834293 0.24711534 0.24974918 -0.030745333 -0.082370244 -0.0008483976 0.21356371
-1.0716012 0.31626084 0.65038276 -0.19967556 -0.0310535 -0.010301635 0.032102767 0.20682967
0.040524326 -1.3687271 0.09477532 0.8741231 0.2377962 0.44065133 -0.04537471 0.4486863
-0.011773571 -0.6882567 -0.80823165 0.49314177 -0.026116991 0.046526752 0.02127482 0.18359073
0.018846586 -0.0011256327 0.0435654 -0.016381232 -0.38078636 0.06354418 -2.63269 0.12539446
-0.42328057 0.15641259 -1.1536558 0.116119884 -3.8651795 -1.1303827 -0.04897534 -3.4060807
-2.7937088 -0.7808839 -2.972323 -0.56196517 0.05483281 -0.073320255 -4.02164 -0.1096654
0.14313926 -0.16519067 -1.6988121 0.045010734 0.38403684 -0.58780617 -0.83415 0.56716233
-0.0515135 -0.19258551 -0.9167403 -0.021410432 0.14196813 0.34708777 -1.3207966 -0.053190254
0.017390035 -0.09502017 -0.08205472 -3.4767888 -1.9513506 -0.017572703 0.45147818 -1.8598245
-5.356858 -0.8579772 0.031239241 -0.4884023 -1.3122857 -0.03521087 0.046881355 -0.10161537
0.035337225 -0.044945713 0.06058114 -0.07112138 -0.3486872 -0.15032548 -0.0012088344 -0.57686996
-0.05045125 0.0899475 0.6354777 -0.27317053 -0.45806557 0.33424988 -0.048937317 0.024321498
0.08963284 -4.7872586 -0.092452735 0.19391438 -0.5204558 0.09252395 0.041692175 0.17642196
-0.24326715 0.6378093 0.105466075 0.35349 -0.036608193 0.2278725 -0.13651371 -0.14337155
0.026949653 0.12284914 0.063304424 -3.6585357 -0.16569069 -0.16214398 0.4456495 -0.6513021
0.1910059 0.062861286 -2.3269124 -0.44416377 0.25356027 -3.9480038 -0.05808962 0.22104752
-0.8856342 0.88956267 -1.0309398 0.083979234 -1.8234634 -0.7004551 -0.08579968 0.14860657
-0.02073795 -0.369579 -2.9711442 0.24744438 0.08810086 -0.70070887 -0.024700388 -0.16179064
1.2200246 -5.122162 0.07471815 -0.4600423 0.10478884 -0.38257542 0.51759046 0.259652

cluster_projector.2.bias f4 [50]
00000000: 7fd5 dc3e 10f1 86be e448 313e a294 b03e
00000010: bdda 763e 775d e8be 2fb4 e5ba 848a 64be
00000020: afc8 523e bc6a 763e 8ff1 2d3e ab12 11be
00000030: 8d07 663e ede7 3ebe bc0e b8be 1f58 da3d
00000040: 1974 8a3c 8e69 4f3e f5fa a43e 162c 62be
00000050: 67e9 30be 7c6e ab3e 816e 24bc e83d 143e
00000060: a512 56be d9a0 ef3e f6f1 c4bd 8de7 463d
00000070: d260 6d3e 674c 0d3e 5623 36be 5994 b1bd
00000080: 302b ae3e f01a dd3e 5567 c63e 625f aa3d
00000090: 1641 ae3e 8cf5 cc3e 17d4 e63d 4c36 0ebe
000000a0: 5593 c3bd 77c3 693e 3200 503e c346 c9bb
000000b0: 8183 78be 2521 243e 9b0d 6ebe 783c 44be
000000c0: 5fe8 373f 989f c13c
0.43131635 -0.2635579 0.17312962 0.34488398 0.2410688 -0.45383808 -0.0017525012 -0.22318465
0.20584367 0.24064153 0.16986679 -0.14167278 0.22463818 -0.1864316 -0.3594874 0.10661339
0.016901063 0.2025511 0.32222715 -0.2208713 -0.17276536 0.3348273 -0.010036112 0.1447674
-0.2090555 0.46802405 -0.09616463 0.048560668 0.23181465 0.13798676 -0.17786917 -0.08670873
0.34017324 0.43184614 0.3875071 0.08318974 0.34034032 0.40031087 0.11270922 -0.138879
-0.09549586 0.2282847 0.20312575 -0.0061424687 -0.24268915 0.16028269 -0.23247378 -0.19163692
0.71838945 0.02363567

exp_avg f4 [128, 20]
00000000: f84e 4b3f 5477 433e da5e 843c 28dd f63d
00000010: d8a1 f63d 9c01 b63d 44be 263d 9c4b a53d
00000020: aac4 c63d 0000 0000 a679 3a3c 720d 6b3c
00000030: 5cee 6b3c df0f a73d 4d2a ad3d fa67 a93d
00000040: 218d 6b3c 17d9 363c ab04 e03b 53fa 5f3a
00000050: bd66 dc3b 1295 19bb 88bc 94bc 1fd3 1bbc
00000060: d11f 90bb 8b28 a63c 9f87 a13b 1d4d 5a3c
00000070: 19c2 04bd 0000 0000 42be fb3a 45a2 233a
00000080: d42e 6a39 54f9 32bb 551c f6ba 6327 0bbb
00000090: 9029 c939 c422 1d39 9bc5 1039 9217 b4b9
000000a0: ec1e 523f 7442 e73d aadf f83b eba6 143b
000000b0: f0ba 913b 1bb1 c43d 44fe d93d 99fe b43d
000000c0: 4056 fb3a 0000 0000 3bac 723b 6175 513c
000000d0: a4f3 4c3c 3431 0542 6837 0542 cf33 0542
000000e0: c1c9 513c 242f 743c 9f87 deb9 0e18 843a
000000f0: 7440 a539 a84b 1738 ae8e 00bb 80aa a9b9
00000100: 3309 4a38 ecbc 4ab9 f253 2fb7 7ce3 10b9
00000110: 001d 1c38 0000 0000 7d43 c7b7 5d82 1539
00000120: 4ee3 1939 01b9 4abb a7a8 43bb 695b 47bb
00000130: f2eb 1c39 c7a1 1839 e1d1 ef38 6af0 ab38
00000140: a0cd a9bd d63f 8dbc f011 64ba b644 53bc
00000150: f649 63bc 20bc 8b3b 976f c039 8d51 823b
00000160: 2213 afbc 0000 0000 b8ed 14b8 f68e b7ba
00000170: 65f9 afba 0329 0bc1 0d26 0bc1 1528 0bc1
00000180: 78bd b5ba daeb e639 028a bf38 b8ae cf37
00000190: db9a 69bc c334 cd3a a8a4 2e3b 24e5 a43b
000001a0: 4e20 ba3b 9626 423a 3851 40bb d0c3 b0b8
000001b0: 9f24 183b 0000 0000 ef82 f3b9 a2ac d7b9
000001c0: 71e8 d2b9 f10d 3540 750e 3540 b80d 3540
000001d0: 5c91 d0b9 3749 a839 72c9 6939 1202 b5b8
000001e0: c602 c2be 3fa1 5abd 2fca 5dbc b2b2 10bd
000001f0: ac9a 1ebd 1a40 60bc 4321 abba 6427 92bc
00000200: 8b5e 09bd 0000 0000 e312 bcbb 1b3b 39bc
00000210: f1c1 3bbc 1c11 f5bc c063 f3bc 54ef f3bc
00000220: 048e 3bbc 634f 3dbb e197 40bb db0f ebba
00000230: 2597 133d 6aa4 893c 7559 543c 3569 9fb9
00000240: 026d 143c 85a0 db3c 37e2 5a3c b040 f93c
00000250: 35d2 97bc 0000 0000 7518 603b 1182 7f3b
00000260: 2405 813b ad9d 2241 4b9f 2241 fb9d 2241
00000270: de39 803b 75de 243b daeb 293b 8d5c 9a39
00000280: 67fc 94bd dd1c 833c fcd1 48bc e83d 0dbc
00000290: 464c 1bbc 1fec 4e37 1bb4 5438 e091 b03c
000002a0: b64d d938 0000 0000 df28 d23b 5abe fa3b
000002b0: bb91 fb3b e74b 63c1 b93c 63c1 a141 63c1
000002c0: 1fe6 003c e70d fc3b 0232 853b 7f44 0d3a
000002d0: a164 8f3e b342 193d c919 cb3a 01f3 b03a
000002e0: b54f 793b 4fd2 ad3c c153 d23c e4d3 ca3c
000002f0: 259e 2a3b 0000 0000 d988 c83b 49c8 d03b
00000300: 0206 cf3b e2da 8b40 1ae5 8b40 04e2 8b40
00000310: 1cbc ce3b 1866 1d3b 4302 8239 c2bb 2839
00000320: 6262 e9bd ada5 91bc 0121 98bb c678 92bb
00000330: f19e 61bc 1d57 f5b9 8dba 66ba b26b 90bb
00000340: 1423 89bc 0000 0000 e105 3bba 3d87 54bb
00000350: b077 60bb 6738 e8bb a800 02bc 81da fcbb
00000360: 9b08 64bb 7dbb 28bb 129f 1cbb 37fb c8ba
00000370: dec4 b33f 4bee d33e 7d2c 1c3e ceae 9a3e
00000380: 31cc a13e dbaf 8c3d 647c 2e3d 4db4 b73d
00000390: a741 ba3e 0000 0000 0ed3 bf3c 4629 323d
000003a0: 23b5 3e3d e98b ab42 7c88 ab42 038a ab42
000003b0: bc21 383d 9e1c 9a3c a74f a43c 1b6b 123c
000003c0: cca0 5fbf 65ae 14be 0400 0000 0400 0000
000003d0: d982 81b9 69d0 cdbd b2f1 06be 52e3 bdbd
000003e0: e56c eaba 0000 0000 06fa bdbb f614 47bc
000003f0: 0a57 44bc eb36 acbd c629 b2bd 841c b1bd
0.7941737 0.19088489 0.01615851 0.12053901 0.12042588 0.08887026 0.040708795 0.08071062
0.097054794 0.0 0.011381542 0.014346467 0.014400091 0.08157324 0.08455334 0.08271785
0.0143769095 0.011160157 0.006836494 0.0008544076 0.0067261145 -0.00234348 -0.018156305 -0.009510784
-0.004398324 0.020283004 0.0049294974 0.013324049 -0.03241167 0.0 0.0019206482 0.00062421366
0.00022333424 -0.0027309256 -0.0018776754 -0.0021233193 0.00038368674 0.00014985638 0.00013806524 -0.00034349837
0.82078433 0.11291972 0.007595022 0.0022682499 0.0044473335 0.09604093 0.106442004 0.08837623
0.0019175485 0.0 0.0037028927 0.012784333 0.01250926 33.29805 33.304108 33.300594
0.01280445 0.014903817 -0.00042444185 0.001007797 0.00031519274 3.6071666e-05 -0.0019616294 -0.00032361224
4.816912e-05 -0.000193346 -1.0450358e-05 -0.00013817655 3.7220307e-05 0.0 -2.3754075e-05 0.00014258311
0.00014675895 -0.0030933025 -0.0029855163 -0.0030419475 0.00014965216 0.00014556116 0.00011435501 8.198696e-05
-0.08291173 -0.017242353 -0.00087001827 -0.0128948 -0.013872614 0.0042643696 0.00036704235 0.0039770068
-0.021371428 0.0 -3.5507343e-05 -0.0014004398 -0.0013425766 -8.697513 -8.69679 -8.697286
-0.001386567 0.00044044742 9.133296e-05 2.4757683e-05 -0.014258112 0.0015655983 0.0026648436 0.0050321985
0.0056801206 0.00074062624 -0.0029345285 -8.428807e-05 0.0023215187 0.0 -0.00046446125 -0.00041136617
-0.00040227504 2.828976 2.8290074 2.8289623 -0.00039781153 0.00032098006 0.00022295656 -8.631138e-05
-0.3789274 -0.053376433 -0.013536974 -0.035326667 -0.038721725 -0.013687158 -0.0013056177 -0.017841049
-0.03353743 0.0 -0.005739556 -0.011305596 -0.011459813 -0.029915385 -0.02971065 -0.029777206
-0.011447433 -0.002888643 -0.0029387402 -0.0017933802 0.036032815 0.016802032 0.012960781 -0.0003040523
0.009059193 0.02680994 0.013359598 0.030426353 -0.018532852 0.0 0.0034194265 0.0038987438
0.0039373804 10.163495 10.16389 10.163569 0.0039131483 0.0025157009 0.0025927932 0.00029442125
-0.072747044 0.016004974 -0.012257095 -0.008620717 -0.009478634 1.2333533e-05 5.0712475e-05 0.021553934
0.00010361841 0.0 0.0064135636 0.007652086 0.0076772845 -14.206031 -14.202325 -14.203523
0.007867365 0.007692087 0.0040647993 0.000538893 0.2800646 0.037417125 0.0015495355 0.0013500155
0.0038041894 0.021218447 0.025674703 0.02475924 0.0026034203 0.0 0.006119829 0.006371532
0.006317855 4.370469 4.3717165 4.37134 0.0063090455 0.0024017151 0.00024797217 0.00016091674
-0.11395718 -0.017779196 -0.0046426062 -0.0044699637 -0.013770805 -0.00046794946 -0.0008801602 -0.0044073695
-0.01674036 0.0 -0.000713436 -0.003242924 -0.0034251027 -0.007086802 -0.007934727 -0.0077164774
-0.0034795168 -0.0025746517 -0.0023898524 -0.0015333657 1.4044454 0.4139274 0.15251346 0.3021149
0.31601098 0.06869479 0.042599097 0.089699365 0.36378214 0.0 0.023416068 0.043496393
0.046559464 85.77326 85.76657 85.769554 0.044954047 0.018812474 0.020057512 0.008936669
-0.8735473 -0.14519651 6e-45 6e-45 -0.00024702286 -0.10049517 -0.13178137 -0.092718735
-0.0017885236 0.0 -0.0057976274 -0.012150994 -0.011983642 -0.08408912 -0.08699374 -0.08648017

exp_avg_sq f4 [128, 20]
00000000: bb86 3242 80f2 2340 80e7 153d 06f3 2a3f
00000010: 7818 253f 18c8 f93e 4587 bf3e b13b fa3e
00000020: c5df 2e3f 0000 0000 50e1 d33b 9b43 533c
00000030: 5739 573c aa99 973f 0104 943f b75f 953f
00000040: ac99 543c c270 b63b ba70 553b 812e bc37
00000050: 7ecc 8840 e511 ba3e b672 633c f475 453e
00000060: 8fe2 403e b40d 313d aa5e 293b d33c 3c3d
00000070: 4d1a 393e 0000 0000 55bb bc3a f03b c23a
00000080: d2a9 cb3a 224e b83e d4a4 b33e 2707 b53e
00000090: 3308 c63a a7f8 023a 8a59 603a cf61 3f37
000000a0: a3a5 cd41 e1b5 683e 94dd 3d3b e2ec 983b
000000b0: 3061 f03b f213 203d 6b47 cc3d 111d 833d
000000c0: 3202 973c 0000 0000 9975 5d3a 66f9 5e3b
000000d0: 4693 743b 3aba 7447 06bd 7447 7dba 7447
000000e0: 68b3 713b e2f8 4b3b 05d1 913a b615 133a
000000f0: d52f 593b e69e 533a 26b7 0939 6990 d039
00000100: 4337 ad39 65c5 503a c022 1c36 07fd 503a
00000110: e940 7b33 0000 0000 cbd5 a037 06f6 af36
00000120: ce87 bd36 5bb0 6f3a 9426 6b3a 9b95 6b3a
00000130: 2ad7 b636 1812 d337 4cc4 5c37 11d7 b234
00000140: 45a4 8b3e ec86 c13c f8e3 0e38 7552 313c
00000150: 2ab5 2e3c c532 2c3b a22e 3c37 fca8 383b
00000160: 8ec2 243c 0000 0000 3fef c438 99b2 0139
00000170: b9d5 0439 9855 bb45 1d52 bb45 8354 bb45
00000180: 7994 0239 fa32 2638 f51e 8c38 95c7 1f35
00000190: 4be3 733e 38d3 003c 2db5 9938 7e02 4a3a
000001a0: a384 873a 0f82 153b 5040 063b 97e4 2e3b
000001b0: f612 543a 0000 0000 b724 5538 cc4f a838
000001c0: daef a938 3ec8 c044 2bc8 c044 43c8 c044
000001d0: 944d a838 8b01 2238 5f28 8837 5dda 4735
000001e0: e08e f33f 020f c33d b623 b33b 57c4 283d
000001f0: b7be 573d f797 e23b 5246 8e39 b54a 013c
00000200: b69c 483d 0000 0000 0bf9 f439 7f32 e03a
00000210: f6a1 e73a b865 123d 8910 0c3d 5e2b 0e3d
00000220: 88b0 e53a d90a 5339 1f92 af39 bded 3b38
00000230: 574a fb40 5283 e83e 4c32 163c 1e8a dc3d
00000240: 0d39 fc3d a212 ad3d 1299 783d f782 aa3d
00000250: e77f ea3d 0000 0000 cfd7 933a adbd 1f3b
00000260: 0352 223b 1f2e e247 292c e247 722d e247
00000270: 662f 203b 4e6c 713a c6f9 163a c63d 6b36
00000280: 57e4 1741 532b fc3d c736 a73b 327d 993b
00000290: 1167 083c be31 0336 3382 1736 9c3b bb3c
000002a0: 0e8a a33c 0000 0000 8769 293c ea09 db3c
000002b0: 1d35 db3c ce35 9346 8d39 9346 e936 9346
000002c0: 2a96 dd3c 2f91 313b 0d08 d63a 78b2 783a
000002d0: c193 f73f a8d0 ce3c 3711 4d39 7d7c 7d39
000002e0: 3c70 003a 6c62 043c 3f50 5b3c 628a 343c
000002f0: 0339 263a 0000 0000 e88f 033a ec7e 883a
00000300: e705 813a d0e9 8b45 c6ea 8b45 5ee9 8b45
00000310: 1c31 843a fa12 c338 2978 a035 2118 bb35
00000320: acde 863e ac81 0b3c 56e3 913a ec04 393a
00000330: 35db 8a3b cb89 9e36 a7c7 6437 f77d 983a
00000340: 2bb2 b43b 0000 0000 3779 3a3a 355f 463a
00000350: 9314 523a c6e2 f63a d56a 063b bce3 033b
00000360: 6ba5 4e3a 1ed6 1839 ea99 ee38 5e20 6c38
00000370: c6d6 ae41 0f16 fe3f 21a3 653e 72f1 803f
00000380: 913b 9f3f 9bf9 3f3e 6fb7 0c3c 3eee 623e
00000390: e27f 8b3f 0000 0000 f717 0a3c fc96 a53c
000003a0: 3a13 ae3c 4dc7 cf48 aec4 cf48 d7c6 cf48
000003b0: e538 aa3c f6d7 5e3b 1a61 ab3b ecd8 a739
000003c0: f12b 8d41 5d3d 013f 0794 3d34 37dd cc34
000003d0: b680 a037 bff0 8b3e 5f3f ec3e 9919 6a3e
000003e0: 2709 7639 0000 0000 f182 753a c33c 963b
000003f0: 5107 943b 795d 9a43 6f5d 9a43 bf5b 9a43
44.631573 2.561676 0.03659773 0.66777074 0.6449046 0.48785472 0.3740789 0.48873666
0.68310195 0.0 0.0064660683 0.012894536 0.0131362295 1.184377 1.1563722 1.1669835
0.012976091 0.005567641 0.003256841 2.2433002e-05 4.2749624 0.36341777 0.01388233 0.19283277
0.18836425 0.04322596 0.0025843778 0.045956444 0.18076439 0.0 0.0014399091 0.0014818888
0.0015538281 0.3599711 0.3508669 0.3535702 0.0015108645 0.00049961585 0.0008558264 1.140726e-05
25.705877 0.22725631 0.0028971182 0.0046669105 0.0073358044 0.03908152 0.099745594 0.06402028
0.018433664 0.0 0.00084480044 0.0034023165 0.0037319227 62650.227 62653.023 62650.49
0.0036880616 0.0031123688 0.0011124915 0.000561084 0.0033140082 0.0008072689 0.00013133566 0.00039780446
0.00033038305 0.00079639844 2.3266039e-06 0.00079722743 5.8499527e-08 0.0 1.9173041e-05 5.2440473e-06
5.6484487e-06 0.00091434055 0.0008970287 0.00089868315 5.449071e-06 2.5161586e-05 1.3158726e-05 3.3311565e-07
0.27273765 0.023623906 3.406775e-05 0.010822882 0.01066331 0.0026275378 1.1216531e-05 0.0028176894
0.010056151 0.0 9.390571e-05 0.00012368931 0.00012668119 5994.699 5994.264 5994.564
0.00012453076 3.962496e-05 6.6814864e-05 5.9522546e-07 0.23817174 0.0078628585 7.329355e-05 0.000770606
0.0010339211 0.0022813117 0.002048511 0.0026686543 0.00080899836 0.0 5.081735e-05 8.0257276e-05
8.103224e-05 1542.2576 1542.2552 1542.2582 8.025314e-05 3.8625247e-05 1.6231263e-05 7.445104e-07
1.9027977 0.09524347 0.0054669036 0.04120287 0.052672114 0.0069150883 0.00027136743 0.007891347
0.048977576 0.0 0.00046724858 0.0017104893 0.001767217 0.035741538 0.034195457 0.034709327
0.0017523924 0.00020126569 0.0003348747 4.4805685e-05 7.8528247 0.4541269 0.009167265 0.10768531
0.12315569 0.084508196 0.060692854 0.08325761 0.11450177 0.0 0.0011279526 0.002437453
0.002476812 115804.24 115800.32 115802.89 0.0024442314 0.0009209559 0.0005759265 3.5053686e-06
9.493247 0.12312951 0.0051029655 0.004684114 0.008325354 1.9549475e-06 2.257654e-06 0.022855572
0.01996329 0.0 0.010340101 0.026738126 0.026758725 18842.902 18844.775 18843.455
0.027049143 0.0027094593 0.0016329304 0.0009487043 1.9341966 0.02524598 0.00019556737 0.00024174336
0.0004899537 0.008080106 0.013385831 0.011019321 0.0006340893 0.0 0.0005018697 0.0010413802
0.0009843678 4477.2266 4477.3467 4477.171 0.0010085437 9.301859e-05 1.19559e-06 1.3939608e-06
0.2634176 0.008514803 0.0011130373 0.00070579234 0.0042375573 4.724808e-06 1.3636344e-05 0.001163422
0.0055144033 0.0 0.00071133993 0.00075672875 0.000801393 0.0018835894 0.0020510454 0.0020124754
0.00078829256 0.00014575614 0.00011377393 5.629693e-05 21.85487 1.9850482 0.2242551 1.0073683
1.2440053 0.1874756 0.008588656 0.22161195 1.0898402 0.0 0.008428565 0.020213597
0.021249402 425530.4 425509.44 425526.72 0.020779083 0.0034003234 0.0052300813 0.00032014342
17.646456 0.5048426 1.7655849e-07 3.8158916e-07 1.9133422e-05 0.27332112 0.46142098 0.22861327
0.00023463798 0.0 0.000936552 0.00458488 0.0045174737 308.73026 308.72995 308.71677

exp_avg f4 [128]
00000000: 2614 443e 509d d6ba b9e9 e83d a84b 1738
00000010: 9ba4 8ebc 7605 f73a 4071 60bd e398 a63c
00000020: c878 b13c be3f 193d 6c19 9ebc 2970 d63e
00000030: 5db5 14be d513 f9bd a1b5 e9bd 1b8f de3a
00000040: c007 86bd 951b fd3b 8570 32be d010 24bc
00000050: 5132 6dbb 55d7 1cbd 0d68 e33d 7cba 073c
00000060: 0000 0000 4fb0 b6bc 0000 0000 c2f0 f03c
00000070: 38bb ef3c 0000 0000 9409 7cbc 371a 9abd
00000080: f1fd 63bd 60cd 10be 49ef 063c d99f 91be
00000090: e435 4737 9682 a83c cb49 5e3d e957 02bc
000000a0: 3bad b1bd 405d 0cbd 0000 0000 342b 033b
000000b0: 5c41 093c 186c 1bba e81a b2bd a525 213d
000000c0: 4af2 6ebc 39b1 a1bb 6132 ca3a b2ee f5bc
000000d0: 13ec b2bc cb8a cfbc 92e9 bc3a f71f 55bd
000000e0: d71e 24bd 8cf8 6ebb 7412 773a d4b3 953d
000000f0: 04b7 d73d ddc7 73bc 208b 8a3b 91a1 07bc
00000100: 2d82 b8bc e8fc d53c 464f a6bd 2dec 98bd
00000110: 0000 0000 4d32 96bc 4e7d 00bc 2b12 73bb
00000120: 67eb 3c3b 67b8 673d 7ecd a23b 835a ac3d
00000130: 0ded 98b9 95e6 1e39 9466 aabc 0915 223c
00000140: be45 2bbc 0000 0000 6e92 9dbd 84b2 67bd
00000150: 75ce b43b 7171 113d a7af 03bc 06c8 68bc
00000160: c8ba 99bc bfcb c9bc aa85 973d 1d75 1f3c
00000170: a0a9 1c3d a9b8 0b3d b29d c9bc 5e43 f3bc
00000180: 4ce1 21bc e299 fdbc 3a52 80ba 48e5 ae3d
00000190: eb64 e53b 40ec ec3c 4260 48bd 0000 0000
000001a0: 4302 97bc c65c b53b 82d9 15bc 0606 b1bc
000001b0: d325 eebc ce57 0cb8 78da b43c 5da2 463e
000001c0: 5af6 9cbd 70bd d9bc ae79 81bc 2bf6 31bd
000001d0: 4f80 8739 3963 1fbc 082a f53c ded3 86bc
000001e0: f1a6 9b3d 0436 103d a20a b6bc 7d53 853d
000001f0: ce8c 2e3d 8bc4 26bc f9a5 2aba 0000 0000
0.19148311 -0.0016373787 0.11372704 3.6071666e-05 -0.017412474 0.0018846232 -0.054795504 0.020336574
0.021664038 0.037414305 -0.019299231 0.41882446 -0.1452231 -0.12161986 -0.11411596 0.0016979905
-0.06544447 0.0077242353 -0.17425735 -0.010013774 -0.003619332 -0.038291294 0.111038305 0.008284207
0.0 -0.022300867 0.0 0.029411677 0.029264078 0.0 -0.015383143 -0.07524531
-0.0556621 -0.14140844 0.008235761 -0.28442267 1.1873872e-05 0.02057008 0.054269593 -0.00795553
-0.08675619 -0.034268618 0.0 0.0020014765 0.008377399 -0.0005928888 -0.08696538 0.03934254
-0.014584133 -0.0049344567 0.0015426391 -0.030021045 -0.021841085 -0.025334736 0.0014412871 -0.052032437
-0.040068474 -0.0036464063 0.0009425052 0.0730969 0.10532954 -0.014879194 0.004228011 -0.0082782665
-0.02252301 0.026121572 -0.08120589 -0.07466922 0.0 -0.018334532 -0.007842375 -0.0037089686
0.0028826834 0.056572344 0.0049683442 0.08415701 -0.00029168316 0.00015153953 -0.020800866 0.0098927105
-0.01045364 0.0 -0.07693945 -0.05656673 0.0055177757 0.035508577 -0.008037484 -0.014207846
-0.018765822 -0.024633287 0.07398541 0.009732512 0.038247705 0.034111653 -0.024611328 -0.02969521
-0.009880375 -0.030957166 -0.000979013 0.08539826 0.0070005557 0.028921247 -0.048919924 0.0
-0.018433696 0.005534741 -0.009146096 -0.021609318 -0.02907077 -3.3460376e-05 0.02207683 0.19397874
-0.07664175 -0.026579589 -0.015805092 -0.043447655 0.00025844804 -0.009728246 0.029927269 -0.016458448
0.07600201 0.035207763 -0.022221867 0.06510065 0.04261475 -0.010178695 -0.0006509717 0.0
