flaskProject/modules/Contrastive_Clustering/save/model_checkpoint.tar (torch, 183226 bytes, 24 tensors)

instance_projector.0.weight f4 [128, 20]
00000000: a6c7 f2bf c0ac d8bf 6ff8 8ac0 efe5 1c40
00000010: 641e df3f 7df8 fdc0 e3ec 85c0 e152 39c0
00000020: f057 cbbf ca71 3cbe c107 f1c0 fb35 41bf
00000030: 0e77 45bf ef75 4e3d 6279 173d e1bf 2dbe
00000040: 4702 46bf 9925 07c0 bcfe f9be f536 52c0
00000050: 255e c5bf 9815 9fbf 2cb7 c6bf 3238 50bf
00000060: 7a50 f4be feaf 813e aada 7ebf 6fbf 35bf
00000070: 4d14 bebf bcf0 453e 8c1b 24be 37a8 02bf
00000080: 8356 a0be 192f 8cbd 2829 e93d 95c9 35be
00000090: 155b a9be 810d d2be 0997 b2be 10ff 0ebf
000000a0: 9f08 8641 acf0 7441 e2b0 ebbf 090e 0dc0
000000b0: 66b3 1bc0 2819 37c0 f56d 23c0 3bee 39c1
000000c0: ffee 5241 b23c 23be 62d3 4d40 86b3 c8c1
000000d0: bf2a a5c1 ea2b d43f 439d 56c0 43f5 e6bd
000000e0: decb abc1 7430 6fc0 fbcd 7bc1 041f bec1
000000f0: da68 6c41 5f3a 9841 8afe 0dc0 d613 08c0
00000100: 70a0 dcbf e007 23c0 1c8b 38c0 0378 66c0
00000110: ce4d a741 1e78 0dbe fb74 233f eb64 bcc0
00000120: 1de3 e9c0 7cb0 543d c3aa f23e 40ed 85bf
00000130: df18 f1c0 e7ea 063f 461a d8c0 5621 a6c0
00000140: 50e6 f540 8738 ad3e e12a d240 1288 f7c0
00000150: b5bc 13c1 6571 af40 8958 3141 cd57 4dc0
00000160: 0b03 6741 409a 433e 7bfc c33f cb2f 15c0
00000170: 8d67 04c0 8ac3 89be 0a35 a53e e220 1dbd
00000180: 4210 16c0 2a7a 3441 8df0 d83f 17c8 6dbf
00000190: 78bc 21c0 78f0 31c0 1be8 b63c 0c84 3cbf
000001a0: b849 4ac0 d5dd 98bf 8e6b cabf aa61 29c0
000001b0: f823 2dc0 94f1 183e 2264 d6bf 1f46 80bd
000001c0: eeb3 d33d eb35 9c3d 3d4c 433c 2000 41be
000001d0: 359a bb3c 2e6c cfbf 6f07 90bf cd94 37bf
000001e0: e58c 01c1 60b9 96c1 a2ab ecc1 1767 e5c1
000001f0: 6194 f1c1 9765 0540 2f18 99c0 9fd0 cac0
00000200: 7f57 17c1 fc80 e93d a099 0e40 e827 82c0
00000210: a9aa 0d3f ac5e 973f 63d8 a0bf 0f79 6e3c
00000220: 619b b3bf ac61 c6c1 9b9c 9b41 6403 613f
00000230: 1cc7 32c1 affa 7ec1 dc73 b7c0 33d4 53c1
00000240: fcb7 3dc1 84db cdc0 e052 08c1 6d57 9ec0
00000250: 0ebc 23c1 801a 0d3d 8795 2241 4f4d f93e
00000260: 1097 3d3e 84e4 363d 05fd 023e 61ea 10be
00000270: 541e a93e c459 083f 6c48 fdc0 fe91 7dbe
00000280: 8d8a 4bc1 9dc2 25c1 b140 373f e931 e0c0
00000290: c2d6 a5c0 6910 4841 71f3 f9c0 6dc5 a4bf
000002a0: 8269 07c1 7efa bebd 4fae 8dc0 394f 7a3f
000002b0: b912 773f c1e2 703e a675 bebe 0eca c23d
000002c0: caf3 833f 37a9 30c1 f097 35c1 6566 9ec1
000002d0: 0228 1dc0 b2c4 3cc1 e817 f2c0 2ac7 53c1
000002e0: 9c1e 0dc1 0a2e fec0 26b1 74c0 d78c b1c1
000002f0: e080 c5c0 1a82 05be fd16 08c1 8861 fd3e
00000300: 1edb 2340 f22c b33e 0c14 96be 17b5 50bd
00000310: 1516 d93f b190 15c1 0299 1c41 d8f9 01c0
00000320: 7a21 2ac0 173b 21c0 930e abbf 1f5d debd
00000330: a59a 8f3d f51e 6fbe 4e53 a5be e3b9 b6bf
00000340: 7327 23c0 2cb1 d13d d669 67c0 89c3 a5be
00000350: f8c4 35bd 575f 49bd 4fa1 14bd f171 1e3d
00000360: d44c b9bd f305 aabf d269 8abf bf96 76bf
00000370: 0df5 4741 e047 0441 ecbb b440 c8a2 dd40
00000380: c8dc 9440 0faa 25c1 105e 84c1 715d 29c1
00000390: 0b3e 1241 5663 87bd d26e e640 ec57 05c0
000003a0: 5ca6 dabf c73a 8bbe fdef a13e 0cf5 0cbd
000003b0: 7048 e8bf 036b 8f41 50c3 1241 d2c9 37be
000003c0: cf46 8cc1 d335 66c0 a2c8 4ac1 1223 0b40
000003d0: c570 923f be7e 9b40 4bff 9cc0 da19 4440
000003e0: 9f7e 2dc1 303e 493d 0bd0 8440 6eb2 2ebd
000003f0: 8aef dcbe 27f0 dabd ad71 f83d 23a2 1d3a
-1.8967178 -1.6927719 -4.3428264 2.451534 1.743115 -7.936583 -4.185167 -2.8956835
-1.5886211 -0.18402782 -7.5321965 -0.7547299 -0.7713479 0.05040544 0.036980994 -0.16967727
-0.77347225 -2.1116698 -0.4882716 -3.2846043 -1.5419356 -1.2428465 -1.552465 -0.8133575
-0.4771765 0.25329584 -0.99552405 -0.7099523 -1.4849945 0.19330114 -0.16026133 -0.51037925
-0.31316003 -0.06844921 0.11384803 -0.17752679 -0.33077303 -0.41025928 -0.34880856 -0.55857944
16.75421 15.308758 -1.8413355 -2.2039816 -2.4328246 -2.8609104 -2.5535862 -11.620662
13.183349 -0.15941122 3.2160268 -25.087658 -20.645872 1.6575902 -3.3533485 -0.11277249
-21.474545 -3.7373323 -15.737788 -23.765144 14.775599 19.028502 -2.2186608 -2.1262107
-1.7236462 -2.5473557 -2.8834906 -3.601075 20.91299 -0.13815352 0.63850373 -5.887319
-7.308974 0.05192612 0.47395906 -1.0463028 -7.534286 0.5270218 -6.753207 -5.1915693
7.6843643 0.3383219 6.5677342 -7.73536 -9.233571 5.482592 11.084115 -3.208484
14.438243 0.1910181 1.5311426 -2.331042 -2.0688202 -0.26906997 0.32267028 -0.038361438
-2.3447423 11.279825 1.694841 -0.9288344 -2.5271282 -2.780302 0.022327473 -0.7363899
-3.1607494 -1.1942698 -1.5814073 -2.646586 -2.7053204 0.14935905 -1.6749308 -0.062633745
0.10337053 0.076274715 0.011920032 -0.18847704 0.02290068 -1.6204889 -1.1252269 -0.71711427
-8.096898 -18.840515 -29.583805 -28.675337 -30.19745 2.0843256 -4.784202 -6.3379664
-9.458861 0.11401555 2.2281265 -4.0673714 0.5533853 1.1825767 -1.2566036 0.01455523
-1.4031793 -24.797691 19.451468 0.878958 -11.173611 -15.936202 -5.732893 -13.239306
-11.857418 -6.4330463 -8.520233 -4.948172 -10.233412 0.0344491 10.161506 0.48691794
0.18514657 0.044651523 0.12791832 -0.14151908 0.3303095 0.5326197 -7.9150906 -0.24762723
-12.721326 -10.360013 0.71583086 -7.0060925 -5.1824656 12.504006 -7.810967 -1.287275
-8.463259 -0.09325121 -4.427528 0.97777134 0.96512944 0.23524 -0.37199134 0.09511195
1.0308774 -11.041312 -11.349594 -19.799997 -2.455567 -11.798021 -7.5654182 -13.236124
-8.819973 -7.94312 -3.8233123 -22.19377 -6.171982 -0.13037911 -8.505612 0.49488473
2.5602489 0.34995228 -0.2931217 -0.05095395 1.6959864 -9.347825 9.787355 -2.0308743
-2.6582932 -2.5192316 -1.3363823 -0.10857605 0.07011918 -0.23351653 -0.3229012 -1.4275478
-2.5492828 0.10238871 -3.6158347 -0.32375744 -0.044377297 -0.04916319 -0.03628665 0.03868288
-0.09047857 -1.3283066 -1.0813544 -0.9632377 12.497327 8.267548 5.6479397 6.9261208
4.651951 -10.354018 -16.545929 -10.585313 9.140147 -0.06610744 7.201028 -2.0834913
-1.7082019 -0.2719328 0.3162841 -0.034413382 -1.8147106 17.927252 9.172684 -0.17948082
-17.534575 -3.5970352 -12.673983 2.1740155 1.1440665 4.8592215 -4.9061637 3.0640779
-10.843413 0.049131572 4.150396 -0.042650633 -0.43151504 -0.10690337 0.12131057 0.0006013235

instance_projector.0.bias f4 [128]
00000000: dfa8 d5bf af90 a5bf a440 7141 6d9a 9641
00000010: 14cd 293f 371d 2fc0 84c2 5ec1 92d5 70c1
00000020: 9ce9 18c1 b970 1dc1 41ad 2ac0 b1dd 0741
00000030: c227 5cc0 0081 a540 0b1e 11bf bac7 cc41
00000040: 3fb0 32c1 e815 fe41 3508 aac1 5e16 1fc1
00000050: 16c9 0d41 9a8f bebf b729 8041 42ac c43f
00000060: c1fd 0142 e548 17c2 ae5d a7c1 7c7e 0742
00000070: bc6f 1941 6479 13c2 0651 3bc0 9e42 57c0
00000080: 3a04 63bf eaa8 a83f 08d5 41c2 6e94 c7c1
00000090: 389a 3cc2 c576 96be cc26 a641 a65d d2bf
000000a0: f0b6 7fbf ba98 b4c1 d432 66bf 5837 80c1
000000b0: 1f63 fac0 3563 4341 56c2 023f 020b 30c1
000000c0: 5542 fcc0 0a8b 2fc0 c178 2ac1 7dce e640
000000d0: 94b7 1fc2 9be9 06c2 902a 87c1 12a1 37c1
000000e0: 337f 18c0 dd17 bcc0 d112 0c41 b0d3 5040
000000f0: dd4b 05c2 3387 1dc1 14a6 90c0 3790 44c0
00000100: 66b4 4cc0 9d1a fac0 15fb 9a41 fee3 de3f
00000110: 4ea5 48c1 1c1a d2c0 b97e 1c41 fdb1 1842
00000120: d16c 103f 60b9 c240 1557 33c1 5607 3ebf
00000130: 50a6 80c1 c257 dfbe a694 9b42 2764 63bd
00000140: c6f7 b141 b826 f9bf f9f6 d1c0 573c 6442
00000150: 6722 5e41 d9c2 2740 63e6 34c0 171d 4841
00000160: 30c2 43bf 3350 1bc2 fb2a 0741 80ba fb40
00000170: 896d 2542 6bdf bdc0 a64e 3f3f b410 24bf
00000180: ac17 8ebf 6c5e 2f42 4fc7 9141 afca 2dc1
00000190: 58a5 72bf 809a 2bc0 16a8 b7c0 ef98 84c2
000001a0: 672e 19c1 4306 63c1 b1a8 17c2 d6bd 47c2
000001b0: c2f5 ac40 a74a 3cc0 d175 95c1 cdd7 a142
000001c0: e386 e9c0 6325 3541 df8b a1c1 99c3 43c1
000001d0: 3229 4242 1dbb f1c0 92db 0e42 3870 02c1
000001e0: 8289 f8be aad0 83c2 f3df cf40 e653 66c0
000001f0: a355 d7be a1ef 38c1 5f90 62c1 aaca 87c1
-1.669216 -1.2934779 15.078281 18.825403 0.6632855 -2.7361581 -13.922489 -15.052141
-9.557034 -9.84002 -2.6668246 8.491624 -3.4399266 5.171997 -0.56686467 25.597523
-11.168029 31.760696 -21.254007 -9.942961 8.861593 -1.4887574 16.020369 1.5365069
32.497807 -37.821186 -20.920742 33.87352 9.589779 -36.868546 -2.9268203 -3.363441
-0.88678324 1.3176548 -48.45804 -24.947475 -47.150604 -0.2938749 20.768944 -1.6434829
-0.99888515 -22.574574 -0.8992131 -16.027023 -7.8245997 12.21172 0.51077783 -11.002687
-7.883097 -2.7428613 -10.654481 7.212706 -39.929276 -33.72813 -16.895782 -11.476824
-2.3827636 -5.877913 8.754594 3.2629204 -33.324085 -9.845508 -4.520273 -3.0713022
-3.1985106 -7.8157487 19.372599 1.7413328 -12.540358 -6.565687 9.780938 38.173817
0.5641604 6.085129 -11.20876 -0.74229944 -16.081207 -0.4362164 77.79033 -0.055515435
22.245983 -1.9464941 -6.561398 57.058926 13.883399 2.6212676 -2.8265617 12.507102
-0.7646818 -38.82832 8.447993 7.866516 41.356968 -5.9335227 0.74729383 -0.64087987
-1.1100974 43.84221 18.222319 -10.861983 -0.94783545 -2.681305 -5.7392683 -66.2987
-9.573829 -14.189029 -37.914738 -49.935387 5.4049997 -2.9420564 -18.682528 80.921486
-7.2977157 11.321628 -20.193296 -12.235253 48.54023 -7.554091 35.714424 -8.152397
-0.4854241 -65.90755 6.4960876 -3.5988708 -0.42057523 -11.558503 -14.160247 -16.973957

instance_projector.2.weight f4 [20, 128]
00000000: 093e 423f 04b7 663e 1e70 08bf 6f9c 4ebf
00000010: 3a9d 9e3f e2a7 e03e b0a3 84c0 c09b f240
00000020: f7f6 b540 affd 0ac1 4888 79be 3ad9 4540
00000030: 2590 30c0 b689 1e3e bc70 3f3e be6a e53f
00000040: 02bc 5440 de95 9640 eade 2c41 3473 42c0
00000050: d035 4640 47bc 7cc0 2bf7 57bf abb7 3940
00000060: 6039 6a40 791e 073f 34a1 0941 142b 19c1
00000070: f546 1ec1 8d86 9140 ecf2 adc0 313a 3c3f
00000080: 4bac fa3f d06a 39c0 7121 33be 1082 4a40
00000090: 2307 d23e 4e29 cebd c2f4 e7bf 230a a03e
000000a0: 5b21 c33d cd9f c940 6bf2 fabd 31bd 1040
000000b0: b6d5 e13e 0f86 4ec0 9099 6a40 1dff 82c0
000000c0: b3e9 7840 faa7 bdbf 51b0 d8c0 8827 00c0
000000d0: 1735 3b40 43b4 17c0 15ed 08bf f206 7f3e
000000e0: 25a6 ccc0 2dbd fabf e358 37bf 2100 193f
000000f0: 1ce1 4c40 6dff a53f 1d8f e4bf 023e 00c0
00000100: f422 8d3e e009 f140 bcdd cf40 0c36 0ac0
00000110: 0844 2e40 da83 23c0 e1ee 1c41 0993 4ac0
00000120: 81c2 d5bf 5f77 b9c0 67bd e4c0 b834 fe3d
00000130: 33e5 8d40 cfc1 dabd 30bc 01c0 ed31 9f3f
00000140: 7f9a 3c40 4b43 e3bf 6292 96c0 5fef d1bf
00000150: 3929 c240 d31e 7ec0 de6a b9c0 2296 ae40
00000160: 1060 ae40 620b 24c0 1a1c ae3f ceda 7cc0
00000170: 26ea b4be 5448 9840 2bb1 8fc0 3c77 4abf
00000180: 893a 45bf ed93 32be 7554 9f40 7765 83c0
00000190: ac92 bcbf bbfe 0fc1 b5b0 b1c0 bb9a 6e3f
000001a0: 081d dac0 d255 b340 abe5 f5bf 2630 a6be
000001b0: 6904 6dc0 cddd 03c0 bc2e f340 e7b4 9bc0
000001c0: 6589 a33e 31a6 4fc0 14e4 a440 792d d7c0
000001d0: 20a0 97c0 cc88 8c40 da68 0140 aa2f bf40
000001e0: ef58 233d 2499 a63f 7d98 8e40 f1a7 4640
000001f0: 9709 abbd 5e7a 6bbf 90b8 d6bd ad7c 4a3f
00000200: 66c0 13bf 43ea babd 60ca 69c1 6d49 87c0
00000210: dc2c d240 a4c0 d43e aa94 1341 3417 e1c0
00000220: b41b 4ec0 dd6a d640 c0e4 bebe b97b 7bbf
00000230: fae6 dabf e947 d83f 558f 873e 4a2b 1bc0
00000240: 49f6 ca40 39c5 84c0 c8de 2dc1 82c0 89bf
00000250: 96c1 4bc0 0a3e e940 581c bbc0 2653 b240
00000260: 84ec adc1 21f5 77c0 f554 99c1 856f dc40
00000270: dbe7 0440 4470 d9c0 a9fc 7640 bf98 ddbe
00000280: 9ece 27c0 2164 81c0 1148 79be d827 b0c1
00000290: 7365 61c0 ef97 8bbc 6909 be40 67d7 073f
000002a0: 487f e43e 94ad 3041 8ccf 3a3e 95ac 96c1
000002b0: 684f 3b40 50fd 19c0 0305 83c1 ab62 0841
000002c0: f879 45be eff2 a83e 517c 6e3f 1c6a 29c0
000002d0: e8b2 55c0 612b 04c0 03d8 cc40 1e2a 23c1
000002e0: c021 c040 ea33 6b40 2c83 7cbf 14ae 8640
000002f0: 0c98 a9c0 5589 f740 046b f23e cbbb a5bf
00000300: 62e4 a93f caf2 dc40 4c3a 89c0 2fee 9bbf
00000310: 6998 4240 98a2 8940 9e84 1ac1 63e3 63c1
00000320: e2bb 5cbf 4955 2dc0 4e43 873f 7a8c 21bf
00000330: 0695 42c0 d712 f43e 2d6d 6e40 9f87 2bc0
00000340: 5174 29c0 0a89 b53f 075a 3441 7483 e040
00000350: a152 55bf 43f8 b340 1e03 e040 914c b93c
00000360: 36e4 9640 23f8 ffbf 718e da3f 4c71 fdbe
00000370: 403d 453f c520 90bf c403 0bbf f58f 283f
00000380: 0870 873f 2c1f bec0 1a85 c4c1 f2c3 b5c0
00000390: ce2e 143e 45e2 2241 033f 2240 62da ebbf
000003a0: c798 393f 19b5 90c0 8835 e8bf e18c 98bf
000003b0: 1c00 b840 4a85 9a3f bbeb 0c41 0e07 1641
000003c0: 90ab 60bf 41ec 62c0 0766 02c0 94be a8c0
000003d0: 4b0d 5b40 357b a4c0 c5e0 98c1 6e4e 0741
000003e0: 220f 3f3e a10e 32c0 94d5 b73f 64b4 e6c0
000003f0: dd13 60be fef2 be40 1847 01c0 5e2f 1fc1
0.7587591 0.22530752 -0.5329608 -0.8070745 1.2391732 0.43878084 -4.1449814 7.5815125
5.686397 -8.686934 -0.24368393 3.0913835 -2.758798 0.1548222 0.18695349 1.79232
3.323975 4.7057943 10.804422 -3.0382814 3.0970345 -3.9489915 -0.84361523 2.9018352
3.659752 0.5278087 8.601856 -9.573017 -9.8923235 4.5476747 -5.4359035 0.73526293
1.958383 -2.8971443 -0.17493226 3.1641884 0.4102107 -0.10066472 -1.8121569 0.31257734
0.095278464 6.300757 -0.12253269 2.2615473 0.4410836 -3.2269323 3.6656227 -4.0936418
3.8892639 -1.4816887 -6.771523 -2.0024128 2.9251153 -2.3703773 -0.5348676 0.24904993
-6.3952813 -1.9588982 -0.71620005 0.5976582 3.2012396 1.2968575 -1.7856175 -2.0037847
0.2756573 7.5324554 6.495817 -2.1595488 2.7229023 -2.5549226 9.80832 -3.1652243
-1.6699983 -5.7958217 -7.1481204 0.12412399 4.4342284 -0.10681497 -2.027111 1.2437111
2.9469297 -1.7754911 -4.705369 -1.6401175 6.067532 -3.9706314 -5.7942953 5.4558268
5.4492264 -2.5631948 1.3602326 -3.9508548 -0.3533489 4.758829 -4.490377 -0.7908819
-0.7704244 -0.17439242 4.9790597 -4.106136 -1.4732261 -8.99969 -5.5528207 0.9320485
-6.816044 5.604226 -1.9210714 -0.3245861 -3.7033942 -2.0604126 7.599455 -4.865833
0.3194076 -3.2445185 5.1528416 -6.724301 -4.7382965 4.391699 2.0220246 5.9745684
0.039879736 1.3015485 4.4561143 3.1040003 -0.083514385 -0.9198359 -0.10484421 0.7909649
-0.5771545 -0.09126713 -14.611908 -4.227713 6.567976 0.41553223 9.223795 -7.0340824
-3.2204409 6.700545 -0.37283897 -0.9823566 -1.7101738 1.6896945 0.2647654 -2.4245172
6.342564 -4.149075 -10.86689 -1.0761874 -3.1836905 7.288823 -5.84721 5.57265
-21.740486 -3.8743365 -19.166483 6.888613 2.0766513 -6.7949543 3.8591712 -0.432806
-2.621986 -4.043473 -0.24343897 -22.019455 -3.521817 -0.017040221 5.9386487 0.5306305
0.44628358 11.042377 0.18243235 -18.834269 2.9267216 -2.406086 -16.377447 8.524089
-0.19284809 0.32997844 0.9315844 -2.6471014 -3.3390446 -2.0651476 6.4013686 -10.1977825
6.00412 3.6750436 -0.9863765 4.20875 -5.2998104 7.735514 0.4734727 -1.2947935
1.3272822 6.9046373 -4.2883663 -1.2182063 3.0405524 4.301098 -9.657377 -14.243014
-0.86224186 -2.7083304 1.0567415 -0.63104975 -3.0403457 0.47670624 3.7254136 -2.6801527
-2.6477244 1.4182446 11.271979 7.0160465 -0.83329207 5.6240554 7.0003805 0.022619518
4.715358 -1.99976 1.707472 -0.495005 0.77046585 -1.126 -0.5430262 0.6584466
1.0581064 -5.941305 -24.564991 -5.680169 0.1447098 10.180242 2.535096 -1.842602
0.72498745 -4.5221066 -1.8141336 -1.1917993 5.7500134 1.2071927 8.807551 9.376722
-0.87761784 -3.5456698 -2.0374773 -5.273264 3.4226863 -5.14004 -19.10975 8.456648
0.18658116 -2.7821429 1.4362054 -7.2095203 -0.21882577 5.967162 -2.0199642 -9.949064

instance_projector.2.bias f4 [20]
00000000: 5168 b0bf bff0 1ac0 ec4d 1fc0 f293 95c0
00000010: f741 c6c0 063f 2ebf 5b5e e4c0 45ff 1fc0
00000020: 97ec ebc0 ad16 d53f b1fa a5bf 23fc 7540
00000030: 1abc 1e40 284f aa40 13fe 3741 ae95 ab40
00000040: 3887 8740 1d8e 0641 79b7 b5bf 980a ecbf
-1.3781835 -2.420944 -2.489131 -4.6743097 -6.1955523 -0.68064916 -7.136518 -2.4999554
-7.3726306 1.6647545 -1.296713 3.8435142 2.4802308 5.3221626 11.49953 5.3620214
4.235256 8.409696 -1.4196616 -1.8440733

cluster_projector.0.weight f4 [128, 20]
00000000: af89 69c0 1229 32c0 eda3 f43f f7b9 02bf
00000010: 345b 08be 8d45 0e40 2794 d03f 5754 8d3f
00000020: 013e 13c0 b0c6 e83c b111 03c0 b9bc 07c0
00000030: 631d 7ebf 7916 f0bf f67c 9abf 0c42 aabf
00000040: 6b56 bdbf d88c f6bf b8b6 013f d4d8 803f
00000050: 7187 27bf e34d 2fbf 99f4 3f3d 00ba 93bf
00000060: 5cbf 4dbf 3b74 473e 1fca cfbe bce0 14bf
00000070: 5207 1cbf c096 7ebb 33d4 07bf 7788 43bf
00000080: 68a7 3fbf 9dcd b5bd 5528 ecbb 9436 ca3b
00000090: 5906 2ebf 069f 2fbf 80e9 2abf da22 35bf
000000a0: f274 b2be 9304 13bf 8b31 46bf 264a 2d3e
000000b0: caab 3bbe 7c43 77be b7f6 eabe 7255 a6be
000000c0: 01e2 d3be 4098 d3bc 5530 d0be 2bc5 d0be
000000d0: 572b afbe 23d9 123e 2126 ab3d e705 94be
000000e0: 5de2 05bf 0a65 10bf 7c99 05bf 8784 debe
000000f0: 895c b5bf e0a7 3ac0 bf57 38bf 3517 8ec0
00000100: 9281 2dc0 af1c c4bf b4b7 f0bf 8ee6 f5c0
00000110: 8951 32c0 047e ad3d 18dd 8ec0 5173 573e
00000120: d3f6 163f 71e7 8dbf 44bb 05bf d898 a5bf
00000130: dfce dd3e c372 a7bc ada0 0abf 865c 453f
00000140: 0a6d 24c0 42a4 bebf 0cef 3240 14c4 8dbf
00000150: 9514 29bf bb65 1440 ebb6 6fbf 87e9 413f
00000160: c2d6 bdbf 48e6 c63c 4c56 66c0 cd08 f8bf
00000170: 553a 05c0 044f 17bf c591 01bf 8efb 66be
00000180: 6635 f9bf c21b 1dc0 326a 43c0 6866 c4bf
00000190: 5416 f0be 4373 1a3c f078 15be 1238 9abe
000001a0: b966 c9be 8354 e7bd 8600 a7bd 5383 90be
000001b0: 6899 10be 5024 053e 341e b3be ff79 cabe
000001c0: 72d3 54be 25c5 143e b329 c9bd afbe 04be
000001d0: 5ed2 5ebe b8a0 abbe 0960 a0be 2794 dbbe
000001e0: ff6c 21bf d3be 19bf 35f7 0dbf 29e5 14bf
000001f0: b68e 84bf 7703 b4bf 6137 97bf 2b93 20bf
00000200: f1f0 25bf 3ea9 30be fe47 2bbd 6863 3fbf
00000210: 380c 6abf abec ddbd 4581 b6bd c665 163e
00000220: d67c 5ebf f070 7bbf ad3b 59bf fc24 63bf
00000230: 70de 74c0 b232 4dc0 8eb9 49be 0bf8 8ebf
00000240: 143d 74bf 0c8e cfbe 6c0f 193e 419d db3e
00000250: 9b48 2dc0 c8fc bbbd 4a03 24c0 a1bd efbf
00000260: 6eee 92bf f827 ddbe 153b ebbd 9d17 2dbe
00000270: 44f9 d4bf eb4e ffbf e234 8f3d abf8 1e3f
00000280: 5b74 11c0 e3d5 23c0 9396 7c3f e7fd 72c0
00000290: b815 c8bf 62c1 3e40 360a f8bf e54e a4be
000002a0: f66f 25c0 5864 003e 0d08 893e 31c2 09c0
000002b0: 1e51 fcbf 63c2 28be 8ddf 91be fef6 623d
000002c0: ac3f e7bf f163 7ec0 4753 ccbf 3a08 1dc0
000002d0: bc07 54bf e4a3 91bf eb77 30bf ef0c b2bf
000002e0: 1b3f 66bf 1007 53bf 08e3 86bf bd48 c63e
000002f0: 7936 77bf d06e 483c b6a5 bfbf b7e1 38bf
00000300: dbd0 d8be 1e36 bfbe 6adc 0cbc 7afe a6bc
00000310: 3b15 ddbe 19f9 7dbf 659e d93c ee4a 18be
00000320: 8c8b 2b40 fc80 c73f dc11 fcbf 8ac1 8ebf
00000330: b5ae 9dbf a302 c7bf 25cd eb3e ed32 75bf
00000340: e844 0d40 b47f 3b3e baba 293f e44a fd3e
00000350: ea9a dd3e 80d6 9abf 4499 b1bf 8f84 a0bf
00000360: a9a9 073f 87cf cb3f 8273 243e 2a3b bb3f
00000370: 2fad 3dbf 3168 25bf 98f7 aabe 3320 ebbe
00000380: cd4b 01bf 5c92 07bf 521b 80be 8f71 c9be
00000390: 8e46 efbe f0d9 7d3c 6818 1dbf ca31 6ebe
000003a0: 6fc6 52be a40a ae3d cb65 51bc fddd 40be
000003b0: 0827 eebe ffbc 3cbf 0856 c6be 3266 05bf
000003c0: f7f2 0b3f f6a8 e3bf e6fa 01be a0be 45be
000003d0: a91e 1ebf 8571 f1bf a7a8 933d 6780 a1bf
000003e0: 3582 c9bf 400f 89bc daf5 8c3e fb91 cbbf
000003f0: 4a8f bbbf 3a32 b83d 4d48 b43e dcf8 253d
-3.6490285 -2.7837567 1.9112526 -0.5106501 -0.13316041 2.222995 1.6295213 1.1041363
-2.3006594 0.028415054 -2.0479548 -2.1208937 -0.9926359 -1.8756858 -1.2069385 -1.3301406
-1.4791998 -1.9261732 0.5066943 1.0066171 -0.6544104 -0.6847822 0.046864126 -1.1541138
-0.80370116 0.19477932 -0.40583894 -0.5815542 -0.6094867 -0.0038847178 -0.53058165 -0.76380104
-0.74864817 -0.08877108 -0.0072069564 0.006171057 -0.67978436 -0.68602026 -0.6676254 -0.70756304
-0.34854847 -0.57428855 -0.77419347 0.16922817 -0.18327251 -0.24146837 -0.45891353 -0.32487065
-0.41383365 -0.025829434 -0.40661874 -0.40775427 -0.34212753 0.14340644 0.08356882 -0.28910753
-0.5229853 -0.56404173 -0.52187324 -0.43460485 -1.4168864 -2.9164963 -0.7200889 -4.440333
-2.7110333 -1.5321254 -1.8806062 -7.684394 -2.7862265 0.08471301 -4.464489 0.21040083
0.58970374 -1.1086255 -0.5223887 -1.2937269 0.43321893 -0.020440465 -0.5415142 0.77094305
-2.5691552 -1.4893878 2.7958403 -1.1075463 -0.6604703 2.3187091 -0.93638486 0.7574696
-1.4831164 0.024279729 -3.5990171 -1.9377686 -2.0816853 -0.59104943 -0.5061305 -0.22556898
-1.9469421 -2.4548192 -3.0533566 -1.5343752 -0.46892035 0.009426895 -0.14596915 -0.30120903
-0.39336184 -0.11295416 -0.08154397 -0.28225192 -0.1412102 0.13002133 -0.3498398 -0.395462
-0.20783785 0.1452833 -0.098224066 -0.12963365 -0.21759936 -0.33521056 -0.3132327 -0.4288647
-0.6305694 -0.600568 -0.55455333 -0.5816217 -1.0356052 -1.4063557 -1.1813775 -0.6272456
-0.6482077 -0.17252061 -0.041816704 -0.74761057 -0.91424894 -0.108361565 -0.08911375 0.14687261
-0.86909235 -0.98219204 -0.84856683 -0.8872831 -3.8260765 -3.2062192 -0.1969969 -1.1169447
-0.954057 -0.4053806 0.14947289 0.42893413 -2.7075565 -0.091790736 -2.5627007 -1.8729745
-1.1479013 -0.43194556 -0.114858784 -0.16903539 -1.663857 -1.9945959 0.069925085 0.6209819
-2.2727268 -2.5599296 0.9866726 -3.796747 -1.5631628 2.9805532 -1.9378116 -0.32091442
-2.5849586 0.12538278 0.26763955 -2.1524775 -1.9712255 -0.16480403 -0.28490868 0.05541133
-1.8066306 -3.97485 -1.5962914 -2.453627 -0.828243 -1.137814 -0.6893298 -1.3910197
-0.8994004 -0.8243265 -1.0538034 0.3872737 -0.96567494 0.012233451 -1.4972446 -0.72219414
-0.42346844 -0.37345976 -0.008597473 -0.020385016 -0.4318026 -0.9920822 0.026564786 -0.14872333
2.6803923 1.5586238 -1.969295 -1.1152813 -1.2318941 -1.554768 0.4605495 -0.9578083
2.2073307 0.18310434 0.6630055 0.494712 0.43282253 -1.209671 -1.3874898 -1.2540454
0.52993256 1.5922707 0.16059688 1.462743 -0.7409238 -0.6461211 -0.33392024 -0.45923004
-0.5050629 -0.529577 -0.25020844 -0.3934445 -0.46733516 0.015493855 -0.61365366 -0.2326118
-0.20583509 0.08498123 -0.012780617 -0.18834682 -0.46514153 -0.73725885 -0.38737512 -0.5210906
0.5466761 -1.7785938 -0.12693366 -0.19310999 -0.61765534 -1.8862768 0.07209902 -1.261731
-1.5742861 -0.016730905 0.2753132 -1.5903925 -1.4653103 0.08993955 0.3521141 0.040520534

cluster_projector.0.bias f4 [128]
00000000: 4f84 12c0 3a29 b6be 6313 b5be 45fd 24c0
00000010: c133 c9bf 735d 2fbd bf95 1cbf d19e 29c0
00000020: 2e85 10c0 f4fe 91bf f568 0640 3375 54bf
00000030: 2366 dcbf 86a8 96bf 3c9f 20bf 53bf c0bf
00000040: 0787 86bf 3acc 46bf df5f fcbf c9c1 98bf
00000050: 0c87 60bf 8d43 0c3f 91d1 49c0 d362 30c0
00000060: 4897 873f 624d a1bf f32f 3abf 657e e83f
00000070: be7f 7c3f 18ac 86bf 0abc be3f 2531 2440
00000080: d720 3bc0 2756 e43c 03cd e7bf 2ab8 67bf
00000090: db61 2b40 8c87 5a3e 9c61 00c0 9062 6ec0
000000a0: 54b1 0bc0 5b7d 03c0 433c 94bf 89c9 2dbf
000000b0: 2eb3 e4bf 0116 d0be 1286 79bf a8d8 393f
000000c0: aa8e 323e 0e94 09bf b204 8d3e f8f9 abbf
000000d0: f4d6 81bf dad0 25c0 a821 a0bf 043e a13f
000000e0: f8db 06bf 98c9 01be 1a08 1b3e 9352 fabf
000000f0: c9d8 293f f667 0c40 96d4 523e e378 a93d
00000100: 8785 20c0 ae83 1fbf 3ff8 46bf 5556 8c3f
00000110: 69f8 b5be f326 6240 65fd 15c0 6bbd 0840
00000120: bbb9 6ebf fc1d b8bf 1183 4e3f 1244 183f
00000130: 1360 1cc0 0a84 bfbf f2f5 723f 896b 50c0
00000140: 3439 7d3d e459 7fbf d4c8 adbf eda3 f7bf
00000150: 0dc7 943c 59d1 903f ab27 873f 52a5 8ebf
00000160: 198c 98be 51c6 83be d583 06bf aa1c 8abf
00000170: da2c ecbf 1217 dabe c859 38c0 cf54 34c0
00000180: e87d 87bf 6ac3 a6be a1d6 853f fb15 0cc0
00000190: dc31 253e 7ecf 273e ee00 9ebe 3e93 503f
000001a0: a82a b8bf c9cc dabf 2be2 a9bf 6c2a 22c0
000001b0: c67b 34bf c007 0bbe 3367 14c0 3cdb d4bc
000001c0: 1552 f9be 8881 dc3f ed0c 7c3e 05a4 95bf
000001d0: fd1e af3e 27a8 38bf a635 8c3f 6498 353f
000001e0: 4bc5 9dbf 1e99 b2be 0a5c 0dbf a82e a2bf
000001f0: e682 40c0 be77 c9bf eb8e d1be 1d44 6cbf
-2.2893255 -0.35578328 -0.35366353 -2.5779583 -1.5718919 -0.04281373 -0.61165994 -2.6503184
-2.2581286 -1.140593 2.100156 -0.8299133 -1.721867 -1.1770179 -0.6274297 -1.5058388
-1.0509957 -0.77655375 -1.9716758 -1.1934139 -0.87706065 0.54790574 -3.153416 -2.7560318
1.0593042 -1.260174 -0.72729415 1.8163573 0.9863242 -1.0521269 1.4901135 2.5654995
-2.9238794 0.027873112 -1.810944 -0.9051539 2.6778476 0.2134077 -2.0059576 -3.7247658
-2.1826982 -2.054526 -1.158089 -0.67885643 -1.7867181 -0.40641788 -0.974702 0.72596216
0.17437235 -0.5374154 0.27542645 -1.343566 -1.0143723 -2.5908723 -1.2510271 1.2597051
-0.52679396 -0.12674558 0.15139809 -1.955645 0.6634641 2.1938453 0.20588908 0.082750104
-2.5081499 -0.623103 -0.77722543 1.0963846 -0.35541084 3.5336273 -2.343591 2.1365612
-0.9325215 -1.438415 0.8066874 0.5947887 -2.443364 -1.496217 0.9490653 -3.2565634
0.06182213 -0.9974654 -1.3576913 -1.9346901 0.018161321 1.1313888 1.0558981 -1.1144202
-0.29794386 -0.2573724 -0.5254491 -1.0789998 -1.8451188 -0.42595726 -2.8804798 -2.8176763
-1.0585299 -0.32570964 1.0456125 -2.1888416 0.16132301 0.16387746 -0.30860084 0.81474674
-1.4388018 -1.7093745 -1.3272146 -2.5338392 -0.70501363 -0.13577175 -2.3187988 -0.025983445
-0.48695436 1.722703 0.24614306 -1.169068 0.3420333 -0.7213158 1.0953872 0.70935655
-1.2325834 -0.34882444 -0.55218565 -1.2670488 -3.0079894 -1.5739667 -0.4092935 -0.9229143

cluster_projector.2.weight f4 [50, 128]
00000000: c765 46be b171 67be e3d3 c8bd 68aa ca3c
00000010: ceb7 f0bd 25bd e6bd 828e 523d 4f86 c43c
00000020: f731 243d 47b1 06be ea78 aabc 6643 22bc
00000030: cce6 adbd 61f7 b33c 64d2 6437 d051 cdbd
00000040: eb71 65be 80d2 34ba 5c4c 583d d23e 593d
00000050: c560 f4bd b113 ea3d 682b 94bd 8e56 cb3d
00000060: 8b15 cfbd 51da bbbd 7efe bdbc f86f b7bc
00000070: 28b2 7e3d 89aa 2bbb 30d4 363d 8106 f53e
00000080: 8502 f7bd 9375 bfbe 264c 8b3d cde1 b9bd
00000090: 9bc7 503f 2028 17bd 25f5 5bbe 01bb 843d
000000a0: 6ebf 50be 9b88 92be b369 d63c 3f43 3dbd
000000b0: 0b01 e9bd c911 01be 7004 533d d126 dfbd
000000c0: ab71 df3d 8088 f1bd 8b2a 61be 3d78 34bc
000000d0: d1f8 0bbe 7a4f 00bd 0ee6 d8bd c43a 423d
000000e0: 7e6e 463d a75d 633e e503 71be 6a8c b1bd
000000f0: c819 07bc 4023 2d3f 2a25 803e f21b 54bd
00000100: 149e 5abc c180 a6be 435e 7fbd 54fe 993c
00000110: 5e45 5cbc 7695 e03e e65d 9c3d 1db2 2a3f
00000120: c1ce a9be 1435 183d 5612 0cbe 93fb cdbd
00000130: 2e22 03bc c12d 2abd b254 93bd 293a b2bb
00000140: e185 dcbd 5611 653d 7c5f 58bd fe72 5d3d
00000150: b19f 47be 4045 27bf 0a95 ee3c 9f87 083e
00000160: 4115 ac3d a1ba e6bc e95c fe3c d3ac dcbd
00000170: 74ac 07bd ec11 0e3d d9e3 07bd 8fbd b4bd
00000180: fd4a e1bd 4808 833b 91da 253e 8f05 463d
00000190: 97c0 bf3c 7756 893f 584f 45be 9ffc 5dbe
000001a0: de41 9bbc d457 bcbd bc13 a33c e4c2 28be
000001b0: c9ab a6bd 31f4 e43d f6d2 a0bb 6c6b d83e
000001c0: be9c 3fbe c7b3 29b9 05c3 2f3d c7bd fbbb
000001d0: 576a 633c 6527 0cbe 57af 993c 6365 643e
000001e0: 5efb 34be 9329 bfbd 5dad 3e3d 0751 983c
000001f0: 2018 75bd d9df 7c3d 0803 19bb fc8f 3dbd
00000200: c173 0540 22d1 bb3e 76af 77bd 912f e43e
00000210: 4bf9 cb3f 3ff7 a53c 1317 f73e 839c 393f
00000220: c64f 773f 0d81 48be 175b 07bf 8137 ea3d
00000230: f559 b13e 6876 7f3f 45fb 593e 7ffe 3e3e
00000240: 3c11 973f 6e4a a03e 8185 683f 5199 b03e
00000250: 7f8b fa3e 3429 dc3e 658e 533f dd68 733f
00000260: 2007 f83f 519d 493e 57fc c83f ebd1 a73e
00000270: ed9a dfbe b4a3 133b 3829 803e 8452 7140
00000280: ba75 1f40 bdb7 edbd d76d f53f b27b f6bc
00000290: d726 7ebf 6c2b b23f 2ecc 8b3f ca4e 3a3f
000002a0: 5b56 f5bd 85fb ecbe 217c cc3e 04fe 983e
000002b0: 2736 d63e d227 20c0 0cb4 1cc0 7d6d 363f
000002c0: 186d 4f3e ab54 813d 810b 5fbf c3ff a6bd
000002d0: dfa9 453f ab8c b0be c68d 0d3e 29a4 1fc0
000002e0: 05d4 3c3e 3aeb 213f 70b5 e9be 866e 5e3f
000002f0: 519d 963f ac9a 88bf 2376 3f40 f12f 74be
00000300: 28b7 743e 01bb 903e b2bc c23f c22a 4cbf
00000310: 3ee0 e83e 4c8e 38c0 dbba e7bf cce7 d6bf
00000320: 8214 1a3f 4c03 fbbd 49f7 073f 7168 693f
00000330: 97f6 a3be 6dba a43f cd12 b8bd 44bc 103f
00000340: 456c 5440 da0b 403f ac80 fb3e 43f4 cf3f
00000350: caf7 91bd e3cc 58c0 8604 c8bf f412 7e3e
00000360: 6ad2 6a3d 4aff 3440 f154 62bf 1210 183e
00000370: 0091 bd3f 159e 2a3e 8086 0fbe 2763 01be
00000380: 7897 993d d503 5f3f 9b65 a63e f286 b2be
00000390: 39d7 263f 40b7 153f 80ff cc3f 89d9 b3bf
000003a0: 859d 583e 4434 ffbc 5afa 723e a512 b6be
000003b0: 525f 963f 9713 073e 1212 093f c20d 98be
000003c0: baf7 b53d 5945 6dbe 4639 5cc0 dd97 94be
000003d0: 1e59 b9bd 3170 1a40 9876 103f 82f2 4d40
000003e0: e2b8 84bf 4e10 21bd efd6 953f c755 4c3e
000003f0: fa1d e0bd a26d dd3e 962b df3b 1b93 16bd
-0.19374762 -0.22601964 -0.09806039 0.02473946 -0.11753808 -0.11266545 0.051405437 0.023989825
0.040086713 -0.13153563 -0.02080961 -0.009903764 -0.08491287 0.021968545 1.3638844e-05 -0.1002537
-0.22406738 -0.0006897822 0.052807197 0.053038426 -0.1193252 0.11429537 -0.072348416 0.09928618
-0.10111531 -0.091725 -0.02319264 -0.022392258 0.06218162 -0.0026194176 0.04463595 0.47856525
-0.120610274 -0.3739439 0.068016335 -0.09076271 0.81554574 -0.0369035 -0.21480234 0.06480981
-0.20385525 -0.28619847 0.026173448 -0.04620671 -0.11377152 -0.12604441 0.051517904 -0.108960755
0.10910352 -0.117936134 -0.21988885 -0.011014995 -0.13669135 -0.031325795 -0.105907544 0.047419325
0.048445217 0.22203694 -0.23536642 -0.0866936 -0.008245893 0.6763191 0.25028354 -0.051784463
-0.013343353 -0.32520106 -0.062345754 0.01879803 -0.013444273 0.4386403 0.07635097 0.6667803
-0.33165553 0.037159994 -0.1367887 -0.100577496 -0.008003755 -0.04154754 -0.07193889 -0.005439062
-0.10767723 0.055924736 -0.052825436 0.054064743 -0.19494511 -0.6534004 0.029123802 0.13332985
0.08402491 -0.028165163 0.031050162 -0.10775151 -0.03312345 0.03468506 -0.033176277 -0.08825218
-0.11000631 0.00399879 0.16196658 0.048345145 0.023407264 1.0729512 -0.19268548 -0.21678399
-0.018952306 -0.091964394 0.019906871 -0.16480595 -0.08138234 0.11179388 -0.004907961 0.42269456
-0.18712136 -0.00016184068 0.042910594 -0.0076825353 0.013880334 -0.13686903 0.018760366 0.22304301
-0.17674014 -0.093341015 0.04655205 0.018593324 -0.05983746 0.061736915 -0.0023347754 -0.046279892
2.08519 0.36682993 -0.060470067 0.4456754 1.5935453 0.020259498 0.48259792 0.7250444
0.966061 -0.19580479 -0.5287337 0.11436368 0.34638944 0.9979005 0.21287258 0.1865177
1.1802135 0.31306785 0.9082871 0.3449197 0.48934552 0.43000185 0.8263915 0.95081884
1.9377174 0.19688918 1.5702008 0.32777342 -0.43672886 0.0022527995 0.25031447 3.7706614
2.4915605 -0.11607311 1.9174145 -0.03008828 -0.99278015 1.3919501 1.0921686 0.7277647
-0.119793616 -0.46285644 0.39938453 0.298813 0.4183819 -2.5024304 -2.4484892 0.71260816
0.2025646 0.06314977 -0.8712693 -0.081542514 0.7721233 -0.3448232 0.13823614 -2.4943945
0.18440254 0.6324955 -0.45646238 0.86887395 1.1766759 -1.0672202 2.9915855 -0.23846413
0.23897994 0.28267673 1.5213835 -0.79752743 0.45483583 -2.883685 -1.8103899 -1.6789489
0.6018754 -0.12256488 0.531117 0.9117499 -0.3202407 1.2869393 -0.08987961 0.5653727
3.3191082 0.75018084 0.49121606 1.6246418 -0.0712734 -3.3875053 -1.562638 0.24811918
0.057329573 2.8280816 -0.8841086 0.1484988 1.4809875 0.16661866 -0.14016151 -0.1263548
0.074995935 0.8711522 0.32499394 -0.3486858 0.65172154 0.5848274 1.6015472 -1.4050761
0.21153839 -0.031152852 0.23728314 -0.355611 1.174784 0.13191067 0.535432 -0.29697996
0.08885141 -0.23170985 -3.4409957 -0.29022112 -0.09050201 2.4130976 0.5643096 3.2179265
-1.0368922 -0.03932219 1.1706218 0.19954596 -0.109432176 0.43247706 0.006810616 -0.036761384

cluster_projector.2.bias f4 [50]
00000000: 5181 e03e 53f7 49be 6103 b13f 72fc c5bc
00000010: bce2 4d3d 59d7 493e cfcf 543d bf4b 45bd
00000020: 33cc 8b3e 5e3d 4d3c 3b05 9f3c d23f d9bd
00000030: 8342 8abd b93a 4abf da2d a8bf 1581 1c3d
00000040: 3d34 2a3f 0396 993e 0dc4 633f f06e 4040
00000050: 5756 c83d fddf 96bb 6e4a 1f3f 53be 643e
00000060: 5b42 02be f789 1c40 3b58 5240 b81f 713e
00000070: 10b6 c9bd 02bb 603d 4252 4fc0 d069 c93e
00000080: b3f6 233e f5d4 093d ebd0 d3bd 29bd eabd
00000090: 06a2 7abd 212e 05be 4275 933e ab08 6fbd
000000a0: 12b0 6ebd e716 c8bd f4b0 09bd 3dd8 033d
000000b0: 04af f4be 0415 853d b98b cd3c f14e 1c3e
000000c0: 845f bf3f 9d86 fd3d
0.4384866 -0.19723253 1.3829156 -0.024168227 0.05026506 0.19711055 0.051955994 -0.04816794
0.2730423 0.012526838 0.019411674 -0.10607876 -0.06750967 -0.78995854 -1.3138993 0.03820904
0.6648596 0.29997262 0.88971025 3.006771 0.09782093 -0.004604338 0.62222946 0.22338228
-0.12720625 2.4459207 3.2866352 0.23547256 -0.09849179 0.054865845 -3.2393956 0.3933854
0.16012077 0.033650357 -0.10342582 -0.11461861 -0.061189674 -0.13005878 0.28800398 -0.058357876
-0.058273382 -0.09769993 -0.03361602 0.032188643 -0.47789776 0.06498149 0.025091039 0.15264489
1.4951024 0.12379191

exp_avg f4 [128, 20]
00000000: 0400 0000 0400 0000 0400 0000 0400 0000
00000010: 0400 0000 0400 0000 0400 0000 0400 0000
00000020: 0400 0000 0000 0000 0400 0000 0400 0000
00000030: 0400 0000 0400 0000 0400 0000 0400 0000
00000040: 0400 0000 0400 0000 0400 0000 0400 0000
00000050: 0400 0000 0400 0000 0400 0000 0400 0000
00000060: 0400 0000 0400 0000 0400 0000 0400 0000
00000070: 0400 0000 0000 0000 0400 0000 0400 0000
00000080: 0400 0000 0400 0080 0400 0080 0400 0080
00000090: 0400 0000 0400 0000 0400 0000 0400 0000
000000a0: 8958 a6b7 5b86 17b7 0400 0000 0400 0000
000000b0: 0400 0000 6487 a624 3995 e623 06a4 29b5
000000c0: 5c86 17b7 0000 0000 fd0a 44bb 813f c9b7
000000d0: 513b d7b7 49ae d9b9 d3d4 d9b9 8ec1 d9b9
000000e0: 683d d0b7 8a20 9ab4 eebc dfb5 9edc 2437
000000f0: 0331 9bb5 c5f7 bfb4 0400 0000 0400 0000
00000100: 0400 0000 6434 2624 d5b6 8323 7644 a333
00000110: c2f7 bfb4 0000 0000 cbb2 11ba 7bfe 9db6
00000120: e486 adb6 bfe3 64b8 05f7 b5b8 7234 94b8
00000130: b1c2 a5b6 4a0a 07b8 7686 f8b4 e8d4 56b6
00000140: a4b3 0fbb 6399 cfb8 bba4 81bc d104 d0bb
00000150: a918 02bc eb26 93bc 64c9 19bb bf02 b9bb
00000160: 1f1d b6b8 0000 0000 6b6c adbb faa6 9fba
00000170: 0217 e9ba 19a1 a23d 504b a53d 33f6 a33d
00000180: 005f c4ba 588e aa3a 02e0 12ba 6811 18bc
00000190: 0400 0000 0400 0000 0400 0000 0400 0000
000001a0: 0400 0000 0400 0000 0400 0000 0400 0000
000001b0: 0400 0000 0000 0000 0400 0000 0400 0000
000001c0: 0400 0000 0400 0080 0400 0080 0400 0080
000001d0: 0400 0000 0400 0000 0400 0000 0400 0000
000001e0: 6db9 b038 d296 d436 ab20 05b6 f075 95b7
000001f0: 21a9 71b7 31de 933a ac02 3a3a 995b 833a
00000200: 652d 9e37 0000 0000 936b 063b 9013 ca3b
00000210: 4c3d 0b3c 4c2f b03b 25d4 bb3b b801 b63b
00000220: 1247 f03b 6b4d ba39 10ce 183b e3c1 5b3d
00000230: ebe8 6439 9785 f837 8dc9 73b8 1933 9fb9
00000240: 2fcd 3fb9 fbf6 2c38 9c8f d237 f5fe b237
00000250: 7575 fd37 0000 0000 a5c8 bc3a af4a 153c
00000260: e763 1c3c 8e2c 673c 3fcf 853c 8765 793c
00000270: 4cd7 183c ccc7 113b 3227 e339 3cb5 983c
00000280: c0d5 083c c9b7 b53a 0205 8b3d 79c9 d13c
00000290: a5b4 ee3c 1166 a53d 32ad cb3d 2e57 a43d
000002a0: 2d41 b13a 0000 0000 72e4 fe3c 24d9 fe3e
000002b0: ecb0 ff3e 71c1 d13b ea5d 413d 1f96 db3c
000002c0: 0545 ff3e b825 273d 60c9 d73a a95c 243c
000002d0: e82d 9b3a fa7f 7339 bb97 dd3a 44fc 0b3c
000002e0: 3590 143c 577f 9c39 18cc f23a 783b 883a
000002f0: 9683 8139 0000 0000 1a0d df3b fd3f a03d
00000300: b123 a53d add1 13bd a49a 09bd 2db6 0ebd
00000310: d3b1 a23d 7f74 233b 9f77 1c3b 6abf 1c3d
00000320: 0400 0000 0400 0000 0400 0000 0400 0000
00000330: 0400 0000 0400 0080 0400 0080 0400 0000
00000340: 0400 0000 0000 0000 0400 0000 0400 0000
00000350: 0400 0000 0400 0000 0400 0000 0400 0000
00000360: 0400 0000 0400 0000 0400 0000 0400 0000
00000370: 1701 74b9 5277 0538 d2a1 40bd 0ff6 c93a
00000380: 6f36 0c3c 0d7e cd3b 91bd 8db8 64d8 d43a
00000390: 4bf7 1d38 0000 0000 b686 433c 8976 89bc
000003a0: 1f6b 82bc ecc7 c6bc aaec c7bc 575a c7bc
000003b0: cdf0 85bc fe65 12b9 f470 613a 8790 0e3c
000003c0: c0ae ddb9 048a 4fb9 d04b 6dbb a3e9 6ebc
000003d0: 6630 5abc a4dd 3bbd 2357 96ba 8c0d 55bc
000003e0: 12e8 dfb8 0000 0000 55e7 6fbd d568 66bd
000003f0: c148 6ebd 0b08 5f3c 0175 423c 85be 503c
6e-45 6e-45 6e-45 6e-45 6e-45 6e-45 6e-45 6e-45
6e-45 0.0 6e-45 6e-45 6e-45 6e-45 6e-45 6e-45
6e-45 6e-45 6e-45 6e-45 6e-45 6e-45 6e-45 6e-45
6e-45 6e-45 6e-45 6e-45 6e-45 0.0 6e-45 6e-45
6e-45 -6e-45 -6e-45 -6e-45 6e-45 6e-45 6e-45 6e-45
-1.982997e-05 -9.031583e-06 6e-45 6e-45 6e-45 7.2220385e-17 2.4999848e-17 -6.319609e-07
-9.031584e-06 0.0 -0.0029913776 -2.3990639e-05 -2.5657619e-05 -0.00041519318 -0.00041548032 -0.00041533675
-2.4824127e-05 -2.870841e-07 -1.666978e-06 9.826528e-06 -1.1562664e-06 -3.5756798e-07 6e-45 6e-45
6e-45 3.603989e-17 1.4280481e-17 7.602732e-08 -3.575679e-07 0.0 -0.0005557953 -4.70859e-06
-5.171505e-06 -5.457154e-05 -8.6767635e-05 -7.066959e-05 -4.9400483e-06 -3.219609e-05 -4.6291433e-07 -3.2012413e-06
-0.0021927143 -9.8991e-05 -0.01582562 -0.0063482304 -0.00794045 -0.017962893 -0.0023465985 -0.0056460793
-8.6838605e-05 0.0 -0.0052924654 -0.00121805 -0.0017783346 0.07940883 0.08071005 0.08005943
-0.0014981925 0.0013012392 -0.0005602838 -0.009281494 6e-45 6e-45 6e-45 6e-45
6e-45 6e-45 6e-45 6e-45 6e-45 0.0 6e-45 6e-45
6e-45 -6e-45 -6e-45 -6e-45 6e-45 6e-45 6e-45 6e-45
8.426872e-05 6.33565e-06 -1.983756e-06 -1.7817103e-05 -1.4404098e-05 0.0011281428 0.0007095735 0.0010021805
1.8856206e-05 0.0 0.0020510897 0.006166883 0.008498501 0.005376732 0.0057320767 0.005554404
0.007332691 0.00035534365 0.0023316182 0.0536517 0.00021830543 2.9626111e-05 -5.8123424e-05 -0.00030364914
-0.00018291616 4.1238014e-05 2.5100824e-05 2.1337977e-05 3.0214645e-05 0.0 0.0014403058 0.009112044
0.009545303 0.014109744 0.016334174 0.01522196 0.0093286745 0.0022244332 0.00043326017 0.018641107
0.008351743 0.0013863976 0.067880645 0.025608765 0.029138872 0.08076108 0.09945144 0.08024441
0.0013523452 0.0 0.03111479 0.4977504 0.49939668 0.006401234 0.047208704 0.026804982
0.49857345 0.040807456 0.0016463213 0.0100318575 0.0011839243 0.00023221961 0.0016906181 0.0085440315
0.009067585 0.00029849514 0.001852396 0.00103937 0.00024702837 0.0 0.0068069817 0.07824705
0.08063448 -0.036088634 -0.033594742 -0.034841705 0.079440735 0.0024941263 0.002387501 0.038268484
6e-45 6e-45 6e-45 6e-45 6e-45 -6e-45 -6e-45 6e-45
6e-45 0.0 6e-45 6e-45 6e-45 6e-45 6e-45 6e-45
6e-45 6e-45 6e-45 6e-45 -0.0002327006 3.1820797e-05 -0.047029324 0.0015408414
0.0085579 0.00627113 -6.7587134e-05 0.0016238806 3.7662026e-05 0.0 0.011933973 -0.016780155
-0.01592022 -0.024265252 -0.024404842 -0.02433507 -0.016350174 -0.0001396164 0.00085999 0.00870145
-0.00042282604 -0.00019792473 -0.0036208518 -0.0145820705 -0.013317203 -0.04586567 -0.001147006 -0.013003718
-0.00010676695 0.0 -0.058570225 -0.05625232 -0.058174852 0.013612757 0.011868716 0.012740736

exp_avg_sq f4 [128, 20]
00000000: f401 0000 f401 0000 f401 0000 f401 0000
00000010: f401 0000 f401 0000 f401 0000 f401 0000
00000020: f401 0000 0000 0000 f401 0000 f401 0000
00000030: f401 0000 f401 0000 f401 0000 f401 0000
00000040: f401 0000 f401 0000 f401 0000 f401 0000
00000050: f401 0000 f401 0000 f401 0000 f401 0000
00000060: f401 0000 f401 0000 f401 0000 f401 0000
00000070: f401 0000 0000 0000 f401 0000 f401 0000
00000080: f401 0000 f401 0000 f401 0000 f401 0000
00000090: f401 0000 f401 0000 f401 0000 f401 0000
000000a0: 9a9c 2531 800a 0c30 0fe2 3e2c a3ff 502f
000000b0: 81fa 1c2e c992 652c f23a 562f e733 ac2f
000000c0: 7ebd 1430 0000 0000 ed15 a038 5232 8732
000000d0: 6acf 9f32 c0d3 1035 b516 1235 5dd4 1035
000000e0: 0bb9 9232 7ce3 2032 ecdb c72f 6e67 eb32
000000f0: 27f3 4d30 2485 e42e 4307 100a 6120 a70d
00000100: 235e 500d 3208 d52a 4979 662c ca9b 562e
00000110: e183 fd2e 0000 0000 c58d 9537 eb9a 3e31
00000120: e6fc 6331 7dc7 5b34 4171 9c34 1971 6334
00000130: a806 5031 758f 1b34 739a a22e 2617 d131
00000140: 0d69 033a aecf 1136 9fae 623d d9ce c93b
00000150: a262 ca3b b023 243d bf78 9a3b f875 f53b
00000160: 33e8 0636 0000 0000 7bde 0e3d 7899 703d
00000170: 698f 7b3d 8583 3d3e df84 4b3e 135d 443e
00000180: c209 763d 455f 1c3a 768f 2a38 4789 ec3b
00000190: f401 0000 f401 0000 f401 0000 f401 0000
000001a0: f401 0000 f401 0000 f401 0000 f401 0000
000001b0: f401 0000 0000 0000 f401 0000 f401 0000
000001c0: f401 0000 f401 0000 f401 0000 f401 0000
000001d0: f401 0000 f401 0000 f401 0000 f401 0000
000001e0: bfd4 2234 7415 f930 1df0 6131 5d40 8c34
000001f0: f6f7 3734 f3e2 3a37 431d 9a36 35f3 f036
00000200: 30af 8b31 0000 0000 3de2 0039 81d8 b539
00000210: 8baf 183a 1c05 9b39 2333 c939 106a b039
00000220: 2f04 ef39 760a 5937 15f7 1238 c6f8 e93d
00000230: 4d37 8935 d4ab 5d32 24b2 2036 e006 af35
00000240: ffbd 8535 d535 2536 7211 1635 3f98 5436
00000250: 98c5 b732 0000 0000 8ae9 6239 b7d0 fb3a
00000260: 4490 043b 6c31 943a a7b4 b53a f631 a43a
00000270: 7c34 013b 5223 c137 5496 fb35 abe0 643b
00000280: 8dd2 ec39 64f9 6b37 9bba 893d 795e 033c
00000290: 4055 e93b f3a2 913d 0ad4 983d 5752 513d
000002a0: 4bb9 5537 0000 0000 bbf9 373d 45ba f43f
000002b0: 888c f63f b15f ae3f 36a8 c93f 3a98 bb3f
000002c0: 0aa3 f53f c44a 573c fd0f 3e38 a371 083b
000002d0: 80af c737 3589 8d35 99c2 813a 8e55 2d3b
000002e0: 9d46 8b3b 9e25 4935 5095 be37 c7ff fe39
000002f0: e578 9e35 0000 0000 6e94 c33a 4983 593e
00000300: 8c6b 603e 1aea 263e f3d2 2b3e f555 293e
00000310: 54f2 5c3e 0f29 0939 189b a138 bfa0 bc3c
00000320: f401 0000 f401 0000 f401 0000 f401 0000
00000330: f401 0000 f401 0000 f401 0000 f401 0000
00000340: f401 0000 0000 0000 f401 0000 f401 0000
00000350: f401 0000 f401 0000 f401 0000 f401 0000
00000360: f401 0000 f401 0000 f401 0000 f401 0000
00000370: 9825 5e38 5528 0b36 8f37 873d 44cd 243c
00000380: c937 ed3b 5176 593b 4ec6 7d37 4346 a239
00000390: 6b3e 0336 0000 0000 fb6e 3a3c 7e4d 153e
000003a0: 4d15 1b3e 417e 943e 0f1e 993e 6fc7 963e
000003b0: 432c 183e d4f6 5839 3ca0 a438 1819 643d
000003c0: 7b17 1836 48c8 0635 614a ec38 34e7 2e3b
000003d0: fdfa 0f3b 135e f23c 1573 8837 9108 1f3b
000003e0: 7b54 1234 0000 0000 d188 413d d649 4b3d
000003f0: 4ae2 573d 0507 643d eb04 6e3d 1af9 683d
7e-43 7e-43 7e-43 7e-43 7e-43 7e-43 7e-43 7e-43
7e-43 0.0 7e-43 7e-43 7e-43 7e-43 7e-43 7e-43
7e-43 7e-43 7e-43 7e-43 7e-43 7e-43 7e-43 7e-43
7e-43 7e-43 7e-43 7e-43 7e-43 0.0 7e-43 7e-43
7e-43 7e-43 7e-43 7e-43 7e-43 7e-43 7e-43 7e-43
2.4099678e-09 5.0946625e-10 2.7126112e-12 1.900831e-10 3.5692786e-11 3.262434e-12 1.9484128e-10 3.1323497e-10
5.411137e-10 0.0 7.6334785e-05 1.5738951e-08 1.8604357e-08 5.3952317e-07 5.442228e-07 5.395321e-07
1.7080785e-08 9.36495e-09 3.6354153e-10 2.7404635e-08 7.4924106e-10 1.039189e-10 6.9347136e-33 1.0299965e-30
6.420826e-31 3.7842087e-13 3.2752293e-12 4.8796335e-11 1.15285344e-10 0.0 1.78282e-05 2.77367e-09
3.3176604e-09 2.0468538e-07 2.9139667e-07 2.1182167e-07 3.0271767e-09 1.4487689e-07 7.394343e-11 6.0853322e-09
0.0005012907 2.172757e-06 0.055342313 0.0061586914 0.0061763087 0.040073097 0.004714101 0.0074908696
2.0102714e-06 0.0 0.034880143 0.05874011 0.061416063 0.18507202 0.19874905 0.1917613
0.0600679 0.0005965124 4.0664767e-05 0.007218513 7e-43 7e-43 7e-43 7e-43
7e-43 7e-43 7e-43 7e-43 7e-43 0.0 7e-43 7e-43
7e-43 7e-43 7e-43 7e-43 7e-43 7e-43 7e-43 7e-43
1.5164822e-07 1.8123232e-09 3.2878298e-09 2.6123863e-07 1.7133411e-07 1.1139305e-05 4.592964e-06 7.1808704e-06
4.065349e-09 0.0 0.00012291312 0.00034684318 0.0005824498 0.0002956771 0.00038375807 0.0003364836
0.0004558875 1.29366435e-05 3.5039226e-05 0.11424403 1.022339e-06 1.2902962e-08 2.394555e-06 1.3040517e-06
9.964568e-07 2.461825e-06 5.590474e-07 3.167908e-06 2.139386e-08 0.0 0.0002164004 0.0019211982
0.002022759 0.0011306233 0.0013863043 0.0012527097 0.001971512 2.302384e-05 1.8744709e-06 0.0034923952
0.000451703 1.4065157e-05 0.06725045 0.0080181295 0.0071207583 0.07111158 0.07462318 0.051103916
1.2738931e-05 0.0 0.044915896 1.9119345 1.9261637 1.3622953 1.5754459 1.4655831
1.919038 0.013140384 4.531442e-05 0.0020819686 2.3804372e-05 1.0545251e-06 0.0009899914 0.00264487
0.004250361 7.4933075e-07 2.2719294e-05 0.00048637224 1.1807102e-06 0.0 0.0014921555 0.21241488
0.21916026 0.1630024 0.1677969 0.16536696 0.21576816 0.00013080634 7.705967e-05 0.023025868
7e-43 7e-43 7e-43 7e-43 7e-43 7e-43 7e-43 7e-43
7e-43 0.0 7e-43 7e-43 7e-43 7e-43 7e-43 7e-43
7e-43 7e-43 7e-43 7e-43 5.2963936e-05 2.073609e-06 0.06602394 0.010058705
0.007239316 0.0033182094 1.51261465e-05 0.00030951397 1.9556853e-06 0.0 0.011378999 0.14580342
0.15144844 0.29002574 0.29905745 0.2944903 0.14860635 0.00020691316 7.8499754e-05 0.055687994
2.2663432e-06 5.021034e-07 0.00011267211 0.00266881 0.002196967 0.029585874 1.6266053e-05 0.002426658
1.3628043e-07 0.0 0.04724962 0.049630962 0.05270604 0.055670757 0.05811016 0.056878187

exp_avg f4 [128]
00000000: 0400 0000 0400 0000 5b86 17b7 c5f7 bfb4
00000010: 8b6b cfb8 0400 0000 bfa4 8d37 3097 fe37
00000020: f3fc b53a 68a5 6f39 0400 0000 84c9 5938
00000030: 10c8 4fb9 8948 8539 0400 0000 8ad6 9b36
00000040: 45e1 a8b4 1a42 62b6 90e0 18b7 936e 9037
00000050: 8a26 d135 f194 a2b3 4dd4 f9b8 a9b3 9a38
00000060: e073 9db6 e768 22b6 581d a334 d6ac fd37
00000070: 8d3b 2239 4dfa e4b5 5f9f 6c33 0400 0000
00000080: 3ce5 0636 02e4 c5b9 68a2 2f35 33da 1635
00000090: e084 15b6 0400 0000 8dc1 0f36 0400 0000
000000a0: 0400 0000 75eb 11b5 0400 0000 4bbd 07b7
000000b0: 0400 0000 c788 28ba 1ae1 28b7 7189 8537
000000c0: e391 473a 0400 0000 98f4 dbb6 a215 b034
000000d0: e3e2 0335 45c1 b4b5 0c8f b1b8 c548 a8b6
000000e0: a63b eb32 59be 45b8 71ce d234 669b 1037
000000f0: ae0e 3834 c368 d1b3 c70f 19ba 2f03 c9b8
00000100: 0400 0000 0db8 5134 cff8 4537 4528 27b9
00000110: 0400 0000 eeee cab7 8e4e b0b6 b283 88b6
00000120: 0bde 4bb7 18aa 9637 8e50 2db6 0400 0000
00000130: c941 95b7 0400 0000 b505 f036 753a 4eb9
00000140: 155b 0337 0400 0000 e663 d6b5 1e67 e037
00000150: 0e05 0a36 4009 f836 aef0 4f36 dc85 2635
00000160: 8d28 3339 23e9 5cb6 3389 383a df06 28b9
00000170: 2ad7 1938 4e22 fab6 906e ec39 0400 0000
00000180: 0400 0000 9955 e9b5 81ee 0eb7 e4d9 b136
00000190: 0400 0000 6088 1437 e8c9 ccb4 4ff3 8b35
000001a0: 355f d1b6 2667 3736 45a9 00b6 4057 a7b5
000001b0: 84ac d936 0400 0000 723e 41b6 6a44 0537
000001c0: 0b73 13ba 6f54 a032 9f9a 8535 c38c 21b7
000001d0: 3031 2637 0616 90b4 3f63 7ab6 59d8 07b5
000001e0: 0400 0000 0c34 8b35 dc07 8339 3f7b 9836
000001f0: 0400 0000 68ed 90b8 12c9 15b8 a5a1 a4b6
6e-45 6e-45 -9.031583e-06 -3.5756798e-07 -9.8905606e-05 6e-45 1.6885226e-05 3.0349562e-05
0.0013884589 0.00022854435 6e-45 5.1924508e-05 -0.00019815587 0.0002542178 6e-45 4.6443356e-06
-3.1456344e-07 -3.37151e-06 -9.112191e-06 1.7217628e-05 1.558293e-06 -7.570805e-08 -0.00011912789 7.3767565e-05
-4.6924542e-06 -2.4200942e-06 3.0382466e-07 3.0240433e-05 0.00015471708 -1.7060171e-06 5.509298e-08 6e-45
2.0100988e-06 -0.00037744647 6.542891e-07 5.6196876e-07 -2.2280074e-06 6e-45 2.1421322e-06 6e-45
6e-45 -5.4359344e-07 6e-45 -8.0907e-06 6e-45 -0.0006429073 -1.0065991e-05 1.5918837e-05
0.00076129864 6e-45 -6.555183e-06 3.2798295e-07 4.9131467e-07 -1.3467294e-06 -8.466662e-05 -5.0152616e-06
2.7384726e-08 -4.7145735e-05 3.9265754e-07 8.61925e-06 1.7141676e-07 -9.751377e-08 -0.0005838838 -9.58502e-05
6e-45 1.9531599e-07 1.1800045e-05 -0.00015941363 6e-45 -2.4191537e-05 -5.2543537e-06 -4.068447e-06
-1.2151441e-05 1.79606e-05 -2.5825898e-06 6e-45 -1.7792818e-05 6e-45 7.1532218e-06 -0.00019667468
7.829415e-06 6e-45 -1.5973317e-06 2.6750899e-05 2.0566545e-06 7.392053e-06 3.0985498e-06 6.203461e-07
0.00017085877 -3.2918258e-06 0.0007039487 -0.00016024288 3.667843e-05 -7.454574e-06 0.00045095803 6e-45
6e-45 -1.7384765e-06 -8.519391e-06 5.300377e-06 6e-45 8.85324e-06 -3.8144867e-07 1.0427119e-06
-6.239769e-06 2.7329165e-06 -1.9172014e-06 -1.2467863e-06 6.4871874e-06 6e-45 -2.879559e-06 7.943347e-06
-0.0005624748 1.8664847e-08 9.954273e-07 -9.629121e-06 9.905823e-06 -2.6838114e-07 -3.7310672e-06 -5.0606246e-07
6e-45 1.0371455e-06 0.00024992123 4.5443007e-06 6e-45 -6.9106754e-05 -3.571163e-05 -4.9063988e-06

exp_avg_sq f4 [128]
00000000: f401 0000 f401 0000 7306 0c30 2285 e42e
00000010: 46f7 1136 f401 0000 9938 7231 3f4f 6632
00000020: a302 6d37 4bfb 9735 f401 0000 e454 0f36
00000030: 9de0 0635 6a91 3436 f401 0000 7c18 3630
00000040: 5a30 382c d14c 0231 ef23 4b32 054e b434
00000050: 1c5c a72e e713 482b bc89 4f36 a3c4 e436
00000060: e9df 5130 a524 d22e 6d3e d62e 2f91 c033
00000070: 1fc6 4d35 c765 4f2f 0d17 0a2c f401 0000
00000080: 5721 5e30 60cd 1636 309d 762d 8d86 012e
00000090: a250 2b2f f401 0000 2227 a32f f401 0000
000000a0: f401 0000 93b9 0433 f401 0000 25ea 032f
000000b0: f401 0000 7a32 a537 422f 192f 81e2 5031
000000c0: 2442 3937 f401 0000 6790 0331 c527 de2e
000000d0: aa31 ba2b 2405 b42e 249a 1a34 79b9 a82e
000000e0: b08d 0d2d 5e6a 4d35 7222 e32c b061 9f35
000000f0: 9905 a62e 5642 0b2c 4b02 8336 2092 ff34
00000100: f401 0000 695e 8c2c e998 1734 3f1a 1135
00000110: f401 0000 0a92 4935 f045 8531 eb80 fb2f
00000120: 5723 d533 9947 eb33 163f 2931 f401 0000
00000130: 1f92 a733 f401 0000 3cce 2b2f 8479 4836
00000140: 3c17 9633 f401 0000 13e1 7e2e f2c2 8c32
00000150: 153b 6431 ee41 de2e ce9d d82e 2855 5231
00000160: e477 c035 c709 f52e 1d7d 1b37 f23d ab36
00000170: c157 b531 bcc1 b630 64d7 9735 f401 0000
00000180: f401 0000 2c8a b32f 79d8 4e30 4d3a 8233
00000190: f401 0000 6243 322f 7cc3 2730 02e1 632e
000001a0: 9b5f c030 a6f5 3833 8155 442f 7eb3 cc2e
000001b0: 8b33 3a2f f401 0000 605e 8731 6b1e 5b2f
000001c0: 563b f936 778e ee2e 9431 272f f5f8 9833
000001d0: e771 3a2f b924 942f 1db5 1530 2b85 e72d
000001e0: f401 0000 3add 072e fa60 6036 14b4 1330
000001f0: f401 0000 d982 2834 c3b0 4333 26a3 7b2e
7e-43 7e-43 5.094087e-10 1.0391889e-10 2.1750616e-06 7e-43 3.5247807e-09 1.34057805e-08
1.4126915e-05 1.1323513e-06 7e-43 2.1358073e-06 5.0245745e-07 2.6906732e-06 7e-43 6.624601e-10
2.6174813e-12 1.8961155e-09 1.18243255e-08 3.358438e-07 7.610643e-11 7.1081894e-13 3.0925576e-06 6.817821e-06
7.635195e-10 9.556204e-11 9.7426824e-11 8.9671055e-08 7.6656755e-07 1.8862699e-10 1.9623775e-12 7e-43
8.081051e-10 2.2471286e-06 1.4018384e-11 2.945071e-11 1.5581006e-10 7e-43 2.9677333e-10 7e-43
7e-43 3.0902424e-08 7e-43 1.1997565e-10 7e-43 1.9693038e-05 1.3932058e-10 3.0396736e-09
1.1042259e-05 7e-43 1.9145092e-09 1.0102456e-10 1.3229879e-12 8.1863655e-11 1.4398444e-07 7.672702e-11
8.046383e-12 7.6523236e-07 6.4555522e-12 1.1874854e-06 7.5498004e-11 1.9789912e-12 3.904371e-06 4.760377e-07
7e-43 3.989521e-12 1.4118599e-07 5.40549e-07 7e-43 7.509085e-07 3.8787604e-09 4.5748236e-10
9.925014e-08 1.0956064e-07 2.4628597e-09 7e-43 7.803123e-08 7e-43 1.5625629e-10 2.9873054e-06
6.9891456e-08 7e-43 5.795282e-11 1.6386796e-08 3.321195e-09 1.0107103e-10 9.8505745e-11 3.0607428e-09
1.4340008e-06 1.1143047e-10 9.26785e-06 5.1034085e-06 5.2777698e-09 1.3297305e-09 1.1313064e-06 7e-43
7e-43 3.2658087e-10 7.524999e-10 6.0642016e-08 7e-43 1.6212945e-10 6.1032046e-10 5.181367e-11
1.3997011e-09 4.3064254e-08 1.7856473e-10 9.30873e-11 1.6934913e-10 7e-43 3.9397463e-09 1.992874e-10
7.427686e-06 1.0848294e-10 1.5206175e-10 7.1233366e-08 1.6957068e-10 2.6947136e-10 5.446326e-10 2.6320798e-11
7e-43 3.0891935e-11 3.3435049e-06 5.3734195e-10 7e-43 1.5693821e-07 4.556274e-08 5.7215697e-11
