flaskProject/modules/Contrastive_Clustering/save/model_checkpoint.tar (torch, 183226 bytes, 24 tensors)

instance_projector.0.weight f4 [128, 20]
00000000: bd6e aebd dfa3 f63e e92e d33c 7178 38bc
00000010: dca4 a5be bcb7 8bbd 0f8c dfbd a1b7 b13d
00000020: 7d6f d13c 9604 99bd 9364 a8bd 2c57 08c0
00000030: 1a65 03c0 73f0 ab3d e81a 97bd 7674 0dbd
00000040: a9b8 0bc0 d55a d3be 7797 aebf 46ba 79bf
00000050: b5de 0bbd fad8 313e db98 4d3d f596 2f3e
00000060: 7720 12bd 3d53 fb3e fb19 ccbd af1e e6be
00000070: f9c0 30bc 9edf 90bd 3c1e 013e 41fa fbbf
00000080: 2421 f4bf d3db a6bb 98ad 023e 0fc9 18be
00000090: de81 10c0 c287 6cbf 1f68 08bf f0e5 56bf
000000a0: 5608 e63e 62fc a43f a503 a0bf 8849 04c1
000000b0: 519d d3c0 ff77 97c0 9741 da3f dc0d 5fc0
000000c0: 19d2 df3f 3479 1ebe a5fb 71c0 26a4 50c0
000000d0: 49b6 51c0 f12d 1dbe d5e6 5e3d 2eb2 cb3d
000000e0: 1a27 47c0 c70b 0a3f 04df 8340 2541 0fbf
000000f0: 0483 f5be 2ab9 593e bde4 cd3f 7b96 10bb
00000100: 35ca b4be ffaa f23f e555 1cc1 a82c 51bf
00000110: 527f f4bf 60e1 7d3d 04c3 a7be 3f0d 6a3e
00000120: 152d bebe f43d 31be 3aa9 9f3c ddb1 8a3d
00000130: 0c86 06be 6ad0 2940 5645 0840 50a8 0dbf
00000140: 6e13 10bf ce41 e23e 9906 24c1 8182 f1bf
00000150: 8d46 81c0 a1d8 b33f eb24 bac0 43ce 84be
00000160: baf7 8e3f 2a35 0d3e 2b2d d0be 3634 e2c0
00000170: 8ffc e7c0 6576 90bc 5dba 023e 15cd bfbd
00000180: 0fa9 e1c0 b25e aebe 0b28 79c0 8fe0 73bf
00000190: 367d 973d 3c58 623e 54e1 5cc0 bdc2 bcc0
000001a0: f919 0ac0 927a 6640 cb07 c2be ea17 8f3f
000001b0: 471e f33f f66f 45be 6883 31bf acbb 3fc0
000001c0: 7cc5 25c0 ae2e 5bbe e7f0 103e 7a99 a83d
000001d0: 5b3e 38c0 0fbe 133f 0684 673f 3f6b a5bf
000001e0: d146 08bd 3fea eabd 9790 a7be 3ac3 f13e
000001f0: 68cb 4a3f 21d7 263f cf18 353e eb62 93bf
00000200: c4fc 53be 64e9 b0bd 629c 4fbf 4929 823f
00000210: 9884 803f 1537 543d 5963 6b3d e9d2 22be
00000220: 8839 ac3f 474d d7bd 9bfb 0a3f 41d2 39be
00000230: 78fd e4be 586e 293e f883 393e 6d3d 27bf
00000240: 39ba 86bf a9df c7bc 7f9d 9ebe f29b a13e
00000250: b775 b93e f00b 16bd 44ee dbbd b8b0 3ac1
00000260: 01d2 3ec1 d57e bfbd eea1 a4bd 76cb 3e3e
00000270: d79a 40c1 69df 2bc0 4b31 b9c0 80b1 dfc0
00000280: 8838 53bd ae14 a53f 655f 93bf bf89 9fc0
00000290: fe7b 7bc0 5c8d f3bf b15d 6ac0 62c0 a1bf
000002a0: 95a2 ae3f 68d6 2e3d 4467 a9c0 cb0f a040
000002b0: 1759 9240 a6b1 57be 944e 023e fe19 ac3d
000002c0: 07bf 9f40 1832 cd3e 52ee 96bf bf77 23bf
000002d0: ee8c a43e b9c8 ffbe 376d 89bf 754f bec0
000002e0: 5154 c3bf bfdd a540 e1a2 c23e 35f0 69bd
000002f0: bf68 5cc0 f078 28bd 495a d73d fe63 0c40
00000300: 3b34 e13f 7ae2 96bc a014 5d3d ca2d 10bd
00000310: 9cdb e63f 59bd 03c0 76a3 7dc1 78ff f6c0
00000320: 92cb f3bc c1ee 28be dc70 da3d 7d1d 95bf
00000330: 3e2d 013f 6eb3 1bbf c357 dfbe 5f13 bf3e
00000340: 577d 2d3f 3c60 3abd eb93 c93e 1532 83be
00000350: bfea 683e 38fd b1bd 79f2 ba3b 58d8 173d
00000360: 646b d33d c104 d23e 178e 953f 0417 9f3e
00000370: 66da 82bf 5d5f 29bf 1f17 a23f da22 9c40
00000380: 6955 6640 55f2 a4bf 4b60 86bf 6c30 e3be
00000390: e59a f0bc 4dcd 47be 7c3e 603e 3af7 d63f
000003a0: f9c3 d63f b70f 28bd 32b6 1e3e 4dba e8bd
000003b0: b651 dd3f 9fce 10c0 99fe 3cc0 c41d c1bf
000003c0: 8437 f63c 093f 863e a077 d13d f07c 66bf
000003d0: 5310 50bf 3747 98bf 8c4c ef3e 54dc ac3d
000003e0: 8650 3ebf d2f7 62be c78f 88be 1d9d 00bf
000003f0: cd54 d3be 1316 37ba e162 9d3d 54a0 afbd
-0.085172154 0.481719 0.025779204 -0.011259184 -0.3235234 -0.06822154 -0.10915386 0.086776026
0.025565857 -0.07471578 -0.08222308 -2.1303205 -2.0530457 0.083954714 -0.07378179 -0.034534894
-2.1831458 -0.41280237 -1.3639973 -0.97549856 -0.034147937 0.17367926 0.050194602 0.1714743
-0.035675492 0.49086943 -0.09965893 -0.44945285 -0.010788196 -0.070739016 0.1260919 -1.9685746
-1.9072614 -0.005092123 0.12761533 -0.14920448 -2.2579265 -0.9239465 -0.53283876 -0.83944607
0.44928235 1.2889521 -1.2501112 -8.267952 -6.6129537 -4.733398 1.7051266 -3.485221
1.7485992 -0.15475923 -3.7809842 -3.2600188 -3.2767508 -0.15349557 0.054419357 0.099460945
-3.1117616 0.5392422 4.1209736 -0.5595878 -0.4795152 0.2126204 1.608543 -0.002206235
-0.35310522 1.8958434 -9.77097 -0.81708765 -1.9101355 0.061982512 -0.32765973 0.22856615
-0.3714377 -0.1730879 0.019489873 0.06772206 -0.13137072 2.6533456 2.129232 -0.5533495
-0.5627965 0.4419083 -10.251611 -1.8867952 -4.039862 1.4050485 -5.8170066 -0.25938615
1.116935 0.13789812 -0.4065946 -7.0688734 -7.24958 -0.01763458 0.12766404 -0.09365288
-7.051887 -0.34056622 -3.893069 -0.95264524 0.07396929 0.22103971 -3.451253 -5.898772
-2.1578352 3.601231 -0.3789657 1.1179173 1.8993615 -0.19280991 -0.69341135 -2.9958296
-2.5901785 -0.21404526 0.14154397 0.08232398 -2.8788059 0.5771188 0.90435827 -1.2923354
-0.03327066 -0.1147046 -0.327275 0.4721926 0.79216623 0.6517201 0.17685245 -1.1514562
-0.20701891 -0.08638266 -0.81097996 1.0168849 1.0040464 0.051810343 0.057467792 -0.15900768
1.3455057 -0.10512786 0.5429017 -0.18146612 -0.4472463 0.16545999 0.18116748 -0.65328103
-1.0525581 -0.024398642 -0.30979535 0.3156429 0.36222622 -0.03663248 -0.10738805 -11.668144
-11.9262705 -0.09350363 -0.08038698 0.18632302 -12.037803 -2.6855109 -5.787267 -6.9904175
-0.051567584 1.2896936 -1.1513487 -4.9855647 -3.929443 -1.9027514 -3.6619685 -1.2636836
1.3643366 0.042684942 -5.2938557 5.001928 4.573375 -0.21063861 0.12725288 0.08403395
4.992069 0.4007728 -1.179148 -0.63854593 0.3213877 -0.49957827 -1.0736455 -5.9471993
-1.5260106 5.1833186 0.38014892 -0.057113845 -3.4438932 -0.04113096 0.105152674 2.193603
1.7594064 -0.01841854 0.053974748 -0.035199918 1.803577 -2.0584319 -15.852407 -7.718685
-0.029760156 -0.16497327 0.106660575 -1.1649624 0.5045966 -0.6082066 -0.43621644 0.37319466
0.6776938 -0.045501933 0.39370665 -0.25624147 0.22745799 -0.08690876 0.0057051745 0.037071556
0.103232175 0.41019252 1.1683987 0.31072247 -1.02229 -0.6616114 1.2663306 4.8792543
3.598963 -1.2886454 -1.0498136 -0.4437288 -0.029370734 -0.1951191 0.21898836 1.6794198
1.6778556 -0.04103061 0.1549919 -0.11363659 1.7290561 -2.2626112 -2.9530394 -1.5087209
0.030055769 0.26219967 0.10227895 -0.9003439 -0.8127491 -1.1896733 0.46738088 0.08440462
-0.7434162 -0.22164848 -0.26672193 -0.50239736 -0.41275635 -0.00069841853 0.07684875 -0.08575502

instance_projector.0.bias f4 [128]
00000000: bdc8 353f d28c f23e 64c8 9d3f 1ac6 833d
00000010: 05d1 2838 de07 203e f10d e2bd ddab 13be
00000020: 3bce 443f cf28 41bf b665 d0be 49a8 3dbf
00000030: ebe5 d23e 8186 fd3e 2ab9 d6bc 3001 a43e
00000040: 6ad1 553f 4548 d2be f901 053f 4d5d 44bd
00000050: c4b4 c8b9 e5c5 353f 3b27 443f ed3e 233f
00000060: 6860 6f3d d266 f1be 9219 0b3e 6515 133e
00000070: ee59 073f eb2d 29be 9c91 cabe 8e8b 843e
00000080: 9f32 273e 90fc 9d3e c63c da3e bbe7 803e
00000090: 549a cebe 735c bf3e abc7 f4be 5a9e 743e
000000a0: b54e 5a3f 1aac d13e 281b ce3c ca5b b33e
000000b0: a7f9 113e a550 763d d7de 573e b631 343f
000000c0: dbad ecbf e69a be3e f104 00bd 66d9 98be
000000d0: 7d3a 6b3f a0f0 5c3e 0d5a 80be 1c06 de3d
000000e0: badd cf3e e740 bebe df6e 0a3f 3a70 4cbe
000000f0: 8fce f8be 8f38 28be fa0c 15bf b2ab c1be
00000100: 122b f73e 900c aebd f16a b93e e2be c9be
00000110: af66 59be a4f1 55be 2f23 c2bd dca3 ed3e
00000120: 6fa4 883e f2c3 dcbd 6e33 7f3f 8e1e 96bf
00000130: 5318 243e 1536 01c0 5aee 3e3d d75a c1be
00000140: 29bb e83e d605 083e 63ef df3d fed1 0b3f
00000150: 1248 ddbe 18d8 a13e 9a8b 1bbe 3a83 153f
00000160: fe67 bdbe 99c4 a83e b5ea a9bf 62c0 213f
00000170: 6170 2f3f 1500 60bc 6b62 27bb fafe 2cbe
00000180: a6bd 653f f572 d93e 24db dc3e a2f4 813e
00000190: 72c3 04bf c561 733f b9ff ee3e 90d0 293e
000001a0: 5296 84be c7b8 303e a908 a5be 3ae8 633f
000001b0: 8414 91bc 2af7 20c0 6c64 05bf aeca 8b3f
000001c0: 901d 22bf 40e0 92bd ac2e d13e 72bb 433e
000001d0: 81a1 a4bf fcd6 2d3f 1a9b b33f 014a e0be
000001e0: 9651 2ebf 2d7d 68bd 01bf 4fbe abab 953e
000001f0: ed73 963f 1972 363d babb 03bf 82aa 9fbd
0.7100943 0.47373062 1.2326779 0.06434269 4.0248986e-05 0.15628001 -0.11037815 -0.1442103
0.7687718 -0.75452894 -0.407026 -0.7408491 0.41191038 0.4951668 -0.02621134 0.32032156
0.83522666 -0.41070762 0.51956135 -0.04794054 -0.00038281654 0.7100509 0.7662236 0.6376789
0.05844155 -0.47148758 0.13583973 0.1436363 0.52871597 -0.16521423 -0.39564216 0.25887722
0.16327904 0.30856752 0.4262449 0.25176796 -0.40352118 0.3737522 -0.47808585 0.23888531
0.8527635 0.40951616 0.025159433 0.35030967 0.14255391 0.060135502 0.210811 0.7038835
-1.8490556 0.37227553 -0.031254712 -0.29853362 0.9188612 0.21576166 -0.25068703 0.10841009
0.4059885 -0.37158892 0.54075426 -0.19964686 -0.48595092 -0.16427825 -0.58222926 -0.37826306
0.48275048 -0.0849849 0.36214402 -0.39403445 -0.21230577 -0.2089296 -0.09479367 0.46414077
0.26687953 -0.10779561 0.9968785 -1.1728075 0.16024904 -2.018926 0.04661403 -0.37764618
0.45455292 0.13283476 0.10934331 0.546173 -0.43219048 0.3161018 -0.15189973 0.5840336
-0.36993402 0.32962492 -1.3274752 0.6318418 0.6853085 -0.013671895 -0.002554084 -0.16894141
0.89742506 0.42470518 0.4313594 0.25381953 -0.51860726 0.9507106 0.46679476 0.16583467
-0.25895935 0.17257987 -0.3223317 0.89026225 -0.017709978 -2.5150857 -0.52106357 1.0921228
-0.6332636 -0.071716785 0.4085592 0.19114473 -1.2861787 0.67906165 1.4031708 -0.4380646
-0.6809324 -0.056760002 -0.20287706 0.29232535 1.1754128 0.044542406 -0.51458323 -0.07796194

instance_projector.2.weight f4 [20, 128]
00000000: 0baa 80bf 49f1 0dbf 2b05 523f aef8 103d
00000010: b24c 56bd 8da8 30bd a294 383e b26e a7be
00000020: 549b 52be 159e 61be 004e 06be 7abe e93e
00000030: 8794 2d3f 70d4 a9be 6a8a 8ebf 3c7b 5d3e
00000040: 4006 e13d 7232 0a3e 5dd9 f53e 48fb 383e
00000050: 8468 ca3e adfa 1a3b 378f cbbd 85c2 8f3e
00000060: 4a87 72bd 27a4 8abd b65c 2c3d 949a 87be
00000070: 9480 1bbe a1a0 933d 8600 b73b 7e0a ac3e
00000080: 2001 e43d 904f 86bf f8a8 c93c 5b4b 173f
00000090: 3737 a3be 78cc b3be 6210 cebd e6b2 cebd
000000a0: 9259 803e 0893 683e 3460 81bd cb8c e8bd
000000b0: d246 273d d39f 86bc 6595 c13c 9115 ab3c
000000c0: e6f4 9ebe 1e2d 9d3f 573d e53c 7712 a53d
000000d0: 57b0 a4be 8b11 c4be cc2b f03d 3ca5 1740
000000e0: c0e2 8abe 8899 263e bb27 42bd 1122 c63d
000000f0: 6293 ce3e d3ed 5dbd 53ff 90be d592 16be
00000100: 2aad 763d 89e0 6dbe 89fc ba3e 748e 633e
00000110: 5c23 043d a390 983e 7669 f53b 88d7 8dbd
00000120: a70a 83bd 7c01 d83e 6cf7 3ebf bc70 32be
00000130: d434 0e3e d77f 433f cd87 bc3d 2952 1c3d
00000140: 3dcd 85be 9d83 84bd daf7 05bd 1651 9dbe
00000150: 38d6 c83c 9cf6 7abf 2144 dd39 945b b53e
00000160: d80b aa3c 7f20 ac3d a67e 7abf e11a d3be
00000170: 7fe5 903e 013b 093d a184 373d 018e 1ebe
00000180: a8ad 9dbd 4f8c 6e3b 3657 06bf d4da 8cbe
00000190: 8bc0 573e 990c 8bbf f594 87be 2085 cfbb
000001a0: bce8 acbd b2c9 d73b 722a 1bbe 7097 c2be
000001b0: a6eb efbe 7a3f 7cbf f4f0 903d 9b6e 2d3e
000001c0: 230c ed3c 1da0 3a3e 7908 5b3e 3885 d73d
000001d0: d75f 88bd c182 9e3d 8650 32bf 2ec6 8bbe
000001e0: dfa0 01bf 2ba4 bbbc 489c 7abd e02a 98bd
000001f0: 44f8 37bf be53 873d fcd0 693d c01e 003c
00000200: 0592 a2be ea99 92be abc1 883b a7eb 6f3d
00000210: e07a 7f3d 4c70 38bb 72e6 c43d 1a64 19be
00000220: 3dc9 5a3d 8e2a 7c3b 45c9 27be 49a1 b8bc
00000230: 8248 0abf 0263 093e 313f 2e3f 0841 e73d
00000240: 1d25 a8bc 2eb8 2ebe b2a1 2fbf bbf3 05bd
00000250: 4915 f4bd a0e5 f2bc bc96 103e e8d9 0dbe
00000260: 00ba 86bc ad15 4a3e c031 afbb 2263 2f3e
00000270: eddf 033d a6be a9bd 1118 163e f00c 773e
00000280: a643 3bbe 2680 3fbf d265 673d 456d 74bf
00000290: 7869 363d fd3d af3d 0ab1 3bbc f451 c4bd
000002a0: 50cc 18bf ecc0 de3d 4c05 e5bc 556c cbbd
000002b0: 6a77 63be f129 54bd 0203 58be be71 ba3e
000002c0: 8f26 ca3b 63f9 173f 360b f0bc 35fc 3bbe
000002d0: 68c4 913d 3f9f 19bf 1654 1dbb 215b df3d
000002e0: 7fbe acbe 3fc4 03bc 38c0 383e 55d5 c23e
000002f0: 4a85 1ebf 53f8 083c ea61 14be eb04 63bd
00000300: 16c9 b13d 701c a03e fa63 a5be bb47 383f
00000310: b3bc a93d 6a38 843d 1817 c33d 7934 243e
00000320: bc39 913e a842 10bf 8cab 3bbe d2f8 e23d
00000330: f8b9 4bbd 607b a33e a4ad 1a3e 2d9e cabd
00000340: e0b4 9f3e ee5b 5c3d e1b8 c0bd e7da 0f3e
00000350: e453 70bd 1bd1 6d3d 2a25 813c 7924 18bf
00000360: 9b91 3e3e 0cfa ac3b 10f1 b0be 40ec 0e3f
00000370: 5d37 023f ac8b 623e 37e2 b8bd 5206 db3e
00000380: 8d58 733e 002a 1abf b24c 3fbf 9371 b0bf
00000390: 09c8 8fbe e19a 393f a0b3 00be 0d40 933d
000003a0: dca4 053e a60c 073e 9726 61be bc9a cabe
000003b0: f166 e6bd ca9b 863e c290 823e affa 083e
000003c0: 2cc9 9d3c 6818 a13d 613e b63e 79d3 143e
000003d0: 3a32 32bd 5f04 263f 21ca 9e3f 9baf f2bd
000003e0: 1aa2 aebd aa5d cbbd 2bd9 c8bd 0d22 093e
000003f0: 78d8 b6bd e279 2c3d 4459 e43c 706b b9bc
-1.0051893 -0.55446297 0.82039136 0.03539341 -0.052319236 -0.043129493 0.18025449 -0.3270164
-0.20567065 -0.2203296 -0.13115692 0.45653135 0.6780476 -0.3316989 -1.1135991 0.21629041
0.1098752 0.13495806 0.48017398 0.18064606 0.39532864 0.002364795 -0.099394254 0.28078094
-0.059211053 -0.06769591 0.042080604 -0.2648512 -0.15185767 0.07208372 0.005584779 0.33601755
0.11133027 -1.049303 0.024616703 0.5909936 -0.31878063 -0.35116935 -0.100617185 -0.10092716
0.25068337 0.22712338 -0.063171774 -0.11354979 0.040839024 -0.016433632 0.023630807 0.020884307
-0.31046218 1.2279394 0.02798335 0.080601625 -0.32165787 -0.38294634 0.117271036 2.36946
-0.27126122 0.16269505 -0.04740117 0.096744664 0.4034682 -0.054181885 -0.28319797 -0.1470445
0.060223736 -0.23230185 0.36520794 0.2222231 0.032260284 0.2979785 0.0074893786 -0.06925875
-0.06398516 0.42188632 -0.74596286 -0.17425817 0.1388734 0.76366943 0.092055894 0.03816429
-0.26133147 -0.06470416 -0.032707073 -0.30725926 0.02451621 -0.98032546 0.00042203165 0.3542143
0.0207576 0.08404636 -0.978495 -0.41231444 0.28300092 0.033503536 0.04480422 -0.15483858
-0.07699138 0.0036399548 -0.52476823 -0.27510703 0.21069543 -1.086322 -0.26480833 -0.0063330084
-0.08442828 0.0065853233 -0.1515291 -0.38006163 -0.46859473 -0.9853436 0.07077208 0.16936724
0.028936451 0.18225141 0.21389951 0.10523456 -0.06658905 0.07739783 -0.6965412 -0.27299637
-0.50636095 -0.02290543 -0.061184198 -0.07430053 -0.718632 0.066077694 0.05708407 0.007819831
-0.3175203 -0.28633052 0.0041734776 0.058574345 0.062373042 -0.0028143106 0.096142665 -0.14979592
0.053414572 0.0038477513 -0.16385372 -0.022537844 -0.5401689 0.13416675 0.6806517 0.112917006
-0.02052551 -0.17062446 -0.686061 -0.032703143 -0.11918122 -0.02965051 0.1412 -0.13852656
-0.016446114 0.19734831 -0.005346507 0.1712766 0.032195974 -0.082883164 0.14657618 0.24126029
-0.18287525 -0.74804914 0.056493588 -0.9547923 0.044534177 0.08556745 -0.011455784 -0.09585944
-0.59686756 0.10876641 -0.027956627 -0.09932772 -0.22213522 -0.05179781 -0.21094897 0.36414903
0.0061691473 0.5936491 -0.02930222 -0.18357928 0.0711754 -0.60008615 -0.0024006418 0.10906053
-0.33739087 -0.008042394 0.18042076 0.38053384 -0.6192213 0.008359986 -0.14490476 -0.055424612
0.08680932 0.31271696 -0.3230284 0.7198445 0.08287945 0.06456073 0.09525889 0.16035642
0.2836436 -0.5635171 -0.18327159 0.11082615 -0.0497379 0.31930065 0.15105301 -0.09893451
0.31192684 0.05379861 -0.09410263 0.14048348 -0.058673754 0.058060747 0.015764792 -0.5943065
0.18610232 0.0052788313 -0.34558916 0.5582924 0.5086573 0.22123593 -0.09027522 0.4277826
0.23764248 -0.60220337 -0.747264 -1.378466 -0.28082302 0.7250195 -0.12568521 0.07189951
0.1305117 0.13188419 -0.21987377 -0.39571178 -0.11250103 0.26290733 0.25501066 0.13376878
0.019260965 0.07865983 0.35594466 0.14533795 -0.04350493 0.6485042 1.2405435 -0.118499
-0.08527012 -0.099299744 -0.098070465 0.13391896 -0.08928007 0.042108424 0.027874596 -0.022634238

instance_projector.2.bias f4 [20]
00000000: 418b 933e b07e 663e 4938 65bd 86fb aa3e
00000010: 786f b3be a8bc 863e b527 09bf 52f7 273f
00000020: 830d 003e 60c0 873e d3b8 f9bd 61cb ecbe
00000030: 2770 f83e 10cf 6e3f bd48 45be deba 9ebe
00000040: 89d6 27be 5354 aa3e 4f68 ff3c b858 a9be
0.2881718 0.22509265 -0.05596188 0.33395022 -0.3504598 0.26315808 -0.53576213 0.65611756
0.12505154 0.26513958 -0.121934555 -0.46248916 0.48523065 0.932847 -0.19266029 -0.31001943
-0.16390432 0.3326746 0.031177668 -0.330755

cluster_projector.0.weight f4 [128, 20]
00000000: 4718 26be 5849 75bd 8658 203e 7032 9e3c
00000010: 1468 ea3d 4809 c73c 34ed 5cbe 40f2 6c3d
00000020: 6294 c4bd df70 18be 4712 dcbd e4ba 893d
00000030: d4a3 173e 50b2 4d3d 2ef7 dbbd b2b4 2cbe
00000040: 761d 99bd 0326 fcbd f0f1 383d 7e2e 2c3e
00000050: 7846 a0bc 5cd1 0a3e 0388 9d3d 1c89 14bf
00000060: 1f9a dcbe 0546 67bf 5e87 e23e 4d10 19bf
00000070: 8d51 333f c411 53bd a51a 2a3d 1f53 993d
00000080: e126 66be 8f59 ce3c 7772 043e ef64 38be
00000090: 61e3 d9be 60f7 c0be e5bd d8be 26a6 963e
000000a0: fc23 c6bd 9c3a 29be 68d5 0bbe a06f f8bb
000000b0: 6a05 06be f8f2 523d a00c 7fbd 085a 62bd
000000c0: 4da2 58be 8069 69bb f4cc 5ebd 74a0 12be
000000d0: 5c96 0fbd 9b15 37be eb62 28be 680b e53d
000000e0: 986e 31bd a416 66bd 5890 b1bd b84c 543d
000000f0: 08d3 7c3d 1139 1f3f 0d3f 39bf 32f8 03bf
00000100: f4fc c3be dbfe 4abf 18d0 56be 6882 4abe
00000110: d317 403e 4844 003d 8e33 5ebd e0c7 cfbe
00000120: f1eb 13bf 787f 02be cdd7 98bc 08b3 ed3d
00000130: c3b8 19bf b5bd cebd 5107 9cbe 591e 40bf
00000140: 2c2e 7ebd cda7 3abd dc39 b8bf 500c 4abf
00000150: e293 50bf 1034 b8be 24f2 0c3f a6c2 eabe
00000160: 61cc 7ebe a0aa 51bd aecf acbe c6f7 9cbe
00000170: f120 ccbe 2a43 a7bc 1924 9a3d 8fb3 a5bd
00000180: 8a42 ccbe c998 d3bc 3de6 373f 1b40 623d
00000190: 9167 0abe 9d09 633e 7e09 6cbf a258 56bd
000001a0: eeeb cdbd f1e6 353b 5b07 0ebe 8a7b 53be
000001b0: 3217 303f a441 ef3d 81c8 033e 2df3 0d3d
000001c0: 86a8 013e e978 03be dc60 3d3e 4069 d3bd
000001d0: 206d bebd ab8a 9bbe 27fe 81bc c740 073e
000001e0: abc4 a8bd 58a9 1dbe b4a1 483e 657d 20be
000001f0: 6d6a 313f 607d e63e 9ca7 c2be 674e 81be
00000200: ed91 ddbf e2b9 233e 7b66 64bf 66ec 063f
00000210: 8c6c 153e 603d 3fbd a917 d9bd c443 e83d
00000220: 5fe7 933e 7d2c 87bd a8a4 c33e 044e 9e3e
00000230: 2e5a abbc 4444 85be caf0 cf3e fcca c03e
00000240: 66ae c03e 6904 92be 5ee6 dd3e b04a 17be
00000250: 9a55 763e 8887 88bd e028 a6be 6be0 e8be
00000260: 69ff 16bd 0121 9a3d 4572 59bd f5de 4bbd
00000270: a4fb d4be 07fb bcbc 8b24 aa3c 640d 1bbd
00000280: 9879 c2bb 9e28 a43e 0fd5 85be 6ae7 24bf
00000290: 7340 63be 6b30 93bd 07b7 a1be f7e4 febc
000002a0: c072 11bd b094 7b3c 59b2 edbe 8c48 12be
000002b0: bd42 95be d42c 44bd 99c0 8cbc 218d 2e3d
000002c0: 0e9d aebe ad39 92bd 08c8 333e bdcb 92be
000002d0: 24d1 a1be 7aa9 053f e2ac a5bf d4fd 0dbe
000002e0: 067a 163f a394 cebf 8205 1fbf 2eb7 9c3c
000002f0: 5dda 923e 3283 c3bd 814a f23d 20a8 a73d
00000300: b2ae 7abd 770c 15be 2be9 3fbd 5dc2 123e
00000310: 65d7 0a3d ba41 27bd 2153 81be 9bb4 cebd
00000320: 5c04 25be 85e7 ff3d 2091 723e 1888 1c3e
00000330: 709c af3e 71f6 173f cc2d 8ebd 94b6 70be
00000340: a61a a93e 50bc 40be 883a a4bf a8bf b0bf
00000350: 8e70 babf 43e1 b8be 9212 8fbf 400e efbf
00000360: 5e41 9dbf 91fc 95bf b786 8bbf 629f 9abf
00000370: 4376 f8bd 2236 04be 3808 e1be 8fc7 c73d
00000380: c76a 143f b481 aebe a9d6 643f 41b5 23bf
00000390: 1bbf 443d ee63 3abe 8355 28bf c4c0 24be
000003a0: 137d 2bbf 9c03 de3d 9d48 8139 f06b 09be
000003b0: 17ab 56be 0d6e b6bf c842 3cbf 8a54 aebf
000003c0: bc21 e93b 5e7f 55bd 10f9 8fbf 7156 53bf
000003d0: 80cd 043f 81a6 cbbe 4a0a e93e af02 27be
000003e0: ea42 45bf f367 46be 49aa f7bd f6ab b73e
000003f0: 5d8b 4dbe 6624 01be b76d 4cbd 7e85 193e
-0.16220199 -0.0598844 0.15658769 0.01931116 0.114456326 0.024296418 -0.21574861 0.057848215
-0.09598614 -0.14886807 -0.107456736 0.067251 0.14808589 0.05021888 -0.10740505 -0.16865805
-0.07476322 -0.12311938 0.045152605 0.1681461 -0.019564852 0.13556427 0.07691958 -0.5802171
-0.43086335 -0.90341216 0.44243902 -0.597905 0.7004631 -0.051530614 0.041529316 0.07486557
-0.22475769 0.02518919 0.1293429 -0.18007253 -0.4255629 -0.37688732 -0.42332378 0.29423636
-0.09674832 -0.16526264 -0.13655627 -0.007581666 -0.13088003 0.051501244 -0.0622679 -0.05526164
-0.21155663 -0.0035615861 -0.054394677 -0.1431902 -0.035055503 -0.17879336 -0.16443984 0.11183816
-0.04331836 -0.056173936 -0.086701095 0.051830977 0.061724693 0.6219645 -0.7236183 -0.5155059
-0.38278925 -0.7929513 -0.20977819 -0.19776309 0.18759088 0.031315118 -0.054248385 -0.4058218
-0.57781893 -0.12743938 -0.01865759 0.11606413 -0.6004755 -0.100947775 -0.30474332 -0.75046307
-0.06205575 -0.045570184 -1.4392657 -0.7892504 -0.8147565 -0.3597722 0.5505698 -0.4585163
-0.24882652 -0.05118811 -0.33752197 -0.30657786 -0.39868882 -0.020417769 0.07526416 -0.08090889
-0.39894515 -0.02582969 0.7183569 0.055236917 -0.1351607 0.22171636 -0.92201984 -0.05233062
-0.10054766 0.002775606 -0.13869993 -0.20652595 0.68785393 0.11682442 0.12869455 0.03465574
0.12661943 -0.12839092 0.1849398 -0.10322809 -0.09298158 -0.30379233 -0.01586826 0.13208304
-0.082406364 -0.15396631 0.19592935 -0.15672834 0.6930302 0.4501753 -0.380185 -0.2525513
-1.7310158 0.15988877 -0.8921887 0.52704465 0.14592189 -0.04668939 -0.10600216 0.1134105
0.2888746 -0.06600282 0.3821156 0.30918896 -0.020917024 -0.26028645 0.40613395 0.37654865
0.37633055 -0.2851899 0.4333982 -0.14774585 0.24056092 -0.066664755 -0.3245306 -0.45483717
-0.03686467 0.07525826 -0.05308749 -0.049773175 -0.41598237 -0.023068918 0.020769378 -0.037854567
-0.0059349053 0.32062238 -0.26139113 -0.6441561 -0.22192554 -0.07186969 -0.3158495 -0.031115038
-0.035509825 0.015355274 -0.4642513 -0.14285487 -0.2915248 -0.047894314 -0.017181681 0.04261506
-0.34104198 -0.07139907 0.17556775 -0.28671065 -0.31604874 0.52211726 -1.2943385 -0.13866359
0.58779943 -1.613911 -0.6211778 0.019130316 0.28682223 -0.09546508 0.11830617 0.08186364
-0.06120176 -0.14555536 -0.046853226 0.14331956 0.033896822 -0.040834166 -0.25258735 -0.100930415
-0.16114944 0.12495331 0.23688173 0.1528629 0.3429904 0.59360415 -0.06942329 -0.23507148
0.33028144 -0.18821836 -1.2830362 -1.3808489 -1.4565599 -0.3610936 -1.1177542 -1.8676224
-1.2285573 -1.1717702 -1.0900487 -1.207989 -0.12131932 -0.12911275 -0.43951583 0.0975486
0.5797543 -0.3408333 0.89390045 -0.63948447 0.048033815 -0.18202183 -0.6575548 -0.16089159
-0.66987723 0.10840532 0.00024658898 -0.13420081 -0.20963703 -1.4252335 -0.735394 -1.3619549
0.007114617 -0.05212342 -1.1247883 -0.82553774 0.5187607 -0.3977547 0.45515662 -0.16309617
-0.7705523 -0.19375591 -0.12093026 0.35873383 -0.20072694 -0.12611541 -0.04990932 0.1499233

cluster_projector.0.bias f4 [128]
00000000: c869 cb3d 5cb8 923e dc18 31bd b081 203f
00000010: b995 973e 1cd2 e13d 3fdd 22be 152f b8bd
00000020: c4b3 273f 29a5 b53e 4530 35be 8db7 ac3c
00000030: b850 e2be 43c1 03be 38d1 403f c0dd e63e
00000040: ad59 383e 48b2 bf3e 4407 603d b54b 2d3d
00000050: b439 a33d 1b78 7fbd e747 4dbe 06a1 eabc
00000060: 3290 b13b db10 8e3e 0eee 2dbd ab55 273f
00000070: 4d2c 71be 5749 88bd 2d53 6e3f a5de 013f
00000080: 2315 3bbe fb53 563f b495 d5bd 72ae f93e
00000090: 29f9 063f b648 463e 74c4 b73d cbb8 a13c
000000a0: b669 0abe 4948 023f 60f4 37be 60f1 09bf
000000b0: fc3c fabd 3b12 113f 1b03 afbe f1b0 21be
000000c0: 1b92 40be 5951 06be 28ff 483d f2d6 5e3e
000000d0: 12d1 dabe ebe2 67bd 689a f03e 9d4a 0e3e
000000e0: 438d 153f f0c9 c2bc 5b45 98bb f099 ce3c
000000f0: 5280 a3be 542b d63e c0fb 333c 5c67 86be
00000100: 8197 36bf 8e98 003f bc1d 2140 4173 533e
00000110: 465d 75bd 7770 693e 30ef e1bc d9f3 163f
00000120: f402 1dbe 8eb8 36be 8a44 2c3e 2d57 943d
00000130: 6abc 2ebf cfa3 33be c86e cf3d fb24 cd3f
00000140: 34dd 0d3f 8a7b 81be dfb5 5a3e 7190 043e
00000150: 09d6 62be f448 b43d 8be7 bebc fbf8 c8bc
00000160: ee05 333f 7288 0b3e df5d 163d c92b 433d
00000170: d2b2 f13e 0884 2b3f 670c 82be 3f94 06bf
00000180: bed7 1b3f 0c7f 51be 32ad 56be 2c09 373e
00000190: 5799 89be d166 38bd 4062 3e3b f58c 5abd
000001a0: 24ec 683e b50a 0f3e c2e0 283f a065 abbd
000001b0: 32e2 66be 2209 6a3e 5283 05be 4b3e 2bbe
000001c0: 2e6b 953d 2324 07be fb17 ac3e 941c 86be
000001d0: 3caa 8f3e 785d 533f d862 823d aaa7 c53e
000001e0: 9431 c4bb 8201 5dbe 708b f5be 1bd2 2abe
000001f0: 3f52 d0be 1cd9 99be af31 68be b7ec 80be
0.099322855 0.2865628 -0.0432366 0.6269789 0.29606417 0.11026403 -0.15904711 -0.08993355
0.65508676 0.3547757 -0.17694195 0.021083618 -0.4420221 -0.12866692 0.7531924 0.45091057
0.18002959 0.37440705 0.05469443 0.042308528 0.079699904 -0.0623704 -0.2004696 -0.028641235
0.0054188007 0.27747235 -0.042463355 0.65365094 -0.23552056 -0.066546135 0.93095666 0.50730354
-0.18269782 0.83721894 -0.10428944 0.48765904 0.5272394 0.19363675 0.08973017 0.019741436
-0.13516888 0.5089155 -0.17964315 -0.53883934 -0.12218663 0.5666844 -0.34182057 -0.15790154
-0.18805735 -0.13116969 0.04907146 0.21761683 -0.42737633 -0.05661289 0.46992803 0.1389565
0.58418673 -0.023777932 -0.0046469397 0.025219887 -0.31933838 0.41829932 0.010985315 -0.26250732
-0.71324927 0.5023278 2.5174398 0.20649435 -0.059903406 0.22796808 -0.027579874 0.5896583
-0.15333158 -0.1784384 0.1682302 0.0724319 -0.6825625 -0.17542957 0.10128552 1.602691
0.55415654 -0.25289565 0.21358441 0.12945725 -0.2215196 0.08802977 -0.023303768 -0.024532786
0.69930923 0.13626269 0.036710616 0.04764918 0.47206742 0.6699834 -0.25400087 -0.52569956
0.6087607 -0.20458621 -0.20964506 0.17874593 -0.26874802 -0.04501993 0.002905026 -0.053357083
0.2274633 0.13968928 0.65967953 -0.08368993 -0.22547224 0.22855046 -0.13038376 -0.16722982
0.072958335 -0.13197379 0.33612046 -0.26193678 0.28059566 0.82564497 0.06366509 0.3860448
-0.0059873555 -0.21582606 -0.47957945 -0.16681711 -0.4068775 -0.30048454 -0.22675203 -0.251806

cluster_projector.2.weight f4 [50, 128]
00000000: a006 e13c 9027 1dbe e64e 69bd 9488 88bc
00000010: 074e 3e3e 93b3 a33e 3019 b53d a488 51be
00000020: 45b9 4c3e bbbb 1f3e fa44 1bbe 36be 32be
00000030: e2c9 f8be 9ab2 94bc 9f14 6b3e b8ee 8c3d
00000040: 8003 043e ffa4 643e 7c9b febe c8bb 15be
00000050: 2a56 1cbd a9d1 b2be dce8 2bbd e649 943e
00000060: 3039 953e 2996 413e 032f 2bbe 0653 733e
00000070: 04d2 933e b127 22bf ef91 853e 99d2 e23e
00000080: 4c90 3bbd c16e ae3e a354 e4bd 7f41 933e
00000090: c95b b43e 062f cf3d 0c2a 4d3e 1641 c1be
000000a0: f287 abbd e6ff 3f3d 7057 cfbc d799 cfbf
000000b0: 041d b0be a8a3 c23e d2a4 1cbf 57c7 3bbf
000000c0: c179 9bbf e903 123f 08e0 02bc 927b 053e
000000d0: 6502 33be 9d77 383e e478 ad3e 4194 993f
000000e0: 7f69 e53c 0022 1fbc a14e 383f 7cd4 b83c
000000f0: ac1d a43c 0e13 983d aaab 293d 6107 4cbe
00000100: 6ad8 683d 96cc 973d ec79 913d c491 8a3e
00000110: 9062 59be 4793 363e ee5d 8fbd b65f 3e3e
00000120: d7a9 343e 6605 b73e b5d2 693d a336 b53d
00000130: 0b3e adbd 48e6 063e ab5d 863d 20e0 55c0
00000140: adf8 993e 3759 d33e a7ca 7a3e 5038 38c0
00000150: 48e0 acbc 6834 3ec0 42e7 113e abce 7b3d
00000160: 57db dc3e 9ea0 ebbd 8f13 c63d 2d70 95bd
00000170: 99d3 883e 7c55 30be 8c65 403e ed34 03be
00000180: 98e9 443e 4272 a0bd bbdb 863e ec18 6a3e
00000190: 1024 82bd 9c93 a1bc 0067 5eba 96f0 a33e
000001a0: 963c 81bf 3be4 ad3e c529 0a3f bd37 7bbd
000001b0: 40c1 0c3d 209d 69bd 317e 033d b1b5 3f3e
000001c0: c7f6 813d c949 b0bf a0a2 073d d100 643f
000001d0: bba3 6f3e 34dc e93e d5da 39bd c4ca 063f
000001e0: f7f1 5bbd be1a 2abf 7a5f 29bf 147d fc3e
000001f0: 38e8 0fbd d692 3e3d 7735 6bbc a1f6 ff3d
00000200: 2864 9a3c eb21 823d a271 323d b011 033d
00000210: cb08 d9be eccb 993d bf71 3ec0 58fb 1c3e
00000220: 9bde a9be b743 ed3d bafc 91bf 5b9d 223e
00000230: edec 88c0 61b0 90bf bc78 6abe e75b 57c0
00000240: 872a 37c0 941b 32bf f6ee 55c0 cbde 1ebf
00000250: 5e98 603d a3ff 5fbc 59ac 78c0 47ca dfbd
00000260: d091 db3d 2ef1 66be 6828 dfbf a779 433d
00000270: 63ca bf3e b62d 62bf 1a78 55bf 2407 3c3f
00000280: d2ff 52bd 30c2 0fbe cb4e 35bf 3e2d 2ebc
00000290: 1590 373e aa64 ad3e e905 99bf 29af 3dbe
000002a0: 8c75 8e3c 6147 ccbd 4e0c a8bd b583 5ec0
000002b0: 8834 1ec0 1dae 30be 0a47 663f 6716 eebf
000002c0: 658d acc0 4bdd 17bf 70e9 ff3c af21 cebe
000002d0: c2ab a1bf 4639 10bd e599 8e3d 1911 d5bd
000002e0: af13 5f3d ff18 38bd 5e22 cf3d 16a8 91bd
000002f0: 2187 b2be 3370 7fbd c071 9eba 4725 a9be
00000300: 70d4 e9bd b15e ef3d ae42 073f 9036 d1bc
00000310: 06a9 41be af49 843e 7f72 48bd d73e 4e3d
00000320: a3f2 a83d 6bb8 97c0 2de7 99bc d8c5 3d3e
00000330: 973c 05bf bfb8 d63d 6ac5 2a3d a6a5 453e
00000340: 1b2b a5be 7847 233f 438f bf3d 26bf a73e
00000350: 79f2 15bd 76d2 143e fd17 9c3e af22 81be
00000360: cb83 033d c31b 0d3e 6ec8 b03d 41c2 66c0
00000370: fc13 1bbe cd1d f9bc 343f d83e f860 38bf
00000380: 0520 1a3e 6bbd 803d aff7 13c0 192d c4be
00000390: 9bfa 833e 1a41 7cc0 62ef 6dbd d36e 6c3e
000003a0: 597f 68bf 1f78 a43f 9744 7bbf cae9 a63d
000003b0: 8c66 e9bf 64cd 0cbf beb7 afbd 2a94 1b3e
000003c0: 8779 ab3d 3994 a4be f344 31c0 b0a2 5c3e
000003d0: 6548 c23d 3bb9 06bf 7858 cabc 92cd 41be
000003e0: ee9d ac3f 42c1 a3c0 0051 7b3d aa8a ebbe
000003f0: 889b d63d ede0 c3be 940d fe3e fe0e 683e
0.02746898 -0.15347123 -0.05696001 -0.016666688 0.18584453 0.31972942 0.08842695 -0.2046228
0.1999255 0.15598957 -0.15163031 -0.17455372 -0.48591524 -0.01815157 0.22957085 0.068814695
0.1289196 0.22328566 -0.49728 -0.14622414 -0.03816811 -0.34925583 -0.04197012 0.2896263
0.29145193 0.18904938 -0.16717152 0.2376214 0.28871167 -0.63341814 0.260879 0.44301298
-0.04579191 0.34068874 -0.11148956 0.28760907 0.35226277 0.10116391 0.20035571 -0.3774497
-0.08375539 0.046874903 -0.025310248 -1.6218823 -0.34397137 0.38015485 -0.61188996 -0.73351043
-1.2146531 0.57037216 -0.0079879835 0.1303542 -0.17481382 0.18014379 0.33881295 1.1998369
0.028004406 -0.009712696 0.7199498 0.022562258 0.02003368 0.074255094 0.041423477 -0.1992469
0.056847014 0.074120685 0.07103333 0.27064335 -0.21229005 0.1782962 -0.070003375 0.18591198
0.17642914 0.35746306 0.05708571 0.08848312 -0.084590994 0.13173783 0.065608345 -3.3418045
0.30072537 0.41279003 0.24491368 -2.878437 -0.02110304 -2.9719486 0.14248374 0.06147639
0.43136093 -0.11505245 0.09671699 -0.072967865 0.26723936 -0.1722011 0.18788737 -0.12813158
0.19229734 -0.07834293 0.26339516 0.2286107 -0.063545346 -0.019723706 -0.0008483976 0.3201949
-1.0096614 0.3396319 0.53969985 -0.061332453 0.034363985 -0.05703461 0.032102767 0.18721654
0.06345897 -1.3772517 0.033114076 0.89063746 0.23402302 0.45675814 -0.04537471 0.52653146
-0.053697553 -0.66447055 -0.6616131 0.49314177 -0.03513357 0.046526752 -0.014356009 0.124982126
0.018846586 0.063541256 0.0435654 0.03199929 -0.4238952 0.07509598 -2.9756925 0.15330255
-0.33177647 0.11585181 -1.1405251 0.15880339 -4.2789216 -1.1303827 -0.22897619 -3.3649843
-2.8619707 -0.6957333 -3.34271 -0.62058705 0.05483281 -0.013671788 -3.8855193 -0.10927253
0.10721171 -0.2255294 -1.7434206 0.04772344 0.37459096 -0.88351 -0.83386385 0.73448396
-0.0515135 -0.1403892 -0.70823354 -0.010630904 0.17926057 0.33865863 -1.1954929 -0.1852385
0.017390035 -0.09974552 -0.08205472 -3.4767888 -2.4719563 -0.17253919 0.89952147 -1.8600587
-5.39226 -0.5932204 0.031239241 -0.40260074 -1.2630541 -0.03521087 0.06962947 -0.10403652
0.05446213 -0.044945713 0.10113977 -0.07112138 -0.3486872 -0.06236286 -0.0012088344 -0.33036253
-0.11417472 0.11687983 0.5283612 -0.025538713 -0.18912134 0.25837466 -0.048937317 0.050352897
0.08249404 -4.741262 -0.018786991 0.18532503 -0.5204558 0.10484456 0.041692175 0.19301471
-0.3225945 0.6378093 0.09353497 0.32763022 -0.036608193 0.1453341 0.30487052 -0.25221774
0.03210811 0.13780122 0.08631979 -3.6056063 -0.15144342 -0.030409718 0.4223572 -0.7202296
0.15051277 0.062861286 -2.3119924 -0.38315657 0.25777134 -3.9414735 -0.05808962 0.23089151
-0.9081932 1.2849158 -0.98151535 0.081500605 -1.823442 -0.550009 -0.08579968 0.15193239
0.08372789 -0.32144335 -2.7698333 0.21546435 0.094864644 -0.5262639 -0.024700388 -0.18926075
1.3485696 -5.117341 0.061356544 -0.4600423 0.10478884 -0.38257542 0.49619734 0.22661969

cluster_projector.2.bias f4 [50]
00000000: 0fec e93e 7f2a 83be 991c 423e 96e6 a73e
00000010: deea 653e 407e f9be ec6c 25bc 2ebd 5bbe
00000020: c96b 6c3e fdfc 863e 482b 4c3e 8849 17be
00000030: 7396 5a3e 15a6 47be 317a bbbe 712c bc3d
00000040: 8afe 303c a4dd 713e da22 a53e dc5b 55be
00000050: 3e52 22be 9557 b83e 8d59 19bc 1e0e 0a3e
00000060: 18eb 53be 7109 f53e e1b4 f7bd 0c2a 403d
00000070: f4f2 6d3e 1969 0b3e 4280 37be e7c1 cbbd
00000080: 0952 ab3e 7439 e83e 9849 d33e c636 b23d
00000090: fc38 bf3e 0867 cd3e e56b 043e ece0 e4bd
000000a0: 227b e5bd ce22 733e 18c8 5d3e a87f 3bbb
000000b0: 6fd7 68be 318b 143e 9a59 73be 3d7b 4ebe
000000c0: 6f03 3c3f 446c d03c
0.4568791 -0.2561836 0.18956222 0.3279311 0.22452876 -0.48729134 -0.01009677 -0.21458885
0.23087992 0.2636489 0.19938385 -0.14774144 0.21346454 -0.19496949 -0.36616662 0.09188164
0.010802874 0.23619705 0.32253152 -0.20835823 -0.15851685 0.3600432 -0.0093597295 0.13481948
-0.2069515 0.47858766 -0.12095047 0.0469151 0.2323721 0.1361431 -0.1792002 -0.09949093
0.33461025 0.45356333 0.41267085 0.087018535 0.37348163 0.4011767 0.12931783 -0.11175713
-0.11205126 0.23743746 0.21658361 -0.0028610025 -0.22738431 0.14506222 -0.23764649 -0.20164199
0.7344274 0.02544225

exp_avg f4 [128, 20]
00000000: ba1a 433d 8256 d43c 6ebd 9a3c fcf5 043d
00000010: 82bb 2e3d c323 c53c 84d1 993b 2288 f13c
00000020: 46df 8c3c 0000 0000 e81c a23a 5205 af3a
00000030: edc8 c13a 5098 fc3c 900f 053d 3361 023d
00000040: 4802 bc3a c531 313b 7335 193b 4dfd 5d39
00000050: f79b 863a 6f57 743c 95d2 053c e022 b73c
00000060: f980 bd3c f5ac 773c 72a0 56bb 3353 ac3c
00000070: bd23 213c 0000 0000 8514 2f3b a47a f839
00000080: e5b5 373a 12be 943c 2d98 953c fdc5 953c
00000090: b187 253a 665a b93a 3135 d43a e4c2 a439
000000a0: 475a c0bd 6dde 3abd 3bef 913b 4233 15bb
000000b0: 9ead bcbb 80ac 12bd 9b5e 89bd 8a0c debc
000000c0: 58cf df3c 0000 0000 f78b 503b 19ad ef3b
000000d0: 8f89 093c 04b2 6ac1 619e 6ac1 41a8 6ac1
000000e0: fe8f 093c a61f 333c 9916 a53b ffeb d23b
000000f0: e0be 9339 5be8 5f3a 4d91 103a 8817 b439
00000100: 5755 663a 81d2 9d3a 167c 8838 dcd2 9d3a
00000110: b79a 0eb7 0000 0000 09d8 1339 0541 a738
00000120: c7d7 b038 0f31 fbba 88bc 12bb 244e 09bb
00000130: c00e ac38 a612 f8b9 451d 4c39 5325 2a38
00000140: 5966 373d d4e4 0d3c 689e 1839 9a76 0d3b
00000150: ce6c 583b 66ea e6bb 7268 d7b9 0757 c9bb
00000160: af66 333c 0000 0000 dd42 2aba 210b 453a
00000170: 1395 443a b339 8c40 c83a 8c40 7e3a 8c40
00000180: b8c5 413a c8b0 1638 726b 9938 3f75 87b8
00000190: c86b 5abd a4cb 38bc a8b1 cfba 2e43 88bb
000001a0: 575b 94bb 8a05 f4bb e2ea b3bb 9880 fdbb
000001b0: 644a 1cbb 0000 0000 7825 83ba 3df6 79ba
000001c0: 5431 87ba aa22 8dc0 1420 8dc0 bd21 8dc0
000001d0: 21c3 7fba 64f4 81b9 2ae6 3aba e9ed d5b8
000001e0: cbe1 743e 13ad 423d a820 d03b de18 d03c
000001f0: 596f 0e3d ff49 2b3c 51e6 563b c1fd 5f3c
00000200: 42c3 f03c 0000 0000 3606 853b 2c94 f13b
00000210: 4dbc ec3b 9ca2 b73c 43af af3c 40c3 b13c
00000220: c48b ee3b e0f6 e63a 95fa 133b 22fb af39
00000230: b54c 203d a17a 6a3c eb60 33bb c129 a43c
00000240: c849 633c 1f43 47bc 28e9 6fbc b27b 4abc
00000250: c9cc e53c 0000 0000 993f b4ba b5df db3a
00000260: d3ab d93a dd8d eb40 ab84 eb40 e489 eb40
00000270: 99e2 d83a 9145 43ba fd4b fd39 4a49 62b8
00000280: 1ac9 5c3d dd3c e4ba ad8d 103c d41b 043c
00000290: cf5e 763b a621 8a37 1a74 1039 ae9f 6a3a
000002a0: 80f2 4f3c 0000 0000 9849 9038 684d 883b
000002b0: 35f8 da3b 1382 e4c1 c578 e4c1 5e7a e4c1
000002c0: a168 a53b 4d24 e53b ed3b 353b 8d68 f73a
000002d0: abb0 08be 317c 6ebc 65b8 06bb 51cd efba
000002e0: 413f 38bb d0af cdbb 92a1 10bc e99e 0cbc
000002f0: 94ea 0cbb 0000 0000 9ac3 1fbb 1d4f 4cbb
00000300: ccfb 4abb 5c01 b2c0 fb00 b2c0 3f01 b2c0
00000310: 3ae9 47bb d386 4bba 6b8d dab8 1412 2eb9
00000320: ab12 61bd 737b 46bc cb63 84bb c84c 23bb
00000330: 4c74 d9bb b6a5 1f39 0c8e 373a 1a0a 91bb
00000340: 8376 debb 0000 0000 011b f4ba e6b7 84bb
00000350: deb7 8abb ebda b0bb 521c c1bb 6c9c b4bb
00000360: 24bc 83bb aef8 8cb8 f6e0 02ba 4495 4ab9
00000370: 1bef c8be 8c7d c4bd aed2 4bbd 1110 93bd
00000380: cbba a2bd b3f7 5e3c 520d beba 26b1 513c
00000390: 2776 ebbd 0000 0000 b0ff 163b fb4b 30bc
000003a0: 72d8 33bc b8d4 3642 cdd5 3642 a3d6 3642
000003b0: 7a28 32bc 2be8 e0ba c0a2 06bb 0be2 10ba
000003c0: d6d9 c6be 8f66 89bd e595 9230 4fe9 e230
000003d0: 9f6f 6ab9 a414 1ebd 46df 63bd c181 1cbd
000003e0: 9e16 e9ba 0000 0000 3681 27bb 84f2 c5bb
000003f0: f28d c5bb ee2f a8bc 5622 d0bc 30ff bdbc
0.04763291 0.025920156 0.018889155 0.03246115 0.04265929 0.024064904 0.0046941657 0.029483858
0.017196309 0.0 0.0012368234 0.0013353026 0.0014784612 0.030834347 0.032485545 0.031830978
0.0014343942 0.0027037722 0.0023377805 0.00021170564 0.001026987 0.014913424 0.008167882 0.022355497
0.023132788 0.01511692 -0.0032749441 0.021035766 0.009835181 0.0 0.0026715111 0.0004739362
0.00070080004 0.018157039 0.01826104 0.018282885 0.000631447 0.0014141321 0.0016190169 0.00031425722
-0.09392219 -0.045622278 0.0044535673 -0.0022766148 -0.0057580015 -0.03580904 -0.06707498 -0.027105588
0.027320549 0.0 0.0031821707 0.007314336 0.008394613 -14.668461 -14.663667 -14.666078
0.008396147 0.010932839 0.0050380942 0.0064368243 0.00028180238 0.00085413986 0.00055148156 0.00034349808
0.00087865203 0.0012040884 6.508098e-05 0.001204099 -8.499882e-06 0.0 0.00014099492 7.9752914e-05
8.432526e-05 -0.0019164401 -0.0022390205 -0.0020951116 8.2043465e-05 -0.0004731614 0.0001946586 4.056592e-05
0.04477534 0.008660514 0.0001455486 0.0021585585 0.0033023837 -0.0070469854 -0.00041085813 -0.0061444077
0.010949775 0.0 -0.0006494949 0.0007516612 0.00074990204 4.3820434 4.3821754 4.38214
0.0007391828 3.5927427e-05 7.315622e-05 -6.4591404e-05 -0.053325444 -0.01127902 -0.0015845792 -0.004158399
-0.00452749 -0.0074469494 -0.0054906467 -0.007736277 -0.0023848051 0.0 -0.0010005673 -0.00095352886
-0.0010314384 -4.4104815 -4.410166 -4.4103684 -0.00097565545 -0.00024786883 -0.0007129634 -0.00010200946
0.23914258 0.047528338 0.006351549 0.025402483 0.03477416 0.010454654 0.0032791088 0.0136713395
0.029389981 0.0 0.0040595783 0.0073724 0.0072245956 0.022416405 0.021445876 0.021699548
0.007279845 0.0017621182 0.0022579778 0.0003356571 0.039135654 0.014311464 -0.0027371 0.020039441
0.013872571 -0.012161999 -0.014642991 -0.012358593 0.02805175 0.0 -0.0013751864 0.0016775044
0.0016606994 7.3610673 7.359945 7.3605824 0.0016547024 -0.0007449026 0.00048312536 -5.3950855e-05
0.053902723 -0.0017413158 0.008822841 0.008063275 0.0037593131 1.646655e-05 0.00013776161 0.0008950186
0.012692094 0.0 6.880163e-05 0.004159618 0.0066824206 -28.563513 -28.55897 -28.55975
0.005047873 0.006992853 0.0027654127 0.0018875763 -0.13348643 -0.014555977 -0.0020556685 -0.0018295442
-0.0028113874 -0.006277062 -0.008827584 -0.008582809 -0.0021502124 0.0 -0.0024378062 -0.0031175085
-0.0030972837 -5.562666 -5.5626197 -5.562652 -0.0030504004 -0.0007763926 -0.00010421391 -0.00016600668
-0.054949444 -0.0121143935 -0.0040402166 -0.0024917591 -0.006636178 0.00015225154 0.00070020626 -0.004426253
-0.00678903 0.0 -0.001862377 -0.0040502427 -0.0042333445 -0.005397191 -0.0058932686 -0.005511811
-0.004020231 -6.7220404e-05 -0.0004992628 -0.00019319827 -0.39244923 -0.09594259 -0.049761467 -0.07180799
-0.07945784 0.013608861 -0.0014499819 0.012798583 -0.11497145 0.0 0.0023040585 -0.010760303
-0.010976898 45.707733 45.70879 45.709606 -0.010873908 -0.0017159035 -0.0020543784 -0.0005526847
-0.3883807 -0.067090146 1.0665501e-09 1.6509974e-09 -0.00022357561 -0.038593903 -0.055632852 -0.03820968
-0.001778323 0.0 -0.0025559193 -0.006040873 -0.006028884 -0.020530667 -0.025406998 -0.023192972

exp_avg_sq f4 [128, 20]
00000000: cc7c 1041 580f 1b3f 4a0e 593c cd44 593e
00000010: e53e 4b3e d7ae c23d 6df1 4b3d 30b8 d33d
00000020: f916 5b3e 0000 0000 5400 fa3a cb6f 2f3b
00000030: 610f 343b ad1f a745 8520 a745 da1f a745
00000040: db14 313b a4dc 953a 9b26 933a 65bd 1937
00000050: 0bf4 ac3f c229 eb3d 2c4d 923b 6c16 7c3d
00000060: 727d 703d a8fd 823c ed4f 783a 1bbc 883c
00000070: 7441 683d 0000 0000 5b0a 023a 5e4a f139
00000080: 6736 f939 ae8e 0e3f c6c1 0d3f 7e02 0e3f
00000090: 7617 f439 ac56 2839 3c8c 9039 1a13 4236
000000a0: bef3 4641 8fbf e93d 1133 c63a 95fa 143b
000000b0: 321b 703b fe15 b43c a8a6 653d 70d2 093d
000000c0: e3c2 143c 0000 0000 051e f739 8681 dd3a
000000d0: b98c f23a a4a1 b846 cfa4 b846 4aa2 b846
000000e0: ce44 f13a 9756 de3a 6af3 1f3a 8b38 bf39
000000f0: 4c85 963a ba06 9239 03e5 8038 3819 0f39
00000100: c830 eb38 a82f 9039 e4aa 5735 6746 9039
00000110: dc43 8332 0000 0000 0767 de36 438d fc35
00000120: a910 0836 e682 db39 aff6 d739 cd56 d839
00000130: ae43 0336 4e65 4237 8b9b a136 4bbd 1634
00000140: 1e41 cb3d adc6 0c3c fbdc 5337 d5b3 813b
00000150: 2084 7f3b 6b77 933a db3f ce36 d7f7 9c3a
00000160: 5100 743b 0000 0000 8bca 2138 b6ee 4338
00000170: da93 4838 e946 0845 8144 0845 2146 0845
00000180: db3c 4538 84ef 8737 3b6b e037 7c65 9a34
00000190: cd74 793d 0341 fa3a 232c 8737 2106 3339
000001a0: e654 7139 31bd 143a b724 0d3a 9824 2c3a
000001b0: 6dc0 4c39 0000 0000 a839 5637 9660 a937
000001c0: 8af8 aa37 f59f a643 30a0 a643 31a0 a643
000001d0: f352 a937 1d9e 2a37 87a0 8736 3b10 7234
000001e0: d968 183f 71ee e13c 0f63 cb3a 19c7 483c
000001f0: c994 7e3c b12c 133b 9aa5 f238 d186 263b
00000200: b7c5 6d3c 0000 0000 5341 1f39 d9ae 0f3a
00000210: 041c 143a da43 2f3c a3f0 273c a881 2a3c
00000220: b33a 133a 0e3b 8638 ad60 de38 772a 8d37
00000230: 9789 cd3f 19ed db3d f6ee 353b 7680 0a3d
00000240: e636 193d 9c58 863c 418a 073c 4fcc 8f3c
00000250: 7720 113d 0000 0000 b0b9 a539 30fb 063a
00000260: 78c1 093a 274c d746 5349 d746 454b d746
00000270: 5f74 073a fe59 4739 06cb 4739 eece b635
00000280: 02b3 8040 9f6e 493d 8fae 173b a6d5 0a3b
00000290: b315 813b f858 9535 8c72 d735 fcea 213c
000002a0: 2ce8 0a3c 0000 0000 a181 8c3b 458d 313c
000002b0: 2f02 333c 76b6 c145 9cbc c145 94b8 c145
000002c0: dc33 343c ab11 983a 551d 3f3a 3e82 f139
000002d0: 69fb 163f cd2a 183c 8831 4c38 6781 6f38
000002e0: a2d5 0439 e8f7 603b da67 b53b 9c3d 8b3b
000002f0: 7fe2 3c39 0000 0000 6f06 5639 cde1 c739
00000300: 492c bc39 2d1f db44 0521 db44 9e1e db44
00000310: 69f6 c039 aca7 1438 eaca 0335 9336 b534
00000320: 71e7 e03d 8509 523b e5e5 c439 0732 6439
00000330: e033 c03a f6a7 8a36 12c4 2537 1826 253a
00000340: 9d99 ff3a 0000 0000 d80e b839 874f be39
00000350: ee70 c839 aed6 3e3a a799 503a 725c 4d3a
00000360: f206 c639 faa2 a438 d733 8138 5f81 0738
00000370: 6d73 0141 7e97 3c3f b572 b33d f098 c03e
00000380: ca15 ec3e c73e 973d 09e4 813b 7fa3 b33d
00000390: 577a d13e 0000 0000 6e30 5b3b 7804 f63b
000003a0: 0a1e 023c 1a5b fa47 7257 fa47 2c5a fa47
000003b0: 5ba0 fd3b ad60 b23a 7ee6 073b 8537 1a39
000003c0: 3a3a fa40 e7d6 623e 501f e334 b2a0 2535
000003d0: 857c 9437 ac31 ff3d 6b48 523e 910d d03d
000003e0: 6854 ec38 0000 0000 f120 d839 daa5 0a3b
000003f0: 06d0 083b 8f07 3b3f fbeb 3b3f a0d1 3b3f
9.030468 0.6057029 0.013248036 0.21217652 0.19848211 0.09506004 0.04979079 0.10337865
0.21395482 0.0 0.0019073584 0.0026769515 0.0027474987 5347.9595 5348.065 5347.9814
0.0027020487 0.0011433554 0.0011226715 9.1636075e-06 1.3511976 0.11482574 0.004464766 0.06154482
0.058713384 0.015990093 0.0009472359 0.016691258 0.056703046 0.0 0.00049606495 0.0004602251
0.00047533514 0.5568646 0.553738 0.5547255 0.00046556786 0.00016054016 0.00027570303 2.8919371e-06
12.434507 0.1141349 0.001512142 0.0022732366 0.0036637303 0.021983143 0.05606714 0.033647954
0.009079668 0.0 0.00047133878 0.0016899563 0.0018505073 23632.82 23634.404 23633.145
0.0018407346 0.0016963062 0.000610164 0.00036472487 0.0011483817 0.00027852302 6.1461724e-05 0.00013646937
0.000112147594 0.00027501327 8.034242e-07 0.00027518274 1.5281266e-08 0.0 6.6281095e-06 1.8816576e-06
2.0275277e-06 0.00041868462 0.0004119179 0.00041263402 1.9559916e-06 1.1586888e-05 4.8162815e-06 1.4038703e-07
0.099245295 0.00859229 1.2628031e-05 0.003958205 0.0038988665 0.0011250799 6.146712e-06 0.0011975717
0.0037231634 0.0 3.8574024e-05 4.671394e-05 4.7821413e-05 2180.432 2180.2815 2180.383
4.7025136e-05 1.6204787e-05 2.6752814e-05 2.8758575e-07 0.060902406 0.0019092861 1.6113807e-05 0.00017073053
0.00023015178 0.00056739437 0.0005384194 0.0006566732 0.0001952664 0.0 1.2768818e-05 2.0191346e-05
2.0381314e-05 333.24966 333.25146 333.2515 2.0184996e-05 1.0169603e-05 4.0420014e-06 2.2543911e-07
0.59534985 0.027579518 0.0015517193 0.0122545 0.015538403 0.0022457058 0.00011570305 0.0025409947
0.014512471 0.0 0.00015187757 0.00054810714 0.00056499266 0.010697329 0.010250243 0.010406889
0.0005616352 6.400618e-05 0.00010603792 1.6828284e-05 1.6057614 0.10738582 0.002776084 0.033813916
0.03740587 0.016399674 0.008272708 0.017553477 0.03543135 0.0 0.000316096 0.0005149124
0.00052549643 27558.076 27556.662 27557.635 0.0005167182 0.00019011644 0.00019053751 1.3620281e-06
4.0218515 0.049177762 0.0023144817 0.0021184473 0.0039393543 1.1127258e-06 1.6052086e-06 0.009882685
0.008478206 0.0 0.004287914 0.010836904 0.010925814 6198.8076 6199.576 6199.0723
0.010998692 0.0011601945 0.00072904426 0.0004606414 0.5897737 0.009287548 4.868352e-05 5.7102556e-05
0.00012668085 0.003432745 0.0055360617 0.004249288 0.00018013454 0.0 0.00020411027 0.00038124472
0.0003589115 1752.9742 1753.0319 1752.9568 0.00036804684 3.5442106e-05 4.909658e-07 3.3753585e-07
0.10981644 0.003204913 0.00037555318 0.00021762411 0.0014663897 4.1322737e-06 9.880418e-06 0.0006299927
0.0019500736 0.0 0.00035106274 0.00036298877 0.00038231112 0.00072799146 0.00079574663 0.0007833905
0.00037770678 7.850486e-05 6.160855e-05 3.2306994e-05 8.09068 0.7366866 0.08762113 0.37616682
0.46110374 0.07385021 0.0039639515 0.08771419 0.4091365 0.0 0.0033445614 0.007507857
0.007941732 128182.2 128174.89 128180.34 0.007740063 0.0013609134 0.002073675 0.00014707267
7.8196077 0.22152291 4.2304828e-07 6.170113e-07 1.7700959e-05 0.12460646 0.20535438 0.101588376
0.00011269079 0.0 0.00041223274 0.0021155984 0.0020875945 0.7305841 0.7340695 0.7336674

exp_avg f4 [128]
00000000: aac4 da3c 298e 333c 4129 2dbd 58e8 5f3a
00000010: e5ab 0f3c 2adb 39bc 5988 4d3d e8e9 713c
00000020: fe9b 073b b87e 6ebc a038 54bc 9d68 c0bd
00000030: 8f66 89bd 23f6 d03d 3445 8f3c 29cb 54bb
00000040: 0fb4 f63d 75c8 8abc 286d bcbd b1a9 cf3a
00000050: d5ec 223c 07e9 d63c 1a2d 5f3d 2aac 68bd
00000060: 0000 0000 9741 553c 0000 0000 50f1 0ebc
00000070: 661d e4bc 0000 0000 32e0 f6bc a874 ff3d
00000080: 58e0 08bc 1d5d 463e f478 b838 33a3 a1bd
00000090: dab4 9ab4 1231 ebbc b7fa 82bd 9cfa d6ba
000000a0: 98fc 9dbd f1bd d33c 0000 0000 3877 c3bb
000000b0: 7d29 c4bc f738 1ab9 8f6f b63b e062 a03d
000000c0: 2e74 df3b 0b0d 003d 0ba4 3bba afe7 bd3c
000000d0: 7ccb 623a c620 4e3c 8700 2cbb df3e 293d
000000e0: ac25 843a bc37 8eba c787 8bb9 66a4 fbbd
000000f0: efa3 1c3c e5db 813d 3441 d03b 1824 bfbb
00000100: 3be4 8f3c a173 c1bc a771 3b3d a14d b13c
00000110: 0000 0000 6dd6 273c 01d5 0abc 07bf b83a
00000120: 09ae 32bd 2eda d33c 0ca4 9b3c 42fc 2dbc
00000130: 4778 1a39 69f4 e437 5a28 313c 8d17 3c3c
00000140: 3bc1 653c 0000 0000 1e04 1b3d 2796 40bd
00000150: 7c00 173c 4125 89bc 7088 87ba 2422 92bd
00000160: 8400 4c3b c77f 2a3d ebf5 1dbc eda3 2cbe
00000170: fa5c 723d 7a33 26bc 25de 843c c109 32bb
00000180: 2272 193c 455b 5cbc 58ac aabc d31c cbbc
00000190: 6d7d c0bc 1e71 153c 905f c4bb 0000 0000
000001a0: 17e2 9b3c 02cb 33bc 7493 3dbc b8f5 9b3c
000001b0: 446f e1bb 9233 c3b7 4fcb f8b7 cca2 0ebd
000001c0: 7225 983c 3023 5e3c f2cd 733d 8504 163d
000001d0: 0337 68ba 7ec2 f83c 3276 1c3e 2b1b a73c
000001e0: 5492 eebc ca79 2b3c 286d b33b 1ef1 f73b
000001f0: b761 16bc fcd4 423b ca19 92ba 0000 0000
0.026705105 0.010959187 -0.04227567 0.0008541397 0.00876901 -0.011343757 0.05017886 0.01476524
0.0020692344 -0.014556579 -0.012952954 -0.093949534 -0.067090146 0.10203197 0.017489053 -0.0032469726
0.12046062 -0.016941288 -0.092005074 0.0015843419 0.0099441605 0.026234163 0.05448637 -0.056804813
0.0 0.013016126 0.0 -0.008724526 -0.02784605 0.0 -0.030136202 0.12473422
-0.008354269 0.19371457 8.796333e-05 -0.07892456 -2.8816322e-07 -0.028709922 -0.06395476 -0.0016401592
-0.07714194 0.025847407 0.0 -0.0059651397 -0.023945564 -0.00014707806 0.005567498 0.07831359
0.0068192696 0.03126244 -0.0007157928 0.023181764 0.00086515374 0.012581056 -0.0026245432 0.041319724
0.0010082028 -0.001085035 -0.00026613308 -0.12287216 0.009560569 0.0634077 0.006355429 -0.00583316
0.017564883 -0.023614706 0.045762684 0.021643462 0.0 0.010243994 -0.008473636 0.0014095017
-0.043623004 0.025860872 0.018999122 -0.010619225 0.00014731391 2.729353e-05 0.010812843 0.011480224
0.0140231205 0.0 0.037845723 -0.047018196 0.009216424 -0.016741397 -0.0010340344 -0.07135418
0.0031128237 0.041625764 -0.009641151 -0.16859408 0.0591707 -0.010144109 0.016219208 -0.0027166458
0.00936559 -0.013449495 -0.020834133 -0.024794018 -0.023497308 0.0091212075 -0.0059928373 0.0
0.019028706 -0.010973694 -0.0115708 0.019038066 -0.006879719 -2.3269826e-05 -2.9658577e-05 -0.034823224
0.018572543 0.013558194 0.059522577 0.036625404 -0.0008858295 0.030366179 0.15279463 0.020398697
-0.029122509 0.0104660485 0.005475659 0.007566585 -0.0091785705 0.0029729 -0.0011146602 0.0
