flaskProject/modules/Contrastive_Clustering/save/model_checkpoint_6_100.tar (torch, 183506 bytes, 24 tensors)

instance_projector.0.weight f4 [128, 20]
00000000: 7eb2 67bc fb8e bc3e 9654 ddbe d790 a5bf
00000010: b8ce 3e3e caa8 41bf 8297 1d3f c784 00bf
00000020: 97eb 0b3e 4014 9abb 4be2 45bf 89f7 09bf
00000030: d7ad 29bf 5672 2c3d c5b6 3fbe d7ae af3d
00000040: dc9f 8cbe 031c 323b 4814 5f3f a0c4 a43f
00000050: cc94 0ebe 977a 40be bc00 913d c057 bdbd
00000060: 188f 12be dc31 383d e68c f2bd 6a8c 1f3e
00000070: aca1 ae3c ae7d 5a3e 6690 183e 8a1b 3cbe
00000080: babd d3bd 5873 8b3d f98a d7bd 5af4 92bd
00000090: 582c 123d 02a1 f5bd 0617 a3bd 8c20 0fbe
000000a0: 3aa8 22ba c1ae 74be fffc f63c e540 4ebe
000000b0: 161c 3fbd 33a7 9ebd 89c8 5ebe 8b12 0fbe
000000c0: 972f 95be 902c 94bd e749 ac3d be30 51be
000000d0: 29c0 a33d d759 0dbd ad5c 8abe 4a53 c3bd
000000e0: 7768 743d f08a 053c 03bc 3abe 10d9 093e
000000f0: a019 983d 9229 36bf 26b7 97be 7c6e fa3e
00000100: 2e5a 6f3e 11d1 02c0 ac37 89bf 5bdd adbf
00000110: 1c8e 29c0 b020 7abc d9bb 973f 92f8 543d
00000120: c9aa 363e d5f3 b6bc d59e 21be 780a c1bd
00000130: b5cd cd3e efe4 673e af92 1240 2f83 2540
00000140: 6072 ae3c 3628 7b3d 00e7 1a3f 9ee8 9c40
00000150: d811 aa3e 0bae 8e40 3e3c e5bf d148 6d3f
00000160: 8117 3540 68fe 46bd 3433 a43f d06f 733f
00000170: f2ea 8f3f a0bd 163e 77ad 3bbe 6538 233d
00000180: 853a 773f cb80 81bf 4be5 8ac0 5bdf 04c0
00000190: 6846 203d f0ac f3be 0556 efbe c517 1abf
000001a0: d735 bcbf b8a6 c43e 73d2 ec3e 2edb 013f
000001b0: 67e4 7abf 5c28 853d 525d 773f 435b fabc
000001c0: f672 b93e b0a2 b73d fbd6 3f3d 0730 36be
000001d0: d35f 7cbd 775b 35be a66f ca3e 0417 2a3e
000001e0: 3abf 9cbd dc8f acbd 7867 e5bc 2a35 293e
000001f0: 7580 09be 88dd a4bd 8c6e 37bd dafd 2a3e
00000200: b481 39be 6915 28be 1abc a83d 8e3d 29bd
00000210: e9b6 9bbc 4c56 67be eb5c 67be d631 7bbd
00000220: 7a3c da3d a88f 2dbe 4cca 3abe c856 d7bd
00000230: 47e9 2a3e 66af c6bb 87ea bbbe 3b0b 14be
00000240: 8570 13bf 0cab 253e 4d23 a8bd 05da 683e
00000250: 5a53 f13d 74bd 81bd fa46 a73e e23f 963d
00000260: 5ede ac3e 9310 28be 8739 e8bb 1b36 48bd
00000270: a543 e7bd 3240 91bc 6201 0bba bcfe 433d
00000280: 4717 173d 9bd9 debe 67ab 0fbe 7ec6 e1bc
00000290: c5ba 3ebe 585d 8ebb 9797 e13e abcb be3e
000002a0: 49f7 08be ccd2 4d3e fed3 1b3f b16b 933e
000002b0: 6603 de3e 71f0 46bc 1fc5 46be ce45 29be
000002c0: d3da bc3e d654 f13e 558b c83e 89f2 d1be
000002d0: 28cb 5bbf 4833 ed3d cc92 1440 4b4d eb3f
000002e0: b83f 8e3f 350e 823e d95e fa3b 3357 95bd
000002f0: eff7 be3f a536 eebd b4d0 1fbe 618d e9be
00000300: 2ca2 3dbf 2c77 fdbd 10b2 a03d 9e10 7f3c
00000310: d2a9 c5be 36f1 58be e7a6 c3bf 19fe d2bf
00000320: e28b 7f3e c9bf bebe 4dbf 18be 3d6b bbbe
00000330: d94e 80bf eac7 343e b701 213e e3ba 2a3e
00000340: 5aa2 6ebd 501a 22bc 7d17 253f db54 4abe
00000350: a9d2 b83e 6075 a6be 34cb d83d 0496 893d
00000360: 1951 db3d b69f d8be a9c1 b43c 9ac8 813e
00000370: 2fb8 91bd 8a7f 403e f554 933d 2ce1 5d3f
00000380: 64bc 8abe e2d4 9d3e 38fa 58be 58f1 ed3e
00000390: 1e88 753f c040 453e 8abc 333f e66c bc3e
000003a0: ae35 ac3e 23dc abbe 5c37 13be 07e4 8cbe
000003b0: 5bf8 b63d dcb2 d63e ff54 213e 3af9 3c3f
000003c0: a5d6 3fbd 9cab 423e c455 3abd 64e6 01bf
000003d0: daae 08bf 11e5 1dbe 65b4 1c3d 6332 883e
000003e0: 3c43 ca3e c8e8 5f3e c1d8 4d3f d73f 8c3e
000003f0: 3fb2 a3be 8ba5 c73c c32d 98be 7772 e23d
-0.014141677 0.36827835 -0.43228596 -1.2934827 0.18633544 -0.75648177 0.6155931 -0.502026
0.13664089 -0.004702121 -0.7729842 -0.53893334 -0.66280884 0.042101227 -0.18722065 0.0857827
-0.27465713 0.002717734 0.8714032 1.2872505 -0.13923949 -0.18796764 0.07080218 -0.092452526
-0.14312398 0.044969425 -0.118432805 0.15580907 0.021317326 0.21337005 0.14898834 -0.1836988
-0.10338922 0.068091094 -0.10524554 -0.071755126 0.03568682 -0.119936004 -0.07963376 -0.1397726
-0.0006204877 -0.23894788 0.030149935 -0.20141943 -0.046657644 -0.077467345 -0.21756186 -0.13971917
-0.2913787 -0.07235062 0.08412533 -0.2042875 0.07995636 -0.034509506 -0.2702383 -0.095373705
0.059669938 0.008150801 -0.18235783 0.13461709 0.074267626 -0.7115718 -0.2963192 0.48912418
0.23374245 -2.0440104 -1.0720115 -1.3583177 -2.6492987 -0.015266582 1.1854202 0.051994868
0.17838587 -0.022333065 -0.15783246 -0.09425825 0.40196005 0.22645925 2.2902029 2.5861318
0.021294773 0.061317645 0.6050873 4.9033957 0.3321674 4.4587455 -1.790901 0.92689234
2.8295596 -0.048582464 1.2828126 0.9509249 1.1243575 0.14720774 -0.1832789 0.039848704
0.9657367 -1.011743 -4.34049 -2.0761325 0.039129645 -0.47592878 -0.46745315 -0.6019252
-1.4703931 0.38408446 0.4625431 0.50725067 -0.98004764 0.065018386 0.9662677 -0.030561095
0.3622052 0.08966577 0.04683588 -0.17791758 -0.061614823 -0.17710672 0.39538306 0.16610342
-0.07653661 -0.084258765 -0.02800344 0.16524187 -0.13427909 -0.08050066 -0.04478316 0.16698399
-0.18115884 -0.16414417 0.082390025 -0.04131847 -0.019008117 -0.22591513 -0.22594039 -0.061326824
0.10656066 -0.16949332 -0.18241233 -0.10514599 0.1669055 -0.0060633896 -0.36702368 -0.14457409
-0.57593566 0.1617853 -0.08209858 0.22739418 0.11783476 -0.063349634 0.32671338 0.073364034
0.33763403 -0.16412573 -0.007086936 -0.048879724 -0.11292199 -0.017730806 -0.0005302635 0.047850356
0.036887433 -0.43525395 -0.14030229 -0.027560469 -0.18625934 -0.0043446235 0.44060966 0.3726476
-0.13375582 0.20099944 0.6087035 0.287931 0.43361968 -0.012142287 -0.19411133 -0.16530535
0.368857 0.47135037 0.39168802 -0.41005352 -0.85856867 0.11582047 2.3214598 1.8382963
1.1113195 0.25401464 0.0076407013 -0.072920226 1.4919413 -0.11631516 -0.15606958 -0.45615676
-0.7407558 -0.12376246 0.07846463 0.015567927 -0.38606125 -0.21185765 -1.528531 -1.6483794
0.24955705 -0.37255695 -0.14916725 -0.36605254 -1.0024062 0.17654386 0.1572331 0.16672854
-0.0582603 -0.009893969 0.64488965 -0.19758932 0.3609822 -0.32511425 0.10585633 0.06718066
0.107088275 -0.4230935 0.022065 0.2534836 -0.07115208 0.18798652 0.07193939 0.8667171
-0.27096856 0.3082648 -0.21189201 0.46473193 0.95910823 0.19262981 0.7020956 0.36801833
0.33634704 -0.33566388 -0.14376587 -0.2751772 0.08934089 0.41933334 0.1575508 0.7381779
-0.04683556 0.19010776 -0.04549195 -0.50742173 -0.533918 -0.15419413 0.038257975 0.26600942
0.3950442 0.21866143 0.80408865 0.27392456 -0.31971928 0.02437093 -0.29722413 0.11056989

instance_projector.0.bias f4 [128]
00000000: 11b9 e63e b8f4 173e 534c 1a3e d607 09bd
00000010: f3eb 5cbf 6b08 f2bc 3367 34bd 37da 9cbf
00000020: 5ba7 1fbf 7301 d13d d167 04c0 4535 02be
00000030: f01d 5ebe 1ee6 1abd 65e8 153f d441 df3c
00000040: 9ace b63d a02c 2ebe 2c5d 433e 00ed e93c
00000050: 5e1a 483e 11f9 1e3d 1b1f fbbd 2d05 dc3d
00000060: 36a3 7d3e a8f3 b6bf fcf0 8a3f c368 4fbc
00000070: f24b 0a3c 9756 003f 409e aabd 2b47 c53d
00000080: efaa 18bc 5b7e 80be 593e 0e3f ed32 f83e
00000090: 435d 7f3e bb3a ddbd 1965 bbbe d5d0 223f
000000a0: 5a04 9fbe 4805 41bc 8954 923d 32ec 16be
000000b0: 6cc9 a23e e9d9 15bf f7e8 333f 098a 113e
000000c0: 82ca 22be 52a7 ad3e f023 a13d d772 b5be
000000d0: deae f1bd f668 3fbf 9eeb 333e 4918 bbbc
000000e0: a2ec 783e 67c4 a1be 6d95 bc3e f0f5 853e
000000f0: 24b1 763e 9f51 7bbe 80df 13bf 66e4 92bd
00000100: c84b 4fbf ca6b 313f 3ee9 cfbe 335f 4a3f
00000110: 6b7d b6bb e7f6 bfbc ce1b 0a3f faf9 e63e
00000120: 589e 5b3d e5c2 eebe 74c3 8ebe b6f6 113f
00000130: 9afd 413d 6483 4dbd f498 14be 32e5 8b3d
00000140: 520c dcbf 8cb1 183f 125f 4c3f 3372 4fbe
00000150: 8a08 8ebe 784b 53bf 5ed2 323e de2c 99be
00000160: 9087 c6be 1839 e4be b605 d63e d13a 473f
00000170: 582c 833e c0af 7dbe c040 143f 9f24 12be
00000180: 3b27 e03c 4295 773f d143 b1be 0870 3e3f
00000190: 3472 8d3e 7525 dabe 6b78 f8bd c93b 32be
000001a0: fa35 de3e a6db 65bf 9a77 493e a28c c13f
000001b0: ff99 debe 4c12 f53d 62e1 dabf e375 433f
000001c0: 2dc2 febf 1f06 4abe ba48 b4bd 6bfe 0d3e
000001d0: cd52 4d3f db48 81be 3962 ed3e f437 79be
000001e0: 0669 a9be f60b cbbe 05ab 46bf 2b97 eabe
000001f0: 7cce 2fbe d4fe 17bb 6401 633e 7ba3 fabe
0.4506307 0.14839447 0.15068178 -0.03345474 -0.8629753 -0.02954503 -0.04404373 -1.2254094
-0.6236474 0.102053545 -2.0688365 -0.12715633 -0.21691108 -0.037817113 0.5855773 0.027253069
0.08926125 -0.1700921 0.19078511 0.028555393 0.19541308 0.038811747 -0.12261792 0.10743175
0.24769291 -1.4293108 1.0854793 -0.0126592545 0.008440958 0.50132126 -0.08330965 0.09632715
-0.0093180975 -0.25096402 0.55563885 0.48476353 0.2493792 -0.108022176 -0.3660057 0.635999
-0.31058007 -0.011781044 0.0714503 -0.14738539 0.31794298 -0.5853563 0.7027735 0.14212812
-0.15897563 0.33916718 0.07868183 -0.35439178 -0.118009314 -0.7476953 0.1757035 -0.022838729
0.24309018 -0.31595156 0.36832753 0.26164198 0.24091011 -0.24542855 -0.5776291 -0.0717247
-0.8097501 0.693051 -0.40607637 0.7905151 -0.00556915 -0.023433162 0.53948677 0.45112592
0.053617805 -0.46633068 -0.27883494 0.57017076 0.047360994 -0.050174132 -0.14511472 0.06830825
-1.719126 0.59645915 0.79832566 -0.20258407 -0.2774089 -0.8253703 0.17463061 -0.29917043
-0.387753 -0.4457481 0.41801232 0.7782412 0.2561977 -0.24774075 0.579113 -0.14271782
0.027362457 0.96712124 -0.34622052 0.74389696 0.27626193 -0.42606702 -0.12132343 -0.17405619
0.43400556 -0.8978828 0.1967453 1.5121043 -0.43476865 0.119663805 -1.7100031 0.76351756
-1.9903008 -0.19728898 -0.08802934 0.13866584 0.8020447 -0.25250897 0.46364 -0.2433775
-0.3308794 -0.39657563 -0.77604705 -0.45818457 -0.17168611 -0.002319266 0.22168499 -0.4895285

instance_projector.2.weight f4 [20, 128]
00000000: 84ec 70bd 5c5e c53c 450b 17bd dfa1 5f3c
00000010: 7e6a 453c 15e3 243e 48c6 3b3d 9cf6 35be
00000020: a2a6 873d 79c8 8a3b 79f8 333f 4bee 8bbe
00000030: 86ed b73d 59f7 1d3d c82a b9bd 2fd0 bebe
00000040: 5d4b f63c 9c8f e7be adca e5bd 0823 173c
00000050: 3cd8 d73d dd91 373a 1c41 02bc 248e 1abd
00000060: 9589 263d 487b 9c3d d55f 3e3f 23f5 563e
00000070: 2e74 e0bd c4df c9bc 4273 483d 923f ae3d
00000080: 146d b63b c56e e33e 78ac a53e 737a 13bf
00000090: 75f7 333e 4248 7ebe 380e 6cbd b766 933e
000000a0: 08ec 40bc 5408 eebb cb25 cabe aaae 1ebd
000000b0: 15a1 eebe 82be 87be ca15 6abd a0f2 23be
000000c0: 21dd 2bbd 9347 c6be c9eb 283c 531a 73bb
000000d0: be38 2e3d 2503 703d 8f5e d53d 4176 31bc
000000e0: 9312 0d3f 53dc 853d ee77 183e 1629 febd
000000f0: 6b93 cabe ab83 843d dd5e d0be 9ec7 63be
00000100: 3e15 debd 603f 033f 6b41 dfbc d8c2 b7bd
00000110: 5736 2f3e b129 ea3d d932 41be bc62 823e
00000120: 4043 e9bb 4f95 c03e 05ea 4fbe 018b 7f3d
00000130: 9396 2e3d 7f4a 9cbc 7ad9 f93e fc7d 593d
00000140: a5dd 8cba 255e 8ebd 2f0a 203e a29a d9be
00000150: bd3f a1be 12aa fdbe 576d a0bc 8089 d4bc
00000160: a04e b43d b916 27be a2b8 87bd b4fc 013f
00000170: 0f42 04bd 1331 3dbd 4bff 603d bfc7 8bbe
00000180: c2ce 543d 965c a33e 5172 08be 96a1 7d3f
00000190: 068b d33f 1b7e 83bc c8ff fabd 3edf a13d
000001a0: 62f9 0cbe 3fce aabe 38b1 c73e 70c5 823e
000001b0: a091 ca3e 4622 efbd 2c3c e93e 58e9 eabe
000001c0: 5f84 853e 20f0 7ebb 584b a83e 82a9 ac3c
000001d0: ce53 80be d97d 80bb c590 95bd ef78 6d3c
000001e0: 29d4 9c3d 5b74 1840 be14 36bc e7df fdbd
000001f0: 350b 5abf 531f 0abe 4459 e03d 6a0a 0d3e
00000200: d9d3 273e 0084 8abc 74c6 e5bd e1e2 1e3e
00000210: 6a34 ebbd 5eec 17be 088f 46bd f4b6 e0bd
00000220: 53ee 77be 9d41 01be 7286 26bf ba4c b13c
00000230: e8ff 613d 683d 403c c634 eb3d f737 4b3e
00000240: 6f74 eebd 9ec0 b5be dace 873d 3744 5fbd
00000250: 73a0 b0be 2e1f abbd 1dd6 1b3d 1237 04bc
00000260: 63e0 d73e 49a2 223d 0cb0 593e d7b6 933b
00000270: 73aa 353d 17ef 013c 3bd9 0b3e 1d5d f33b
00000280: aa91 973c be02 ce3d 9aa7 d4bd 2edb 9f3a
00000290: b2e9 2e3d 15e3 193e 072e 3bbd 02be 42be
000002a0: cb82 a73d 9575 20bd 8095 bd3e 56e4 d5bd
000002b0: caee 083f d30f 413e 56f6 b03e e89b be3d
000002c0: 99ea 3ebf 0362 393f b755 a73d bd6c e7bc
000002d0: 6e80 263d 05be 19bd d6fc 18be 8457 1bbe
000002e0: 2997 a23d b2d6 bc3e 8266 6b3d 746c 8f3e
000002f0: e7f5 2abe 9b74 dd3b 68f9 5c3e b7dc 0d3d
00000300: 3f35 993e c820 153e 0357 6fbe 9ede 073f
00000310: ccdd 4bbe 7fa8 8ebd e349 bb3d 4ca1 253d
00000320: 30f0 06bc 83a5 44be 6c50 d7bc 6bcd 1cbd
00000330: 3356 2bbd 5026 bc3c f66b bebf 99c0 20be
00000340: 2f8b 0ebe 1fa9 a8bb 758e 253e 5819 a4bd
00000350: 4d1b c33e 491d a43d f163 0b3e 622d 91bc
00000360: b538 e7bc 8886 f6bd f844 8dbd c6b5 edbc
00000370: 5d01 62bc eb2d c6bc 1c14 973d 3685 163e
00000380: 730a 8ebd a9d4 ffbd e214 c53e a719 94be
00000390: 5fdb 09bf e1f3 0740 5e0a b3bc da76 9bbd
000003a0: 4000 9cbe 7593 053f 5ebd 88be f13c 803e
000003b0: 8b40 80be 2010 193e 4561 07bf b9b7 d43e
000003c0: 1c43 efbe ca3b a9bd b557 54be 2ad2 99bd
000003d0: 0f65 293e 9828 7bbb cdf7 593d ff66 69bc
000003e0: 26f7 31bc ed60 53bf bc18 813d 3e32 003e
000003f0: f0c7 9c3e dbce 99be 52af e73e 48ee 94be
-0.05881931 0.024092846 -0.03687598 0.013649433 0.0120493155 0.1610225 0.045843393 -0.17769855
0.066235796 0.004235324 0.70301014 -0.2733024 0.08980851 0.038565967 -0.09041363 -0.37268206
0.030065233 -0.45226753 -0.11220298 0.009224661 0.1053929 0.00070026313 -0.007950094 -0.037733212
0.040658552 0.076407015 0.7436498 0.2099195 -0.109596595 -0.024642833 0.048938043 0.08508219
0.0055672023 0.44420448 0.32358146 -0.5760872 0.17574866 -0.24832252 -0.057630748 0.28789303
-0.011775024 -0.0072641764 -0.3948196 -0.03874079 -0.4660727 -0.26512533 -0.057149686 -0.16010523
-0.04195893 -0.38726482 0.010310122 -0.0037094548 0.042534582 0.05859675 0.10418426 -0.010831417
0.55106467 0.06536164 0.148895 -0.1241018 -0.39565596 0.06470426 -0.40697375 -0.22244117
-0.108438954 0.5126858 -0.027252873 -0.0897271 0.17110573 0.11433733 -0.18867053 0.25465953
-0.0071186125 0.37613913 -0.20304115 0.062388424 0.042624068 -0.019078491 0.48798734 0.053098664
-0.0010747208 -0.069515504 0.15628885 -0.42500788 -0.3149394 -0.49543816 -0.019583387 -0.025944471
0.08804059 -0.16317262 -0.06627013 0.5077622 -0.03228956 -0.04618938 0.054930966 -0.27300832
0.051954992 0.31906575 -0.13324858 0.99074686 1.6526802 -0.016051343 -0.12255818 0.07903908
-0.13767007 -0.33360478 0.39002395 0.25541258 0.39564228 -0.11676459 0.4555372 -0.45881152
0.26077554 -0.003890045 0.32869983 0.021076921 -0.25063938 -0.003921252 -0.07303003 0.014494165
0.07657654 2.3821018 -0.011113344 -0.123962216 -0.8517335 -0.13488512 0.10954526 0.13773504
0.16389407 -0.016908646 -0.112194926 0.15516235 -0.114846066 -0.1483626 -0.04847625 -0.109723955
-0.24212007 -0.12622686 -0.650489 0.021643031 0.05517569 0.01173339 0.11484675 0.19845568
-0.11643302 -0.35498518 0.06631251 -0.054508414 -0.34497413 -0.083555564 0.03804599 -0.00806977
0.4216338 0.03970555 0.21258563 0.00450788 0.044352006 0.007930539 0.13657086 0.0074268715
0.018502075 0.10059117 -0.1038353 0.0012196058 0.042703338 0.15028031 -0.045698192 -0.19017795
0.08179244 -0.039174635 0.37028122 -0.10443942 0.53489363 0.18853693 0.3456294 0.093070805
-0.7457672 0.7241518 0.08170646 -0.028250093 0.040649824 -0.037534732 -0.149402 -0.15170103
0.07938988 0.3688255 0.057470806 0.2801243 -0.16695367 0.006758285 0.21579516 0.03463432
0.29923436 0.14563286 -0.23373036 0.5307406 -0.19908828 -0.06965732 0.09144952 0.040437028
-0.008235976 -0.19203763 -0.026283465 -0.03828184 -0.041830253 0.022967488 -1.4876697 -0.1569847
-0.13920282 -0.005147114 0.16167624 -0.080126464 0.38106766 0.08013398 0.13612343 -0.017721836
-0.028225282 -0.120373785 -0.0689792 -0.02901734 -0.01379427 -0.024191817 0.073768824 0.14699253
-0.06935587 -0.124917336 0.38492495 -0.2892582 -0.5385036 2.1242602 -0.02185553 -0.075910285
-0.3046894 0.52178127 -0.26706976 0.25046495 -0.25049242 0.14947557 -0.52882797 0.4154642
-0.46730888 -0.08263357 -0.20736583 -0.07510789 0.16542457 -0.0038323756 0.053214837 -0.014245748
-0.010862147 -0.8256977 0.06303546 0.12519166 0.3062129 -0.3004063 0.45250946 -0.29088044

instance_projector.2.bias f4 [20]
00000000: 599f a33e 9299 603e c294 563e be15 4e3d
00000010: 7caa 6dbe c663 d1be 7483 75be f541 5fbe
00000020: 6e83 6e3e 0d1f 06bf 0fe7 4a3e e11b 20be
00000030: 3daa 3e3f 759e 013e 5572 b13e 8e93 45be
00000040: 5f43 01be dca2 ccbd dd40 f13d f65b 793e
0.3195751 0.21933582 0.20955184 0.050313704 -0.23209566 -0.40896434 -0.23975927 -0.21802504
0.23292324 -0.5239113 0.19814704 -0.15635635 0.74478513 0.12658103 0.3465754 -0.19294569
-0.12623356 -0.099920005 0.1177995 0.24351487

cluster_projector.0.weight f4 [128, 20]
00000000: 5894 f4bd a919 0bbd 03fc 3abf b984 973f
00000010: e5bc 593d 6156 323e 2f99 3dbe 22a6 9e3e
00000020: b973 08bf c04c a9bb 6d0e 11be aa94 91be
00000030: 5fb6 4fbe 5f82 1a3f 2976 ef3e 69dd 923e
00000040: 82e2 1bbf c057 ccbe 5b32 403e 7658 843d
00000050: f4ed 083e 4938 703e fa89 1ebf a978 65be
00000060: 6f82 093f 65e5 8dbf 8352 18be 1b72 14be
00000070: d498 f5bd cb28 d6bd d4d5 fdbd f9ff 8abe
00000080: 25b6 56bf a7d6 8bbc 405f 4c3e 085f 7b3e
00000090: 129e 16bf 2705 9fbd 8885 1fbc 73e4 41bf
000000a0: 97dd 62be 64af 37be 5894 e53d 88c7 053e
000000b0: f062 b9bd 24d7 923d c8fc 00be 7c4e 48bd
000000c0: a847 5dbd fccc 05be bac7 5a3e 806a ed3d
000000d0: 68e1 4d3d 4a35 11be cd01 41be fe06 503e
000000e0: 8496 35bd 0e36 52be 08db 1dbe 3c32 c1bd
000000f0: 933f 503c 8c6b 0b3e 009f 13c0 61d5 8e3f
00000100: 7d6d 433d ba98 e6bf c67c 3a3d 4987 0e3f
00000110: 2f42 e23e 48b2 6fbd 269b cf3e 2a99 ebbd
00000120: 4900 61be 8e49 d93d f7d0 993e 7a60 3c3e
00000130: c8f4 9f3d 4cf8 b5bf 344b adbf 2e30 90bf
00000140: 4a7d 8fbb 0852 b7be 0f12 d13e 6715 dd3d
00000150: d436 3f3e 6a46 533f b44a a7bd 95f7 0fbf
00000160: f30c dfbe a8ce 5fbd 2626 6fbf 4a12 8a3c
00000170: 13d3 97be 9aec 653e 5b02 323e 1c06 663e
00000180: 85ee 99be 608e 4ebe 2479 bdbd 8d69 80bd
00000190: 2aac ef3b 16ca 6dbe d114 cebe c38d 38bf
000001a0: 685d 84be 9c9b 3cbf 8fa5 b6be 0625 84be
000001b0: 8a10 5fbe ea15 2dbe f4a6 923d 33b5 cb3e
000001c0: 715d 1b3f b9ae 663e 22a5 c8bc 7f70 94bc
000001d0: 1d1f 243e efba c63d 16cf 423f 3f72 073f
000001e0: e26f 20be f77d e3bd 39e6 4e3d 906d d7bd
000001f0: 2f3e 3fbe cbc7 3abd 08ec 22be dbea 6cbc
00000200: 8735 5fbe 60bd c8bb 486d 3cbe b696 f8bd
00000210: 1621 743d d7d7 34be 97e5 663e c5ec 093e
00000220: 3627 083e e386 b639 34d5 653e 58d2 91bd
00000230: dcd1 e7bd 2383 04be aa0b 53be 5478 02be
00000240: bf6d 7fbe 37e3 f73d 2211 59be 2e39 ca3d
00000250: b766 11bf 9cfd d13d 0733 aa3e 84f2 093f
00000260: 5ca4 f53e 41a1 373d 6b32 78bd 9202 193b
00000270: 9827 543e 9048 30bc cd7d 95be 66b5 97bd
00000280: 3eb6 05be 71f9 5d3f bb4d f3bf 6982 1bbe
00000290: b234 88bf f055 9abf af0d bdbe 428f 03be
000002a0: 6dcf 0f3f c092 2d3d e0c1 7abf f85e a63e
000002b0: 5253 1fbd 15f6 18bc 2c80 673e fa74 3b3e
000002c0: 9025 9a3e 302e 53bd 4235 ed3e 7d90 0d3f
000002d0: 9349 cbbe c827 183f 3b1e 503f 6a27 46be
000002e0: 5136 1ebf 5a6e 5c3f cf93 b93e 8dc7 3cbd
000002f0: 2049 4f3e 968b 083e 5348 cdbc 61e9 b93e
00000300: 0d81 a23e 829e 703d 9225 343e 6e35 16be
00000310: 41fb bf3d e73b 063a 6158 e6bd 74aa 7fbb
00000320: 1f18 27be fe19 c53d d67a 743f 165f febe
00000330: 8860 973e fbd4 94be e102 b43e 218a 963e
00000340: d987 42bf b6a7 18be e276 09be 9d93 86bd
00000350: 3c5d 78bd 9fbe a4bd c2d8 84bc e889 ab3d
00000360: ca1d 2cbd b974 90bd 6294 36be c31a 4ebf
00000370: 6920 253d b951 85be 8c27 fabc 089d 8e3d
00000380: 6071 9d3e 240f acbf 911e dabf 4d6b dabf
00000390: 953c 223f da4b 3c3e 270c 313f 45f6 c03e
000003a0: 8bc9 6a3e da69 b1bc 0fd9 323e 5ec1 083e
000003b0: 422e 913d e4d4 35be 0173 d2bf 56b7 9fbf
000003c0: 178e 4ebe 8da1 f3bd ddcb e4bd 30e8 7fbd
000003d0: 47f8 07be 7827 eb3c 9202 63bc 02ee 61be
000003e0: ba3a 293e e81f 0abe 694b 12be 5ba9 7cbd
000003f0: f054 2b3e b880 473e 8654 883b a36d 6ebe
-0.11942357 -0.03396002 -0.7304079 1.1837379 0.05315866 0.17415763 -0.18515466 0.30986124
-0.5330158 -0.00516662 -0.14165659 -0.28433734 -0.20284413 0.6035518 0.46769837 0.28684548
-0.608925 -0.39910698 0.18769209 0.06462185 0.13372022 0.23458971 -0.61929286 -0.2240931
0.5371465 -1.1085631 -0.14875226 -0.14496653 -0.1199204 -0.104569994 -0.123943 -0.27148417
-0.8387168 -0.017070128 0.1995821 0.2454797 -0.58834946 -0.077646546 -0.009736426 -0.7573921
-0.22154842 -0.17938 0.11209935 0.13064396 -0.09052074 0.07169941 -0.12596428 -0.048902974
-0.054023415 -0.13066477 0.21365252 0.11592579 0.050263792 -0.14180484 -0.18848343 0.20315167
-0.044332996 -0.20528433 -0.15415585 -0.094334096 0.01271047 0.13615245 -2.3065796 1.1158868
0.047711838 -1.8015358 0.04552915 0.5567518 0.4419112 -0.05851963 0.40548056 -0.11503823
-0.21972765 0.106097326 0.3004224 0.18396178 0.0781036 -1.4216399 -1.3538575 -1.1264703
-0.0043789493 -0.35804772 0.4083409 0.10795098 0.18673259 0.8252932 -0.08168545 -0.56237155
-0.43564567 -0.054640442 -0.93417585 0.016854424 -0.29653224 0.22453538 0.17383711 0.22463268
-0.30064788 -0.20171499 -0.09251621 -0.06270132 0.0073142247 -0.23221621 -0.40250257 -0.7209131
-0.25852513 -0.7367494 -0.35673186 -0.25809497 -0.21783653 -0.16902891 0.0716075 0.39786682
0.60689455 0.22527589 -0.024492804 -0.018120049 0.16027494 0.097036235 0.7609724 0.529087
-0.1566768 -0.1110801 0.050512526 -0.10518944 -0.18676065 -0.045600694 -0.15910351 -0.014460291
-0.21797763 -0.006126091 -0.18401062 -0.12138121 0.059601866 -0.17660461 0.22548519 0.13469227
0.13296208 0.00034814244 0.22444612 -0.07120198 -0.113193244 -0.1294065 -0.20609918 -0.12741214
-0.24944209 0.12103885 -0.21197942 0.098741874 -0.56797355 0.1025345 0.33242056 0.53885674
0.4797696 0.044831518 -0.060594957 0.002334748 0.20718229 -0.010759488 -0.2919754 -0.07407646
-0.13057801 0.8670874 -1.9008096 -0.15186466 -1.0641081 -1.2057476 -0.36924502 -0.12847617
0.5617588 0.04237628 -0.9795208 0.3249433 -0.03889782 -0.009336014 0.22607487 0.18306342
0.30106783 -0.05155772 0.46329695 0.55298597 -0.3970457 0.594357 0.8129613 -0.19350973
-0.6180163 0.86105883 0.36245582 -0.046088744 0.20242739 0.13334498 -0.025058901 0.36310866
0.31739083 0.058744915 0.17592457 -0.1466882 0.09374095 0.00051206205 -0.11247326 -0.003901151
-0.16317795 0.09624098 0.9549993 -0.4968192 0.29565835 -0.2906874 0.35158446 0.2940226
-0.7598854 -0.14907727 -0.13424256 -0.06571124 -0.06063579 -0.080441706 -0.01621664 0.08375913
-0.042020597 -0.07053513 -0.17830041 -0.80509585 0.04031411 -0.26038912 -0.030536436 0.06963545
0.3075056 -1.344212 -1.7040578 -1.7063996 0.6337369 0.1838831 0.6915917 0.3768789
0.22928445 -0.02165692 0.17465614 0.13355014 0.07088901 -0.17756993 -1.6441346 -1.2477825
-0.2017139 -0.11896048 -0.11171696 -0.06247729 -0.13278304 0.028705344 -0.013855593 -0.22063449
0.16526309 -0.13488734 -0.14286579 -0.061684947 0.1673162 0.19482696 0.0041604666 -0.2328401

cluster_projector.0.bias f4 [128]
00000000: 57f9 d4bd ad10 d13d a0c6 393e 6095 84be
00000010: 91fe 81bd b553 04be 8077 a6bd 1a20 e5be
00000020: ec07 393f 5c30 0f3f cb3f e93c 6e1c 073e
00000030: f1b9 283e edc0 463e 52fb 8bbc 946c c6be
00000040: 12c4 b33d 9c2a bc3e dd4d b9bd 50b9 3cbe
00000050: 3d75 19bd f17a ce3e 1351 01be 0329 c8bd
00000060: 50f7 983d 5480 373e f0d2 b03e c758 ea3c
00000070: 6436 193c 37f5 d63e 8d6a 683e 675e 64be
00000080: 9c04 603d 5190 14be 2dea 4abe 3851 8d3d
00000090: c486 09be f531 37be ac96 703e bf1c 1f3e
000000a0: 8e77 623e 3f2d b03d b12b 9c3e 08a6 143e
000000b0: b573 e33e ee36 64be dc2c 0f3e 48f9 82bd
000000c0: 9722 acbe 5726 ef3d 2045 4cbe 8292 3f3e
000000d0: caff a4bd 1e4e c9bd 53e5 bebc 39f6 88be
000000e0: eb0f 60be f0ad 153d a410 12bd b036 09bd
000000f0: 70d5 a2be 07ff 01bc 3097 81bd 7b6a 01bf
00000100: 69bf 363d 2b19 3c3c 2283 2abe 23c6 3dbe
00000110: 3261 abbc 18e4 1c3f 31d1 91be 9804 c43e
00000120: 0b07 ecbe 0f8c b13e 18eb f43d a014 7a3e
00000130: 62eb 853e 76a4 55be 8c86 8e3e 8800 3fbe
00000140: 0912 433e 8198 2abe cdde d53c ebc9 17be
00000150: 44a3 1e3f 05a9 913d 738b 28be 2f0c 803e
00000160: 8802 8c3e 4f43 e43d 4bf6 5c3c 1b5b 49bd
00000170: e80f 243f 033d 2bbe 8119 a03e 54ce 823c
00000180: 581a 813d bd1b e63d a351 84bc f808 23be
00000190: 24fc 093e bc55 903d 78d2 eaba 832e 3abe
000001a0: 08f8 c2bd ce1f ab3e b024 9c3c 7ca4 9e3e
000001b0: 3c37 e03e 730d b1bd c5aa 48be f3b6 c43e
000001c0: ac0a 05be a12c ebbd 7b08 f33d 1bf5 8f3e
000001d0: 06dd 083f 51e9 91bd a5db 94bd 9f5b 973d
000001e0: b031 22be 9102 39be 253b 4bbe 3681 93bc
000001f0: 0539 1dbe 1c08 a43e 1f39 913e 0b91 2f3e
-0.1039912 0.10208259 0.18142176 -0.25895214 -0.06347383 -0.12922557 -0.081282616 -0.44751054
0.7227771 0.55933166 0.028472802 0.13194439 0.16477181 0.19409533 -0.017087612 -0.38754714
0.08777632 0.36751258 -0.09048054 -0.18430066 -0.037465323 0.40328172 -0.12628584 -0.09773447
0.07469046 0.17920047 0.34535933 0.028606785 0.009351347 0.4198396 0.22696896 -0.22301637
0.054691896 -0.14508177 -0.19815893 0.06900257 -0.13430315 -0.17890151 0.23494977 0.1553831
0.22115919 0.0860238 0.30502084 0.14516461 0.44424215 -0.22286579 0.13981956 -0.06395203
-0.3362014 0.116772346 -0.19948244 0.18708232 -0.080566004 -0.09829353 -0.02330271 -0.26750353
-0.21881072 0.036542833 -0.0356604 -0.03349942 -0.31803465 -0.007934338 -0.06327665 -0.505531
0.044616137 0.01148061 -0.16651586 -0.18532614 -0.02092037 0.61285543 -0.28479913 0.38284755
-0.46099123 0.3467717 0.11958903 0.2442193 0.26156145 -0.20863518 0.27837026 -0.18652546
0.19049849 -0.16659738 0.026107216 -0.1482312 0.61967874 0.07112316 -0.16459446 0.25009295
0.2734568 0.111456506 0.013486455 -0.04915915 0.6408677 -0.16722493 0.31269458 0.015967526
0.06303853 0.112357594 -0.016152209 -0.1592139 0.1347509 0.070476025 -0.0017915508 -0.18181805
-0.095199645 0.33422703 0.019060463 0.30984867 0.4379214 -0.08645143 -0.19596393 0.3842083
-0.12992352 -0.11483122 0.11866852 0.28116688 0.53462255 -0.0712458 -0.07268456 0.07390522
-0.15839267 -0.18067385 -0.1984678 -0.018005949 -0.15353782 0.32037437 0.28363892 0.17145173

cluster_projector.2.weight f4 [50, 128]
00000000: f6e8 52bf 8599 ca3d 22a8 03bd 548e 783d
00000010: 5af0 83be 6b9c 82bd 7aec 22bc 20ff 48be
00000020: a81c 80bd 506a 4fbf ebe5 73be ba3b 8e3e
00000030: 3c0c 903d 4d96 453e 9343 f2bd 42f5 8abd
00000040: 69a8 1dbd 3053 323d b634 003d d35c 03be
00000050: b6d8 c53d bff4 163e 0d0a 223e e45e d3be
00000060: a7dc 36bf e680 0d3e 308a 623d d898 debe
00000070: 2d99 cc3d 0121 bc3e c169 9abe 56d6 593d
00000080: 6c50 d93c c009 cebe 188a 32bc e85b e2bf
00000090: c60a a2bf 7042 433e 899c 6d3e 1877 a43e
000000a0: 0cbd 63bf 1672 31bf 40d3 303e 539c 283e
000000b0: 8fbc 233d ba64 8ebc 7da0 c8bb fd61 e0bf
000000c0: b6c4 4ebc c1dd cb3d 03ea 0cbd c1b5 edbd
000000d0: 3403 2c3e 5cd4 97be e649 7a3b a4c9 02bd
000000e0: e3d7 f0bd 0553 ec3b b461 aabc 1178 003d
000000f0: ae7e b1bf 805f 653d 0055 c9ba 69b1 3fbf
00000100: 3d71 c53d 088b 4b3e 50a4 5c3e 3469 7dbd
00000110: 8b0e 693c 6c85 a1be aa3f 60bc 90d3 503e
00000120: 3580 ddbd 65a7 6d3e 7f1d 8fbe 7935 783e
00000130: 5146 4a3e 3048 24bc bc47 6b3e f175 50bd
00000140: c2e3 77be 8be6 aa3d e5f9 cc3d 8874 65bf
00000150: 2c67 b53e b78d 8b3d 4a5e b33d b9ff 77bf
00000160: 33b2 e03d 5881 593e a145 b7bd 5974 433d
00000170: 3de2 af3e fb19 bcbe 765c d8be 83ee c4bf
00000180: 21e0 20be 7114 193e 0b0c 2cbe a6ab b7bd
00000190: 2136 a4bf cfa8 103e 3b3e f83c 5cd0 13bf
000001a0: 7d9f 96be 658f e73e 813f 6abe bb7f b83e
000001b0: 6032 563e 647c 54be e594 00bd e169 563e
000001c0: 294f 75bd f556 bd3c 5402 8cbf 67e5 3fbf
000001d0: 132a 4b3e 4483 fe3d 8f45 e4bd 97c7 bc3c
000001e0: da56 193a 2a60 ec3c 610a 043d 7377 18be
000001f0: 7d10 5a3d c57a ba3d 0200 4e3e ef62 4f3e
00000200: ba5e fa3c 00ab 91bf 00a6 58ba 75e6 3bbf
00000210: 9761 243e 7a88 863d 303f bc3c 073a 1c3e
00000220: 556f 4abe e76e b4be 4ba0 3ebd 025f 7dbf
00000230: 1a1e 303d 4be9 6dbd db36 213e 4d0f 1a3e
00000240: b9f3 283c abe4 393e 40d1 f23c 42b7 033d
00000250: d34d b3be bfea 18bf 7ed3 833e 5f11 f8bd
00000260: a1c3 d63d 5b07 e4be 9b8c ffbc 4103 4ebf
00000270: 704f b73e 6e2b 88be e0cd 52bf 0041 97b9
00000280: 1b6a 633d a4c6 87bc c7ef 3ebd b7cd edbe
00000290: 73af e5be c2f2 803e aa43 f7bc 70ca 76bf
000002a0: a450 8cbd 1392 19be 9640 7ebe 2103 053f
000002b0: 3c21 6a3c aeab 193d 9a95 523e aaee 133e
000002c0: 5437 afbd e617 c23e adea 843d 0a08 a83e
000002d0: 6ee4 cbbe 07d0 adbd b0ff c93c 1630 12bf
000002e0: aff0 0d3f 6ed4 553b f446 dbbc 3a1a 693d
000002f0: ae3c 813e 8849 c83c 6d6b 81bd 70e2 0d3f
00000300: 375f c93e dd64 c83d cebe a03e e76e 943d
00000310: a403 5abd b8ec cdbe ddbb 2cbe 5975 34be
00000320: 62a4 b33d 2e65 ecbd 82d2 e73d 1325 7abe
00000330: c040 82be 338b 993d 16f8 d7be ece6 cebe
00000340: c4ec 46be 76a4 6c3d c7ce efbe 6eb8 dc3e
00000350: 40b0 94bf f03c d33b 3212 2bbf 72d9 35bf
00000360: a1d3 03bf 234d 493d 173e 54bf 9f36 953d
00000370: 3d8a a5bd 6fee 0e3f 0ba0 9bbe 3e55 64bf
00000380: 019c b2be d3fd 08be f270 803d 0622 bd3d
00000390: 11a5 6fbd b9dd 123c 2e58 5ebd edde 1bbf
000003a0: 8b95 9fbe de9c 7ebf 5321 47bf 81d9 31bf
000003b0: 710d 8cbf 5a13 bc3d c096 d53c da80 acbe
000003c0: a014 94bb 782c 0c3c 01b7 93bf c344 71bf
000003d0: deb9 b13c 24e2 9dbc fcab 9a3d a3ec 3f3e
000003e0: 134d 9dbd 8178 11bd c3c4 8dbd dc28 a9bf
000003f0: 6c3a b5bb 43dc 95bd 23ca b1be e72a 6d3d
-0.8238672 0.09892563 -0.032142766 0.06068261 -0.2576931 -0.063774906 -0.009944076 -0.19628572
-0.06255466 -0.81021595 -0.23818175 0.27779943 0.070335835 0.19295616 -0.11829295 -0.067850605
-0.038490687 0.043536365 0.03130027 -0.12828378 0.09660475 0.147418 0.15824147 -0.41283333
-0.7143044 0.13818702 0.055307567 -0.43475986 0.099901535 0.3674393 -0.3015881 0.053182922
0.026527606 -0.40241814 -0.010897182 -1.7684298 -1.2659538 0.19068313 0.23204245 0.3212211
-0.8896034 -0.69314706 0.17268085 0.16465883 0.039974745 -0.017382015 -0.0061226473 -1.7529904
-0.012620142 0.099544056 -0.03440286 -0.116069324 0.16798097 -0.29654205 0.003819102 -0.03193058
-0.11759927 0.007212045 -0.020798542 0.031364504 -1.3866785 0.05599928 -0.0015360415 -0.7488008
0.09640739 0.19877255 0.21547055 -0.061867908 0.014224659 -0.31547105 -0.013687054 0.20393205
-0.10815469 0.23208387 -0.2795219 0.24239148 0.19753386 -0.0100269765 0.22976583 -0.050893728
-0.24207976 0.08344754 0.10008601 -0.8963094 0.35430276 0.06814139 0.087582186 -0.96874577
0.10971489 0.21240747 -0.089488275 0.04771838 0.34352294 -0.36738572 -0.42258042 -1.5385288
-0.15710498 0.14949204 -0.16801469 -0.08968286 -1.2829019 0.14126895 0.030303111 -0.57739806
-0.29418555 0.4522659 -0.22875787 0.3603495 0.20917654 -0.20750576 -0.031391997 0.20938827
-0.059889946 0.023112753 -1.093821 -0.74959415 0.19840269 0.12427381 -0.1114608 0.02304439
0.00058494287 0.028854448 0.03223646 -0.14889316 0.05323838 0.09105448 0.2011719 0.20252584
0.030562747 -1.138031 -0.0008264482 -0.73398525 0.16052853 0.065689996 0.022979349 0.1525651
-0.19769032 -0.35240862 -0.046539586 -0.98973095 0.042997457 -0.058083814 0.15743582 0.150449
0.010312014 0.18153636 0.029640794 0.03215719 -0.35020313 -0.59733194 0.25747293 -0.12112688
0.10486532 -0.44536862 -0.031194976 -0.80473715 0.35802794 -0.26595634 -0.8234539 -0.00028849393
0.055521112 -0.016574211 -0.04661539 -0.4644601 -0.4486042 0.2518521 -0.030183632 -0.96402645
-0.068513185 -0.14997129 -0.24829325 0.519579 0.01429015 0.037517242 0.20564881 0.14446512
-0.08555475 0.37908858 0.06490073 0.32818633 -0.39822716 -0.08486944 0.024658054 -0.57104623
0.5544538 0.0032627839 -0.026767232 0.056909777 0.25241607 0.024449125 -0.06319318 0.5542364
0.39330456 0.09784863 0.31395572 0.072477154 -0.05322613 -0.40219665 -0.16868539 -0.1762289
0.08771588 -0.11542736 0.11319448 -0.24428205 -0.25440025 0.07497253 -0.42181462 -0.40410554
-0.19426256 0.05777403 -0.46837446 0.4310946 -1.1616287 0.0064464733 -0.6682464 -0.7103492
-0.51494795 0.04914583 -0.8290724 0.07285809 -0.080830075 0.5583257 -0.3039554 -0.8919257
-0.34884647 -0.13378076 0.062715426 0.09235005 -0.05850703 0.008963996 -0.054283313 -0.6088703
-0.3116878 -0.9945811 -0.77785224 -0.6947251 -1.0941602 0.091833785 0.02607286 -0.33692056
-0.0045190603 0.008555524 -1.1540223 -0.9424555 0.021695074 -0.019272871 0.07552335 0.18742613
-0.07680716 -0.035515312 -0.06922295 -1.3215594 -0.005530646 -0.07317402 -0.3472453 0.057902243

cluster_projector.2.bias f4 [50]
00000000: f472 293e 9c4e c93e 5985 d6bc 8c68 9cbc
00000010: b8c4 633e cd55 1bbe 33d8 19be 3022 fd3d
00000020: bccb aebd 923e 593e ab0a 3dbc e5db c23c
00000030: 75b9 f53d 0874 53bd 829b 92bd 9b9b 17be
00000040: c83e fb3d 8790 8abe 8973 07be e31b 0bbd
00000050: f282 6bbf bb7c 14bd 4c4e c23d f128 e5bd
00000060: ec2c 293e 01a5 17bc 3058 c0bc 453f 1cbe
00000070: 86a7 403e 137c 4dbd 0284 a0bd 16fb 873e
00000080: 07e3 223d f5e3 e93e 25d4 233d 42be 98bd
00000090: 5d36 53bd a882 69be dffa 27be f95d 8fbd
000000a0: 99d1 4d3e 82f0 0e3d fd06 ff3d 03c6 253d
000000b0: 51cf 6a3c 08fd 18be f7bd 27be 77e1 e43c
000000c0: 3843 943d f31f 7b3c
0.16547757 0.39317787 -0.026186632 -0.01909282 0.22243011 -0.15169449 -0.1502388 0.123600364
-0.08534953 0.21215275 -0.011538188 0.023786495 0.11998264 -0.051624328 -0.07158567 -0.14805453
0.12267834 -0.2706339 -0.13227667 -0.03396214 -0.9199668 -0.036251765 0.0948759 -0.111894496
0.16521043 -0.009255649 -0.023479551 -0.1525851 0.18813905 -0.050167155 -0.078376785 0.2655875
0.03976729 0.4568173 0.03999724 -0.07458164 -0.051565517 -0.22803748 -0.16404293 -0.07000346
0.20099486 0.034897335 0.12452505 0.04047204 0.014331655 -0.14940274 -0.1638106 0.027939541
0.072393835 0.0153274415

exp_avg f4 [128, 20]
00000000: d2e8 1dc0 04e7 a2be b014 4cbb 314a ddbb
00000010: 1027 d0bc 8e9b 18be 37c5 7bbe b9dd 2dbe
00000020: c823 70bd 0000 0000 9053 5fbc 57b7 04bd
00000030: 6e7f 05bd 301b 3ebe 9976 46be 0943 45be
00000040: af71 08bd 1068 04bd ceee 3fbc 1f60 46bc
00000050: 0400 0000 0400 0000 0000 0000 0000 0000
00000060: 0000 0000 0400 0000 0400 0000 0400 0000
00000070: 0400 0000 0000 0000 0400 0000 0000 0000
00000080: 0000 0000 0000 0000 0400 0000 0000 0000
00000090: 0000 0000 0400 0000 0000 0000 0000 0000
000000a0: 0400 0000 0400 0000 0400 0000 0400 0000
000000b0: 0400 0080 0400 0000 0400 0000 0400 0000
000000c0: 0400 0000 0000 0000 0400 0000 0400 0000
000000d0: 0400 0000 0400 0000 0400 0000 0400 0000
000000e0: 0400 0000 0400 0000 0400 0000 0400 0000
000000f0: b41e 74be 5561 2fbc d14c 04bb 771c 9dbb
00000100: 98cd 13bc fe90 3ab9 0cf9 3aba 624b 9d38
00000110: 0245 1cba 0000 0000 b42d 7ebb 3735 52bc
00000120: f9d2 36bc 437f 5dbc 513f 5dbc a18d 6dbc
00000130: 02db 4bbc 43ea 67bb a51b 3cbb 52d7 83bb
00000140: e8a9 1840 2a5e 753e 194d e53b 6e29 3a3c
00000150: bd2d f03c 7dd4 813d a1a9 603e 0809 223e
00000160: d9d1 443d 0000 0000 4f77 343c 0be5 4a3d
00000170: 51cb 493d 277c 2fc2 fc7f 2fc2 b073 2fc2
00000180: c302 4b3d 1945 ac3c 0d90 513c 14a1 663b
00000190: 1aa2 bd3f cfe6 2c3e 0400 0000 0400 0000
000001a0: 00d8 292d 626a e03d 1a66 1e3e 5ff8 f53d
000001b0: 3e8b 493c 0000 0000 e7c0 0a3c 3e58 043d
000001c0: e4b3 023d 9431 c33d f997 c93d b0f2 c93d
000001d0: 8ba9 053d 1788 913c 98de 153c f66f c23b
000001e0: 0400 0000 0400 0000 0000 0000 0400 0000
000001f0: 0400 0000 0000 0000 0000 0000 0400 0000
00000200: 0000 0000 0000 0000 0400 0000 0400 0000
00000210: 0400 0000 0400 0000 0400 0000 0400 0000
00000220: 0400 0000 0400 0000 0400 0000 0400 0000
00000230: bb3b a23f 001f fd3c 0400 0000 0400 0000
00000240: 3815 44ba 8247 8d3b 9301 9b3c 7d42 f13c
00000250: 947a d03c 0000 0000 6992 59bb 603a eb3b
00000260: 40fd 043c 701b 833a c293 31bb f033 16ba
00000270: 8e04 053c 19b8 6a3b ef6a 293c 98a6 2e3c
00000280: 3a0f 1c40 e070 c53d 6def 56b7 c7c0 913a
00000290: 1012 dc3b 8ed8 173d 7479 673d 1a3e 883d
000002a0: 5085 403d 0000 0000 eea8 743c e5cc a73d
000002b0: 6a01 a93d d6a9 a03d 3d34 983d 980b a43d
000002c0: aaf7 a93d 700e d13c 8b03 da3c 7041 833c
000002d0: ddfd ed3e e790 0b3e e71d 6b3d 5efc ba3d
000002e0: 5eba ff3d 395d a13b 5823 363c 91ae c13c
000002f0: 1d02 0b3e 0000 0000 7f99 0f3a 7dd5 b53c
00000300: 9481 b73c f0f2 8e3d 0979 8d3d be82 8c3d
00000310: c0c3 b63c e28e 263b e5fa e23a 5a6d 103b
00000320: a9d6 bcbf 1fd5 2bbd 0400 0000 0400 0000
00000330: 0400 0000 6907 b73b a6be 1b3c ce57 4a3c
00000340: 309f 64bd 0000 0000 0878 bc39 5cab 43bc
00000350: 007b 5bbc 840a f6bc 90a0 05bd e240 f8bc
00000360: a40f 3ebc d668 e43a 3557 cd3b 1785 b93a
00000370: 74fe 0e3f 7f8e e33d 8217 943c 4099 353d
00000380: 73e7 903d 04cc 3c3c 2a85 fa3c 53ff 523d
00000390: 4826 983d 0000 0000 e32f af3c ec46 df3c
000003a0: a2e9 d43c 05dd 7f3d b049 853d 875e 853d
000003b0: 63b8 d93c 28f1 703c 758b b53b 1585 df3b
000003c0: 268b d23d c07d 953c 4dd8 2638 0c31 2538
000003d0: 9d61 453b 68db eb3a f18b df3b 5a7b 113c
000003e0: 2dae 483c 0000 0000 8f7e 733b 258d 8f3b
000003f0: 8e4f 6a3b 7c4f eb3b a6c5 f83b 3343 fd3b
-2.4673352 -0.31816876 -0.003114026 -0.006753229 -0.025409251 -0.1490309 -0.2458695 -0.16979112
-0.058627874 0.0 -0.013630763 -0.03240141 -0.03259223 -0.18565059 -0.19381179 -0.19263853
-0.033311542 -0.032325804 -0.01171465 -0.012107878 6e-45 6e-45 0.0 0.0
0.0 6e-45 6e-45 6e-45 6e-45 0.0 6e-45 0.0
0.0 0.0 6e-45 0.0 0.0 6e-45 0.0 0.0
6e-45 6e-45 6e-45 6e-45 -6e-45 6e-45 6e-45 6e-45
6e-45 0.0 6e-45 6e-45 6e-45 6e-45 6e-45 6e-45
6e-45 6e-45 6e-45 6e-45 -0.23839837 -0.010704358 -0.0020187388 -0.004794653
-0.009021185 -0.00017792356 -0.0007132448 7.5003845e-05 -0.00059612107 0.0 -0.0038784565 -0.01283007
-0.011158698 -0.013519111 -0.013503865 -0.014499099 -0.012442352 -0.0035387434 -0.0028703 -0.004023471
2.3853703 0.23961702 0.006997716 0.011362417 0.029318685 0.06339357 0.21939708 0.15823758
0.04805169 0.0 0.0110147735 0.04953484 0.049266163 -43.871243 -43.874985 -43.862976
0.04956318 0.021029042 0.012790692 0.0035191225 1.4815094 0.16884921 6e-45 6e-45
9.654499e-12 0.10957791 0.15468636 0.12010264 0.012301264 0.0 0.008468843 0.032310717
0.03190984 0.09530941 0.098434396 0.09860742 0.032632392 0.017765088 0.009147309 0.005933757
6e-45 6e-45 0.0 6e-45 6e-45 0.0 0.0 6e-45
0.0 0.0 6e-45 6e-45 6e-45 6e-45 6e-45 6e-45
6e-45 6e-45 6e-45 6e-45 1.2674478 0.030898571 6e-45 6e-45
-0.00074799685 0.004311503 0.01892165 0.02945065 0.025449075 0.0 -0.003319884 0.0071785897
0.00811702 0.0010002684 -0.0027096127 -0.0005729785 0.008118762 0.0035815297 0.010340436 0.010659836
2.4384294 0.0964067 -1.281114e-05 0.0011120074 0.0067160204 0.037071757 0.05651231 0.0665247
0.047002137 0.0 0.014932854 0.081933774 0.08252223 0.07844894 0.07431839 0.08010024
0.08299191 0.02551958 0.026613018 0.016022414 0.46482745 0.13629495 0.057401564 0.091301665
0.124867186 0.004924443 0.011116825 0.02364281 0.13575025 0.0 0.000547789 0.022196526
0.022400655 0.069799304 0.06907851 0.068608746 0.022310138 0.0025414755 0.0017317204 0.0022037835
-1.4753009 -0.041951295 6e-45 6e-45 6e-45 0.0055856 0.009505903 0.012350036
-0.055815876 0.0 0.00035947585 -0.011942711 -0.013396025 -0.030034311 -0.032623827 -0.030304376
-0.011600409 0.0017426263 0.0062664994 0.0014154044 0.55857015 0.11111163 0.018077616 0.044335604
0.070753954 0.0115232505 0.030581076 0.051513027 0.074291766 0.0 0.021385139 0.027255498
0.025990311 0.06246664 0.065081954 0.0651217 0.02657718 0.014705934 0.005540306 0.0068212845
0.10280447 0.018248439 3.977893e-05 3.9384744e-05 0.0030117997 0.0017994465 0.0068221022 0.008879507
0.012248558 0.0 0.0037154292 0.0043808394 0.0035752985 0.007181106 0.007591921 0.007728958

exp_avg_sq f4 [128, 20]
00000000: d9a5 ee42 a817 e63f 501e 9139 a48a d939
00000010: 2856 593b ab0d 233f 47ed b43f 8c55 2e3f
00000020: 1570 383d 0000 0000 0ae4 2d3b d35d 8f3c
00000030: f9de 913c 7209 3442 8523 3442 be1c 3442
00000040: ee11 923c b5c3 1c3c fe48 263a 1ece 103a
00000050: 3d24 152c 3d24 152b 0000 0000 0000 0000
00000060: 0000 0000 d48e 0829 ca32 672a 74ff 3e2a
00000070: 3d24 152a 0000 0000 3d24 152b 0000 0000
00000080: 0000 0000 0000 0000 70c8 d923 0000 0000
00000090: 0000 0000 70c8 d924 0000 0000 0000 0000
000000a0: 82f8 f038 fcde 5f36 a8f3 d233 421b a634
000000b0: 307f 7935 ef6d 7934 6158 eb34 3726 7435
000000c0: 6569 c034 0000 0000 7223 0534 580d 4335
000000d0: 07d6 3335 7600 bb35 269a b835 c8b6 c635
000000e0: 0ac3 3c35 92d4 2634 19c3 f332 acb9 4132
000000f0: fb9b 4140 b364 c53c f6ff 1c3b 777d 2a3c
00000100: dde0 ed3c 3391 b439 ca4a 563a e125 103b
00000110: e2dd 803a 0000 0000 7fab fd3a 118a e13c
00000120: 0d15 bc3c c8b6 a544 b2b6 a544 32b3 a544
00000130: 7dbd d23c 1f71 bf3a 2062 3e3a a236 1b3a
00000140: ff67 c742 634b 3b3f 7714 eb3b 2fa4 e03c
00000150: 75a7 9a3d 37c7 163e 3fed 943e 832e 793e
00000160: 5cfd 2f3e 0000 0000 4261 263c 868a ca3d
00000170: 8d7e bf3d 69a5 2149 41a4 2149 5aa1 2149
00000180: 3102 c63d 6229 a03b 2d77 f23a f86e dd39
00000190: 0fa3 1942 551a af3e f7c9 bf2e 930c 742f
000001a0: e5a9 3334 9357 1f3e 281c 953e de5a 2a3e
000001b0: f5e9 453c 0000 0000 5260 893a a9d3 d43c
000001c0: ab90 dc3c 3310 103e 860f 103e 8b23 163e
000001d0: 26ce d93c ab74 713b 38da 013b f7fd dd39
000001e0: 422c 652e 422c 652c 0000 0000 422c 652c
000001f0: 4c77 f92b 0000 0000 0000 0000 422c 652c
00000200: 0000 0000 0000 0000 2b58 452c 77d1 272c
00000210: 7fab 2e2c 9367 c026 086e f027 63ce 7b27
00000220: 428a 292c 0b21 1327 6eca 1c27 c207 ed25
00000230: d0e1 6943 496e e73e 3ad7 8f36 7a15 2437
00000240: fbd7 ac38 ba5d 163d 1147 583d 38bc a43d
00000250: a25d 8b3e 0000 0000 e760 e53b db68 6a3d
00000260: 71ad 623d b875 b842 e76e b842 1e6d b842
00000270: c55e 6b3d 5b0b aa3b a077 023b 6f70 1a3b
00000280: 8eba e542 493f 373e 745e 8c38 ca19 bf3a
00000290: 22fc 743b bede 8f3c 211a 573d 1061 d33d
000002a0: a0cc af3d 0000 0000 953b dc3b 7af1 fc3d
000002b0: e9ca 023e dea0 0c3e e0ce fc3d 3789 0f3e
000002c0: 1cdd 003e b331 ee3b 26cf ee3b 9ef0 bd3a
000002d0: 8b63 893f d63d bc3d 3a31 403c 5b9a 253d
000002e0: 35bf 9c3d 1f20 9039 f9ff 8d3a c6d6 a73b
000002f0: e0c7 b43d 0000 0000 78ac 2937 ed10 e83a
00000300: f9d8 f43a dce0 5841 16de 5841 59db 5841
00000310: d7d0 ee3a f63a 4438 f58f 0538 68c9 9437
00000320: f3d6 c543 415d d43e 294e 452e 310a 182e
00000330: 1ff6 5233 3d1d 833b 641f 4f3c 5ea9 333d
00000340: 28ad c33e 0000 0000 d314 e03b 671b 823d
00000350: dd0c 8a3d 5ba8 b73d b31c c33d c9a2 bb3d
00000360: bc1e 893d 504f bb3b 2467 6a3b 35c2 ac3b
00000370: ddc4 cb40 b29c 5c3e 23c9 8a3b c868 b93c
00000380: 4235 823d d420 7e3c d8b1 d03c 1329 633d
00000390: a5ba 753d 0000 0000 67b1 083c 14a6 c93c
000003a0: 5233 bc3c 6114 2c3d e77f 3b3d 00e4 383d
000003b0: ea6f c33c 19c2 2f3b 4807 e339 73ff 6439
000003c0: 58bf d83e 1ca9 a13b 0855 f136 42ce 8838
000003d0: 2e5b d439 0204 8c39 590c 743a 6baf e93a
000003e0: 04b2 c93a 0000 0000 8f7a 073a 09c1 4c3a
000003f0: bfc2 3d3a 373f 3e43 8c38 3e43 fc38 3e43
119.32392 1.7975969 0.0002767914 0.0004149276 0.0033162925 0.6369273 1.4134911 0.68099284
0.045028765 0.0 0.0026533627 0.017500794 0.017806517 45.009224 45.034687 45.02807
0.017830815 0.009568145 0.0006343274 0.0005523878 2.119429e-12 5.2985725e-13 0.0 0.0
0.0 3.032195e-14 2.0534542e-13 1.6964018e-13 1.3246431e-13 0.0 5.2985725e-13 0.0
0.0 0.0 2.3612076e-17 0.0 0.0 9.44483e-17 0.0 0.0
0.0001149038 3.3359383e-06 9.823208e-08 3.0939742e-07 9.294481e-07 2.3229926e-07 4.3836465e-07 9.0952693e-07
3.5839471e-07 0.0 1.2399485e-07 7.266258e-07 6.6994147e-07 1.393272e-06 1.3753931e-06 1.4805346e-06
7.0319277e-07 1.5537287e-07 2.8377643e-08 1.12762955e-08 3.0251453 0.024095869 0.0023956276 0.01040589
0.029037887 0.00034440457 0.00081745966 0.0021995234 0.0009831751 0.0 0.0019353478 0.027531656
0.022959257 1325.7119 1325.7092 1325.5999 0.02572512 0.0014605856 0.00072625466 0.00059209217
99.70312 0.73161906 0.0071740705 0.027422039 0.07551471 0.14724432 0.29087254 0.24334149
0.17186493 0.0 0.010155024 0.098897025 0.093503095 662102.56 662084.06 662037.6
0.09668387 0.0048877457 0.0018498652 0.00042235083 38.409237 0.34199777 8.7215506e-11 2.2196138e-10
1.6732481e-07 0.1556075 0.29123044 0.16636226 0.0120797055 0.0 0.0010480976 0.025979834
0.026924452 0.1406868 0.14068422 0.14661996 0.026587557 0.0036843221 0.0019813906 0.00042341623
5.210788e-11 3.2567425e-12 0.0 3.2567425e-12 1.7725626e-12 0.0 0.0 3.2567425e-12
0.0 0.0 2.8044327e-12 2.3848404e-12 2.4822087e-12 1.335075e-15 6.6732678e-15 3.494513e-15
2.4093093e-12 2.041826e-15 2.1759086e-15 4.1118203e-16 233.88208 0.45201328 4.2867878e-06 9.780162e-06
8.2418286e-05 0.03671048 0.05280215 0.080437124 0.27219874 0.0 0.007000077 0.057228904
0.055341188 92.22992 92.216606 92.21312 0.057463426 0.005189342 0.0019907728 0.002356555
114.864365 0.17895235 6.6933135e-05 0.0014579829 0.0037381728 0.017562266 0.052515153 0.103212476
0.08583951 0.0 0.00672097 0.123507455 0.12772717 0.13733241 0.12344146 0.14017187
0.12584347 0.007269108 0.0072878776 0.0014491265 1.0733503 0.09191482 0.0117304865 0.040430408
0.07653657 0.00027489752 0.0010833732 0.0051220385 0.08827186 0.0 1.0113341e-05 0.001770524
0.0018680386 13.554897 13.55422 13.553552 0.0018220198 4.6784953e-05 3.184374e-05 1.7736762e-05
395.6793 0.41477397 4.4862034e-11 3.456985e-11 4.911828e-08 0.004001288 0.012641761 0.043862693
0.38218045 0.0 0.00683842 0.06352883 0.06740735 0.08967658 0.09526958 0.09161908
0.06695315 0.005716242 0.0035767043 0.0052721747 6.367781 0.2154415 0.004235403 0.022632971
0.06357814 0.0155107565 0.025475428 0.055459093 0.05999245 0.0 0.008343077 0.024615325
0.02297369 0.042011622 0.045776274 0.045139313 0.023857076 0.0026818572 0.0004330224 0.00021838937
0.42333484 0.0049334895 7.1922586e-06 6.523404e-05 0.00040503725 0.00026705867 0.0009309701 0.0017828768
0.0015388136 0.0 0.0005168104 0.0007810747 0.0007238797 190.24693 190.22089 190.2226

exp_avg f4 [128]
00000000: 2583 a2be 0400 0000 0400 0000 3cc3 94bc
00000010: ea4f 913e eff6 3c3e 0400 0000 dbf2 323d
00000020: e788 243e c490 0b3e 5413 d2bc 01de 013e
00000030: ee0f 9a3c 9af7 51bc 6fcc f9be 0918 d7bc
00000040: 0400 0000 ed22 f8bd 1dd3 50bc 0000 0000
00000050: cf7f 1f3c 0400 0000 0400 0000 0400 0000
00000060: 9bcc 28bd 5b84 4a3c 1592 bfbc ed28 9c3d
00000070: 9460 3ebd d1f1 373d f870 78ba 0400 0000
00000080: 6de0 113e a5c0 10bd 3c5c cdbd 19b1 2dbe
00000090: 6654 e93c 76d1 fc3d 0400 0000 1f33 b6bc
000000a0: 09ba 113a 80d2 033c 628c 1b3e 0400 0000
000000b0: 225b 18be fae7 3b3c a68f ccbe 11ec 473e
000000c0: d580 913d dd96 43bd 0647 633e ac27 8a3e
000000d0: 0000 0000 b943 5abc 03e8 9ebc 96da 80bc
000000e0: 60b1 623d 8580 1d39 8e4e 1dbe 5c80 a3bd
000000f0: de4d bdbd 0400 0000 8c04 9bbd 6ca9 80ba
00000100: c2a4 553d 6e97 9abe 40ef 663e da2f 7abe
00000110: 5502 6f3d 780f ab3e 4c57 e6bd 1629 d0be
00000120: 0000 0000 855b 533c a64f 283a 7f88 93be
00000130: 0400 0000 0400 0000 b1a8 413e 2671 6fbd
00000140: f4d1 31bd 9049 aebd 825b aebe b939 773d
00000150: a467 7cbd 5d87 d3bc cd0e 9fbe 0400 0000
00000160: f921 be38 30ce 353e 5e76 213e 576a 33be
00000170: 6062 48bc 0400 0000 22a8 ca3b b529 f339
00000180: 0400 0000 6053 4dbe cdf7 94bd 7db5 d2bc
00000190: 15f9 28bb 7e34 633e 1c9d 983d 52ae 283d
000001a0: 44c0 8fbe 4d88 513b 1387 e1bc bd9d 74be
000001b0: 910d d13c 6e60 aa38 b77f 76bc 1280 09be
000001c0: 8e6b 043d 0000 0000 b8cb 4bbc 0400 0000
000001d0: ed50 06be 0400 0000 ec2b a43c 0400 0000
000001e0: 0400 0000 81b2 6139 bb9a a4b7 0400 0000
000001f0: 4f96 3ebd edcf d9bc c3aa 25bd a10d 073f
-0.3174068 6e-45 6e-45 -0.018159501 0.28381282 0.18453573 6e-45 0.043688636
0.16067849 0.13629442 -0.025643982 0.12682344 0.018806424 -0.0128153805 -0.48788783 -0.026256578
6e-45 -0.121160366 -0.012745646 0.0 0.009735062 6e-45 6e-45 6e-45
-0.041210752 0.012360658 -0.023385087 0.076249935 -0.046478823 0.04490835 -0.0009477283 6e-45
0.14245768 -0.03533997 -0.10027358 -0.16962089 0.028482627 0.12344639 6e-45 -0.022241173
0.00055590324 0.008045793 0.1519027 6e-45 -0.14878514 0.011468882 -0.39953345 0.19523646
0.07104651 -0.047751296 0.22195062 0.26983392 0.0 -0.01332181 -0.019397741 -0.01572923
0.05534494 0.00015020564 -0.15361997 -0.07983467 -0.092433676 6e-45 -0.075692266 -0.0009816117
0.05215908 -0.30193657 0.22552204 -0.24432316 0.058351833 0.3341024 -0.11247119 -0.40656346
0.0 0.012900238 0.000642056 -0.28815076 6e-45 6e-45 0.18912007 -0.058457516
-0.043413118 -0.08510125 -0.3405419 0.060357783 -0.061622277 -0.025821382 -0.3106598 6e-45
9.066234e-05 0.17754436 0.1576781 -0.17521034 -0.012230486 6e-45 0.006184594 0.00046379646
6e-45 -0.20051336 -0.07273827 -0.025721306 -0.002578323 0.22187993 0.07451841 0.04118187
-0.28076375 0.003197211 -0.027530229 -0.23888297 0.025519164 8.124193e-05 -0.015045098 -0.13427761
0.032329135 0.0 -0.012438707 6e-45 -0.13116808 6e-45 0.020040475 6e-45
6e-45 0.0002152417 -1.9622375e-05 6e-45 -0.046530064 -0.026588405 -0.040446054 0.5275517
