flaskProject/modules/Contrastive_Clustering/save/model_checkpoint_6_200.tar (torch, 183506 bytes, 24 tensors)

instance_projector.0.weight f4 [128, 20]
000000 53 e1 af be 10 ac 8c 3f 8b 40 9b 3b 63 74 02 be
       -0.34351596 1.0990009 0.0047379187 -0.1273971
000010 65 72 b9 be d9 97 8f be 75 23 16 bf 0a d8 06 bf
       -0.3622009 -0.28045538 -0.58647853 -0.526734
000020 15 4f c5 be 64 68 2c be 3a 8f e3 3b b9 5e 82 bd
       -0.38536897 -0.16836697 0.006944564 -0.06365723
000030 36 3f cd be 98 58 a9 3b 24 be 4f be 58 34 1c bd
       -0.4008729 0.005168032 -0.20287377 -0.038135856
000040 e1 b6 20 be b6 f5 5f bd 05 d2 3d 3e b0 e1 e5 be
       -0.15694763 -0.054677688 0.18537147 -0.44898748
000050 42 89 cb bd a8 9d 68 be 5a 51 ed bd f4 77 5c 3e
       -0.09938289 -0.22716391 -0.11587782 0.21530133
000060 3a 4f 53 be e3 7c 0d bc 53 b7 2e 3e f7 8f 05 3e
       -0.20635691 -0.008635732 0.1706212 0.130432
000070 af 98 df bd 98 75 9c bd 67 9b 71 3d 26 6d 4c 3e
       -0.10917794 -0.07639617 0.058986094 0.19963512
000080 92 60 c0 bd 80 f4 70 bc fc cf cb bd 01 90 21 be
       -0.09393419 -0.014706731 -0.09951779 -0.1577759
000090 18 ac d7 3c c7 11 d9 bd d0 16 27 3e 58 f9 43 bd
       0.026327178 -0.10599094 0.16317296 -0.047845215
0000a0 0a 97 6a bd 94 4c d4 3e 41 62 b3 3e 66 8b 34 bf
       -0.05727295 0.41464674 0.350359 -0.70525205
0000b0 ec 14 02 bd 20 01 04 be a7 cf a2 3e 14 6e 22 3e
       -0.031758234 -0.12891054 0.3179905 0.15862304
0000c0 c5 a9 0a bf 6c 02 80 3d 37 2a 0c 3f 9f a0 0c 3f
       -0.541653 0.06250462 0.54751915 0.5493259
0000d0 03 e6 46 3e 3b e5 ed 3d cc ba 62 be 20 03 19 be
       0.1942368 0.11615988 -0.2214157 -0.14942598
0000e0 e9 be e4 3e c0 ce f5 bc aa 23 11 3c 72 37 54 bf
       0.44676903 -0.030005813 0.008858601 -0.828971
0000f0 21 86 55 3d 48 18 55 3e c3 65 50 bf 20 6f 41 bf
       0.05212987 0.20810044 -0.81405276 -0.7556019
000100 7a 46 a6 bf f0 6a 99 3c b5 b1 28 bf 4c a9 b1 bf
       -1.2990258 0.01872775 -0.6589616 -1.387979
000110 f2 81 31 c0 90 a7 43 3e 18 27 df be 27 9b 68 3e
       -2.7735562 0.19106889 -0.43584514 0.22715436
000120 98 5e ba 3e a9 f2 2c bc 6c 91 f3 bc cd 58 cd bd
       0.36400294 -0.010555902 -0.029732428 -0.10026703
000130 85 d9 a0 3e 33 fd 32 bf 1b d7 8f bf 7d 8f 28 c0
       0.31415954 -0.699176 -1.123752 -2.6337578
000140 af 2e 39 bd 7d b6 8c 3c 0c e7 b8 3e c9 82 02 3f
       -0.045210537 0.017176861 0.36113775 0.5098081
000150 04 2d de be e5 7d b2 3e 2d 09 be be 89 96 a2 3e
       -0.4339372 0.34861675 -0.37116376 0.31755474
000160 ae d8 bb be 10 fb 52 3e 85 63 6b 3f 48 57 86 be
       -0.3668875 0.20603585 0.9194873 -0.26238465
000170 5a 12 0b bf 88 52 f1 be be e3 87 3e 4c f3 08 3d
       -0.5432488 -0.4713328 0.2654094 0.03343515
000180 e6 c4 38 be 53 06 96 3f 02 50 8c bf 3e e8 0c bf
       -0.18043861 1.172068 -1.0961916 -0.55041873
000190 1e f1 0a be 10 40 a3 be 5c d6 a9 bf 04 ac c0 40
       -0.13568541 -0.31884813 -1.3268542 6.020998
0001a0 27 4c 5f 3f 2b 8e 9b be f8 fd 92 3e 5d 37 b5 3e
       0.87225574 -0.30381903 0.28709388 0.353938
0001b0 fc 15 2c be 4a 6b 22 3e 11 2b c1 bf f6 70 39 be
       -0.16805261 0.1586124 -1.5091268 -0.18109497
0001c0 df f6 81 3e ca 9e da bd 0b 88 b9 3d ec e5 1e bd
       0.2538366 -0.10674818 0.09059151 -0.03879349
0001d0 23 b5 8f be 0c 14 01 3f 4a 0a 82 40 69 4b 41 40
       -0.28067884 0.50421214 4.063756 3.0202277
0001e0 ca 5a 52 be 00 ac bf bb b0 e1 b8 bc c2 4a a9 bd
       -0.20542446 -0.0058493614 -0.022568554 -0.08266212
0001f0 c0 02 76 bc bc 19 e8 bd 6c 8e 61 3e b4 df 5d bd
       -0.015015304 -0.113330334 0.22026986 -0.054168418
000200 a0 bc e7 3d 36 a1 00 be e8 c3 34 3e ec 5b 9a bd
       0.11315274 -0.12561497 0.17652857 -0.07537064
000210 f4 e9 ff bd 44 b4 4d be 64 db 5d 3e 82 79 3d be
       -0.12495795 -0.20088297 0.21665722 -0.18503383
000220 40 0a 85 3d 56 cc 4e be 88 99 9d bc 55 27 fe bd
       0.06496096 -0.20195135 -0.019238248 -0.12409846
000230 79 6f fa be f0 a6 b9 3f 7f 3c 96 be de 6c e6 3d
       -0.48913172 1.450407 -0.2934303 0.112512335
000240 63 14 8f 3e 9a 5f bc be a7 1b c1 3e 24 69 b8 3e
       0.2794524 -0.36791688 0.3771641 0.36017716
000250 63 ab ae bf c1 e9 2d be 7a 6f 4c 3f 42 70 6f be
       -1.3646053 -0.16983701 0.798576 -0.23382667
000260 26 84 43 bf b0 f0 f3 b9 31 3b 32 be 83 41 9d bd
       -0.7637352 -0.00046527898 -0.17405392 -0.07678511
000270 4a 44 c0 be a7 18 59 bf f2 0b 86 3d 90 c7 7a 3f
       -0.375521 -0.8480324 0.06545247 0.9796076
000280 e3 12 88 bd 98 ea af 3e 21 e8 76 3e c4 71 25 be
       -0.06644227 0.34358668 0.24111988 -0.1615668
000290 f1 90 07 3d f9 41 ea ba 2e a4 8a 3e 89 cf be 3e
       0.03309721 -0.0017872445 0.27078384 0.37267712
0002a0 1b 39 e4 3d 85 9f 3e be 63 46 49 3d 5c 66 ad 3e
       0.111437045 -0.1861554 0.04913939 0.33867157
0002b0 3a 16 f5 3c ba e8 8b 3e 4f 5f 7a be fe 7a 69 bd
       0.029917825 0.27325994 -0.2445042 -0.05700206
0002c0 99 21 9c 3e 46 a3 2d 3e 9a 7e bb bd 1c fa d9 be
       0.30494383 0.16956815 -0.09155007 -0.4257363
0002d0 d2 db 1b be 70 f1 a6 bd 1e f5 65 be 9b 83 32 bc
       -0.15220574 -0.08151519 -0.22456786 -0.010895635
0002e0 a5 6d d8 3d 20 53 fe 3b 88 57 ab bd 92 70 61 3d
       0.10567788 0.007761374 -0.08366305 0.055038996
0002f0 a1 69 07 3e 0c 67 38 3e 6b 46 ad bd 9c 0c 13 3e
       0.13223888 0.1800806 -0.08460697 0.14360279
000300 a1 1f 67 3d 61 cf 62 be a8 10 ff bd 88 8d 42 3d
       0.056426648 -0.22149421 -0.12454349 0.047498256
000310 f3 73 e6 3d d4 69 3d be 68 7d b1 3d db 4d 4e bc
       0.11252584 -0.18497401 0.086664975 -0.012591804
000320 b1 9d 21 be 63 f3 df bd 6f 1c 41 3e d0 7b ad bd
       -0.15782811 -0.10935094 0.18858503 -0.08470881
000330 42 69 7b 3f 67 41 9e bf a3 67 8f bf 26 2b 13 3e
       0.98207486 -1.2363709 -1.1203502 0.14371929
000340 7b 68 8d bf 10 83 eb 3c c0 a4 94 bd 72 87 db 3e
       -1.104751 0.028749019 -0.07257986 0.42876774
000350 8d fe 99 3e e5 7d fb bc 3c fd 8a be 2c 8c e8 3c
       0.3007702 -0.03069968 -0.27146327 0.028387152
000360 e5 f7 1d 3f 21 28 33 bf b2 52 d3 be 90 c5 96 bf
       0.6170638 -0.69983107 -0.4127403 -1.1779041
000370 81 26 b0 bd 12 96 79 3e 1a 29 05 bf 3f b8 06 3f
       -0.08601094 0.24373654 -0.5201584 0.5262489
000380 08 71 8d bd e1 30 19 be 53 91 db 3e 03 78 0e bf
       -0.069063246 -0.14960052 0.4288431 -0.55651873
000390 3f 02 b5 bd b0 df 0e 3d 69 62 ef be c2 f6 a9 be
       -0.08838319 0.034881294 -0.46754768 -0.33196074
0003a0 58 e2 a8 be 9e 10 91 bd cb d6 99 be 61 59 fa 3b
       -0.32985187 -0.070832476 -0.30046687 0.0076400493
0003b0 17 a5 a2 be 80 78 45 bf 66 80 14 bf 0b 0d 2d bf
       -0.3176658 -0.77136993 -0.5800842 -0.67598027
0003c0 90 b5 c0 be 4e c3 57 3f 2d 39 b4 3f 19 f1 25 bf
       -0.3763852 0.84282386 1.4079949 -0.6482101
0003d0 7a 17 51 bd 65 f4 8f bd a3 e3 de 3e 38 88 97 3e
       -0.05104778 -0.070290364 0.43533048 0.29596114
0003e0 f8 2f 41 bf 00 5d 5b 3e ac 2e 19 be be 53 13 bf
       -0.7546382 0.21422195 -0.1495921 -0.57549655
0003f0 a2 b0 20 bf d9 c1 1e bd 2d c6 e7 bd 10 3d e0 bd
       -0.6276952 -0.038759086 -0.11317096 -0.10949147

instance_projector.0.bias f4 [128]
000000 5f 65 85 3f 71 b2 68 3c cc ff 6a 3f a3 d7 68 3e
       1.0421561 0.0142027 0.91796565 0.22738509
000010 c5 ba 78 be f1 b4 a7 be c8 a7 b1 bc 55 09 9d 3f
       -0.24289997 -0.32755235 -0.02168645 1.2268473
000020 0b fd 8a 3f 80 45 8b bd d0 e3 10 3f c3 d7 cb 3e
       1.0858473 -0.068003654 0.56597614 0.3981305
000030 a8 f2 87 3f c1 1d 96 be a1 63 21 bf 21 38 22 be
       1.0620928 -0.29319575 -0.63042647 -0.15841724
000040 5e da 34 be 2b 4b f9 bd 8a f8 9c be 41 59 72 bf
       -0.17661425 -0.1217254 -0.3065837 -0.9466744
000050 c1 76 51 3f ca 1c 41 3f 67 9e 01 3f a5 1f 44 be
       0.8182183 0.75434554 0.5063233 -0.19152696
000060 35 3c a9 3f 21 1d 83 3e 6c dd 3a bf 13 ef 0a 3f
       1.3221499 0.2560816 -0.7299411 0.5427105
000070 c3 68 3a 3e 2e b1 4e be 95 ee 6b 3e 86 12 9b 3e
       0.18204026 -0.20184776 0.2304023 0.3028757
000080 13 aa 53 3f 18 c5 06 3f 97 2e 3a 3e 3a 25 d2 3e
       0.8268139 0.5264449 0.18181835 0.41044027
000090 20 64 66 be 7e 0f 7e be 4a 3e 44 3f 2c 50 4b 3f
       -0.22499132 -0.24810597 0.76657546 0.7941921
0000a0 e7 3e 10 bf 03 00 95 bf dc 28 ba be 18 fb e5 3e
       -0.5634598 -1.1640629 -0.36359298 0.44918132
0000b0 67 c9 24 3f da 41 b7 be b7 72 37 40 cc 89 1b be
       0.64369816 -0.35792428 2.8663766 -0.15189284
0000c0 ac 49 c3 bd 48 24 f1 3e f7 72 23 be bf c8 36 3d
       -0.09535536 0.47097993 -0.15961824 0.04462504
0000d0 0a 60 24 be 10 e2 00 bf b8 fe 17 3f 9c f6 48 3f
       -0.16052261 -0.50344944 0.59373045 0.78501296
0000e0 db a2 76 be ef b5 b2 bf 47 c5 3a 3f 33 fe 85 3d
       -0.24085562 -1.3961772 0.7295727 0.06542625
0000f0 52 4f 27 be 12 7a 91 be 4c 3c 80 3f 6c 63 08 3f
       -0.16338852 -0.28413445 1.0018401 0.53276706
000100 51 9d 72 be ba 63 4d 3e 6a 0c c4 3c 7c 44 6c bd
       -0.23692824 0.20057574 0.0239317 -0.0576825
000110 6d 69 56 3d 70 f6 09 be 61 2f 5f be 38 3c db be
       0.052346636 -0.13472915 -0.21795417 -0.4281938
000120 31 70 fb 3e 6e 77 1a 3e c4 bc 3e be 00 f8 1d bf
       0.49109033 0.15084621 -0.18626696 -0.6170654
000130 4f ee 02 c0 ee c3 8c 3f df 06 11 bf 50 e2 ae 3d
       -2.0457952 1.0997293 -0.5665111 0.085392594
000140 6e fe 64 be 72 6d 98 be 64 77 90 bf c7 3f 36 3f
       -0.22362682 -0.29771 -1.1286435 0.71191067
000150 27 76 47 c0 90 aa 89 3f 61 29 98 be 43 8e 5f be
       -3.1165864 1.0755177 -0.2971907 -0.21831612
000160 20 82 4f bf 4f 1d c2 3d 01 4c 11 3f 25 03 01 3f
       -0.8105793 0.094782464 0.567566 0.50395423
000170 1e ee 2e 3f ad f8 21 3f cb 32 71 3f 2d 7f 62 3f
       0.6833209 0.63270074 0.9421813 0.88475305
000180 cc bc 8d 3f 20 39 b9 3e 48 42 d5 bc 74 25 0a 3f
       1.1073241 0.36176395 -0.026032582 0.539634
000190 1d 3e 70 be 6c 89 a0 be 43 87 a5 bf 3f 97 37 3f
       -0.23461194 -0.31354845 -1.2931904 0.7171516
0001a0 3a 97 50 bd 0b 41 e6 bd 1c 6c 74 be b4 b9 50 3f
       -0.05092547 -0.11242875 -0.23869365 0.8153336
0001b0 99 b8 74 be b2 e9 62 3f 1b d7 ac bf ef f9 32 3f
       -0.23898543 0.8863784 -1.3503145 0.6991262
0001c0 ea ce c4 be 4d 06 ec 3e 44 f2 17 bf 7a 21 1f 3f
       -0.38439113 0.46098557 -0.59354043 0.62160456
0001d0 55 12 9a 3d 7d 64 5e be a2 5d 14 bf de a9 43 3f
       0.07523028 -0.2171802 -0.5795537 0.7643107
0001e0 78 cd 3f bf 5b 40 a7 bf 8c 44 b7 3d fe 49 16 3f
       -0.74922895 -1.3066515 0.08948621 0.58706653
0001f0 63 c0 19 bf 57 52 81 3f 17 cc 80 bf e2 f4 06 be
       -0.60059184 1.0103253 -1.0062283 -0.13179353

instance_projector.2.weight f4 [20, 128]
000000 13 cc d8 3c e1 27 e5 3c 74 f7 05 bf f6 f3 40 bc
       0.026464498 0.027973117 -0.5233071 -0.011776915
000010 fd a0 e6 bc 5f 61 8a bd 5e 68 23 3d 85 0f ed bd
       -0.028152937 -0.06756853 0.039894454 -0.11575226
000020 b7 d7 35 bf 75 8f 19 3d b6 05 84 be d0 10 00 3e
       -0.7103228 0.037490327 -0.25785607 0.12506413
000030 d1 6c c7 3d b9 9a a9 3e 18 d8 9e 3e 5b 35 e5 bd
       0.09737552 0.33125857 0.3102424 -0.111918174
000040 22 2d 98 bd 02 d4 5b bd a7 4e d5 3e b3 50 ff 3d
       -0.074304834 -0.053668983 0.4166157 0.12466564
000050 03 7d 65 be 50 59 97 be 6d 6e a4 bd bd 3a 27 3d
       -0.2241097 -0.29560328 -0.080288745 0.0408275
000060 39 ad c1 be da 9d fb bd 76 c4 db 3e cf a3 91 be
       -0.3782747 -0.12285967 0.42923325 -0.2844529
000070 5e 12 f5 3e 46 ac 78 3d 81 44 9e be 78 b6 84 bd
       0.47865576 0.060711168 -0.3091164 -0.06480116
000080 1f 24 02 bf 6a 8c 1f 3f 3e ae 10 bd bc 0c 73 bd
       -0.50836366 0.6232363 -0.03532242 -0.059338316
000090 d9 17 4a be b0 c4 35 3d 12 47 79 be 35 ed c8 be
       -0.1973566 0.04437703 -0.24343517 -0.39243475
0000a0 e0 cc c6 be c5 6d c2 3d e3 3c 05 3e d4 fb 08 3f
       -0.38828182 0.09493593 0.13011508 0.5350926
0000b0 8f cb df be 37 f4 1b 3f 6b b4 1a 3f 24 2c 99 bd
       -0.4370999 0.6091952 0.60431546 -0.07479122
0000c0 11 82 86 3e 69 5d c4 bd 6c bf 15 3d c2 d3 84 be
       0.26271108 -0.09588129 0.036559507 -0.25942808
0000d0 37 2c 93 3d 57 95 83 3e c1 eb ca bd b5 c4 6e be
       0.07186168 0.25699875 -0.09908248 -0.23317225
0000e0 f6 7e 7f bf 6c c0 7b 3f 93 a4 e5 be 7c c6 d7 3b
       -0.998031 0.9834049 -0.44852123 0.0065849405
0000f0 4c 1e f8 3c 35 ae 86 3e ae ab f3 bd 8e db 3f 3d
       0.030287884 0.26304784 -0.1189798 0.046840243
000100 29 47 9f bc ee 1e 99 be d3 ff fd 3e 28 33 92 bd
       -0.019443111 -0.2990641 0.4960924 -0.071386635
000110 33 be f7 be 38 9c a2 bc f3 0f a3 bd ab ff 0e 3f
       -0.48387298 -0.019849882 -0.079620264 0.5585887
000120 36 13 d5 be d8 20 c8 3e 51 b5 ad bd 87 3b 5e 3f
       -0.4161622 0.39087558 -0.08481849 0.8680958
000130 72 7f 63 3f 77 25 b1 be e0 a4 b5 3d ef 5c 6d bd
       0.8886634 -0.34598896 0.08869338 -0.057949957
000140 13 ed 9f bc b8 b1 0c bf 8b fe 06 40 44 71 4d bf
       -0.019522225 -0.5495868 2.109286 -0.80250955
000150 96 9d 37 bf 9f 53 59 3f 62 0e bd 3e a1 7f ce bd
       -0.7172483 0.8489322 0.36925036 -0.10082937
000160 49 c6 79 3e c4 9e 00 bd 2f 72 16 3d 0e 56 6d bc
       0.24392046 -0.03140141 0.036729988 -0.014485849
000170 a9 3f fc 3d b6 50 d9 be 6b 6d 5a bf 72 89 d2 be
       0.1231683 -0.4244439 -0.8532321 -0.41120487
000180 a8 50 54 be a8 0b 88 be 65 04 3c 3d ba 60 ff 3e
       -0.20733893 -0.26571393 0.04590263 0.49878484
000190 f6 54 bb bc 6a cd 2a 3e e1 a3 7e 3e 79 0b 72 be
       -0.022867661 0.16679922 0.24867202 -0.23637189
0001a0 ab bc a0 bc da 08 ab 3c 8a 3e 2a 3e 3f 66 d5 be
       -0.019621214 0.020878244 0.1662542 -0.4167957
0001b0 55 f2 c8 3e 2e a0 28 bf 20 45 80 3e 3a 54 95 3e
       0.39247385 -0.65869415 0.25052738 0.29165822
0001c0 4d 71 5a bd 73 94 2c bf 09 38 1e 3f 76 af a5 3e
       -0.05333071 -0.67414016 0.6180425 0.3236043
0001d0 0d 0b 54 3e 0c 7b ba bd 33 88 bf 3e 30 bd e2 be
       0.2070734 -0.091055006 0.374086 -0.44284964
0001e0 d6 51 0f be 47 fa c8 3e c0 b8 0a bd 98 66 bc be
       -0.13996062 0.39253446 -0.033867598 -0.36797023
0001f0 b6 3a 8e 3d e0 5d 8e be 27 06 b5 3e da bd 70 3d
       0.06944792 -0.27805996 0.35356256 0.058774807
000200 e7 c5 0b 40 63 b7 c0 bc ac b4 fd bd 73 74 cb 3e
       2.183954 -0.023524946 -0.12387976 0.3973728
000210 ec 9e 5c 3e a6 79 ef 3d 97 57 7d bd 40 9b ea 3f
       0.21544999 0.116931245 -0.06185111 1.8328629
000220 27 3a 04 bd f3 19 69 bd e7 5b 5f 3c bd ca e4 bd
       -0.03228202 -0.056909513 0.013632751 -0.11171482
000230 e8 53 4f 3f d4 40 35 be 6e 30 aa bb 5e 1f 93 bd
       0.80987406 -0.17700511 -0.0051937615 -0.07183717
000240 cf fd cf 3e e9 e1 a7 3d 4b b3 9a 3e 82 a5 7d be
       0.40623328 0.08197386 0.30214915 -0.24770167
000250 95 2a a3 3f b3 48 6f 3d e5 b0 be bd 30 f8 10 3d
       1.274737 0.05841894 -0.09311084 0.03539294
000260 d3 71 cc 3f ac a2 e7 bc ba 04 d2 3e 5d 2e 58 bd
       1.5972236 -0.02827581 0.4101923 -0.05277859
000270 4a 9f 46 3f b6 c9 51 3d 9d e5 8a 3e 2d 2d 84 be
       0.77586806 0.051217757 0.27128306 -0.25815716
000280 90 1c 9d 3e 9f 0c 3b be 35 61 78 3d b6 05 81 3e
       0.30685854 -0.18266533 0.06063958 0.2519967
000290 cc 52 07 be f3 f3 a1 bd ad 00 e8 bd 51 42 32 be
       -0.13215178 -0.07907858 -0.11328254 -0.1740811
0002a0 ff e4 0d bd 4c 79 cb 3d 03 30 fb 3d ba 35 59 3e
       -0.034642216 0.09935245 0.12265017 0.21211901
0002b0 63 f9 04 bd cb 75 e6 bd 03 e1 d2 3e 13 14 93 3f
       -0.032464396 -0.11252936 0.41187295 1.1490501
0002c0 2c a0 cd be e4 43 e5 bd e2 ea b0 3b 57 b5 06 3a
       -0.40161264 -0.1119459 0.005399094 0.0005138716
0002d0 93 e7 a4 3d ed 7b 99 be 2a d1 fd 3d 35 1d 90 3e
       0.08051982 -0.2997736 0.123934105 0.28147283
0002e0 f7 94 86 bf dd 6b 1e bf 54 f1 c3 bd 00 ff df 3d
       -1.051421 -0.61883336 -0.09567514 0.10937309
0002f0 14 92 d3 bc 66 ee 87 be 45 5e e1 3e d8 1d a5 be
       -0.025826491 -0.2654907 0.44017234 -0.3224933
000300 d6 b8 cb bc 12 bf 35 3e 92 b4 e4 3e 43 37 99 3d
       -0.02486841 0.17748669 0.44669014 0.074812435
000310 11 d5 78 bf 3d 36 a4 bd c3 03 11 3d 2d 28 33 3e
       -0.97200114 -0.08018158 0.035403978 0.17495795
000320 ff f1 b8 3f 93 40 ad 3c 69 c3 9a 3e 47 95 57 bd
       1.4448851 0.021148955 0.3022721 -0.052632596
000330 24 1f 4f bf 44 81 a9 bd b1 f0 84 3d f9 38 85 3d
       -0.8090689 -0.082766086 0.06491221 0.06505007
000340 3f 7a 00 3d c0 39 7b 3f ca 6f 8e bd 39 a4 7a bd
       0.031366583 0.98134995 -0.06954916 -0.06119177
000350 d5 68 2e bf af 28 02 be d9 da 29 3d e5 e2 a5 be
       -0.6812871 -0.12710832 0.041468475 -0.3239967
000360 31 01 a8 3e 5d b0 a7 bd 1f 61 5d be 34 61 87 be
       0.3281341 -0.081879355 -0.2161908 -0.26441348
000370 d9 45 da 38 7d 39 d4 bd c5 e0 c5 bc fd 19 04 be
       0.0001040806 -0.103625275 -0.02415503 -0.12900539
000380 1a 79 fb 3d 3a 8c 69 3e f9 a8 10 3c 29 ff f3 be
       0.12278958 0.22807398 0.008829349 -0.4765561
000390 03 05 71 3c 3a 87 f0 be 9d 71 3d 3c 53 bb 7c 3f
       0.014710668 -0.4697817 0.011562732 0.98723334
0003a0 8f 18 be bd 8a 11 46 3d c9 29 ef bd 28 91 cf bd
       -0.09282028 0.04835657 -0.11677892 -0.10135108
0003b0 3e b9 b4 bd 75 fc 2b 3d 61 37 70 3e c1 0c da 3e
       -0.08824395 0.04198881 0.23458625 0.42587855
0003c0 f0 08 eb 3c 16 20 bb bc 26 cd 59 3e 00 d4 5d 3e
       0.028690785 -0.022842448 0.21269664 0.21662903
0003d0 80 f0 ec be c6 37 20 3c 54 c6 80 3e 1c 3d 01 be
       -0.46277237 0.009778922 0.25151312 -0.12620968
0003e0 f3 d3 37 3e e1 c0 0a 3f 7e f7 98 3a dc 3c e5 3d
       0.17951946 0.5420056 0.0011670438 0.11193249
0003f0 84 03 60 bd 94 ac 5b 3f 33 52 67 3d 90 3d 44 3c
       -0.054690853 0.8581021 0.056474876 0.011977568

instance_projector.2.bias f4 [20]
000000 74 7b 88 bf 9b 42 2b bd 92 bb 06 3f 56 32 69 3d
       -1.0662675 -0.041811567 0.5262996 0.05693277
000010 ba 2f 35 bf 78 c8 48 bf 4b ce e7 be 56 01 97 3c
       -0.7077595 -0.7843089 -0.45274577 0.018433254
000020 03 b0 f8 3e 0d 76 a1 3e 0f 7c 30 bf dc c7 95 be
       0.48571786 0.31535378 -0.689393 -0.29254043
000030 4c 90 71 bd 49 9b c6 3f 74 4b 72 be 36 5a 25 3e
       -0.058975503 1.5516139 -0.23661596 0.16147694
000040 87 dc 3b bf 7d 2e 88 3f ac d2 3f 3e bd 01 d8 3e
       -0.73383373 1.0639187 0.18732709 0.42188826

cluster_projector.0.weight f4 [128, 20]
000000 57 9f c1 bd a7 08 c5 be 72 3d 60 3e 20 cd 03 bf
       -0.0945422 -0.38483164 0.2189844 -0.5148487
000010 63 2c 9a be aa 98 43 bd df 54 58 3f 12 8c da 3d
       -0.3011199 -0.047753014 0.84504503 0.106712475
000020 b1 fa 58 3f e0 15 c3 bb a5 f4 2d 3d f3 5f 90 bd
       0.84757525 -0.0059535354 0.04246964 -0.07049551
000030 3c d7 06 bf 63 d7 7f 3e 22 b6 fd 3c 98 c6 cc 3c
       -0.5267217 0.24984507 0.030970637 0.02499704
000040 37 ca e3 be 85 f3 27 bc b5 4f b0 3b ce f1 33 be
       -0.44490215 -0.010250931 0.0053805956 -0.1757271
000050 7a 63 20 3c e5 10 da be 5b a2 07 be 5e 69 4a bf
       0.009789342 -0.42591015 -0.13245527 -0.7906703
000060 85 eb 16 bf 92 2d cd 3f ec 2c 33 3d 83 39 01 3d
       -0.58953124 1.6029532 0.043744013 0.031548988
000070 cd 2e 82 be 98 e7 f0 bc 24 a5 57 bf 25 b2 ec 3e
       -0.2542633 -0.029407308 -0.8423636 0.46229663
000080 23 93 19 3f 62 d0 25 be f8 25 10 3e 2d e0 b5 bd
       0.5999014 -0.16192773 0.14076984 -0.08880649
000090 59 41 21 3f 2a a3 06 bf 6a 11 c1 bf b5 29 4c bf
       0.6299034 -0.5259272 -1.5083439 -0.7975114
0000a0 9e f4 e3 3c af bc 6e be 64 54 36 be 34 99 63 bf
       0.027826604 -0.23314165 -0.1780563 -0.88905644
0000b0 a0 8a 1d bf f1 f5 12 bf 9a 44 dd 3e b3 77 19 bf
       -0.6153965 -0.57406527 0.432164 -0.5994827
0000c0 c6 36 17 bf e8 07 ae 3c 38 05 ea bf b2 a1 14 bf
       -0.5906795 0.021244004 -1.8282843 -0.5805923
0000d0 1e 9c 56 bf ef 18 c4 3e 8d ba 03 3f 47 fe f3 3e
       -0.83831966 0.38300273 0.5145653 0.47654936
0000e0 5a ee 33 bf b1 6a 0e be c4 31 01 3d e0 a0 bd 3c
       -0.7028557 -0.13907887 0.0315416 0.023148
0000f0 a1 5e 6a bd 12 d4 c6 3e 02 4c 1f 3e 4b db 85 bf
       -0.05721915 0.38833672 0.15556338 -1.0457548
000100 65 5e 01 3e 2d b4 0b bf 9b 6b 57 bf f2 63 19 3d
       0.12633665 -0.545718 -0.8414857 0.03744883
000110 3c 75 3f 3f 02 4a f2 bd fe 92 18 3f 90 7c fd 3d
       0.7478826 -0.11830522 0.5959929 0.12377274
000120 46 9a fe be 08 b1 d1 be 2e e7 21 be 2e ba a9 be
       -0.49727076 -0.40955377 -0.15810844 -0.33149856
000130 67 cd d9 be 7c b2 92 bf e4 fc 3d bf 98 4f 10 c0
       -0.42539522 -1.1460719 -0.74214005 -2.254858
000140 e7 15 9c bd 50 cc 09 3f c6 de 01 3f 15 a0 36 bf
       -0.07621365 0.5382738 0.5073055 -0.71338016
000150 95 b0 1e 3e 09 89 77 bf 9b 5d 66 3c ff e4 1f bf
       0.15497048 -0.96693474 0.014060403 -0.62458795
000160 f4 aa 59 bd d0 4f 4d be b0 00 9b bf 86 28 ab be
       -0.05314155 -0.20049977 -1.2109585 -0.33429354
000170 fd 89 54 bf 85 fa 8c 3e 2a 6f 8d 3d 03 25 cc 3e
       -0.83023053 0.2753488 0.069059685 0.39871988
000180 5d 90 25 bf 9f f7 01 be 8f da cd be ac e0 61 be
       -0.64673406 -0.12692116 -0.4020581 -0.22058362
000190 25 7d 58 bb 24 90 e3 be 31 94 c7 bd 6c 33 ea bc
       -0.0033033576 -0.44445908 -0.09745062 -0.028588973
0001a0 4f 6a e4 be c6 38 b6 3f 03 7d ef be 45 0f c0 bd
       -0.44612357 1.4236076 -0.46775064 -0.093779124
0001b0 bf 6a 75 be 6c 4a 12 bd 4a 14 54 bf c5 6e 91 3f
       -0.23966502 -0.035715505 -0.8284346 1.1361929
0001c0 7a f8 af 3f 68 6f e5 bd 1a 05 79 3e 57 44 7c 3d
       1.3747704 -0.1120289 0.24318352 0.06158861
0001d0 d6 a6 94 3f 83 fc b7 be e2 79 92 3e 95 5f 36 be
       1.1613414 -0.3593484 0.28608614 -0.17809899
0001e0 de a7 a3 3d 6c 16 39 3e 6b 50 42 3f 0b ba fb bd
       0.079910025 0.1807496 0.7590396 -0.12291344
0001f0 37 76 95 bd 68 eb 21 40 a7 f7 d1 bf f1 85 1f c0
       -0.07297938 2.529993 -1.6403702 -2.4925501
000200 e3 c7 30 bd 9e c5 a9 bd 41 60 ac bf 02 48 8d bf
       -0.043159377 -0.082896456 -1.3466874 -1.10376
000210 18 b1 9e bf 7f 1e ba 3e f2 50 d1 3d 4c 20 9c 3e
       -1.2397795 0.36351392 0.10220517 0.3049339
000220 dd 6a a2 bf 90 e3 80 bd 0b 8f 87 bf ab d5 cf be
       -1.2688862 -0.06293404 -1.0590528 -0.40592703
000230 7d 87 b3 bc f2 4c 3e be c0 78 af bd 2f ec 23 be
       -0.021915192 -0.1858404 -0.08567953 -0.16008066
000240 5c c3 1e 3e dc fa bf bd 10 c2 be 3d 9e 8b 6a 3d
       0.15504211 -0.093740195 0.09314358 0.057262056
000250 6f d6 3d be 7c d7 5a 3e 72 87 1f 3e fd 99 10 be
       -0.18538831 0.21371263 0.15579012 -0.14121242
000260 01 73 59 be 98 23 87 bd 06 79 3c bd fd ce d2 3d
       -0.21235277 -0.06598586 -0.046013854 0.10293386
000270 55 85 40 3e 18 ef c1 bb 9f ad 6c be 22 11 4f be
       0.18800862 -0.005918395 -0.23113106 -0.2022138
000280 e7 d2 72 be 7f 5e dc 3d f7 5b e8 3e 17 13 34 3e
       -0.23713265 0.10760211 0.45382664 0.17585407
000290 ae de 6e bd bb 6c 85 be 4d 44 c7 bd 71 da 57 3e
       -0.058317833 -0.26059517 -0.09729824 0.21079423
0002a0 40 0c 4e bf ea 79 1d be e2 bc be 3e 02 92 13 bf
       -0.8048744 -0.15378538 0.3725348 -0.57644665
0002b0 f8 b6 3e bf 3a 8f eb be 46 0c c9 be 55 60 20 bf
       -0.7449794 -0.4600771 -0.39267176 -0.6264699
0002c0 03 3b 0d bf aa 3d 7c be 18 21 ff bb db c4 b1 3e
       -0.5516817 -0.24632898 -0.0077859275 0.347205
0002d0 36 24 1b bd 9a 2e be be 14 83 c4 bf 39 e6 46 3f
       -0.03787633 -0.3714493 -1.5352502 0.7769504
0002e0 1b e3 a6 3e b8 44 c0 3f 73 e0 70 be 99 1c d5 be
       0.32595143 1.5020971 -0.2352312 -0.4162338
0002f0 56 f7 dc bc b0 a8 2c bc a6 8c 4e bf a2 65 37 bd
       -0.026973408 -0.010538265 -0.8068336 -0.04477466
000300 56 a1 af bc 30 d0 cb bb e8 0f c0 3d f0 3a b6 bd
       -0.021439236 -0.0062198862 0.09378034 -0.0889796
000310 00 05 8c 3e 53 99 b9 be 8a 20 30 bf 71 50 1f bf
       0.27347565 -0.3624979 -0.6879965 -0.6223212
000320 2a 43 24 be 78 13 d5 3d 8e de d4 bd 8e 97 27 3e
       -0.16041246 0.10404104 -0.103940114 0.16366407
000330 fb c9 61 be 6c da 10 be 6e ab a5 bd a4 31 15 bd
       -0.22049706 -0.14145821 -0.08089338 -0.036424294
000340 3f cd 58 be b1 ba 12 be a4 d0 bd 3d 9e 87 b8 bd
       -0.21172045 -0.1432903 0.09268311 -0.09010242
000350 3e 3a c1 bd b8 6f 1a bd 5f 3d 36 be 3a 6c 17 be
       -0.09434937 -0.0377042 -0.17796849 -0.14787379
000360 f5 89 10 be 60 09 46 bc 43 97 36 be 5e 3f 0e 3e
       -0.14115126 -0.012087196 -0.1783114 0.1389136
000370 52 0f 65 bd 98 2b a0 be 86 80 2a bf c1 74 b1 3e
       -0.055922814 -0.3128326 -0.6660236 0.3465939
000380 ed 6f 07 be 5e 70 a7 be d5 3d 80 bc 55 48 42 bf
       -0.1322629 -0.32702917 -0.015654484 -0.7589162
000390 2a 5b 06 be 88 48 05 3d ab 49 28 bf db 4c 55 3d
       -0.13120714 0.032539874 -0.6573741 0.05207525
0003a0 05 5a db 3e e1 04 99 3d d0 aa 5d 3e 1c 93 fe bd
       0.42842117 0.07471634 0.21647191 -0.12430403
0003b0 e4 12 85 3c e6 de c0 bd 5f cf 50 bf 1f 53 60 bf
       0.01624436 -0.094175145 -0.81566423 -0.8762683
0003c0 f9 68 1e be 97 f0 ad 3e 6e ee 04 bf a2 66 c6 bf
       -0.15469731 0.33972618 -0.51926315 -1.5500071
0003d0 da c3 0a 3f e4 3f 2a bf 49 0f b7 be 77 b9 61 3f
       0.54205096 -0.6650374 -0.3575385 0.8817362
0003e0 1c 67 83 3e 78 7f 0f be 16 f0 07 be 3b e4 cf bd
       0.25664604 -0.14013469 -0.1327518 -0.101509534
0003f0 08 a9 a0 be a4 66 1d 3e 94 3e f2 3d 07 40 d4 3e
       -0.3137896 0.15371186 0.11828342 0.414551

cluster_projector.0.bias f4 [128]
000000 9a 87 98 be 76 df 19 bf 3c c3 26 bc ef c8 7f 3e
       -0.29790956 -0.601066 -0.010178383 0.24978994
000010 f7 a5 1c 3f 7d 91 9a be 88 7a c3 3d 09 ef 7a be
       0.6119074 -0.30189124 0.09544855 -0.24505247
000020 e5 3f 54 bc 6e 1c fc bd c8 d8 b6 bd 26 40 a2 be
       -0.012954687 -0.1231011 -0.089280665 -0.31689566
000030 03 80 93 3e 8c ac 84 be 08 83 7b 3c 34 47 f9 3d
       0.28808603 -0.25912893 0.0153510645 0.12171784
000040 72 8b aa bc 41 0e f9 3d f7 4e 99 be 40 52 4e 3e
       -0.020818446 0.12160922 -0.29943058 0.20148563
000050 f5 88 fb ba e3 35 93 be e4 fa 23 be 15 b3 68 be
       -0.0019190597 -0.2875205 -0.16013676 -0.22724564
000060 30 a5 13 be 28 14 29 3e cb 6b a5 3e 16 15 40 3f
       -0.14418483 0.16511595 0.32308802 0.75032175
000070 78 00 37 be 5e 85 52 3e 43 e9 81 3d 4d 63 9e be
       -0.17871273 0.20558688 0.06343319 -0.30935135
000080 14 46 95 3e 84 2d 47 be 10 24 ad 3d de c8 21 3e
       0.29155028 -0.19450957 0.08454144 0.15799281
000090 2c 69 c9 bd 9a e4 59 3e 47 b9 40 bd d7 4e 1f be
       -0.09834513 0.21278611 -0.047051694 -0.15557419
0000a0 f1 55 1c 3e d2 8d 96 3e 0f b7 97 bd 3b ec f3 3d
       0.15267159 0.29405075 -0.074079625 0.11910292
0000b0 63 39 d9 3e fc 67 8d bd 5f 12 f7 3d 3a 78 21 bb
       0.42426595 -0.06904599 0.12064051 -0.002463831
0000c0 9c b9 ed be af 43 6f be 5a 06 df bd c5 27 3c 3e
       -0.4643067 -0.23365663 -0.10889883 0.18374546
0000d0 8d 92 85 3e 48 a7 23 be fc 16 2b be 86 a7 95 be
       0.26088372 -0.15981781 -0.16707987 -0.29229373
0000e0 e5 d8 2f 3f f5 bb 9d be 3b ba 15 3f c5 25 26 3d
       0.6869033 -0.30807462 0.5848729 0.040563364
0000f0 07 dc f1 3d aa bc ac 3d b0 79 00 3e 15 bb af 3d
       0.11809545 0.08434422 0.1254642 0.08580605
000100 84 8a 61 bd b3 45 45 bd 1e a0 c4 3e 58 09 34 bc
       -0.05506374 -0.048162173 0.3840341 -0.010988556
000110 93 bf 38 be bc 61 9d 3e d9 79 ef 3e f7 f8 c5 3e
       -0.1804183 0.30738628 0.4677265 0.38666508
000120 3e 3d 6f be a6 2b 05 be cd 22 02 3f f4 be 20 bd
       -0.23363206 -0.13004932 0.5083435 -0.039244607
000130 ac 67 fd bd cf 66 64 be 8d bc bf be 5a 24 bf 3e
       -0.123732895 -0.22304843 -0.3744854 0.37332422
000140 d6 c8 93 be 00 0b 89 ba 91 e7 41 3f 71 19 0b 3f
       -0.28864163 -0.0010455549 0.7574397 0.54335696
000150 3d 16 6d be ee 83 08 be 66 a2 a5 3a 94 7a db 3e
       -0.23153014 -0.13331577 0.00126369 0.42866957
000160 a9 48 1f 3f f2 29 7e be 4d 71 15 3f d2 51 66 be
       0.62220246 -0.24820688 0.5837601 -0.2249215
000170 ad 75 71 3e 04 94 0f 3f 4f 1a 73 be b0 13 7a be
       0.23580046 0.5608523 -0.23740505 -0.24421573
000180 c1 53 9e be aa 9c af be 6e f3 a5 bd 9a 89 b1 be
       -0.30923274 -0.34299213 -0.08103071 -0.34675294
000190 67 10 83 3e 96 4c 84 bd 3c 79 c5 be 9d 20 58 3e
       0.25598451 -0.0645992 -0.38569057 0.21106191
0001a0 1a 67 e7 3c ca 5b 0c be 5a 42 18 3d 72 33 81 be
       0.028247405 -0.1370689 0.037172653 -0.25234562
0001b0 b8 88 c5 be 06 41 fe bd 6a 54 73 be 2e 6b db 3d
       -0.3858087 -0.12414746 -0.2376267 0.10713802
0001c0 1e a4 6c be 3e ab fa 3e 5f 95 40 3e 32 dc ea 3d
       -0.2310948 0.48958772 0.1880698 0.1146778
0001d0 34 94 de bd 31 06 c0 bc 5e 55 eb bd ef 8e 99 be
       -0.10868111 -0.023440452 -0.11490892 -0.29991862
0001e0 a2 b8 6b be 34 35 7b bd f1 7a 01 3e 5d 98 b9 3d
       -0.2301965 -0.061330035 0.12644555 0.09062264
0001f0 9e 5d 32 be ea 75 08 be d3 26 f1 3e 55 0d b7 3e
       -0.17418525 -0.1332623 0.47099933 0.3575236

cluster_projector.2.weight f4 [50, 128]
000000 d2 72 f4 3c c2 4f 9c be 5c 62 f0 be 5e 22 70 bf
       0.029839907 -0.305296 -0.46950042 -0.9380244
000010 86 31 b2 bf cf f4 01 3e 2f 4b 67 bf f0 79 01 3d
       -1.3921363 0.12691043 -0.90349096 0.03161043
000020 55 28 63 3e fe c6 83 3c de 4d 4d 3d 78 72 6d bf
       0.22183354 0.016086098 0.050123088 -0.9275279
000030 6b 42 27 bf f0 cf 2b 3d 33 5d d7 be 0d 99 cf be
       -0.6533572 0.04194635 -0.42063293 -0.40546456
000040 e9 54 b4 bb 2d d9 45 c0 00 eb 98 3d ae 50 98 3e
       -0.005503286 -3.0913804 0.07466698 0.29749054
000050 06 65 69 be f4 69 50 bd 2d f4 a8 3d eb 6c 42 bf
       -0.22792444 -0.050882295 0.08249698 -0.75947446
000060 bc 4d 9b bf 58 30 34 3c a3 d5 17 bf 2f 4f f9 be
       -1.2133098 0.010997854 -0.5931036 -0.48693225
000070 1b a5 ac 3e 76 3b 2e 3e 4d e2 6a bf c5 80 b5 3e
       0.33719715 0.1701487 -0.9175156 0.35449806
000080 b9 1e b5 bd 8a 5d 03 be 2b 8d 8c 3e ed 51 b7 be
       -0.088437505 -0.12828651 0.27451453 -0.35804692
000090 fb 54 dc bd 05 8c ee be 7f fd 93 bf ab 9c e2 be
       -0.10758396 -0.465912 -1.1561736 -0.44260153
0000a0 b1 1d 2c bd 52 b3 ea be 0a 06 8a bf b3 09 c7 3e
       -0.042020503 -0.45839936 -1.0783093 0.38874587
0000b0 7e a1 98 bf ec 6a d5 be bc 83 13 bf 07 fb a1 3b
       -1.1924284 -0.41683137 -0.57622886 0.004943255
0000c0 fb f6 97 bf f9 ad bf 3e 87 5c 84 3e b1 e8 75 3e
       -1.1872247 0.37437418 0.25851843 0.24014546
0000d0 78 fd 3d bf 98 90 19 3f 4a 1c 4c bd 41 53 b7 3e
       -0.7421489 0.5998626 -0.049831666 0.35805705
0000e0 f1 9f 26 bd cd 64 2c 3e f5 aa ab 3e e4 a7 bc bd
       -0.040679876 0.16835327 0.33528867 -0.0921171
0000f0 87 0c d2 be 6b 88 ae bf f8 fe d7 be d8 4e c2 3d
       -0.41025183 -1.3635381 -0.42186713 0.094876945
000100 73 d2 fe be 23 82 87 3d 8a bb 9d bf b3 1a 0f bf
       -0.49769935 0.066166185 -1.2322857 -0.55900115
000110 ab 8d c4 bf 1d 5f 49 3e 49 0d 41 3e d7 2d 36 3d
       -1.5355734 0.19665189 0.18852724 0.04447731
000120 b8 f6 74 bc 11 d9 47 3e aa 4b 66 be 11 49 ca 3e
       -0.0149514 0.19516398 -0.22489801 0.3950887
000130 68 a7 97 bc d0 87 d1 3b 17 9f d9 bc b7 14 ee bf
       -0.018512443 0.006394364 -0.026565118 -1.8600072
000140 67 95 5d bf 54 d4 17 c0 c0 5e 76 bf 7a eb 55 3e
       -0.86556095 -2.3723345 -0.9623833 0.20890608
000150 bf 64 9f bc 33 b1 af 3e d4 77 8a 3c 4d 52 9f be
       -0.01945722 0.3431488 0.016902842 -0.31117478
000160 8b 8c a8 be 9b a3 bf bd 90 e7 75 3e a3 6d 67 3e
       -0.32919726 -0.09357377 0.24014115 0.22600417
000170 c5 6d 2c 3e 4f f2 47 3e 23 1d d3 bd 34 de ce bd
       0.16838749 0.19526027 -0.10308292 -0.10100976
000180 f7 a1 f7 bf 39 f8 53 bd db 65 f8 bf 6a af 27 bd
       -1.9346303 -0.051750395 -1.9406084 -0.040938772
000190 db c4 f6 be 93 85 14 bd 5f d9 23 3e e6 34 c0 3c
       -0.48197064 -0.0362602 0.16000889 0.023462724
0001a0 e6 12 46 bf e8 f3 82 bf 4a 46 19 be b5 de 71 bf
       -0.77372587 -1.0230684 -0.1496822 -0.9448045
0001b0 94 88 2e bf 67 16 3b 3e 7c 68 0e be 35 0b 31 3e
       -0.6817715 0.18270265 -0.13907045 0.17289431
0001c0 7b a4 c2 3e 57 16 c2 bc 40 02 fb be 1b 7b 62 3e
       0.38016114 -0.023692293 -0.49025154 0.22117274
0001d0 3b de 09 bd 0a 6c 47 3e f5 53 70 3d fb 81 98 bd
       -0.0336592 0.19474807 0.058673818 -0.07446667
0001e0 64 90 09 bf 2e 3c 9c bd 67 2d a0 3c 78 f9 bc bd
       -0.5373595 -0.07628666 0.0195529 -0.0922727
0001f0 4a 6b 8d bd c3 09 0c be 14 fa 3c 3e 2f f7 7b 3e
       -0.069052294 -0.13675599 0.18454772 0.24606012
000200 80 76 ba 3c 5a 9c b3 be e9 a9 e0 bd 3c ac bb be
       0.022761583 -0.35080224 -0.10969908 -0.36654842
000210 f2 ac 8e be 2d ab ff bf 85 aa f7 bf c6 e6 22 3b
       -0.27866322 -1.9974114 -1.9348913 0.002485679
000220 a5 88 96 3e 10 33 95 bf 63 19 05 bd e5 e6 b4 bd
       0.29401127 -1.1656208 -0.032494914 -0.08833102
000230 39 c0 23 be 43 36 d1 bd 0f 9a 7c 3c 61 ca c2 be
       -0.15991296 -0.10215428 0.01541759 -0.38045028
000240 b3 4c 38 bc 9f 61 db 3d 9d 24 6f bd 4b 75 f2 3e
       -0.011248755 0.10711979 -0.058384527 0.47355112
000250 d3 e6 73 3d 86 42 26 be f0 34 5c bd cb a8 22 bf
       0.059546303 -0.16236314 -0.053761423 -0.6353881
000260 25 09 bf bf b8 df 28 3c 32 6d b4 3e 95 af 72 c0
       -1.4924666 0.010307245 0.3523956 -3.7919667
000270 ec 25 b6 be 73 30 78 c0 9e b5 00 bf 85 91 b1 bf
       -0.35575807 -3.877957 -0.50277126 -1.3872534
000280 ef 0b cd 3d c7 6b 55 3d 46 92 93 be d4 b4 0e bd
       0.10012042 0.052104738 -0.28822535 -0.03484042
000290 37 38 80 3d b3 62 33 bf 23 fb a0 bf 69 d1 e7 bd
       0.06260722 -0.7007248 -1.2576641 -0.11319239
0002a0 b2 b4 72 bd 31 27 00 3e a0 b6 3d 3e a0 88 1f bf
       -0.059254356 0.1251495 0.18526697 -0.6231785
0002b0 22 f5 23 3e 94 0a a0 3d d5 d6 92 be 45 b0 72 3b
       0.1601148 0.078145176 -0.2867953 0.0037031334
0002c0 66 b9 8b be 4e a9 5b bf 6d f3 cd bc 18 64 ed 3d
       -0.27289885 -0.85805213 -0.025140489 0.11591357
0002d0 7d ab 8d bf 5b 5a 29 be 74 39 0e bf 24 24 6f be
       -1.1067959 -0.16538374 -0.55556417 -0.2335363
0002e0 e5 83 9f bf 4d a2 61 bf 87 ad ad c0 74 16 fe bd
       -1.2462126 -0.88138276 -5.4274325 -0.12406626
0002f0 ab 93 ec be f2 ef fd be 0e 21 09 c0 f1 8c e3 3e
       -0.46206412 -0.49597126 -2.1426425 0.44443467
000300 e8 51 09 c0 15 28 81 3d 9c 71 7b 3d 15 fa d6 bd
       -2.1456242 0.06306473 0.061387643 -0.10496918
000310 c2 b6 94 bf cd e5 81 be ca 85 ee 3d 66 3b 4c 3e
       -1.1618273 -0.25370637 0.11646612 0.19944534
000320 66 43 00 be 55 53 77 be eb e4 91 3e ab 45 bf bf
       -0.1252571 -0.24152882 0.28494963 -1.4943136
000330 a5 0b ab 3d c8 79 a2 3c f7 8a 2a be 68 92 a8 be
       0.083518304 0.01983346 -0.16654573 -0.329242
000340 4e 3d 84 be a9 ef b1 be a0 9f a4 bd a7 6e 73 3e
       -0.25828022 -0.3475316 -0.080382586 0.2377268
000350 90 52 b6 bc 95 cb 01 bf 32 b0 b1 bd f9 9d a1 bd
       -0.022256166 -0.50701267 -0.08676185 -0.07891459
000360 90 78 9d be 2d bf a9 bd ee 36 65 3e f6 17 95 bd
       -0.30756044 -0.08288417 0.22384235 -0.07279961
000370 82 18 97 3e 7a 32 d2 be c3 d6 a4 bd c2 1a 27 bf
       0.29510885 -0.41054136 -0.08048775 -0.65275204
000380 87 5f d6 bd cd a8 05 be b1 52 9a bd 93 ea 92 be
       -0.10467439 -0.13052674 -0.075353034 -0.2869459
000390 5e a5 15 3e 47 8e 89 be 18 94 01 be 65 3d ac 3e
       0.14613864 -0.26866361 -0.1265415 0.3364059
0003a0 9f e1 08 be 70 c0 89 be af 6b fb 3d fa cf 14 bf
       -0.13367318 -0.2690463 0.122763984 -0.5812985
0003b0 b2 a0 ba be 84 d3 73 bf 4d a4 36 be a9 0f 81 3e
       -0.36450726 -0.9524462 -0.17836113 0.2520726
0003c0 58 e7 f3 bf f7 c5 36 bf 6c 99 0e bf ff ff 0a bf
       -1.9054976 -0.7139582 -0.55702853 -0.5429687
0003d0 19 fb 20 bd bb aa d6 be 15 cc a4 3d 8d 59 3d 3d
       -0.039301965 -0.41927132 0.08046738 0.04622798
0003e0 1e a6 63 bf e4 73 1f 3b 17 78 32 bb c9 a5 81 bd
       -0.8892535 0.002433055 -0.0027232224 -0.06330449
0003f0 15 58 57 3d 04 51 22 bd 85 c2 c0 3e 7b fb ae be
       0.052574236 -0.039628044 0.37648407 -0.3417624

cluster_projector.2.bias f4 [50]
000000 10 41 59 be 8d b6 9f 3e ea 33 b6 be 0b e7 a5 3e
       -0.21216226 0.31193963 -0.35586482 0.32402834
000010 df 6f 9b bd f5 da ce 3a f0 87 9e bf ea 7a ec be
       -0.07589697 0.0015781807 -1.2385235 -0.46187526
000020 e3 58 ce bd ba db 67 be 9b 05 8c 3e f3 0b 0e be
       -0.100755475 -0.22642413 0.27348027 -0.13871746
000030 48 5e d3 3d f1 4e 84 3e e8 20 86 3d 9d a2 cc bd
       0.10320717 0.25841478 0.06549245 -0.099919535
000040 71 44 14 be 74 03 0e 3e 19 6e bc bd 89 7b 85 3e
       -0.14479233 0.13868505 -0.09200687 0.26070812
000050 6c 21 4c be f1 35 6a bd 56 8d e7 3e 18 3f 90 3e
       -0.19934624 -0.05718035 0.45225018 0.28173137
000060 aa a4 be 3e 11 eb 05 3f ad 0e e2 bd b8 21 2a 3e
       0.37235004 0.5231181 -0.110379554 0.16614425
000070 f7 16 cf 3e fa ac 39 3e fc be 94 3e 58 41 b9 bd
       0.40447208 0.18132392 0.2905196 -0.090456665
000080 5c 9f 7a 3d e5 71 11 bd 34 7d 35 be 7d 3b 5b 3d
       0.061187133 -0.03550901 -0.17723542 0.05352353
000090 11 f4 db 3d 45 85 c3 3d d2 68 c2 3e af e0 9f 3e
       0.10739911 0.095469035 0.37970597 0.31226107
0000a0 a7 10 11 3e 7a e0 97 3d 10 5e 45 3e b1 07 7c be
       0.14166509 0.074158624 0.19274163 -0.24612309
0000b0 7c ec 4e bd 72 bb 9a be c3 c5 47 3d 64 bc aa be
       -0.050518498 -0.30221134 0.048772585 -0.33346856
0000c0 8a 4b bd be d1 ab 68 3e
       -0.36971694 0.22721793

exp_avg f4 [128, 20]
000000 78 78 27 3d 63 05 b6 3c c4 5c 7a 3b 83 06 67 35
       0.040886372 0.022219365 0.0038202265 8.606368e-07
000010 2f 88 92 3b 54 4e 3d 3a 51 99 4c 3b 09 cf 92 3b
       0.0044718008 0.00072214496 0.0031219313 0.004480247
000020 e8 63 32 3c 00 00 00 00 53 31 ad 3a f0 51 e9 3a
       0.010888077 0.0 0.0013213552 0.0017800909
000030 08 4e e2 3a 09 a4 44 bc df cd 11 bc ad e3 30 bc
       0.0017265687 -0.012002 -0.008899181 -0.01079647
000040 07 84 f2 3a d6 f0 6c 3b 07 95 0d ba e6 9f 87 38
       0.0018502482 0.0036154292 -0.000540093 6.467085e-05
000050 04 00 00 00 04 00 00 00 00 00 00 00 00 00 00 00
       6e-45 6e-45 0.0 0.0
000060 00 00 00 00 04 00 00 00 04 00 00 00 04 00 00 00
       0.0 6e-45 6e-45 6e-45
000070 04 00 00 00 00 00 00 00 04 00 00 00 00 00 00 00
       6e-45 0.0 6e-45 0.0
000080 00 00 00 00 00 00 00 00 04 00 00 00 00 00 00 00
       0.0 0.0 6e-45 0.0
000090 00 00 00 00 04 00 00 00 00 00 00 00 00 00 00 00
       0.0 6e-45 0.0 0.0
0000a0 7a 86 80 bf 8c 2b 35 be a4 17 dc bc 7a 68 18 bd
       -1.0041039 -0.17692393 -0.026866741 -0.03720901
0000b0 b4 84 70 bd 6f 67 88 bd 29 b7 ce bd 89 6b be bd
       -0.058720306 -0.066603534 -0.10093529 -0.092978545
0000c0 48 a0 3d bd 00 00 00 00 e8 d7 9a bc e7 e5 36 bd
       -0.046295434 0.0 -0.01890178 -0.044652846
0000d0 bf 92 29 bd 54 91 d3 bd 95 31 d2 bd 99 a7 d7 bd
       -0.041399714 -0.103304535 -0.10263363 -0.105300136
0000e0 25 ae 31 bd 0b c1 71 bc fd 3b d6 bb 6a 72 62 bb
       -0.043378968 -0.014755498 -0.006537913 -0.003455306
0000f0 4d 1e f2 3d cf 1a a2 3b 04 00 00 80 04 00 00 80
       0.11822186 0.0049470435 -6e-45 -6e-45
000100 17 e0 ba 38 10 5a da 25 4f 72 1d 26 3b c4 bb ba
       8.910911e-05 3.7878e-16 5.4625234e-16 -0.0014325449
000110 7c a8 15 3a 00 00 00 00 ec 9d bf 3a 00 78 f5 3a
       0.0005709005 0.0 0.0014619208 0.0018727779
000120 34 4f 1b 3b 67 cd 6b 3b 05 1e 8f 3b 68 8a 8b 3b
       0.0023698332 0.0035980584 0.0043675923 0.0042584427
000130 a4 53 11 3b 6b a5 fa 3a e8 41 1c 3a e9 98 55 38
       0.0022175098 0.0019122785 0.00059607485 5.0925566e-05
000140 06 b5 d8 3c 07 16 03 3c c1 3e 4d b8 de 90 cd 3b
       0.026453506 0.008000857 -4.8934253e-05 0.006273373
000150 36 83 82 3b 5e f2 95 3a ce fb ac 3a ac 56 ed 3b
       0.0039829267 0.0011440029 0.0013197602 0.007242998
000160 4f 8a 53 38 00 00 00 00 67 b1 b0 3b b8 58 90 3b
       5.043513e-05 0.0 0.0053922418 0.0044051073
000170 ec b8 95 3b 50 41 01 3b 72 67 4c 3b 8a 50 2d 3b
       0.0045691635 0.0019722767 0.0031189588 0.002644571
000180 97 9f 91 3b 57 65 7b 3b cc 9d a8 3a ff 20 9f 3a
       0.0044440734 0.0038359964 0.001286441 0.0012140571
000190 d7 6f 94 bc 4a 52 96 3b 5b bf 66 3b 69 4f a8 3b
       -0.018119736 0.0045874463 0.0035209272 0.0051364196
0001a0 fe 01 a7 3b c9 88 8f 3a a7 0d f9 3a 80 c0 9f 3a
       0.005096673 0.0010950799 0.0019001261 0.0012188107
0001b0 2f ee 36 3a 00 00 00 00 d2 a8 d1 39 ea 3d ac 3b
       0.0006978241 0.0 0.00039989367 0.005256404
0001c0 5a 3e a4 3b 63 81 8d 3b d7 20 4d 3b 07 61 7a 3b
       0.0050123157 0.0043184026 0.0031300092 0.0038204805
0001d0 5a 8e a4 3b 0e 2f 16 ba b4 3b 04 ba 8f 98 98 ba
       0.0050218524 -0.00057290576 -0.0005044297 -0.0011642146
0001e0 00 00 00 00 00 00 00 00 00 00 00 00 00 00 00 00
       0.0 0.0 0.0 0.0
0001f0 00 00 00 00 00 00 00 00 00 00 00 00 00 00 00 00
       0.0 0.0 0.0 0.0
000200 00 00 00 00 00 00 00 00 00 00 00 00 00 00 00 00
       0.0 0.0 0.0 0.0
000210 00 00 00 00 00 00 00 00 00 00 00 00 00 00 00 00
       0.0 0.0 0.0 0.0
000220 00 00 00 00 00 00 00 00 00 00 00 00 00 00 00 00
       0.0 0.0 0.0 0.0
000230 e2 2f a1 3d 37 7d b1 3c ed 2a 04 3a 87 a4 a2 bc
       0.07870461 0.021666152 0.0005041797 -0.019853843
000240 eb b4 dc 3b 04 ed 66 3b d3 c2 d8 3b cd e8 89 3b
       0.0067354343 0.0035236487 0.0066150217 0.00420866
000250 b1 9b e1 bb 00 00 00 00 28 d3 8d 3c e5 4e 6a 3c
       -0.006885015 0.0 0.017312601 0.0143010365
000260 99 1d 5a 3c d3 00 32 bb cc ef 9c 38 c0 44 6f ba
       0.013312721 -0.0027161136 7.483325e-05 -0.0009127371
000270 5b 0a 65 3c a0 3a 34 3b 4f a7 4a 3a 32 e4 be 3a
       0.01397952 0.0027500764 0.00077306194 0.0014563857
000280 6c 46 a3 bf 63 04 63 be 44 39 0f bd 72 d4 46 bd
       -1.2755866 -0.22169642 -0.034966722 -0.048542447
000290 b4 0d 9c bd 96 c3 a4 bd 80 d0 fb bd 22 a0 e2 bd
       -0.07619801 -0.080451176 -0.122956276 -0.11065699
0002a0 b9 5d 82 bd 00 00 00 00 3d 59 b1 bc aa 41 5a bd
       -0.063655324 0.0 -0.021648997 -0.05328528
0002b0 ab 84 49 bd 27 22 05 be 51 9b 04 be 5a c4 07 be
       -0.049198788 -0.1300131 -0.12949874 -0.13258496
0002c0 99 bd 53 bd 18 65 9f bc 27 ca db bb 0d f9 82 bb
       -0.051694486 -0.019457385 -0.006707448 -0.0039969743
0002d0 04 00 00 00 04 00 00 00 04 00 00 00 04 00 00 00
       6e-45 6e-45 6e-45 6e-45
0002e0 04 00 00 00 00 00 00 00 00 00 00 00 04 00 00 00
       6e-45 0.0 0.0 6e-45
0002f0 04 00 00 00 00 00 00 00 04 00 00 00 04 00 00 00
       6e-45 0.0 6e-45 6e-45
000300 04 00 00 00 04 00 00 00 04 00 00 00 04 00 00 00
       6e-45 6e-45 6e-45 6e-45
000310 04 00 00 00 04 00 00 00 04 00 00 00 04 00 00 00
       6e-45 6e-45 6e-45 6e-45
000320 86 fc 04 3d 5b 7e a8 3b fb c9 12 3b ca bf 9b 3b
       0.032467388 0.005142016 0.0022398222 0.0047530876
000330 e8 d1 f8 3b 04 00 00 00 04 00 00 00 37 68 fe ba
       0.007593382 6e-45 6e-45 -0.001940972
000340 d4 e1 d2 3a 00 00 00 00 7b fa 54 ba 88 4a 0b 3c
       0.001608903 0.0 -0.00081244827 0.008501656
000350 84 9b 04 3c 68 ac f1 3b fb 5c c1 3b 1d 38 e3 3b
       0.008093718 0.0073752888 0.0059009767 0.0069341795
000360 d9 5e 09 3c d3 63 3d ba c5 73 e8 39 dd ea b8 35
       0.00838443 -0.0007224653 0.00044336743 1.3777423e-06
000370 c2 8b 34 bb 21 8e fc ba 31 5c b2 b9 6d 33 12 bb
       -0.0027549122 -0.0019268432 -0.00034019494 -0.0022308484
000380 0e de 10 bb 56 c6 c9 b9 b7 4f a9 ba 81 ad 04 bb
       -0.002210501 -0.0003848548 -0.0012917434 -0.0020245018
000390 99 3f 0a bb 00 00 00 00 72 e8 97 38 c1 83 29 b9
       -0.0021095036 0.0 7.2435374e-05 -0.00016166178
0003a0 50 30 fe b8 51 50 51 38 c2 fb 60 39 1d f3 55 39
       -0.00012120663 4.9904284e-05 0.00021456092 0.0002040383
0003b0 f6 b6 26 b9 25 1b e5 35 77 3f d0 37 22 16 04 b5
       -0.00015899152 1.706973e-06 2.4825085e-05 -4.920604e-07
0003c0 b6 a0 8f 3b da 20 92 b9 8d c5 2b bb 76 f1 49 bb
       0.004383172 -0.00027871766 -0.0026210279 -0.0030814088
0003d0 e5 34 98 bb 5b 3b 2a 3a 24 e0 33 3b 40 74 46 b9
       -0.0046449774 0.000649383 0.002744683 -0.00018926058
0003e0 97 b4 8b bb 00 00 00 00 23 a1 c8 3a 84 d6 58 ba
       -0.0042634713 0.0 0.0015306812 -0.00082717114
0003f0 7a 0c 81 ba 7b fb 84 bb c1 1a 82 bb ba 45 86 bb
       -0.0009845637 -0.004058299 -0.0039704745 -0.0040976675

exp_avg_sq f4 [128, 20]
000000 51 e2 18 3f 0e cf a2 3d 1b f6 02 3c 61 40 c7 3b
       0.5972033 0.07949649 0.007993246 0.0060806726
000010 bf b6 c8 3c 10 2c b7 39 b9 9e c1 39 a9 8b 3d 3b
       0.024501203 0.0003493731 0.00036930086 0.0028922355
000020 54 85 91 3c 00 00 00 00 3d 1a 14 3a b7 0f ac 3b
       0.017763771 0.0 0.0005649662 0.005250897
000030 e8 e8 67 3b 16 ff b3 3e bc 34 b4 3e b4 b1 b4 3e
       0.0035386626 0.35155553 0.35196483 0.35291827
000040 17 cc 9a 3b fd c3 f6 3a f8 68 b3 39 91 bd 51 39
       0.0047240364 0.001882672 0.00034219748 0.00020002412
000050 a0 7e 20 1f a0 7e 20 1e 00 00 00 00 00 00 00 00
       3.398606e-20 8.496515e-21 0.0 0.0
000060 00 00 00 00 29 29 22 1b 41 d2 17 1e 24 af 09 1e
       0.0 1.3413625e-22 8.037353e-21 7.288938e-21
000070 a0 7e 20 1d 00 00 00 00 a0 7e 20 1e 00 00 00 00
       2.1241287e-21 0.0 8.496515e-21 0.0
000080 00 00 00 00 00 00 00 00 d3 5c ea 16 00 00 00 00
       0.0 0.0 3.786332e-25 0.0
000090 00 00 00 00 d3 5c ea 17 00 00 00 00 00 00 00 00
       0.0 1.5145328e-24 0.0 0.0
0000a0 46 41 90 41 40 93 f1 3e 2c fd 30 3c ed 50 b2 3c
       18.031872 0.47182655 0.010802548 0.021767104
0000b0 e1 46 8c 3d 23 8f b1 3d cb d4 3d 3e f2 c3 17 3e
       0.068494566 0.08669879 0.18538205 0.14820841
0000c0 a8 c1 1a 3d 00 00 00 00 a0 7d de 3b 06 66 7e 3d
       0.03778234 0.0 0.006789878 0.062109016
0000d0 02 a7 6b 3d 64 c8 06 44 4e c8 06 44 39 c6 06 44
       0.057532318 539.1311 539.12976 539.0972
0000e0 7a 96 76 3d 94 fb 50 3b 7a ad bb 3a 29 4e a7 39
       0.0602021 0.0031888233 0.0014318668 0.00031910956
0000f0 4b 28 42 3e 58 b2 27 3b 4e d5 81 2f 2d b0 4d 30
       0.18960683 0.002558848 2.3616525e-10 7.4828926e-10
000100 37 2a 56 37 e4 fd 39 34 38 0e c3 34 74 8d 41 38
       1.2765223e-05 1.7321833e-07 3.6331926e-07 4.6146524e-05
000110 b3 cc 34 36 00 00 00 00 71 1e 85 38 5a d2 e4 39
       2.694124e-06 0.0 6.347604e-05 0.00043644273
000120 53 35 81 39 9e d5 60 3a 8b 43 3e 3a 28 09 5b 3a
       0.00024644527 0.00085767533 0.00072579895 0.00083555514
000130 8f f7 b4 39 d6 58 4e 37 30 19 a3 36 a1 cd e0 32
       0.0003451672 1.2299241e-05 4.8607108e-06 2.6170541e-08
000140 ae 29 a2 3c 2b 5e 9d 3a 8b 7c eb 35 8c a6 2a 3a
       0.019795265 0.0012006214 1.7545111e-06 0.0006509803
000150 ff b9 e9 39 30 4d 12 37 0f 75 f1 36 8d f5 6a 3a
       0.000445798 8.72025e-06 7.195987e-06 0.00089629815
000160 b3 b3 3e 37 00 00 00 00 bb c9 fa 39 cc fe 82 39
       1.1366722e-05 0.0 0.00047834017 0.0002498537
000170 b0 b9 7d 39 4c ac 44 39 b1 36 ab 39 42 69 81 39
       0.00024197134 0.00018756202 0.0003265641 0.0002468322
000180 93 6f 77 39 cd 3e 66 39 ce b9 f8 35 3b ce b1 35
       0.0002359732 0.00021957904 1.8531516e-06 1.3247549e-06
000190 b7 23 0a 3f 24 83 91 3c 06 e1 64 3b 6e 57 f5 3b
       0.53960747 0.017762728 0.0034924163 0.007487229
0001a0 3e 97 81 3c 2b 2f 97 38 d7 e3 ab 39 94 12 a8 3a
       0.015819188 7.209027e-05 0.00032785416 0.001282292
0001b0 77 b2 09 3c 00 00 00 00 94 fa 13 39 ae dc 89 3b
       0.008404366 0.0 0.0001411236 0.0042072153
0001c0 49 0a 85 3b 96 90 0b 40 b0 83 0b 40 90 8e 0b 40
       0.004060064 2.1806998 2.1799126 2.1805763
0001d0 5a 7e 89 3b 1f f6 8d 39 5c 6d 8a 39 45 b4 12 39
       0.0041959705 0.0002707699 0.0002640289 0.000139908
0001e0 00 00 00 00 00 00 00 00 00 00 00 00 00 00 00 00
       0.0 0.0 0.0 0.0
0001f0 00 00 00 00 00 00 00 00 00 00 00 00 00 00 00 00
       0.0 0.0 0.0 0.0
000200 00 00 00 00 00 00 00 00 00 00 00 00 00 00 00 00
       0.0 0.0 0.0 0.0
000210 00 00 00 00 00 00 00 00 00 00 00 00 00 00 00 00
       0.0 0.0 0.0 0.0
000220 00 00 00 00 00 00 00 00 00 00 00 00 00 00 00 00
       0.0 0.0 0.0 0.0
000230 ff 43 b5 40 7c df ea 3e 84 a1 e7 3a 72 b7 94 3d
       5.6645503 0.4587363 0.0017672037 0.07261552
000240 f6 97 6b 3e e2 8c a2 3b b4 3b 96 3c 72 a2 8b 3e
       0.23007187 0.004960642 0.018339016 0.27272373
000250 71 dd 70 3c 00 00 00 00 54 c2 96 3d 10 33 8b 3d
       0.014701233 0.0 0.07361284 0.06796849
000260 53 6e 81 3d ee e6 f6 42 db ea f6 42 74 e7 f6 42
       0.06319871 123.451035 123.4587 123.45206
000270 b4 a2 84 3d 33 ce 30 3b 91 35 b3 3a c7 a5 48 3a
       0.06476346 0.0026978373 0.001367258 0.0007654097
000280 36 3d f9 41 3c fc 52 3f 51 67 9c 3c 3f 3e 31 3d
       31.154888 0.8241613 0.019092234 0.043272253
000290 d3 6c 02 3e c0 48 15 3e 8d 7d a0 3e 88 d4 7d 3e
       0.12736826 0.14578533 0.31345788 0.24788105
0002a0 59 e0 a3 3d 00 00 00 00 23 27 34 3c e0 18 d2 3d
       0.08001775 0.0 0.010995659 0.10258651
0002b0 a8 6a c2 3d c4 01 be 3e 37 1c b7 3e 07 98 c2 3e
       0.09492999 0.37110722 0.35763714 0.38006613
0002c0 09 5b cb 3d 3b 74 cc 3b 38 42 0f 3b 23 e2 f5 39
       0.09929473 0.0062394417 0.0021859538 0.00046898526
0002d0 8b f2 8f 22 8b f2 8f 21 30 02 d7 1e 76 13 87 21
       3.901703e-18 9.754258e-19 2.2764915e-20 9.153107e-19
0002e0 8b f2 8f 21 00 00 00 00 00 00 00 00 8b f2 8f 21
       9.754258e-19 0.0 0.0 9.754258e-19
0002f0 8b f2 8f 21 00 00 00 00 91 8d 8b 1b f3 b7 b1 20
       9.754258e-19 0.0 2.3087106e-22 3.0106694e-19
000300 10 c9 6d 21 86 b9 84 1f 16 f9 2d 20 45 6c aa 1f
       8.0564827e-19 5.62111e-20 1.4736086e-19 7.217692e-20
000310 0a a0 1e 21 fe 7c b9 20 66 5b 3f 21 41 2f 7b 21
       5.374429e-19 3.1422932e-19 6.483428e-19 8.510465e-19
000320 e0 f8 52 3f 16 2c fe 3c 0a 82 5b 3b 85 b4 36 3c
       0.82411003 0.031026881 0.0033494257 0.011151438
000330 52 e8 01 3d b3 b4 db 39 22 cd 94 3a 66 90 f3 3b
       0.0317157 0.00041905566 0.0011352638 0.007432985
000340 d1 7b e5 3a 00 00 00 00 a1 ee 51 3b 67 63 a7 3c
       0.0017508214 0.0 0.0032033103 0.02043314
000350 1d 98 8f 3c 6e 7c ad 44 e0 7c ad 44 52 7a ad 44
       0.017528588 1387.8884 1387.9023 1387.8225
000360 e9 37 9c 3c fd 40 99 38 27 35 03 38 2f 7a 57 37
       0.019069629 7.3077135e-05 3.1282336e-05 1.2843447e-05
000370 66 ee da 3d eb 09 fb 3b 79 36 a6 3a cd 7f fc 3a
       0.10690002 0.0076610944 0.0012681029 0.0019264162
000380 90 33 b5 3b 73 b2 80 38 48 b4 55 39 43 14 a4 39
       0.0055298284 6.1367544e-05 0.00020380423 0.00031295614
000390 b3 1d d4 3b 00 00 00 00 ae 3c d6 35 2d 7c 7a 38
       0.006473267 0.0 1.5961903e-06 5.9720292e-05
0003a0 b2 62 6d 38 af f6 44 3a a8 18 3c 3a d4 f5 3d 3a
       5.659712e-05 0.00075135654 0.0007175305 0.0007246409
0003b0 11 1b 75 38 8b 4f 4d 35 2e b8 d4 35 cb c1 2e 33
       5.843776e-05 7.64842e-07 1.5848834e-06 4.0688786e-08
0003c0 cb b4 8e 3e db 74 87 3c 00 ae a5 3a 61 83 1a 3b
       0.2787231 0.016535213 0.0012640357 0.0023576843
0003d0 18 15 8f 3b 4b 5e 88 3a 4a 4a 58 3b c0 b9 8d 3b
       0.0043665282 0.0010404078 0.0033003264 0.0043251216
0003e0 e5 a4 a1 3b 00 00 00 00 6a 3e b6 38 67 fa 1f 3a
       0.004932987 0.0 8.690062e-05 0.00061026815
0003f0 5c e1 15 3a 5a 66 ad 44 40 64 ad 44 b6 62 ad 44
       0.000571748 1387.1985 1387.1328 1387.0847
