flaskProject/modules/Contrastive_Clustering/save/model_checkpoint_6_300.tar (torch, 183506 bytes, 24 tensors)

instance_projector.0.weight f4 [128, 20]
0	0x3dac39d9	0.08409471
1	0x3ea95745	0.33074394
2	0xbeb9f17c	-0.3631705
3	0xbea2ab13	-0.31771144
4	0xbf056e46	-0.5212139
5	0xbee1bdcb	-0.44090113
6	0xbf13bdf1	-0.577117
7	0x3e2d9929	0.16952957
8	0xbefcb2bb	-0.4935511
9	0x3d6946d0	0.056952298
10	0xbe734c93	-0.2375968
11	0xbea4f2a0	-0.32216358
12	0x3ef29079	0.4737585
13	0xbe776bfb	-0.24162285
14	0x3d200a34	0.03907223
15	0xbdd4ca20	-0.10390115
16	0xbdc00d5a	-0.093775466
17	0x3eb4b0e7	0.35291216
18	0x3fe06cab	1.7533163
19	0xbeee09a6	-0.46491736
20	0x3c99dc65	0.01878185
21	0xbed1db4c	-0.40987623
22	0xbf7c29c9	-0.9850126
23	0xbdfecf0e	-0.12441836
24	0xbf9246b0	-1.1427822
25	0xc01b4de0	-2.426628
26	0xbe135a25	-0.14389856
27	0x3fb2bf1e	1.3964574
28	0xbf8c1355	-1.09434
29	0x3df365ac	0.11884627
30	0x4053c8d0	3.3091316
31	0xbf1a8293	-0.6035549
32	0xbf8d5dda	-1.1044266
33	0x3d88696a	0.06660731
34	0xbe40885a	-0.18802014
35	0xbe4b8e62	-0.19878533
36	0xbf12b873	-0.573127
37	0xbff77f7b	-1.9335779
38	0xc047ffd9	-3.1249907
39	0xc0256e0f	-2.5848424
40	0xbdafddab	-0.08587202
41	0x3e8c2f08	0.27379632
42	0x3ee58841	0.44830516
43	0x3e3f7b28	0.18699324
44	0x3f795ce9	0.97407395
45	0x3eefc09f	0.46826646
46	0xbf0be446	-0.5464519
47	0xbf2ea1f9	-0.682159
48	0x3f5a5f26	0.85301435
49	0xbe0164f5	-0.12636168
50	0xbf447348	-0.76738405
51	0xbea40424	-0.3203441
52	0xbf0c774c	-0.5486953
53	0xbe2c12dc	-0.1680407
54	0xbd8116d2	-0.06303181
55	0x3cb0b543	0.021570807
56	0xbf2a0ec5	-0.66428787
57	0xbfaf52fe	-1.3697202
58	0xbe745e89	-0.23864187
59	0xbfd2a232	-1.6455748
60	0xbe79e2c5	-0.24402912
61	0x3f81c40c	1.0137954
62	0x4090eb95	4.5287576
63	0x40c3a05b	6.1133246
64	0xbe68315b	-0.22675078
65	0x3fa44ef8	1.2836599
66	0x40995d25	4.79262
67	0xc08e5636	-4.448024
68	0x4101bd70	8.108749
69	0x3e3a2906	0.18179712
70	0xc108fb32	-8.561327
71	0xc12ea859	-10.9161005
72	0xc140f3c3	-12.059512
73	0x3d7e6a81	0.06211329
74	0xbe509d24	-0.20372444
75	0x3e110623	0.14162497
76	0xc1364d76	-11.393911
77	0xbf8c5477	-1.0963277
78	0xc118c304	-9.547611
79	0xbfdfabc6	-1.7474296
80	0xbe022d62	-0.12712625
81	0x3f46af44	0.77611184
82	0xbfffd8e3	-1.9988064
83	0xbe9ac707	-0.3022997
84	0x3e5cd9ad	0.21567412
85	0xbfbbdf51	-1.4677526
86	0xbf6bb968	-0.9207978
87	0xbecf94ec	-0.40543306
88	0xbf7b3638	-0.98129606
89	0x3d4efa28	0.050531536
90	0x3e039c93	0.12852697
91	0xbf2601a8	-0.6484628
92	0xbf894a9d	-1.0725895
93	0xbe60308d	-0.2189352
94	0xbe5e02f0	-0.21680808
95	0x3e2f60e9	0.17126812
96	0xbf617dea	-0.88082755
97	0xbf88e977	-1.0696248
98	0xbdc0ccd5	-0.094140686
99	0xc087b80f	-4.241218
100	0xbf186f04	-0.59544396
101	0xc00e1083	-2.2197578
102	0x3f62bc6b	0.88568753
103	0xc11b1bdb	-9.694301
104	0xbf8c5779	-1.0964195
105	0x3dc32e60	0.0953033
106	0xc0bc2991	-5.880074
107	0xc06ab2fa	-3.6671739
108	0xc0d4f47c	-6.6548443
109	0x3e0f0b30	0.13969111
110	0x3f7c2797	0.9849791
111	0x40af1b81	5.4721074
112	0x40f68200	7.703369
113	0xbd7dc21d	-0.0619527
114	0xbe0bc9cd	-0.136512
115	0x3e4a899b	0.19779055
116	0x40c9b203	6.30298
117	0xc12e1783	-10.88074
118	0x4100269b	8.009425
119	0x3f23a3b7	0.63921684
120	0xbf0eb432	-0.55743706
121	0x3e392b7e	0.18082997
122	0xbfb4fbbb	-1.4139322
123	0x3f805221	1.0025064
124	0x3e1b9fdd	0.15197702
125	0xbd9ddc58	-0.07708043
126	0x3f142467	0.57868046
127	0x3ee20356	0.4414317
128	0x3ea72f18	0.32653117
129	0xbe446d06	-0.19182214
130	0x3e97a73a	0.2961977
131	0xbe73214b	-0.23743169
132	0xbf044866	-0.5167297
133	0xbef6e574	-0.48221934
134	0xbf69144c	-0.91046596
135	0xbef97559	-0.48722342
136	0xbe9cff68	-0.3066361
137	0xbf328b3e	-0.69743717
138	0xbe908cf2	-0.28232533
139	0xbef2e316	-0.47438878
140	0xbdb409f9	-0.08790965
141	0xbe3f8044	-0.18701273
142	0xbee7e772	-0.45293766
143	0xbf27da51	-0.655675
144	0xbf1e1998	-0.617578
145	0x3dff7324	0.12473133
146	0xbab1a3bc	-0.0013552825
147	0xbe1ffd55	-0.15623982
148	0xbf035ed6	-0.51316583
149	0x3e1f81a4	0.15576798
150	0x3e1c3ff6	0.15258774
151	0x3c784323	0.015152725
152	0xbc360911	-0.01111056
153	0xbe3f055e	-0.18654391
154	0x3ddcb6f3	0.10777082
155	0x3d8d388a	0.068955496
156	0x3e35f47d	0.17769046
157	0xbf1e8e54	-0.61935925
158	0xbd815f4e	-0.06317006
159	0xbe9c1a4b	-0.3048881
160	0xbf282409	-0.65679985
161	0xc030b981	-2.7613223
162	0x3c88ce4b	0.01669993
163	0x3e12c86f	0.14334272
164	0xbe14378a	-0.14474311
165	0xbf40d1a4	-0.75319886
166	0xbee0e8fd	-0.43927756
167	0xbf8f3de6	-1.1190765
168	0xbfd9524b	-1.6978239
169	0x3d8cd98c	0.06877431
170	0x3ff58bec	1.9183326
171	0x3f4b7987	0.7948231
172	0x3f659c3b	0.89691514
173	0x3e0cf226	0.13764247
174	0xbd5cf03b	-0.05394004
175	0xbe0f8679	-0.14016141
176	0x3f436cd3	0.7633793
177	0x410773d1	8.4657755
178	0xbecd321a	-0.40077287
179	0xbfb375e2	-1.402035
180	0xbe28e07d	-0.16491885
181	0xbd8ba914	-0.068193585
182	0xbe115258	-0.14191568
183	0xbe027e7e	-0.12743565
184	0xbd982cce	-0.07430421
185	0xbbb756e0	-0.005595073
186	0xbe35823a	-0.17725459
187	0x3d020b10	0.03174883
188	0xbdf4e0cf	-0.11956941
189	0x3d721d28	0.059109837
190	0x3d414ea8	0.047194153
191	0xbd982a6e	-0.07429968
192	0x3da00294	0.07812992
193	0xbdc8d906	-0.09807019
194	0xbdd50c69	-0.10402758
195	0xbe2724ce	-0.16322634
196	0xbd91083c	-0.07081649
197	0xbdf736fc	-0.12071034
198	0x3dfc83a8	0.12329799
199	0x3bc1ca80	0.0059140325
200	0xba7d9c0c	-0.0009674437
201	0x3d56e947	0.052468564
202	0x3f034ec2	0.5129205
203	0x3f7cd4f9	0.9876247
204	0xbe7d4901	-0.2473488
205	0x3f0c1787	0.547234
206	0xbf36d86d	-0.7142399
207	0xbf83b99f	-1.0291022
208	0x3ede46d0	0.434134
209	0x3d9956c8	0.07487255
210	0xbfbb70c6	-1.4643791
211	0xbe53c2fe	-0.20679852
212	0xbd8bb157	-0.06820934
213	0xbee4545b	-0.44595608
214	0xbe6a89b3	-0.2290409
215	0xbe7d3304	-0.24726492
216	0xbe8d240d	-0.27566567
217	0xbef1543e	-0.47134584
218	0xbedaef3e	-0.42760652
219	0xbd338be8	-0.043834597
220	0xbe3ae800	-0.18252563
221	0xbd0cd3e5	-0.034381766
222	0xbe4cf9e2	-0.20017198
223	0x3dc831a8	0.09775096
224	0xbe5d5a42	-0.21616462
225	0x3da56002	0.08074953
226	0xbe379c5f	-0.17930745
227	0x3e0293db	0.12751715
228	0xbde873a3	-0.11350181
229	0x3e5a00b4	0.2128933
230	0xbcfdd468	-0.030985072
231	0x3d8c6d98	0.06856841
232	0x3e22fef9	0.15917577
233	0xbd98299d	-0.07429812
234	0xbe4e345b	-0.2013716
235	0xbe769122	-0.24078801
236	0x3de019f9	0.10942454
237	0xbe25fba6	-0.16209278
238	0x3ba66cc5	0.0050788843
239	0x3de94307	0.113897376
240	0xbc7ed1fd	-0.015552995
241	0xbd8a690c	-0.06758317
242	0x3d240488	0.040043384
243	0x3d3189fc	0.043344483
244	0xbdbca07d	-0.09210298
245	0x3e0a6d10	0.13518167
246	0xbd99c029	-0.07507355
247	0x3e059dba	0.13048449
248	0xbe2d4f48	-0.16924775
249	0xbd80a886	-0.06282143
250	0xbe43d460	-0.19123983
251	0xbdfe3f8e	-0.12414466
252	0xbde383f9	-0.11109156
253	0xbcb8a0d1	-0.02253762
254	0xbc90d044	-0.017677434
255	0xbdfa99c6	-0.12236361

instance_projector.0.bias f4 [128]
0	0xbfdda44d	-1.7315766
1	0xbf0c219c	-0.54738784
2	0x3e87681c	0.26446617
3	0xbe2b0936	-0.16702732
4	0x3f37e989	0.7184072
5	0xbfd766aa	-1.6828206
6	0xbe1c8d52	-0.15288284
7	0xbe62a727	-0.22134076
8	0xc02b45f2	-2.6761441
9	0x3cb41798	0.021983907
10	0xbe91b40e	-0.28457683
11	0x3e37335e	0.17890689
12	0xbd1c1549	-0.038106237
13	0x3f9dd10a	1.2329419
14	0x3f2ce266	0.67532957
15	0x3db7a63b	0.08967253
16	0x3f2983a9	0.6621652
17	0xbe62a04e	-0.22131464
18	0xbf047287	-0.51737255
19	0xbec924f7	-0.39286014
20	0x3ee6436f	0.44973323
21	0x3d8ca9cc	0.06868324
22	0xbe86a6b3	-0.26299056
23	0x3d14d7a3	0.03633846
24	0x3f981328	1.1880846
25	0x3ea5e53a	0.32401448
26	0xbf72db4c	-0.9486587
27	0x3ed9be82	0.42528158
28	0xbf5e43d8	-0.8682227
29	0xbdba050c	-0.09082994
30	0x3d093cc8	0.03350523
31	0xbdbee3b0	-0.09320772
32	0x3f7f1882	0.9964677
33	0xbe1facc1	-0.15593244
34	0x3ee944d7	0.45560333
35	0xbef625fa	-0.4807585
36	0xbcaaf8fd	-0.02087068
37	0xbe0f7d45	-0.1401263
38	0xbf376308	-0.71635485
39	0x3e26827d	0.16260715
40	0x3f92fe5d	1.1483876
41	0xbfd635b7	-1.6735142
42	0x3f0167a9	0.505488
43	0xbe01c184	-0.12671477
44	0xbdb62b36	-0.088949606
45	0x3f26ba06	0.651276
46	0x3eb5e613	0.35527095
47	0x3f5b0ae6	0.85563505
48	0x3fb24f68	1.3930483
49	0xbfae877f	-1.36351
50	0xbf16e2ac	-0.58939624
51	0x3f8ba729	1.0910388
52	0xbecf4534	-0.40482485
53	0x3e2867d3	0.16445856
54	0xbe663cba	-0.22484103
55	0x3ed94a9d	0.42439738
56	0xbee33fb7	-0.44384548
57	0x3e26016a	0.16211477
58	0x3fa92bd1	1.3216497
59	0xbe249f2a	-0.16076341
60	0xbe340e89	-0.1758367
61	0xbfcb0912	-1.5862143
62	0x3ee19532	0.4405914
63	0xbed02359	-0.40651968
64	0xbd9ce18c	-0.07660207
65	0x3fa442e5	1.2832915
66	0xbe037aa0	-0.12839746
67	0x3f8048ca	1.0022213
68	0xbe444085	-0.19165237
69	0xbe3e6c90	-0.18596101
70	0xbe196fd2	-0.14984062
71	0x3f7f7749	0.9979139
72	0x3e8b7d8e	0.27244228
73	0x3e2ea2d9	0.17054309
74	0xbde6ca7f	-0.11269092
75	0xc01b7aa1	-2.4293597
76	0x3fc75b69	1.5574771
77	0xbf788dd5	-0.9709142
78	0xbe2d90e6	-0.16949806
79	0x3e1aedc5	0.15129764
80	0x3f80c5bf	1.0060347
81	0x3fa5b8f1	1.2947065
82	0x3ee83051	0.45349362
83	0x3fa6bd76	1.3026569
84	0x3f74fcf3	0.9569847
85	0xbea9c2ab	-0.33156332
86	0x3e3f3407	0.1867219
87	0xbe1e8388	-0.15479863
88	0xc00ed6ec	-2.2318678
89	0x3d8d305b	0.06893989
90	0xbe347b17	-0.1762508
91	0x3f23af50	0.6393938
92	0xbebfd473	-0.37466773
93	0x3f4c67a1	0.79845625
94	0x3f483e7a	0.7822033
95	0xbe65d4dc	-0.2244448
96	0xbfae8b0f	-1.3636187
97	0xbef4ae9a	-0.4778946
98	0xbed64c6e	-0.41855186
99	0x3d41ba8b	0.047297042
100	0x3f432511	0.76228434
101	0x3e0decbe	0.13859841
102	0xbb58879a	-0.003303981
103	0xbfd4b082	-1.6616366
104	0x3fc61fc3	1.5478443
105	0xbdccb5b1	-0.099955924
106	0x3d5db41e	0.05412685
107	0x3f3eb532	0.7449523
108	0x3fb6fa4b	1.4295133
109	0x3f5e009f	0.867197
110	0x3d116b03	0.035502445
111	0x3e1e3008	0.1544801
112	0xbf20b463	-0.6277525
113	0xbf794919	-0.97377163
114	0xbc02e3b7	-0.007988862
115	0x3df332f6	0.118749544
116	0x3fbb8b08	1.4651804
117	0x3f32fbf5	0.69915706
118	0xbe1b2445	-0.15150554
119	0xbed7682d	-0.42071667
120	0x3f61da3e	0.88223636
121	0xbdc635b8	-0.09678215
122	0xbe73132d	-0.23737784
123	0xbf8743e2	-1.0567591
124	0x3f0381b4	0.51369786
125	0xbfdd559e	-1.7291753
126	0x3ff6c6e1	1.9279443
127	0x3fb0e610	1.382021

instance_projector.2.weight f4 [20, 128]
0	0x3d49747f	0.049183365
1	0xbecce994	-0.40021956
2	0xbd7c03f3	-0.061527204
3	0x3e985748	0.2975409
4	0xbe2f9b3d	-0.17149062
5	0xbe178f8e	-0.14800856
6	0x3f7dc94f	0.991353
7	0xbcb61e89	-0.022231357
8	0x3f02bc49	0.5106855
9	0x3cb89f7c	0.022536986
10	0xbe44b3f6	-0.19209275
11	0xbd60a28c	-0.054842517
12	0xbbbcac71	-0.0057578613
13	0xbea2471a	-0.3169487
14	0xbd4d8b38	-0.050181597
15	0x3c027d72	0.007964479
16	0x3e940a57	0.2891414
17	0x3cb7789d	0.02239638
18	0x3eee4edc	0.4654454
19	0x3f58afe5	0.84643394
20	0xbd3f1d56	-0.046658836
21	0xbd0f56ee	-0.034995012
22	0xbe196d44	-0.14983088
23	0x3d3bc6ca	0.045843877
24	0xbf1ac8f4	-0.6046288
25	0x3e55b362	0.2086921
26	0x3e7ee208	0.24890912
27	0xbebe0591	-0.37113622
28	0x3edd4bbb	0.4322184
29	0xbdb20dfd	-0.08694074
30	0xbd8be8e1	-0.068315275
31	0x3ecdcfc2	0.4019757
32	0xbeb17b3f	-0.34664342
33	0x3d8a63dd	0.06757329
34	0xbf290d7c	-0.660362
35	0x3e62d3c8	0.221511
36	0xbd34df2c	-0.044158146
37	0xbd09cb3f	-0.033641096
38	0xbdf1ce27	-0.118068986
39	0x3d85268b	0.06501492
40	0x3f2992e5	0.6623977
41	0x3d857cdf	0.06517958
42	0xbe327026	-0.17425594
43	0x3d981c4f	0.074272744
44	0x3d4ee576	0.0505118
45	0xbe4ea457	-0.20179878
46	0xbe2a149e	-0.16609427
47	0xbb14de5d	-0.0022715547
48	0xbd30d6ff	-0.043173786
49	0xbcb87bdc	-0.022519998
50	0x3f39aae8	0.7252641
51	0x3f2b1454	0.66827893
52	0x3ea090b3	0.31360397
53	0xbe1721de	-0.14759013
54	0x3df20309	0.11816985
55	0xbeba68f4	-0.36408198
56	0x3e2eae72	0.17058733
57	0x3e2fab46	0.1715518
58	0xbcc4425c	-0.023957424
59	0xbd90215b	-0.07037612
60	0x3e240166	0.16016158
61	0x3cbfebb2	0.023427818
62	0xbecb9cd7	-0.39768097
63	0xbec5cd67	-0.38633272
64	0x3d8d41e8	0.06897336
65	0x3f02b97b	0.5106427
66	0x3ea74e32	0.32676846
67	0x3f499e48	0.78757143
68	0x3d8bd4d5	0.06827704
69	0xbede8ac5	-0.43465248
70	0xbc83824a	-0.016053338
71	0x3e100b01	0.14066698
72	0x3dddddc4	0.10833314
73	0x3d04f896	0.032463633
74	0xbd156229	-0.036470566
75	0x3e9c74ea	0.30557948
76	0xbea00e07	-0.31260702
77	0xbf101bb7	-0.5629229
78	0xbd912570	-0.07087219
79	0x3d9257b4	0.07145634
80	0xbebad2f8	-0.3648908
81	0xbeab89b4	-0.33503497
82	0x3d07935a	0.03309951
83	0xbe85c92e	-0.2613005
84	0xbdad0cb3	-0.08449688
85	0x3dea05bc	0.11426875
86	0xbc5b990f	-0.013403191
87	0x3e06bc34	0.13157731
88	0x3d832dca	0.06405218
89	0xbd79b644	-0.060964838
90	0xbd45dd6f	-0.04830688
91	0xbebddb94	-0.37081587
92	0x3d85021e	0.064945444
93	0x3ea20392	0.3164335
94	0x3c98d909	0.018658178
95	0xbd077962	-0.033074744
96	0x3d83e695	0.064404644
97	0x3e9a2c14	0.30111754
98	0xbde640cc	-0.11242828
99	0x3e037592	0.12837818
100	0x3eafae42	0.34312636
101	0xbe7d8cd6	-0.24760756
102	0xbd37815b	-0.044801097
103	0xc0919f85	-4.5507226
104	0x3f010dd2	0.50411713
105	0x3d7a7c3f	0.061153647
106	0xbbb83847	-0.005621943
107	0xbe288d44	-0.16460139
108	0xbefaa2ac	-0.48952234
109	0x3f381a0d	0.7191475
110	0x3e170955	0.14749654
111	0xbd6f055a	-0.058354713
112	0xbe8e9824	-0.2785045
113	0x3f4fd05b	0.811773
114	0xbd9ff389	-0.078101225
115	0xbf1c5d49	-0.6107984
116	0x3f0f47e4	0.5596907
117	0x3e341b7e	0.17588612
118	0xbf2dbb10	-0.6786356
119	0x3e26122f	0.16217874
120	0xbef5c320	-0.4800043
121	0x3c4172f0	0.011807188
122	0xbcf24238	-0.029572591
123	0x3da04864	0.078263074
124	0x3c95f875	0.01830695
125	0x3e79fa09	0.24411787
126	0xbfbfb8b2	-1.497824
127	0xbe5d6369	-0.21619953
128	0xbd87d78d	-0.0663291
129	0x3e34cb62	0.1765571
130	0x3d041cd2	0.032254048
131	0x3ea6daa3	0.32588682
132	0x3e256a32	0.16153792
133	0x4050d5fe	3.263061
134	0xbe5d57b5	-0.21615489
135	0xbd8b8d7d	-0.06814096
136	0x3fff02ff	1.9922789
137	0xbd624e5d	-0.055250514
138	0x3e216a2a	0.15763155
139	0x3d3e34f6	0.046437226
140	0xbd3f1bd7	-0.04665741
141	0x3e8d5478	0.27603507
142	0xbdda802b	-0.10668977
143	0x3bedfceb	0.007262816
144	0x3e7c7ad3	0.24656229
145	0x3d9f2855	0.077713646
146	0x3e378921	0.17923404
147	0xbea8fd52	-0.33005768
148	0x3ca18f7a	0.019721735
149	0xbc9921cc	-0.018692873
150	0x3d251809	0.040306125
151	0x3d87dbc7	0.06633716
152	0x3ecbc45e	0.39798254
153	0xbeb2bd4c	-0.34910047
154	0xbd704b14	-0.05866535
155	0x3ef2e9b1	0.47443917
156	0xbebb495a	-0.365794
157	0x3be3c093	0.006950447
158	0x3dac6d01	0.08419228
159	0xbe94b83e	-0.29046816
160	0x3d5c68b1	0.05381078
161	0xbd055d31	-0.032559577
162	0x3eab9bb5	0.33517233
163	0x3f9d3007	1.2280282
164	0xbddfd993	-0.10930171
165	0x3ead9d0b	0.33908877
166	0x3dcaf361	0.09909702
167	0x3c96241a	0.018327761
168	0x3ca02a41	0.019551398
169	0xbdae0293	-0.08496585
170	0x3e3d8251	0.18506743
171	0xbd653558	-0.055959076
172	0x3c589798	0.0132197365
173	0xbef862fc	-0.4851302
174	0x3df5562e	0.11979328
175	0xbe3867ce	-0.18008348
176	0xbe4f4aba	-0.2024335
177	0xbdc27715	-0.09495369
178	0x3ed4418b	0.41456255
179	0xbeb172ab	-0.34657797
180	0xbd8efa32	-0.06981315
181	0x3e95467c	0.29155338
182	0x3ce91990	0.028454572
183	0x3def1d26	0.116754815
184	0xbe37887b	-0.17923157
185	0xbe19635b	-0.14979307
186	0x3f10ef00	0.56614685
187	0x3cddbb19	0.027066754
188	0x3c0d8b79	0.00863921
189	0xbccfa367	-0.025346471
190	0x3f0708b2	0.52747643
191	0xbf3e6ab1	-0.7438155
192	0xbdbac648	-0.091198504
193	0xbe6c0bf9	-0.23051442
194	0xbe2a9e6d	-0.16661997
195	0xbedb69fd	-0.428543
196	0x3cd16918	0.025562808
197	0x3eccca81	0.39998248
198	0xbccb70a0	-0.024833977
199	0x3d8a09ca	0.06740148
200	0x3dc8b000	0.09799194
201	0x3d38b2df	0.04509246
202	0xbec0da78	-0.37666678
203	0xbf0337a1	-0.5125676
204	0x3dbab9a1	0.09117437
205	0x3f4f0e69	0.80881363
206	0x3d7e89ca	0.062143125
207	0xbec3b80a	-0.38226348
208	0x3e280162	0.16406778
209	0x3eb3bdea	0.3510583
210	0xbdcad179	-0.09903235
211	0x3e461927	0.19345532
212	0xbd265adf	-0.040614005
213	0x3e949462	0.29019457
214	0xbe4a0ddd	-0.19731851
215	0x3cf89327	0.030343605
216	0xbd6599ea	-0.056054987
217	0x3cf7e875	0.030262211
218	0xbd382399	-0.044955824
219	0x3e0dad20	0.13835573
220	0xbd91ea37	-0.07124751
221	0x3e40996d	0.18808527
222	0x3e1e2056	0.15442023
223	0x3cb19f5e	0.021682438
224	0x3c21b8fc	0.009870764
225	0xbe294312	-0.16529492
226	0xbeef02eb	-0.46681914
227	0xbe113f0f	-0.14184211
228	0xbed04827	-0.40680048
229	0x3e562afa	0.20914832
230	0x3d1ebf8e	0.0387569
231	0xbe6e9da0	-0.23302317
232	0xbebc4dd3	-0.36778125
233	0xbdb4e88c	-0.08833417
234	0x3d93892c	0.07203898
235	0x3db952d7	0.090490036
236	0x3e8fb459	0.28067282
237	0xbed09aff	-0.40743253
238	0xbdcee6fe	-0.10102652
239	0x3b54e8e0	0.0032487437
240	0x3e92fc82	0.28708273
241	0xbea7fb8e	-0.32809108
242	0x3b6babef	0.0035960635
243	0x3f03d322	0.5149404
244	0xbdc3a6e2	-0.09553315
245	0x3f1be909	0.6090246
246	0xbe6cd8c9	-0.23129572
247	0xbe2b2d20	-0.16716433
248	0x3e3d287a	0.18472472
249	0x3d5077ce	0.050895505
250	0x3cf03c25	0.029325554
251	0xbe58d993	-0.21176748
252	0xbddaf4ff	-0.106912605
253	0xbea3db63	-0.32003316
254	0x3f92c6e6	1.1466949
255	0xbb89b8ad	-0.0042029233

instance_projector.2.bias f4 [20]
0	0xbebc8c59	-0.36825827
1	0x3f1781ef	0.5918264
2	0xbf183902	-0.59461987
3	0x3e80f133	0.2518402
4	0x3ee94513	0.45560512
5	0xbf58e667	-0.84726566
6	0xbd811e9d	-0.06304667
7	0x3e8899cf	0.26679847
8	0x3f551dd2	0.8324863
9	0xbf078db7	-0.52950615
10	0x3f2f8319	0.68559414
11	0x3e79e92c	0.24405354
12	0xbfbf25ea	-1.4933445
13	0xbcabbe2f	-0.02096471
14	0x3fb05861	1.3776971
15	0x3f9060a4	1.1279492
16	0xbf464f77	-0.77465004
17	0x3f69f027	0.9138207
18	0x3d6af00c	0.057357833
19	0xbf3445e9	-0.70419174

cluster_projector.0.weight f4 [128, 20]
0	0xbdb5cf69	-0.08877451
1	0x3ee2283e	0.44171327
2	0x3dbf0db0	0.093287826
3	0xc00016a8	-2.0013828
4	0x3f23b2b5	0.6394456
5	0xbf15e4f3	-0.58552474
6	0xbf79a8d9	-0.97523266
7	0xbf68fa14	-0.9100659
8	0xbf8d65a4	-1.1046643
9	0x3e57b3f8	0.21064746
10	0xbeb3e64c	-0.3513664
11	0x3e83b909	0.25727108
12	0xbd3ce7ed	-0.04611962
13	0x3e9dd588	0.30826974
14	0x3dfd7a80	0.12376881
15	0x3e97c280	0.2964058
16	0x3d83fa83	0.06444266
17	0xbe7ed57c	-0.24886125
18	0xbf6ffcd4	-0.9374516
19	0xbfbdabac	-1.4818015
20	0xbe047459	-0.12935008
21	0xbe8ad381	-0.2711449
22	0xbd9431d4	-0.072360665
23	0x3dc13c45	0.094353236
24	0x3dd0e446	0.1019979
25	0xbc1415a0	-0.009038359
26	0xbddb36f2	-0.10703839
27	0xbdeef50a	-0.11667831
28	0xbd6620b7	-0.056183543
29	0x3e076684	0.132227
30	0xbe2b9843	-0.16757302
31	0xbc0ca5af	-0.008584424
32	0xbce80659	-0.02832334
33	0xbe8c2e97	-0.27379295
34	0xbedae928	-0.4275601
35	0xbe694b80	-0.22782707
36	0xbeade8e4	-0.33966744
37	0x3d480e7c	0.04884194
38	0x3d9ed834	0.07756081
39	0xbb9f5765	-0.004862713
40	0xbe59dc57	-0.21275459
41	0xbdb3b348	-0.087744296
42	0x3e480cab	0.19536082
43	0xbd0064fe	-0.031346314
44	0xbd982795	-0.07429425
45	0xbb8667c3	-0.004101725
46	0xbe8a5eef	-0.27025554
47	0x3d5f313a	0.054490305
48	0xbe48acb3	-0.1959713
49	0x3e0fba4a	0.14035907
50	0xbe50781e	-0.20358321
51	0xbd6c5236	-0.05769559
52	0x3d21f53a	0.039540507
53	0xbe59e45b	-0.21278517
54	0x3e118413	0.14210539
55	0x3deeb9b8	0.11656517
56	0x3d88bd22	0.06676699
57	0x3d70c31c	0.05877982
58	0xbde5951b	-0.1121008
59	0x3cfc99a7	0.030834986
60	0xbe252497	-0.16127239
61	0x3e3c97d0	0.18417287
62	0xbe571afb	-0.21006386
63	0x3cb532b8	0.022118911
64	0xbe4ce3af	-0.2000873
65	0xbe3240d8	-0.17407548
66	0x3e58a930	0.2115829
67	0x3e01dd66	0.12682113
68	0xbe62bd5e	-0.2214255
69	0xbde3aeea	-0.111173466
70	0xbdd04f2d	-0.101713516
71	0xbd0f9bf8	-0.035060853
72	0x3dadba18	0.0848276
73	0x3e026fc4	0.12737948
74	0xbcdc51c0	-0.02689445
75	0xbe311158	-0.17291772
76	0x3cfa1cc0	0.030531287
77	0x3cb710b0	0.022346824
78	0xbe4a9b9e	-0.19785926
79	0x3e6113c0	0.2198019
80	0x3d86d16a	0.06582911
81	0x3dbec0fd	0.09314153
82	0x3fd1ad4a	1.6381009
83	0xbf1d6ec5	-0.61497146
84	0x3d40b1fb	0.047044735
85	0x3f385550	0.72005177
86	0x3ef720d8	0.48267245
87	0xbd147959	-0.03624854
88	0xbe005122	-0.1253095
89	0x3e3a719a	0.18207398
90	0xbe28f25b	-0.16498701
91	0x3e8bb1da	0.27284127
92	0x3eb238c4	0.34808934
93	0xbffa80e9	-1.957059
94	0xbfde8adb	-1.7386125
95	0xbfb8568d	-1.4401413
96	0x3ed4cce7	0.41562578
97	0xbd546b19	-0.05185995
98	0xbf91bcd8	-1.1385756
99	0xbf1776f1	-0.59165865
100	0xbe320f00	-0.17388535
101	0x3c21f517	0.009885094
102	0xbe3e14a0	-0.18562555
103	0xbd0475b0	-0.032338798
104	0x3c163c60	0.009169668
105	0xbda9ab10	-0.08284581
106	0x3cbc0e38	0.022955999
107	0x3d5df000	0.05418396
108	0xbce79b40	-0.028272271
109	0x3e557fdc	0.20849556
110	0xbe64beae	-0.22338364
111	0xbe97acaa	-0.2962392
112	0xbec70d79	-0.38877466
113	0xbe3a4edb	-0.18194143
114	0xbf0fe820	-0.5621357
115	0xbf06215a	-0.5239464
116	0xbe850534	-0.25980532
117	0x3d402691	0.04691178
118	0xbe798bb9	-0.24369706
119	0xbe14adb6	-0.1451939
120	0xbdc09046	-0.09402518
121	0xbe9f1be4	-0.31075966
122	0xbe642731	-0.22280575
123	0x3ef26fe4	0.4735099
124	0xbed41c40	-0.41427803
125	0xbf1a415e	-0.6025599
126	0xbed580e6	-0.41699904
127	0xbf7291d6	-0.9475378
128	0xbef69216	-0.4815833
129	0xbdf6f31f	-0.120580904
130	0x3df4c407	0.11951452
131	0x3ef74c7d	0.48300543
132	0x3ece20ff	0.4025955
133	0xbce82042	-0.028335694
134	0x3d1f3087	0.03886464
135	0xbe9bac53	-0.3040491
136	0x3e831d4b	0.25608286
137	0xbf329645	-0.69760543
138	0xbf9660b1	-1.1748258
139	0xbfa72948	-1.3059473
140	0xbe88c38f	-0.267117
141	0xbe41267c	-0.18862337
142	0xbd0cbb6c	-0.034358427
143	0x3db4371c	0.08799574
144	0x3e4509de	0.19242045
145	0x3dafaba0	0.08577657
146	0x3d408c20	0.047008634
147	0xbe02e709	-0.12783445
148	0x3cf0e899	0.029407786
149	0x3de8d624	0.11368969
150	0xbdb5393f	-0.088488095
151	0xbe220554	-0.15822345
152	0x3dc1f56e	0.0947064
153	0xbd8be47b	-0.068306886
154	0xbe687d03	-0.22703938
155	0x3d4d7b80	0.050166607
156	0x3e2087aa	0.15676752
157	0x3d8f0040	0.069824696
158	0xbd38957d	-0.045064438
159	0xbe5c746a	-0.21528783
160	0xbdbb0548	-0.09131867
161	0x3edc2921	0.4300013
162	0x3f305baa	0.6888987
163	0xbf7d8fde	-0.9904765
164	0x3e5e1244	0.21686655
165	0x3f635e83	0.8881609
166	0xbead1ae7	-0.33809587
167	0x3e35da73	0.17759113
168	0x3dd6e4aa	0.10492833
169	0x3dacb338	0.08432621
170	0x3df564c1	0.11982108
171	0x3e300ddb	0.17192785
172	0x3e963c45	0.29342857
173	0xbfa98d1e	-1.324619
174	0xbf89baef	-1.0760173
175	0xbf6a2371	-0.9146033
176	0x3ea48b44	0.321375
177	0x3e0e4b9c	0.1389603
178	0x3d88cc2a	0.06679566
179	0xbf26586e	-0.64978683
180	0xbda3170d	-0.07963381
181	0xbe8ae694	-0.27129042
182	0xbf80d521	-1.0065042
183	0xbf9f8322	-1.2461894
184	0x3f9b320e	1.212465
185	0x3e38ed43	0.18059258
186	0xbe7c3353	-0.24628954
187	0xbf09eb60	-0.5387478
188	0xbf307ee6	-0.6894363
189	0xbdcb0ec8	-0.09914929
190	0xbf0bb513	-0.5457317
191	0xbe3f52be	-0.18683907
192	0xbed04d02	-0.40683752
193	0xbe5ecd1a	-0.21757928
194	0xbd658588	-0.05603555
195	0xbe41c1de	-0.1892161
196	0x3d11d6e0	0.03560531
197	0xbf3d7289	-0.7400289
198	0xbf46c8e1	-0.77650267
199	0xbf663a1e	-0.8993243
200	0xbe424dfa	-0.18975058
201	0x3e590b8e	0.21195814
202	0xbfa4f116	-1.2886074
203	0xbf3363fc	-0.7007444
204	0xbf9abe14	-1.2089257
205	0xbf74bee5	-0.9560378
206	0xbe04da5a	-0.1297392
207	0xbef51244	-0.47865498
208	0xbf2877e9	-0.6580797
209	0xbc0e78c0	-0.008695781
210	0x3f0627b8	0.52404356
211	0x3f207960	0.62685204
212	0xbdeb5cfc	-0.11492345
213	0x3ea819d5	0.32832208
214	0x3ea395ef	0.31950328
215	0x3e9eaff1	0.30993608
216	0x3eae7df9	0.34080485
217	0xbdaea0c7	-0.085267596
218	0xc006da48	-2.1070728
219	0xc00ab2cc	-2.167163
220	0xbe203b91	-0.15647723
221	0xbed4764f	-0.41496512
222	0x3f0cc555	0.54988605
223	0x3f5aeefd	0.8552092
224	0xbcdb7735	-0.02679024
225	0xbd74ce8f	-0.059767302
226	0xbe5232c3	-0.20527177
227	0x3e529736	0.20565495
228	0xbf0bd92c	-0.54628253
229	0x3e5527b6	0.2081593
230	0x3e29563f	0.16536807
231	0xbea9b75d	-0.33147708
232	0xbf021828	-0.5081811
233	0x3dee5412	0.11637129
234	0xbca1f89c	-0.019771867
235	0x3de1ff08	0.110349715
236	0xbef1fc25	-0.47262684
237	0xbf86405f	-1.0488394
238	0xbe978e88	-0.2960093
239	0xbedfec70	-0.43735075
240	0xbe98a703	-0.2981492
241	0xbd868638	-0.06568569
242	0xbf106a90	-0.564126
243	0x3e00522b	0.12531345
244	0xbe59be47	-0.21263991
245	0xbebdbd76	-0.3705861
246	0xbec3cc5f	-0.3824186
247	0x3e90b353	0.28261814
248	0xbe032dfd	-0.12810512
249	0x3d5c2d30	0.05375403
250	0xbe75abb9	-0.23991288
251	0xbed72e8e	-0.42027706
252	0xbed95eb0	-0.42455053
253	0x3d8b120a	0.0679055
254	0x3d8758ca	0.06608732
255	0x3e84a44f	0.25906608

cluster_projector.0.bias f4 [128]
0	0x3f1b61b5	0.60695964
1	0xbe972d83	-0.2952691
2	0xbe87140e	-0.26382488
3	0xbdfe4eb3	-0.124173544
4	0x3d64626f	0.055757936
5	0xbe2ccddf	-0.16875409
6	0xbed23551	-0.41056302
7	0xbeaa8b3b	-0.3330935
8	0xbce78abe	-0.0282644
9	0x3e9b2e72	0.30308872
10	0x3ddb889a	0.10719414
11	0xbe793246	-0.24335584
12	0x3e48c6ba	0.19607058
13	0xbf09e45a	-0.5386406
14	0xbdfa4c52	-0.12221588
15	0x3e9fe6a4	0.31230652
16	0xbeeb0d07	-0.45908377
17	0xbe8398aa	-0.2570241
18	0xbe3de6f1	-0.18545128
19	0xba8a4f5a	-0.0010552213
20	0xbe78905e	-0.24273822
21	0x3e350e3b	0.1768121
22	0xbeec6cda	-0.46176797
23	0xbe1b38de	-0.15158412
24	0xbe6acb20	-0.22929049
25	0xbee20dc5	-0.4415113
26	0xbdf45575	-0.11930362
27	0x3e52997b	0.2056636
28	0xbe4085a9	-0.18800987
29	0x3e91fc66	0.28512877
30	0xbe94990c	-0.29023015
31	0x3ce7040f	0.028200177
32	0xbd899d40	-0.06719446
33	0x3cc51ee3	0.02406258
34	0x3e120083	0.14258008
35	0xbe0715ba	-0.13191882
36	0xbdf8ffd4	-0.1215817
37	0x3ceb8a78	0.02875255
38	0xbf47033d	-0.77739316
39	0xbebca28e	-0.3684277
40	0xbe81dd3f	-0.2536411
41	0x3d815f26	0.06316976
42	0xbe22b286	-0.15888414
43	0x3cf1b835	0.029506782
44	0xbde7f136	-0.11325304
45	0x3f1982a8	0.5996499
46	0xbd7bde35	-0.06149121
47	0x3ea8ec3d	0.32992736
48	0x3db811ce	0.08987771
49	0x3f02fb00	0.51164246
50	0x3e75c310	0.24000192
51	0xbdb3f971	-0.087878115
52	0xbe312359	-0.1729864
53	0x3e567705	0.2094384
54	0x3d60cd29	0.054883156
55	0xbcfbca00	-0.03073597
56	0xbc9c68d4	-0.019092955
57	0xbe9fc990	-0.31208467
58	0x3ddbf11c	0.10739347
59	0x3f10b96f	0.5653295
60	0xbdda5880	-0.10661411
61	0x3c3cbf27	0.011520184
62	0x3d59fd08	0.053219825
63	0x3f35fc4b	0.71088094
64	0xbd40573a	-0.046958186
65	0xbea3b535	-0.31974187
66	0x3e119262	0.14215997
67	0xbc275ba3	-0.010214719
68	0x3f4cec74	0.800483
69	0xbbfa44e4	-0.007637607
70	0xbc777a91	-0.015104906
71	0xbe06a9e1	-0.13150741
72	0x3ee8867e	0.4541511
73	0x3d942cd1	0.072351106
74	0x3eaa2d75	0.33237806
75	0x3dffb2dc	0.124852866
76	0xbc16ee4b	-0.009212087
77	0x3e7b177f	0.24520682
78	0xbc4962dd	-0.012291637
79	0xbf0ac02a	-0.5419947
80	0xbedb70cd	-0.42859498
81	0x3d6ee153	0.058320355
82	0xbedb9ec0	-0.42894554
83	0x3d0fe8bc	0.035134062
84	0xbaf11b44	-0.0018394967
85	0xbe713c1b	-0.23558085
86	0x3ea9aaea	0.3313821
87	0x3c8e2268	0.01735039
88	0x3e04f395	0.12983544
89	0x3eb2a0a5	0.34888187
90	0x3e1d7623	0.15377097
91	0x3f0e8901	0.556778
92	0xbe95a5ab	-0.29227957
93	0xbe688929	-0.22708572
94	0xbe0fe174	-0.14050847
95	0x3f0c5f48	0.5483289
96	0xbe90751f	-0.28214356
97	0xbd50767c	-0.050894246
98	0x3e5c78bb	0.2153043
99	0xbe74cb6a	-0.23905721
100	0x3ce3be4a	0.027800698
101	0xbe0534ad	-0.13008375
102	0x3d7a2a5f	0.061075564
103	0xbe06ce5c	-0.13164657
104	0xbe22f6ca	-0.15914455
105	0xbe744604	-0.23854834
106	0xbebce477	-0.36893055
107	0xbeb0bc7e	-0.34518808
108	0xbe031195	-0.12799676
109	0x3f2793e5	0.65460044
110	0x3df08b0a	0.117452696
111	0x3f1ebf05	0.6201022
112	0xbe8e005c	-0.2773465
113	0xbcdbe941	-0.026844623
114	0xbece82a8	-0.40334058
115	0x3f1518df	0.58241075
116	0xbe6d5421	-0.23176624
117	0xbdcc4a49	-0.09975106
118	0xbac8b006	-0.0015311248
119	0x3ef7c556	0.48392743
120	0x3e992851	0.2991357
121	0xbd8b747a	-0.068093255
122	0x3e269f49	0.162717
123	0xbdf47e55	-0.119381584
124	0xbea9d1b1	-0.33167794
125	0x3cc71594	0.024302281
126	0x3e869faf	0.26293704
127	0x3d676e19	0.05650148

cluster_projector.2.weight f4 [50, 128]
0	0x3d90d5db	0.0707204
1	0x3c241436	0.010014584
2	0xbd22c7be	-0.03974127
3	0x3d63db3a	0.055628993
4	0xbef6a4d6	-0.48172635
5	0x3d316f7b	0.043319207
6	0x3e62d61a	0.22151986
7	0xbd51d100	-0.05122471
8	0xbf08a020	-0.5336933
9	0xbf892931	-1.0715696
10	0xbdb4e6a6	-0.08833055
11	0x3dc4e0f4	0.09613219
12	0x3d58e891	0.052956168
13	0xbf6d8e73	-0.92795485
14	0xbe32692b	-0.17422931
15	0xbcb2cea6	-0.021827053
16	0xbd8d3a3d	-0.06895874
17	0x3ef32d00	0.4749527
18	0x3da531ab	0.08066114
19	0x3df523f0	0.11969745
20	0x3eaa7d2a	0.33298618
21	0xbf7680a9	-0.9629007
22	0xbdcd4da5	-0.10024575
23	0x3d10516c	0.0352339
24	0xbe7eb447	-0.24873458
25	0xc04a2bf2	-3.1589322
26	0xbd020327	-0.031741288
27	0xbefe5f8f	-0.4968228
28	0x3eff4520	0.49857426
29	0x3f058ab2	0.5216476
30	0x3b5648d9	0.003269723
31	0x3ee891c1	0.454237
32	0x3ebeb62f	0.3724837
33	0xbd75563d	-0.059896696
34	0xc09e7de4	-4.9528675
35	0x3ccbe2a4	0.024888344
36	0x3ec0a915	0.37629
37	0xbd56a90f	-0.05240732
38	0x3ea0949a	0.31363374
39	0xbf5d30ef	-0.8640279
40	0xbf8cd793	-1.1003288
41	0xbfdd2415	-1.7276636
42	0xc02c504a	-2.6924005
43	0x3e8249e7	0.25447008
44	0xc0946f7e	-4.63861
45	0x3e81ad64	0.253276
46	0xbfebf3c0	-1.8433762
47	0xc01a7a3a	-2.41371
48	0x3eb7b57f	0.35880658
49	0xbfb77fca	-1.4335873
50	0xbf45a8ab	-0.7721049
51	0x3e92c5d2	0.2866655
52	0xbed8c7e4	-0.42340004
53	0xc0867abc	-4.202482
54	0xbfee3702	-1.8610537
55	0xbfc7c5d3	-1.5607246
56	0xbc1960d3	-0.009361464
57	0x3eab4e51	0.33458188
58	0xbd9526cf	-0.07282793
59	0x3ce90c1a	0.028448153
60	0xbc9fffba	-0.01953112
61	0xbe869800	-0.26287842
62	0x3d31630e	0.043307357
63	0xc08e52b9	-4.447598
64	0x3e76decd	0.24108429
65	0x3d9a8deb	0.075466
66	0xbfc227c6	-1.5168388
67	0xbcf2347c	-0.029566042
68	0xbe7c2cc5	-0.24626453
69	0x3f03e45a	0.5152031
70	0xbcea5cd4	-0.028608717
71	0x3e8a5f51	0.27025846
72	0xbf81f354	-1.0152383
73	0xbf9177fe	-1.1364744
74	0xbe99ae0e	-0.30015606
75	0xc0021bbe	-2.0329432
76	0x3dadc0d9	0.084840484
77	0xbf4ceee9	-0.8005205
78	0xbc9ff3cf	-0.019525437
79	0x3ebe2283	0.37135705
80	0xc082fdd7	-4.0934863
81	0xbd173b1f	-0.036921617
82	0xbd58253b	-0.05276988
83	0xbd6d9654	-0.058004692
84	0xbd4eaf76	-0.0504603
85	0x3ccb602a	0.024826128
86	0xbfbbc71a	-1.4670136
87	0xbd4859a8	-0.048913628
88	0xbfe8f368	-1.8199282
89	0xbeb65307	-0.3561022
90	0xbeb3343e	-0.35000795
91	0xbfb46588	-1.4093485
92	0xbec228af	-0.37921664
93	0x3ee4c9e0	0.44685268
94	0x3d6d0386	0.05786469
95	0xbf8e5477	-1.1119527
96	0xbe79c881	-0.24392892
97	0x3f05c58f	0.52254575
98	0x3e9e2679	0.30888727
99	0x3e8a05c0	0.26957512
100	0x3d85f155	0.06540171
101	0x3eea1a35	0.4572312
102	0xbd718ce2	-0.058972247
103	0xbcf3eea3	-0.029776877
104	0x3da31da0	0.07964635
105	0x3e952d2d	0.2913603
106	0x3ea26b71	0.31722596
107	0x3d73f1a1	0.059556607
108	0x3ede5c15	0.43429628
109	0xbf51c404	-0.8193972
110	0xbff27f97	-1.8945187
111	0xc001fded	-2.0311234
112	0xbf03daf6	-0.5150598
113	0x3e8ef460	0.27920818
114	0xbfff7980	-1.9958954
115	0xbebf90db	-0.37415203
116	0x3d7ddf5e	0.061980598
117	0xbf9b9650	-1.2155247
118	0x3f109ba0	0.56487465
119	0x3e67b9d2	0.22629479
120	0xbfe33add	-1.7752339
121	0x3e414a85	0.18876083
122	0x3e3a3fa2	0.18188336
123	0xbeba3dd7	-0.36375305
124	0x3cb809dc	0.022465639
125	0xbe0327af	-0.12808107
126	0xbfef51e1	-1.8696862
127	0x3ea55159	0.32288626
128	0x3f221f8b	0.6332938
129	0xbd0d26f2	-0.03446097
130	0x3cb35857	0.02189271
131	0xbc4944e0	-0.0122844875
132	0x3edc8efa	0.43077832
133	0xbd9b36c2	-0.075788036
134	0x3e8c82a7	0.2744343
135	0xbda65d16	-0.081232235
136	0xbf743b7a	-0.95403254
137	0xbf158c6d	-0.584174
138	0xbeddfe73	-0.43358192
139	0x3e7e93ca	0.24861065
140	0xbeb74d47	-0.35801145
141	0xbf32071d	-0.69542104
142	0x3dba33cc	0.09091911
143	0xbf865a1e	-1.0496252
144	0xbd8515fd	-0.064983346
145	0x3ee8614f	0.4538674
146	0xbd420884	-0.047371402
147	0xbe73eaa8	-0.23819983
148	0xbf86f629	-1.0543872
149	0x3e9bfc91	0.3046613
150	0xbd19bba3	-0.03753246
151	0xbd85eed8	-0.065396965
152	0xbf9fe2e1	-1.2491113
153	0xbe93ebb7	-0.28890774
154	0x3d98b019	0.07455463
155	0xbd9af720	-0.075666666
156	0xbfa1de16	-1.26459
157	0xbf93780c	-1.152101
158	0x3cdc3aea	0.026883561
159	0xbf692c76	-0.91083467
160	0x3e907a2e	0.28218216
161	0x3c09de52	0.008414822
162	0x3c4d1cfa	0.012519116
163	0x3d42a506	0.04752066
164	0x3d9b612e	0.07586895
165	0xbd5d6a36	-0.05405637
166	0xbf84f56b	-1.0387396
167	0x3e062e41	0.13103582
168	0x3e6e62b7	0.23279844
169	0xbf4536e7	-0.770369
170	0xbfe152df	-1.7603415
171	0xbd8a673b	-0.06757971
172	0xbf8cd0b6	-1.1001194
173	0x3eba5152	0.36390167
174	0xbf5e706a	-0.8689028
175	0xbf294386	-0.6611866
176	0xbf2cd904	-0.6751864
177	0xbf0518b5	-0.51990825
178	0xbf611fc3	-0.8793909
179	0xbe622b18	-0.22086751
180	0xbe54c1d3	-0.20777063
181	0x3ea426e1	0.32060912
182	0x3e7d7654	0.2475217
183	0x3c7a7bb8	0.015288286
184	0xbcd79b9d	-0.02631932
185	0xbb490188	-0.0030671079
186	0x3c3ec570	0.011643752
187	0xc01ec999	-2.4810545
188	0xbd6242e4	-0.055239573
189	0xbe1ca1e9	-0.15296139
190	0x3d83ad83	0.06429579
191	0xbed79bcc	-0.4211105
192	0xbde80842	-0.113297
193	0xbe61ddc4	-0.22057253
194	0x3e56566f	0.2093141
195	0x3d3f702e	0.046737842
196	0x3ede8316	0.43459386
197	0x3f22a208	0.6352849
198	0xbd193f3e	-0.037413828
199	0xbdaed106	-0.08535962
200	0x3e7c58c7	0.24643241
201	0xbe469bb5	-0.19395335
202	0x3eef98fa	0.467964
203	0xbf4bbf49	-0.79588753
204	0xbd92d5bb	-0.07169672
205	0xbf45fef6	-0.77342165
206	0xbe1091a9	-0.14118065
207	0xbc561c96	-0.013068339
208	0xbecf2ecf	-0.404654
209	0xbbf7b8ad	-0.007559857
210	0xbf81733c	-1.0113292
211	0xbdbc66d3	-0.091993
212	0x3d862387	0.06549745
213	0xbd37313f	-0.0447247
214	0xbfbe1de9	-1.4852878
215	0x3d31f93a	0.04345057
216	0xbfc27f1d	-1.5195042
217	0xbca2c2cc	-0.019868277
218	0x3f0306ce	0.5118226
219	0xbeb1be27	-0.34715387
220	0xbec5d6a6	-0.38640326
221	0x3e2b55f8	0.16732013
222	0xbcc0fd2c	-0.023558222
223	0x3ec1d719	0.3785942
224	0xbed39049	-0.41321018
225	0x3e91ba2b	0.28462347
226	0xbe93b15b	-0.2884625
227	0xbf820724	-1.0158429
228	0xbdb710c9	-0.089387484
229	0xbe5eb626	-0.21749172
230	0x3d58351e	0.05278503
231	0xbbed1537	-0.007235195
232	0xbd4a9eb0	-0.049467742
233	0x3d010391	0.03149754
234	0xc0066084	-2.0996408
235	0xbd9bcf4d	-0.07607899
236	0xbea78ebd	-0.32726088
237	0xbf01611d	-0.5053881
238	0xbe02bb8a	-0.12766853
239	0xc01725bf	-2.3616788
240	0xbf384d7b	-0.71993226
241	0x3e4f53e0	0.2024684
242	0xbfce638e	-1.6124132
243	0x3eeaa9f9	0.45832804
244	0xbc2bfb8e	-0.010496987
245	0xbcce5b2c	-0.025189959
246	0xbe519dca	-0.20470348
247	0xbfe41fd0	-1.7822208
248	0xbd40e4e7	-0.0470933
249	0xbf146ab8	-0.5797534
250	0xbefcbaf2	-0.49361378
251	0xbe390309	-0.18067564
252	0xbccbfb9e	-0.024900254
253	0xbeedd757	-0.46453354
254	0xbe5af917	-0.21384083
255	0x3e126438	0.14296043

cluster_projector.2.bias f4 [50]
0	0xbea43558	-0.32071948
1	0x3f6353c5	0.887997
2	0xbe409c1b	-0.1880955
3	0xbe40f645	-0.18843944
4	0x3d7c396f	0.06157821
5	0xbe6208a7	-0.22073613
6	0x3f3cd63b	0.7376439
7	0xbebb25d9	-0.36552313
8	0xbe239f23	-0.15978675
9	0x3e8ad39f	0.2711458
10	0xbb3bf512	-0.002868001
11	0xbc7aacf9	-0.015300029
12	0xbd90504e	-0.07046567
13	0xbd417080	-0.04722643
14	0x3e0c54a2	0.1370416
15	0xbdc417ff	-0.095748894
16	0x3ba36880	0.0049868226
17	0xbe8244d9	-0.25443152
18	0xbdf90db1	-0.121608146
19	0x3e1cbeeb	0.15307204
20	0xbe2d4333	-0.16920166
21	0xbceb75bb	-0.028742662
22	0xbd9a7598	-0.075419605
23	0x3efa6ec1	0.48912624
24	0x3e4423ef	0.19154333
25	0x3d0e3967	0.034722712
26	0x3f28875e	0.65831554
27	0x3ebfce71	0.3746219
28	0xbf161c07	-0.58636516
29	0xbe774b02	-0.24149707
30	0xbdc01024	-0.093780786
31	0x3f10203d	0.5629919
32	0xbcfd3c99	-0.030912684
33	0xbe29a602	-0.16567233
34	0xbdf85e6b	-0.12127384
35	0xbc5a5535	-0.013325979
36	0xbdc74218	-0.09729403
37	0xbfa4b392	-1.28673
38	0x3d9e2af5	0.07723037
39	0xbc3f7cad	-0.01168744
40	0x3e5a75eb	0.21334045
41	0x3c46e152	0.0121386815
42	0x3dcf16f4	0.101118
43	0xbf704345	-0.93852645
44	0xbe463c04	-0.19358832
45	0x3e433898	0.19064558
46	0x3e4cfd41	0.20018484
47	0x3f2989c8	0.6622586
48	0x3ddb9b34	0.10722962
49	0xbd8f6037	-0.070007734

exp_avg f4 [128, 20]
0	0x3e9b8124	0.30371964
1	0x3c203f54	0.009780724
2	0x00000004	6e-45
3	0x00000004	6e-45
4	0x36928da0	4.3676264e-06
5	0x3a60f965	0.00085820846
6	0x3afbeddb	0.0019220667
7	0x3b42be58	0.0029715504
8	0x3bc3b2cc	0.005972242
9	0x00000000	0.0
10	0x3b073126	0.002062866
11	0x3b86b28b	0.0041106394
12	0x3b93617e	0.004497706
13	0x3b84c042	0.004051239
14	0x3ba23339	0.004949954
15	0x3b9b75ac	0.004744252
16	0x3b9661c2	0.0045892904
17	0x3b8edddd	0.0043599443
18	0x3b6c580b	0.003606322
19	0x3b788332	0.0037919995
20	0xbb55cc45	-0.0032622975
21	0xbb42ab71	-0.0029704238
22	0x00000004	6e-45
23	0xba51b315	-0.00079994026
24	0xbb02d9eb	-0.0019966315
25	0xb977b6a2	-0.00023623792
26	0xb9ba6349	-0.00035550658
27	0xbb44f502	-0.0030053263
28	0xb72b94e1	-1.0227058e-05
29	0x00000000	0.0
30	0xbae59c9d	-0.0017517988
31	0xba1c856b	-0.00059708086
32	0xba0db961	-0.0005406347
33	0xb9c32a2c	-0.0003722472
34	0xb9eb4e54	-0.00044881052
35	0xb9d3bc45	-0.00040385328
36	0xba0a202a	-0.0005269075
37	0xb8307b52	-4.207652e-05
38	0xb865dfeb	-5.4806394e-05
39	0xb79a7fc4	-1.8417726e-05
40	0xbe19a0a5	-0.15002687
41	0xbd0651f4	-0.032793
42	0xbc4176af	-0.0118080815
43	0xbc559b55	-0.013037522
44	0xbce3bd7b	-0.027800312
45	0xb99b8e69	-0.00029670008
46	0x365fcaa3	3.334754e-06
47	0xba7e6fd2	-0.00097059936
48	0xbcfc3b42	-0.030789975
49	0x00000000	0.0
50	0xb9f5c1a7	-0.00046874324
51	0xbb9cbb94	-0.0047831032
52	0xbb9c1bbd	-0.004764049
53	0xbc98f515	-0.018671552
54	0xbc984a41	-0.018590095
55	0xbc992b91	-0.018697532
56	0xbb9d1fd7	-0.0047950554
57	0xba0cc922	-0.00053705473
58	0xba2cc11c	-0.0006590055
59	0xb9903e5d	-0.00027512285
60	0xbeff843f	-0.49905583
61	0xbca15e26	-0.019698214
62	0x3bc81a85	0.006106677
63	0xbc90d863	-0.017681306
64	0x3c5a0be5	0.0133085
65	0xbb1675b7	-0.0022958347
66	0xbc55e179	-0.013054245
67	0xba9effe5	-0.0012130706
68	0xbcd7c748	-0.026340142
69	0x00000000	0.0
70	0xb9ca7b6b	-0.00038620396
71	0x3b4016c3	0.0029310442
72	0x3b7a94d9	0.0038235693
73	0xc1be1feb	-23.765585
74	0xc1be2530	-23.768158
75	0xc1be21f9	-23.766588
76	0x3b610864	0.0034337277
77	0xbb43a5a3	-0.0029853366
78	0x3a37b16c	0.0007007334
79	0x39db9ae6	0.00041886343
80	0xbc9661db	-0.018357208
81	0xbbb45353	-0.005503097
82	0xb824da51	-3.930397e-05
83	0xb9e8a306	-0.0004437195
84	0xbb20f0e7	-0.0024557651
85	0x2d2b85b6	9.749914e-12
86	0x2d94173a	1.6835967e-11
87	0xbac6d26c	-0.0015168912
88	0xb8d382c1	-0.00010085619
89	0x00000000	0.0
90	0xba5b3b60	-0.00083630346
91	0xb9e7d017	-0.00044214792
92	0xb9fb6bf7	-0.0004795489
93	0xba9aa60e	-0.0011798756
94	0xba95a8c1	-0.001141809
95	0xbaa0833d	-0.0012246143
96	0xb9eb2898	-0.00044852938
97	0xb8403e20	-4.5834226e-05
98	0xb8229126	-3.875899e-05
99	0xb6ceb961	-6.1608594e-06
100	0x3f951ff4	1.1650376
101	0x3df28f82	0.11843778
102	0x3d01331d	0.031542886
103	0x3d3a3ff3	0.045471143
104	0x3e013a98	0.12620008
105	0x3cb68990	0.022282392
106	0x3d3b76fa	0.04576776
107	0x3da44600	0.08021164
108	0x3bdbeee6	0.0067118285
109	0x00000000	0.0
110	0x3d0d48fd	0.034493435
111	0x3e1dd456	0.15413031
112	0x3e0c6d36	0.13713536
113	0x422fc129	43.938633
114	0x422fa397	43.909756
115	0x422fb903	43.930676
116	0x3e16832e	0.14698479
117	0x3c1e920a	0.009678373
118	0x3c3b8242	0.01144463
119	0xb8a38e13	-7.798909e-05
120	0xbd08af44	-0.03337027
121	0xbc88af44	-0.016685136
122	0xbb468874	-0.0030293735
123	0xbc67d61c	-0.014150169
124	0xbc849cd4	-0.016188063
125	0xbb5a8cd8	-0.003334811
126	0xbbda6bd6	-0.006665687
127	0xbc7f4f66	-0.015582895
128	0xbc8a5eaf	-0.016890852
129	0x00000000	0.0
130	0x39d28363	0.00040152212
131	0x00000004	6e-45
132	0x00000004	6e-45
133	0xba8a23b6	-0.0010539207
134	0x3638517e	2.7465571e-06
135	0x00000004	6e-45
136	0x00000004	6e-45
137	0x36b8517e	5.4931143e-06
138	0x00000004	6e-45
139	0x00000004	6e-45
140	0x00000004	6e-45
141	0x00000004	6e-45
142	0x00000004	6e-45
143	0x00000004	6e-45
144	0x00000004	6e-45
145	0x80000004	-6e-45
146	0x80000004	-6e-45
147	0x00000004	6e-45
148	0x00000004	6e-45
149	0x00000000	0.0
150	0x80000004	-6e-45
151	0x00000004	6e-45
152	0x00000004	6e-45
153	0x00000004	6e-45
154	0x00000004	6e-45
155	0x00000004	6e-45
156	0x00000004	6e-45
157	0x00000004	6e-45
158	0x00000004	6e-45
159	0x00000004	6e-45
160	0xbafd6d47	-0.0019334935
161	0xb9613a42	-0.00021479375
162	0x00000004	6e-45
163	0x00000004	6e-45
164	0x00000004	6e-45
165	0x00000004	6e-45
166	0x00000004	6e-45
167	0xb38924f4	-6.3862814e-08
168	0xb9614ff8	-0.00021487463
169	0x00000000	0.0
170	0xb90dd3a1	-0.00013525646
171	0xb91ff9b2	-0.0001525644
172	0xb91f3764	-0.00015184056
173	0xbda44b4b	-0.080221735
174	0xbda44b51	-0.08022178
175	0xbda44b4e	-0.08022176
176	0xb91f9888	-0.00015220244
177	0xbc0cc85c	-0.008592691
178	0x36ebb380	7.0244423e-06
179	0x36ebcb0e	7.0271844e-06
180	0x00000000	0.0
181	0x00000000	0.0
182	0x00000000	0.0
183	0x00000000	0.0
184	0x00000000	0.0
185	0x00000000	0.0
186	0x00000000	0.0
187	0x00000000	0.0
188	0x00000000	0.0
189	0x00000000	0.0
190	0x00000000	0.0
191	0x00000000	0.0
192	0x00000000	0.0
193	0x00000000	0.0
194	0x00000000	0.0
195	0x00000000	0.0
196	0x00000000	0.0
197	0x00000000	0.0
198	0x00000000	0.0
199	0x00000000	0.0
200	0x3df1feeb	0.118162
201	0x3cff16ce	0.031138804
202	0x3c8607c9	0.016361134
203	0x3c85fe10	0.016356498
204	0x3cee06c8	0.029055968
205	0x398e2073	0.00027108527
206	0x39b7af8f	0.0003503528
207	0x398a3800	0.00026363134
208	0x3cfce3c8	0.030870333
209	0x00000000	0.0
210	0x39882e12	0.00025974266
211	0x3ba2fabc	0.0049737375
212	0x3baae755	0.005215565
213	0x3c3bb8fc	0.011457678
214	0x3c3fc8cf	0.011705591
215	0x3c3d5a8e	0.011557234
216	0x3ba72058	0.005100291
217	0x3a1db6c4	0.0006016309
218	0x3a346f12	0.0006883006
219	0x39daaef8	0.00041710562
220	0x00000004	6e-45
221	0x00000004	6e-45
222	0x00000000	0.0
223	0x00000000	0.0
224	0x00000000	0.0
225	0x00000004	6e-45
226	0x00000004	6e-45
227	0x00000004	6e-45
228	0x00000000	0.0
229	0x00000000	0.0
230	0x00000004	6e-45
231	0x00000004	6e-45
232	0x00000004	6e-45
233	0x00000004	6e-45
234	0x00000004	6e-45
235	0x00000004	6e-45
236	0x00000004	6e-45
237	0x00000004	6e-45
238	0x00000004	6e-45
239	0x00000004	6e-45
240	0x00000004	6e-45
241	0x00000004	6e-45
242	0x00000004	6e-45
243	0x00000004	6e-45
244	0x00000004	6e-45
245	0x00000004	6e-45
246	0x00000004	6e-45
247	0x00000004	6e-45
248	0x00000004	6e-45
249	0x00000000	0.0
250	0x00000004	6e-45
251	0x00000004	6e-45
252	0x00000004	6e-45
253	0x00000004	6e-45
254	0x00000004	6e-45
255	0x00000004	6e-45

exp_avg_sq f4 [128, 20]
0	0x403a1b8e	2.9079318
1	0x3b3ed0cd	0.0029116154
2	0x2f441490	1.7833401e-10
3	0x3010b6bb	5.264657e-10
4	0x31d0da80	6.0784373e-09
5	0x380751c1	3.2262647e-05
6	0x38e3d4ff	0.00010863877
7	0x39bbc83f	0.00035816614
8	0x3b257d37	0.0025251636
9	0x00000000	0.0
10	0x37320d0f	1.0612667e-05
11	0x39c8131b	0.00038161207
12	0x39e220a7	0.00043130407
13	0x3b72a946	0.0037027164
14	0x3b77a5b7	0.0037787983
15	0x3b74a581	0.0037330093
16	0x39dc0707	0.00041966906
17	0x38eb537f	0.000112212256
18	0x38601426	5.3424526e-05
19	0x388e0985	6.772861e-05
20	0x3caf321d	0.0213862
21	0x3a31e669	0.0006786348
22	0x2938da3c	4.1045495e-14
23	0x38a07f84	7.653146e-05
24	0x39ef651f	0.00045660973
25	0x34d2ebe3	3.9287178e-07
26	0x3567d06e	8.635751e-07
27	0x3a1d1b3b	0.00059931324
28	0x37d88093	2.5809079e-05
29	0x00000000	0.0
30	0x39eecd81	0.0004554801
31	0x3933f61b	0.00017162452
32	0x3928e62d	0.00016107476
33	0x3920caae	0.00015334293
34	0x3926174f	0.00015839677
35	0x39277e64	0.00015973445
36	0x39273c48	0.00015948818
37	0x3514a0b6	5.536816e-07
38	0x34d2b883	3.9249798e-07
39	0x33a19187	7.523618e-08
40	0x3ed83fb6	0.42236108
41	0x3cecb40b	0.028894445
42	0x3bc9c7b5	0.00615784
43	0x3c2b32f8	0.010449164
44	0x3cc34d9d	0.02384072
45	0x37c5663e	2.353184e-05
46	0x38814429	6.163895e-05
47	0x39b9174a	0.000353033
48	0x3cccde34	0.025008298
49	0x00000000	0.0
50	0x36d1f7d0	6.2575346e-06
51	0x3aa59039	0.0012631483
52	0x3a943b04	0.0011309092
53	0x40a49a91	5.143868
54	0x40a4957e	5.1432486
55	0x40a496d7	5.143413
56	0x3a9e345a	0.0012070045
57	0x3742308a	1.15746025e-05
58	0x36e06540	6.6875073e-06
59	0x37158e3e	8.91421e-06
60	0x417b2537	15.696586
61	0x3e936265	0.28786007
62	0x3d11a7bd	0.03556036
63	0x3d85e844	0.06538442
64	0x3e2352c3	0.1594954
65	0x3b9687ff	0.0045938487
66	0x3c592a04	0.013254646
67	0x3c9edb47	0.019391669
68	0x3e849cf5	0.25901
69	0x00000000	0.0
70	0x3833af57	4.2840224e-05
71	0x3b199e83	0.0023440428
72	0x3b1d5655	0.0024007757
73	0x4828d4eb	172883.67
74	0x4828d438	172880.88
75	0x4828d5fa	172887.9
76	0x3b1ab3ad	0.002360563
77	0x3909bde0	0.00013136072
78	0x383bb4b8	4.475258e-05
79	0x383e136a	4.531761e-05
80	0x40d86d81	6.763367
81	0x3d4f36da	0.05058942
82	0x3ab1d8d9	0.0013568654
83	0x3b5567a2	0.003256299
84	0x3c2c22d8	0.010506354
85	0x3ace5b52	0.0015743768
86	0x3b99721f	0.0046827937
87	0x3c10c70d	0.00883652
88	0x3cadabd3	0.021200096
89	0x00000000	0.0
90	0x3a39aa8b	0.0007082603
91	0x3b4a4bd9	0.0030867963
92	0x3b3e7859	0.0029063432
93	0x465123bd	13384.935
94	0x46512225	13384.536
95	0x465121a6	13384.412
96	0x3b464802	0.0030255322
97	0x3970f896	0.00022980789
98	0x38840e58	6.296922e-05
99	0x3821afab	3.8548995e-05
100	0x419dc1f0	19.719696
101	0x3e5342a8	0.20630896
102	0x3c3de7c8	0.0115909055
103	0x3cc7bea9	0.024382906
104	0x3e25be79	0.16185941
105	0x3c48d141	0.012256921
106	0x3cf2f4dd	0.029657776
107	0x3daf006e	0.08545004
108	0x3aece0de	0.0018072387
109	0x00000000	0.0
110	0x3c5c154f	0.013432815
111	0x3ec50e50	0.38487482
112	0x3eb3fd2b	0.3515409
113	0x493d0bf0	774335.0
114	0x493d05bb	774235.7
115	0x493cfac6	774060.4
116	0x3ebddb45	0.37081352
117	0x3b5073c2	0.0031807278
118	0x3c133260	0.008984178
119	0x39e2689b	0.00043184016
120	0x3bdbf650	0.0067127123
121	0x3adbf650	0.0016781781
122	0x387daf28	6.0483027e-05
123	0x3a8d152b	0.0010763755
124	0x3abf0e8d	0.001457648
125	0x388759fd	6.454063e-05
126	0x398e1da7	0.00027106443
127	0x3ab8cfbd	0.0014099997
128	0x3adaf7a8	0.0016705887
129	0x00000000	0.0
130	0x367f3973	3.80314e-06
131	0x2be80945	1.6487164e-12
132	0x2bb3f80a	1.278756e-12
133	0x36d2c822	6.281786e-06
134	0x2ef0101a	1.09167966e-10
135	0x29e6384d	1.02238185e-13
136	0x2bc756d0	1.4163896e-12
137	0x2ff13454	4.3874826e-10
138	0x288192fa	1.4385618e-14
139	0x2a613a64	2.0004273e-13
140	0x24f3f7ba	1.05804116e-16
141	0x21fbf3ba	1.7072935e-18
142	0x200b7389	1.1811985e-19
143	0x20d3b9ef	3.586783e-19
144	0x2159fc84	7.385666e-19
145	0x208454dc	2.2417825e-19
146	0x210ba145	4.730847e-19
147	0x210b57d8	4.721129e-19
148	0x21066f1d	4.5548023e-19
149	0x00000000	0.0
150	0x1f4d14d0	4.3427654e-20
151	0x209db384	2.6715628e-19
152	0x20911c62	2.4582738e-19
153	0x2b1a616e	5.4847e-13
154	0x2b1a5dd6	5.4842014e-13
155	0x2b1a5d54	5.484131e-13
156	0x20999b68	2.6022047e-19
157	0x225df831	3.0082476e-18
158	0x1eb79043	1.9435544e-20
159	0x1ea86e05	1.7833195e-20
160	0x39174374	0.0001442561
161	0x367e97ed	3.7937382e-06
162	0x2a607e6c	1.9939058e-13
163	0x2c3ca8fd	2.6810214e-12
164	0x2c5c1fcc	3.1281531e-12
165	0x2c82d9bb	3.718995e-12
166	0x2d5dfbc0	1.2618295e-11
167	0x33489d36	4.670911e-08
168	0x35bd6396	1.4110581e-06
169	0x00000000	0.0
170	0x34682310	2.161944e-07
171	0x348a22db	2.5729864e-07
172	0x34a73fa5	3.1152481e-07
173	0x3f1b2bf4	0.6061394
174	0x3f1ba43d	0.6079748
175	0x3f1b665f	0.6070308
176	0x34947ee0	2.7659462e-07
177	0x3a9a21bf	0.0011759325
178	0x347887e6	2.314624e-07
179	0x34749895	2.277978e-07
180	0x00000000	0.0
181	0x00000000	0.0
182	0x00000000	0.0
183	0x00000000	0.0
184	0x00000000	0.0
185	0x00000000	0.0
186	0x00000000	0.0
187	0x00000000	0.0
188	0x00000000	0.0
189	0x00000000	0.0
190	0x00000000	0.0
191	0x00000000	0.0
192	0x00000000	0.0
193	0x00000000	0.0
194	0x00000000	0.0
195	0x00000000	0.0
196	0x00000000	0.0
197	0x00000000	0.0
198	0x00000000	0.0
199	0x00000000	0.0
200	0x3e25a2b7	0.16175352
201	0x3c39494f	0.011308982
202	0x3b964b7c	0.004586635
203	0x3b90b379	0.004415926
204	0x3c1e60e0	0.0096666515
205	0x353a4984	6.939738e-07
206	0x356c7f2c	8.810191e-07
207	0x351f547e	5.935507e-07
208	0x3c3903a9	0.011292377
209	0x00000000	0.0
210	0x34cb6f27	3.789257e-07
211	0x3a0f10e0	0.00054575317
212	0x3a1213fb	0.00055724353
213	0x3ad51bcf	0.0016258898
214	0x3ade9076	0.0016980309
215	0x3ad8e9b9	0.0016549147
216	0x3a10af7a	0.0005519312
217	0x3708e5e4	8.159757e-06
218	0x3649392e	2.9984617e-06
219	0x370609e0	7.989322e-06
220	0x1fc1e90b	8.2124217e-20
221	0x1ec1e90b	2.0531054e-20
222	0x00000000	0.0
223	0x00000000	0.0
224	0x00000000	0.0
225	0x1e063187	7.104143e-21
226	0x19fd35d0	2.6181322e-23
227	0x1e99aa47	1.626993e-20
228	0x00000000	0.0
229	0x00000000	0.0
230	0x1b5e21d8	1.8374345e-22
231	0x1c912f91	9.607591e-22
232	0x1b2a91da	1.4109198e-22
233	0x1a044e25	2.7360085e-23
234	0x177d88ff	8.192162e-25
235	0x19689d68	1.2025907e-23
236	0x1c10c57c	4.7900846e-22
237	0x1d73f7ba	3.2288854e-21
238	0x1c20e34b	5.323333e-22
239	0x1aae9387	7.2203057e-23
240	0x2665dad5	7.974691e-16
241	0x23e67cb1	2.4989459e-17
242	0x2013bd6a	1.2514056e-19
243	0x22141cb0	2.0072927e-18
244	0x2218a04f	2.0684708e-18
245	0x22c26fe9	5.2702295e-18
246	0x235d2e52	1.1990243e-17
247	0x234799b5	1.082036e-17
248	0x228c4e89	3.803023e-18
249	0x00000000	0.0
250	0x204ea9d9	1.7505077e-19
251	0x21228e2b	5.5075893e-19
252	0x2130e8a5	5.993902e-19
253	0x228d7f03	3.8352605e-18
254	0x22a3baa6	4.437886e-18
255	0x22980f6b	4.1216007e-18
