flaskProject/modules/Contrastive_Clustering/save/model_checkpoint_self.tar (torch, 183406 bytes, 24 tensors)

instance_projector.0.weight f4 [128, 20]
0	0xbe63d08d	-0.22247525
1	0xbe615728	-0.22005904
2	0xbded1e94	-0.11578098
3	0xbddc9d1c	-0.10772154
4	0xbe631ef2	-0.22179773
5	0xbe258946	-0.16165647
6	0x3d326420	0.043552518
7	0xbd2263e4	-0.039646044
8	0x3da13814	0.07872024
9	0x3d62d9c8	0.055383474
10	0x3ddc4c60	0.10756755
11	0xbcbc45d8	-0.022982523
12	0xbd57d238	-0.052690715
13	0x3e59cfe0	0.21270704
14	0xbc5081c0	-0.012726247
15	0xbd197da4	-0.037473336
16	0xbc733030	-0.014843032
17	0xbdc6af0e	-0.09701358
18	0xbe2e4f7d	-0.1702251
19	0xbd93c7d6	-0.0721585
20	0xbd421f58	-0.047393173
21	0x3cb00703	0.021487718
22	0xbce1a23f	-0.027543185
23	0x3e41f1ff	0.1893997
24	0x3e1a9c5d	0.1509871
25	0xbe4a73e6	-0.19770774
26	0xbdafe64a	-0.08588846
27	0xbe4c85c3	-0.19972901
28	0xbe2267b9	-0.1585988
29	0x3c35f600	0.011106014
30	0x3e044020	0.12915087
31	0x3ceb4964	0.028721519
32	0x3e1b6a01	0.15177156
33	0xbdbf9648	-0.09354836
34	0x3e0a3981	0.13498498
35	0xbe8564e5	-0.2605354
36	0xbba03aa3	-0.0048898025
37	0xbe254b76	-0.16142067
38	0xbd940cf6	-0.072290346
39	0xbc8160b0	-0.015793175
40	0xbdc80f54	-0.097685486
41	0x3e062a64	0.13102108
42	0xbcfac68f	-0.030612258
43	0x3d855a15	0.065113224
44	0x3ea16bd5	0.31527582
45	0x3ce0f9a0	0.02746278
46	0x3d976d50	0.073938966
47	0xbe5ad310	-0.21369576
48	0x3e3ee1ea	0.18640867
49	0xbe54c74b	-0.20779149
50	0x3e8f4282	0.2798043
51	0xbc942bf2	-0.018087361
52	0x3d1a1235	0.03761502
53	0x3d15eb98	0.036601633
54	0xbe3b6469	-0.18300022
55	0xbe50f4dc	-0.20405906
56	0x3dca270f	0.09870731
57	0x3e602474	0.21888906
58	0xbdd83b58	-0.10558194
59	0x3e62cb54	0.22147876
60	0xbd82a47e	-0.06379031
61	0xbd6fd95f	-0.05855691
62	0xbd6e6428	-0.058200985
63	0xbd9e51fb	-0.0773048
64	0xbd2ea053	-0.042633366
65	0xbe13ab19	-0.14420737
66	0x3de1c720	0.11024308
67	0x3cce2e60	0.025168598
68	0x3c841130	0.016121477
69	0x3d8ce548	0.068796694
70	0xbe1f648b	-0.15565698
71	0x3e82cec4	0.25548375
72	0x3e728c44	0.2368632
73	0xbd858ecc	-0.06521377
74	0x3d0a5945	0.03377654
75	0x3e69728f	0.22797607
76	0xbdbefeb0	-0.093259215
77	0x3e8427f9	0.25811747
78	0xbe948c33	-0.29013214
79	0x3df05371	0.11734665
80	0xbe082168	-0.13293993
81	0xbe330e87	-0.1748601
82	0xbd0d1a98	-0.03444919
83	0x3d78ac10	0.060710967
84	0xbd938ea2	-0.072049394
85	0x3e229dd2	0.15880516
86	0x3d917770	0.07102859
87	0x3d7350b8	0.05940315
88	0x3e04c214	0.1296466
89	0xbd859fc6	-0.06524615
90	0x3d9b4a60	0.07582545
91	0x3e019a80	0.12656593
92	0xbd9b0d82	-0.07570936
93	0x3e0cf2ae	0.1376445
94	0x3d8d8eac	0.06911978
95	0x3e5b9fe8	0.21447718
96	0xbe4a36f9	-0.19747533
97	0xbe163db0	-0.1467197
98	0x3e29bdcc	0.16576308
99	0x3e6199ac	0.22031277
100	0x3cd20aec	0.025639974
101	0xbd10b8fc	-0.035332665
102	0xbdec4e9a	-0.115384296
103	0x3e3edba2	0.18638471
104	0x3e3e633c	0.18592542
105	0x3cb63ea8	0.022246674
106	0xbdc9c018	-0.09851092
107	0xbd7fc423	-0.06244291
108	0xbc2e5658	-0.010640703
109	0xbc639ab0	-0.013891861
110	0x3d8591da	0.065219596
111	0x3d5b8a38	0.053598613
112	0xbe0beab8	-0.13663757
113	0x3e34747e	0.17622563
114	0xbd269b76	-0.040675603
115	0xbc31d642	-0.010854306
116	0x3c1aa145	0.009437864
117	0xbe7380ba	-0.23779574
118	0xbe1b43cb	-0.1516258
119	0x3e3f4bcb	0.18681256
120	0x3e41c401	0.18922426
121	0xbe569d8d	-0.20958538
122	0xbe31c72c	-0.17361134
123	0x3c584c2a	0.013201753
124	0xbda75cec	-0.0817202
125	0x3e424c8a	0.1897451
126	0xbbddd320	-0.006769553
127	0xbd617402	-0.055042274
128	0xbd99c567	-0.07508355
129	0xbdf5ecdf	-0.1200807
130	0xbd831372	-0.06400193
131	0xbe016e91	-0.12639834
132	0x3e034b59	0.12821712
133	0xbd99aafa	-0.07503314
134	0xbbcf4c98	-0.0063262694
135	0xbe7908e0	-0.24319792
136	0x3d469b2b	0.048487823
137	0x3dae12e9	0.084997006
138	0xbdd05678	-0.101727426
139	0x3e1b03eb	0.15138213
140	0xbdc2fd50	-0.09520972
141	0xbe59c5ff	-0.21266936
142	0xbe4b9928	-0.19882643
143	0xbd2982c0	-0.04138446
144	0x3e20b284	0.15693098
145	0x3d83abf8	0.06429285
146	0x3e4ad3d4	0.19807369
147	0x3e53cc56	0.20683417
148	0xbd857374	-0.065161616
149	0xbe2bd95c	-0.16782135
150	0xbd544184	-0.051820293
151	0x3d87ef04	0.066373855
152	0xbdc9737c	-0.0983648
153	0x3e643216	0.22284731
154	0xbd1621d0	-0.03665334
155	0xbd8e03a0	-0.06934285
156	0xbccff0d8	-0.025383398
157	0x3cf32240	0.029679418
158	0xbe46b8bc	-0.19406408
159	0x3db3941c	0.08768484
160	0x3ce94bae	0.02847847
161	0xbda025f6	-0.078197405
162	0xbe6aafee	-0.22918674
163	0xbdbc3dc6	-0.0919147
164	0x3bda5e11	0.0066640456
165	0xbd459644	-0.048239008
166	0x3dd36afc	0.1032314
167	0xbdf69242	-0.12039615
168	0x3b82d971	0.003993206
169	0x3e5b9f74	0.21447545
170	0xbc9b4a7d	-0.018956417
171	0xbe57626e	-0.21033642
172	0x3d53f2e4	0.05174531
173	0xbe736133	-0.23767547
174	0xbe833904	-0.25629437
175	0xbe2e2720	-0.17007113
176	0xbe00d3a3	-0.12580733
177	0x3b471531	0.0030377621
178	0x3dd19c3b	0.10234877
179	0x3e597134	0.2123459
180	0x3e20dec5	0.1570998
181	0x3e1e194d	0.15439339
182	0x3e639c20	0.22227526
183	0x3e695cc6	0.22789297
184	0x3e2d39d2	0.16916588
185	0x3e2d50f0	0.16925406
186	0xbcbf0050	-0.023315579
187	0xbc332021	-0.010932953
188	0x3d15dc06	0.036586784
189	0x3e0bf624	0.13668114
190	0xbe60d9aa	-0.21958032
191	0x3deb3d78	0.114863336
192	0x3dcae1ef	0.09906375
193	0x3e7ebccc	0.24876708
194	0xbd774645	-0.06036975
195	0x3e24e9d9	0.16104831
196	0x3e576788	0.21035588
197	0x3e989846	0.29803675
198	0x3dfd1f73	0.12359514
199	0x3e3684f1	0.1782415
200	0x3d67b0a9	0.05656496
201	0xbca1cd0d	-0.019751096
202	0x3dab6966	0.083697125
203	0x3e6d87b6	0.23196301
204	0xbd0b0532	-0.0339405
205	0xbb9b8a80	-0.004746735
206	0x3d2abf28	0.041686207
207	0xbe75d6a1	-0.24007656
208	0xbdaa51ac	-0.08316359
209	0xbd382a74	-0.04496236
210	0xbe303e9e	-0.17211387
211	0x3d76c888	0.060249835
212	0xbe138bbe	-0.14408776
213	0xbe5dec79	-0.21672238
214	0xbdc74de8	-0.09731656
215	0xbd9536b3	-0.07285824
216	0xbde58aa9	-0.11208088
217	0xbe1528b9	-0.14566316
218	0xbceb9e7a	-0.028762091
219	0x3de54fab	0.11196836
220	0x3bfbc99c	0.007683946
221	0x3e277e35	0.16356738
222	0x3c89cdca	0.01682176
223	0xbdf43ab7	-0.119252615
224	0x3e359a55	0.17734654
225	0xbe4fa017	-0.20275913
226	0x3e3581d2	0.17725304
227	0x3d59edc2	0.05320526
228	0xbe893536	-0.2679841
229	0x3da687b8	0.08131355
230	0x3a938685	0.00112553
231	0xbdad5f02	-0.08465387
232	0xbe62fb6a	-0.2216622
233	0xbd001342	-0.031268366
234	0x3d1a63d0	0.037692845
235	0x3ddbda13	0.10734954
236	0xbe868c0d	-0.26278725
237	0x3e8da987	0.27668402
238	0x3ded3bd4	0.11583677
239	0xbd3dd720	-0.046347737
240	0xbe5e5ee3	-0.21715884
241	0xbdabaebe	-0.08382939
242	0x3e1c8c0c	0.15287799
243	0xbd08a600	-0.033361435
244	0xbdad58ac	-0.084641784
245	0x3d9db03c	0.0769963
246	0xbd0de4bc	-0.034641966
247	0xbd85c4fe	-0.06531714
248	0xbe3e5fe2	-0.18591264
249	0x3d86d6d0	0.06583941
250	0xbde24b6b	-0.11049541
251	0xbcd6d978	-0.026226744
252	0xbddff76c	-0.10935864
253	0xbe0c9325	-0.13728006
254	0xbe34f15f	-0.17670201
255	0x3d854d08	0.06508833

instance_projector.0.bias f4 [128]
0	0xbe0cb75e	-0.13741824
1	0xbc9dc0a5	-0.0192569
2	0x3cdd308f	0.027000694
3	0x3e1b90f2	0.15192011
4	0xbdf559cb	-0.11980017
5	0x3d8a4e67	0.06753235
6	0xbd9faa66	-0.07796173
7	0xbe1528ff	-0.1456642
8	0x3e1d91ef	0.153877
9	0xbe7858f9	-0.2425269
10	0xbdf19201	-0.11795426
11	0x3c9a9974	0.018872
12	0x3e497ee6	0.19677314
13	0x3d6cf1d0	0.057847798
14	0x3e3719f5	0.17880996
15	0x3d863038	0.06552166
16	0x3d89d927	0.06730872
17	0x3e5e7dea	0.2172772
18	0x3e36cb88	0.17851079
19	0xbdf6823e	-0.120365605
20	0xbba13476	-0.004919584
21	0x3de88108	0.11352736
22	0xbc5d93ed	-0.013524038
23	0xbd3ced92	-0.046125002
24	0x3e503df9	0.2033614
25	0x3e133dd8	0.1437906
26	0x3e0916a2	0.1338754
27	0xbe6ea7ea	-0.23306242
28	0xbd1b436a	-0.037906088
29	0xbe05ece5	-0.1307865
30	0x3e0681ee	0.13135502
31	0xbe31b0e6	-0.17352638
32	0xbe540833	-0.20706253
33	0xbe0edf6d	-0.13952418
34	0xbd1c841e	-0.038211934
35	0x3dd521c9	0.10406835
36	0x3db8eaae	0.090291366
37	0x3e6a9825	0.22909601
38	0xbd3015c4	-0.042989507
39	0xbc938788	-0.018008962
40	0x3e4dac48	0.20085251
41	0xbddb0e9a	-0.106961444
42	0x3e2672d5	0.16254742
43	0xbe434c1d	-0.19072004
44	0xbe208c68	-0.1567856
45	0xbe304390	-0.17213273
46	0xbdc02972	-0.09382905
47	0xbe232364	-0.15931469
48	0x3e40304a	0.18768421
49	0xbe4ccfb3	-0.20001106
50	0xbd37017c	-0.04467915
51	0xbe3e8eb4	-0.18609124
52	0xbdfad7a3	-0.12248161
53	0x3e619df9	0.22032918
54	0x3de47ce2	0.11156632
55	0x3da646b5	0.08118955
56	0xbc2912ba	-0.010319406
57	0xbe412bd9	-0.18864383
58	0x3e317020	0.17327929
59	0x3d82fe00	0.06396103
60	0x3dedacf4	0.11605254
61	0xbd914b5a	-0.0709445
62	0xbe2c0fce	-0.16802904
63	0xbdfba5f5	-0.12287513
64	0xbe1a24a0	-0.15053034
65	0x3e5fb115	0.21844895
66	0xbe5160b6	-0.20447049
67	0xbe297f5e	-0.16552493
68	0x3e05ecbb	0.13078587
69	0x3df22056	0.11822574
70	0xbe0d40d5	-0.13794263
71	0xbd9ab8ed	-0.07554803
72	0x3e4727a6	0.19448718
73	0x3df2dc9f	0.118584864
74	0x3cb4b4e1	0.022058906
75	0x3d8f4386	0.06995301
76	0xbdc8faee	-0.09813486
77	0xbdcc1bef	-0.099662654
78	0x3e027267	0.12738954
79	0xbca8c4a0	-0.02060157
80	0xbe5b7368	-0.21430743
81	0xbdcbd485	-0.09952644
82	0x3b2b2edd	0.0026120462
83	0xbde8d57b	-0.11368843
84	0x3e35e87e	0.1776447
85	0x3e594084	0.21216017
86	0x3e079ea3	0.13244109
87	0x3e27b2c1	0.16376783
88	0x3dc23e8c	0.09484586
89	0x3d4bb8e0	0.049736857
90	0xbdf602f4	-0.12012282
91	0x3c35d413	0.011097926
92	0xbe6198e8	-0.22030985
93	0x3e419532	0.1890457
94	0x3df9bf94	0.12194744
95	0x3df984fc	0.12183568
96	0xbd3a8cd4	-0.04554446
97	0xbd0f15d3	-0.034932923
98	0xbe7b64ec	-0.24550217
99	0xbe6d9abb	-0.23203556
100	0x3b6ff040	0.0036611706
101	0xbe64b4b8	-0.22334564
102	0x3ce2b68a	0.027674932
103	0xbe3182fa	-0.1733512
104	0x3e5f81d9	0.21826877
105	0xbe05251a	-0.13002434
106	0x3d5dab30	0.054118335
107	0xbe40b4ff	-0.18819045
108	0x3d6e2218	0.058137983
109	0x3db49e6a	0.088192776
110	0xbc9ae076	-0.01890586
111	0xbd3acee0	-0.045607448
112	0x3e2df6e9	0.1698872
113	0xbd7b1f3c	-0.061309084
114	0x3d02644b	0.031833928
115	0x3cb0b00c	0.02156832
116	0x3e3ae155	0.1825002
117	0x3dd80107	0.10547071
118	0xbe477797	-0.19479214
119	0xbe6de430	-0.23231578
120	0xbbae25fe	-0.0053145876
121	0xbdbfc4fc	-0.09363744
122	0xbd7031e8	-0.058641344
123	0xbe2f83b2	-0.17140082
124	0x3d1d49c8	0.03840044
125	0x3e20b5a8	0.15694296
126	0xbe6bc87e	-0.230257
127	0xbd29d754	-0.04146512

instance_projector.2.weight f4 [20, 128]
0	0x3d518752	0.051154442
1	0xbdc47039	-0.09591717
2	0xbe040e2b	-0.1289603
3	0x3c955f86	0.018234026
4	0x3dadb2c7	0.08481365
5	0xbc16dded	-0.009208185
6	0xbd9aa4ad	-0.07550941
7	0xbd7503f9	-0.05981824
8	0x3d1ac505	0.03778555
9	0x3d979dfe	0.074031815
10	0xbcf8e663	-0.030383294
11	0xbb869595	-0.004107187
12	0x3d0df976	0.034661733
13	0x3dae527b	0.08511826
14	0x3c7684d8	0.015046321
15	0x3da415c5	0.08011965
16	0x3d144b80	0.036204815
17	0xbda5091f	-0.0805838
18	0x3be26dd4	0.006910065
19	0x3de512a6	0.111851975
20	0xbd74ec7b	-0.059795838
21	0xbe463311	-0.19355418
22	0x3d18fdf4	0.037351564
23	0x3dbe52b2	0.09293117
24	0x3c8c3b03	0.017117983
25	0x3cdb85e0	0.026797235
26	0xbd81d26d	-0.06338964
27	0xbd99b9e6	-0.075061604
28	0x3d056f2c	0.032576725
29	0x3c62b231	0.013836429
30	0x3d647c3e	0.05578255
31	0x3d9768c3	0.073930286
32	0xbc57b388	-0.013165362
33	0xbd6d1724	-0.057883397
34	0x3d56786b	0.052360933
35	0xbdd1a3ea	-0.10236342
36	0xbcdcb30f	-0.02694085
37	0xbd78a2cd	-0.060702134
38	0xbd19050b	-0.037358325
39	0xbc4b8dc8	-0.01242394
40	0x3c32c698	0.010911606
41	0x3daa4219	0.083133884
42	0x3dc0992e	0.09404217
43	0x3e082a8a	0.13297477
44	0xbcdab66a	-0.02669831
45	0x3d7390a6	0.05946412
46	0x3d3cc170	0.046082914
47	0xbd1bdac1	-0.038050417
48	0xbdf9866b	-0.12183841
49	0x3cb71d44	0.022352822
50	0xba3022a0	-0.0006719027
51	0x3d939390	0.0720588
52	0x3d547fb6	0.051879607
53	0x3d2825ac	0.04105155
54	0xbdeffde1	-0.117183454
55	0xbd4544f4	-0.048161462
56	0xbdcf530b	-0.10123261
57	0xbd32d72c	-0.043662235
58	0xbe03abb3	-0.12858467
59	0x3cac0b11	0.02100137
60	0xbd79ab4b	-0.060954373
61	0xbd0e2b7e	-0.034709446
62	0x3bc8828a	0.006119077
63	0x3c27b037	0.010234884
64	0x3d9869ef	0.0744208
65	0x3de410c5	0.11136011
66	0xbdbda284	-0.09259513
67	0xbcf4b88a	-0.029873151
68	0x3bcec2ff	0.0063098664
69	0xbd5504e9	-0.052006636
70	0x3d1f44e1	0.038884047
71	0x3d606749	0.054786
72	0x3c40f697	0.011777542
73	0xbc9f0411	-0.019411119
74	0x3d464b57	0.048411693
75	0x3e1cadf0	0.15300727
76	0x3d7ca181	0.06167746
77	0x3dbad32c	0.09122309
78	0xbd31f73c	-0.04344867
79	0xbd8338a4	-0.06407288
80	0x3d922531	0.07136
81	0xbc8014e4	-0.015634961
82	0x3c8a5a97	0.0168889
83	0x3c76b4a0	0.015057713
84	0xbdf1473c	-0.11781165
85	0x3d815d19	0.06316585
86	0x3db187b9	0.08668465
87	0x3c1fe015	0.009758015
88	0x3c954dc0	0.01822555
89	0xba14ac00	-0.0005671382
90	0x3d909ee5	0.07061557
91	0xbdc36daa	-0.09542401
92	0xbd8396d4	-0.064252526
93	0x3def164c	0.11674175
94	0x3dadc143	0.08484127
95	0xbd380674	-0.04492803
96	0x3da3f13c	0.08004996
97	0xbd3ea7bb	-0.04654668
98	0xbb3d5a3f	-0.0028892902
99	0xbd362904	-0.04447271
100	0x3d5dc296	0.05414065
101	0xbc7276dd	-0.014798847
102	0x3d992ccc	0.074792475
103	0xbbeeb5aa	-0.0072848396
104	0xbdfb222d	-0.12262378
105	0x3cc07f2e	0.023498144
106	0xbd92d126	-0.07168798
107	0xbc96114f	-0.0183188
108	0xbdb43b99	-0.0880043
109	0xbd387a0c	-0.045038268
110	0x3c5889c0	0.013216436
111	0x3d3daed9	0.046309326
112	0xbd7d2218	-0.061800092
113	0x3c9bb86c	0.019008838
114	0xbe0d3604	-0.13790137
115	0xbcf819a2	-0.03028566
116	0x3da7d0e7	0.08194142
117	0x3d4f4a6f	0.050608095
118	0xbda3bc05	-0.07994846
119	0x3d805f9a	0.062682346
120	0xbdc873fe	-0.09787749
121	0xbcebe2ad	-0.02879461
122	0xbd8272e8	-0.06369573
123	0x3d9621f9	0.073306985
124	0x3d16b0d6	0.036789738
125	0xbd0c16e0	-0.034201503
126	0x3d8657c7	0.06559711
127	0x3c9b5be8	0.018964723
128	0x3bf24780	0.0073937774
129	0x3ddea312	0.10870947
130	0x3e4d6358	0.20057428
131	0xbcbea30d	-0.023271108
132	0x3cd5b014	0.026084937
133	0x3cce97da	0.025218893
134	0xbcaf5afe	-0.021405693
135	0x3d446de2	0.047956355
136	0xbda9ae1f	-0.08285164
137	0xbcece0f4	-0.02891586
138	0xbd53718a	-0.05162195
139	0x3b85999d	0.00407715
140	0xbbea8c50	-0.00715784
141	0xbd8d9e75	-0.06914989
142	0x3d9ae9a2	0.07564093
143	0xbcb8d8f0	-0.022564381
144	0x3c3937b4	0.011304785
145	0xbd5b3e0f	-0.05352598
146	0xbd18cc4a	-0.0373042
147	0x3d0f1b38	0.034938067
148	0xbc4f7b04	-0.012663607
149	0x3e53fa01	0.20700838
150	0x3da7b97c	0.08189675
151	0x3d052343	0.03250433
152	0xbce4ec0d	-0.027944589
153	0x3d7a079b	0.06104241
154	0xbca5f3f8	-0.020257935
155	0xbc8bbec7	-0.017058743
156	0xbcdca63d	-0.026934737
157	0x3dfef77c	0.12449548
158	0xbc93cb30	-0.018041223
159	0xbd58d373	-0.05293603
160	0x3d8cf63c	0.06882903
161	0x3d6f2492	0.058384486
162	0x3d45fc49	0.0483363
163	0x3d134acb	0.03596
164	0xbdbf2979	-0.09334082
165	0xbc6744cf	-0.014115526
166	0x3dae4f05	0.085111655
167	0xbb97e440	-0.004635364
168	0xbd91cb0b	-0.071188055
169	0xbd5b4215	-0.053529818
170	0x3da08a4b	0.07838877
171	0xbe7c1e82	-0.24621013
172	0xbca68dc4	-0.020331271
173	0x3d8e7edb	0.069577895
174	0xbd89069e	-0.06690715
175	0x3d987b4d	0.07445393
176	0x3e520c82	0.20512584
177	0x3a0f5600	0.0005467832
178	0x3d6a1c27	0.057155754
179	0xbd097115	-0.03355511
180	0xbd43d392	-0.04780919
181	0xbe121e12	-0.14269283
182	0x3da64c64	0.08120039
183	0x3d1f2a00	0.038858414
184	0xbc7e9ca0	-0.015540272
185	0xbac54706	-0.0015051074
186	0x3d1022c8	0.03518942
187	0xbd4a88b0	-0.04944676
188	0xbc511450	-0.0127611905
189	0x3d95e083	0.07318213
190	0x3c314853	0.010820466
191	0x3c74e8d4	0.014948089
192	0xbd52176a	-0.05129186
193	0x3dcab8c2	0.09898521
194	0xbd3df6d9	-0.04637799
195	0x3d131c29	0.035915527
196	0xba985bd0	-0.0011624042
197	0x3d9a73a8	0.07541591
198	0xbd2a7b4c	-0.04162149
199	0xbc9fa0b2	-0.019485805
200	0xbc0df6a4	-0.008664761
201	0xbd7e2c73	-0.06205411
202	0x3d9abf77	0.0755605
203	0xbb8fb80f	-0.004385955
204	0x3ccb6ba3	0.024831599
205	0xbe520f23	-0.20513587
206	0xbd681772	-0.056662984
207	0xbba9e800	-0.0051851273
208	0x3d4fc02f	0.05072039
209	0xbd8d04e4	-0.068856984
210	0xbd9fbc10	-0.07799542
211	0x3c21f9f8	0.009886257
212	0x3cac5726	0.02103765
213	0x3d991899	0.07475395
214	0x3dbc1d6d	0.091853
215	0xbd438509	-0.047734294
216	0xbd5ad0fd	-0.053421963
217	0x3c539ed8	0.012916289
218	0xbdaef334	-0.08542481
219	0x3d17359e	0.036916368
220	0x3cc5549b	0.024088195
221	0x3cbfaa76	0.023396712
222	0xbc074970	-0.008257255
223	0xbcbc5148	-0.022987977
224	0x3d19561f	0.037435647
225	0xbd08f1e1	-0.0334338
226	0x3cad7f8e	0.021178987
227	0xbd763fa5	-0.06011929
228	0xbc086808	-0.008325584
229	0xbb247593	-0.0025094494
230	0xbd7bf922	-0.06151689
231	0x3a7d77dd	0.0009669045
232	0x3d9bbd70	0.07604492
233	0xbcc115fe	-0.023570057
234	0x3dafc469	0.08582384
235	0x3e0764d5	0.13222058
236	0x3d091b8e	0.033473544
237	0x3da7fa12	0.08201994
238	0xbbadf273	-0.005308443
239	0xbc953a06	-0.018216144
240	0x3cd68426	0.02618606
241	0xbc69f0e8	-0.014278628
242	0x3da9f30c	0.08298311
243	0x3da7ef1d	0.08199904
244	0xbd1cd7be	-0.038291685
245	0xbd599e29	-0.05312935
246	0xbd2d08d3	-0.042244744
247	0xbcd8b113	-0.026451623
248	0x3df860c7	0.12127834
249	0xbb058e64	-0.002037906
250	0x3cdd6fe8	0.0270309
251	0x3c824647	0.015902651
252	0xbc2c9dd8	-0.01053568
253	0xbcf0aeb4	-0.02938018
254	0x3cb8d4dc	0.022562437
255	0xbd00c417	-0.031437006

instance_projector.2.bias f4 [20]
0	0x3db6316c	0.08896145
1	0xbdad6b26	-0.084677026
2	0x3d9fcffb	0.07803341
3	0xbddd40dd	-0.10803387
4	0xbccae3d8	-0.024766847
5	0x3d9bd9a4	0.07609871
6	0x3d88eef7	0.06686204
7	0xbbd8c353	-0.0066150813
8	0xbc94584c	-0.01810851
9	0xbd7b4791	-0.061347548
10	0xbc94a6a2	-0.018145863
11	0x3ca4afcb	0.020103356
12	0xbcd6a133	-0.026199913
13	0xbd208341	-0.039187673
14	0x3dae7a3f	0.0851941
15	0xbd94751e	-0.07248901
16	0x3da89e98	0.08233374
17	0xbd9afa93	-0.075673245
18	0x3cb97631	0.022639366
19	0x3db9e981	0.090777405

cluster_projector.0.weight f4 [128, 20]
0	0x3e881dec	0.2658533
1	0xbe2e7397	-0.17036282
2	0xbc7d4d56	-0.015460333
3	0xbd36e767	-0.044654276
4	0x3def322d	0.11679492
5	0x3d13ce10	0.03608519
6	0xbd9b64d6	-0.07587592
7	0xbea05451	-0.31314328
8	0x3e072f7c	0.13201708
9	0x3e052c52	0.13005188
10	0xbefdb239	-0.49550036
11	0x3e7e2a4f	0.24820827
12	0x3db9b4c7	0.09067684
13	0xbed6ad27	-0.4192898
14	0xbe93be41	-0.2885609
15	0xbeb89293	-0.36049327
16	0x3e09015f	0.1337943
17	0xbea9b782	-0.33147818
18	0x3e6e20ad	0.23254652
19	0x3dd8238f	0.10553657
20	0xbe1ddd4a	-0.15416446
21	0xbd4fe270	-0.050753057
22	0x3ce30be0	0.027715623
23	0xbdeab302	-0.11459924
24	0x3ddb8d54	0.107203156
25	0xbcec35f0	-0.028834313
26	0xbe0fec19	-0.14054908
27	0x3e2ab6a4	0.16671234
28	0x3dffa378	0.12482351
29	0x3e35a94e	0.17740366
30	0x3e3e4042	0.185792
31	0x3d3329e8	0.043741137
32	0xbda4d394	-0.08048168
33	0x3d9ddf38	0.07708591
34	0xbcc55ef8	-0.024093136
35	0xbde0e811	-0.10981763
36	0x3e037794	0.12838584
37	0x3e5ef4ae	0.21773025
38	0xbe3b2cb2	-0.18278769
39	0x3e1518ac	0.14560193
40	0xbd68e768	-0.05686131
41	0x3e976b6f	0.29574153
42	0xbdaf8283	-0.08569815
43	0x3ea8754d	0.32901993
44	0x3e7b6b78	0.24552715
45	0x3dc9c7b0	0.098525405
46	0x3e4b10fa	0.19830695
47	0x3e0ea2fa	0.13929358
48	0x3eee13f0	0.46499586
49	0x3e32e1ba	0.1746892
50	0x3ee111dd	0.4395894
51	0x3ead59a6	0.3385746
52	0x3e864bbc	0.26229656
53	0xbda22a72	-0.07918252
54	0xbe3781bb	-0.17920582
55	0xbd101279	-0.035173867
56	0x3e6b70c2	0.22992232
57	0xbdfff403	-0.124977134
58	0xbcaa5868	-0.020794109
59	0xbe4c08c1	-0.19925214
60	0x3cc5a26c	0.0241253
61	0x3db75e5d	0.08953545
62	0x3e049700	0.12948227
63	0x3ec1077a	0.37701017
64	0x3e4f8364	0.20264965
65	0x3b77f240	0.0037833601
66	0xbd8756cc	-0.06608352
67	0x3c389210	0.011265293
68	0xbe3074f0	-0.17232108
69	0x3dfbeb48	0.12300736
70	0xbe4b216b	-0.19836967
71	0x3eeb2991	0.4593015
72	0x3ee3e7b8	0.44512725
73	0x3e91ee07	0.28501913
74	0x3cd979ec	0.026547395
75	0xbcac584c	-0.021038197
76	0x3e13a812	0.14419582
77	0xbea54ee8	-0.32286763
78	0x3e4d462b	0.20046298
79	0xbe98da3a	-0.29853994
80	0xbe4080c7	-0.18799125
81	0x3db16bcc	0.08663139
82	0xbd9446e4	-0.07240084
83	0xbb11f100	-0.0022268891
84	0xbd32efac	-0.0436856
85	0x3e31dd52	0.17369583
86	0x3dae7dc8	0.085200846
87	0xbe57d536	-0.21077427
88	0xbe0b5bcd	-0.13609238
89	0xbdae6222	-0.08514811
90	0xbd9353b8	-0.071937025
91	0xbc8c4358	-0.017121956
92	0x3cf0c600	0.029391289
93	0x3d6e58f0	0.058190286
94	0xbdbe4e78	-0.092923105
95	0x3dc7e848	0.09761101
96	0x3e0ab264	0.13544613
97	0xbc7c3ea0	-0.01539579
98	0xbe0e54d3	-0.13899545
99	0x3e30c56e	0.17262813
100	0x3dd3aa7f	0.10335254
101	0x3ce02e73	0.027365899
102	0x3d172e15	0.03690918
103	0x3e8d9ca1	0.2765856
104	0x3e03aa29	0.1285788
105	0xbd953938	-0.07286304
106	0x3d84f590	0.0649215
107	0xbf09c22a	-0.53811896
108	0xbe6b9cd9	-0.23009051
109	0xbddc8023	-0.10766628
110	0xbe5e7b82	-0.21726802
111	0x3e66480a	0.22488418
112	0x3e423ca5	0.18968447
113	0xbdfb1ba2	-0.1226113
114	0xbe40b8be	-0.18820474
115	0xbe6784bd	-0.2260923
116	0x3edac173	0.42725715
117	0xbebfd3f4	-0.37466395
118	0x3ea17804	0.31536877
119	0x3e23126b	0.15924995
120	0x3c2d94da	0.010594571
121	0x3ec02c60	0.37533855
122	0x3ef38484	0.4756204
123	0xbea6a223	-0.32545575
124	0xbcedcd73	-0.02902863
125	0x3e1d301c	0.15350384
126	0x3e22d0d4	0.15899974
127	0x3ee1ff80	0.44140244
128	0x3edcc213	0.43116817
129	0xbde409dd	-0.11134694
130	0x3f0ca924	0.5494559
131	0xbeac9b02	-0.33712012
132	0xbdce13c3	-0.10062363
133	0xbe927f4f	-0.28612754
134	0x3e9d8e19	0.30772474
135	0x3d86933f	0.06571054
136	0xbe3fa474	-0.18715078
137	0x3e87f46e	0.26553673
138	0xbf065462	-0.5247251
139	0xbe8614df	-0.26187798
140	0x3e5580af	0.2084987
141	0xbe2e43ac	-0.17018002
142	0xbeab21c2	-0.33424193
143	0x3d5f71ad	0.05455177
144	0xbe181f3d	-0.14855666
145	0x3e520560	0.20509863
146	0x3d0c5260	0.034258246
147	0x3d2d4b37	0.04230806
148	0x3d7ce711	0.0617438
149	0x3d439348	0.04774788
150	0xbe9e36d3	-0.30901203
151	0x3e750451	0.23927428
152	0x3ebe9b9d	0.372281
153	0xbe53ac18	-0.20671117
154	0xbe4effbc	-0.20214742
155	0xbed97dcc	-0.42478788
156	0x3ec1bbbc	0.37838542
157	0xbeb301f2	-0.34962422
158	0x3e2e9dd2	0.17052391
159	0x3e90aadf	0.28255364
160	0x3ebf4c57	0.3736293
161	0x3df02c97	0.11727255
162	0x3d95f35f	0.0732181
163	0xbdf81401	-0.121131904
164	0x3e373fcc	0.1789543
165	0xbda89306	-0.082311675
166	0xbe39f0a7	-0.18158208
167	0xbed926de	-0.42412466
168	0xbcaf0a48	-0.021367207
169	0x3e4e13a0	0.20124674
170	0x3dbf45da	0.09339495
171	0xbee65f05	-0.4499437
172	0xbefc5ba1	-0.49288657
173	0xbe9e4101	-0.3090897
174	0xbeeb9bca	-0.46017295
175	0xbe6f61d5	-0.23377164
176	0xbea92cb0	-0.33041906
177	0x3d4be679	0.049780343
178	0x3d276b68	0.040873915
179	0x3e54c20e	0.20777151
180	0xbd23a2ab	-0.039950054
181	0x3e4b1a85	0.19834335
182	0x3ea44516	0.32083958
183	0xbda0f789	-0.078597136
184	0x3eb2f6fc	0.3495406
185	0x3e44d976	0.1922358
186	0xbb97d1c0	-0.0046331584
187	0x3e98088f	0.2969403
188	0x3ea33396	0.31875294
189	0xbd1d9a38	-0.038477153
190	0x3eeafd78	0.45896506
191	0xbde87e55	-0.11352221
192	0x3d7f7461	0.062366847
193	0x3ef00aa7	0.46883127
194	0x3ed45eb3	0.414785
195	0x3e8ffca6	0.28122443
196	0xbc4a406d	-0.012344462
197	0xbdee4ce0	-0.116357565
198	0xbea566a6	-0.32304877
199	0xbd013255	-0.03154214
200	0x3ec3295f	0.381175
201	0xbea61468	-0.32437444
202	0xbe92bc13	-0.28659114
203	0xbe02ead3	-0.12784891
204	0x3dccfec7	0.100095324
205	0x3e2e5fd2	0.1702874
206	0xbd6693b0	-0.05629319
207	0xbd144edf	-0.03620803
208	0x3d431016	0.047622763
209	0xbdb5b236	-0.08871882
210	0x3da6c63c	0.08143279
211	0xbb26bd51	-0.0025442431
212	0xbdf264b5	-0.118356146
213	0x3e5b91b6	0.21442303
214	0x3e5358a0	0.20639277
215	0x3ec68046	0.3876974
216	0x3d054a21	0.032541398
217	0x3eb870e2	0.36023623
218	0x3ec6ea65	0.38850704
219	0x3eac51d7	0.3365619
220	0xbe1d9b51	-0.1539128
221	0x3d80403c	0.06262252
222	0xbd47d098	-0.048782915
223	0x3be2b200	0.006918192
224	0x3e201f9c	0.15637058
225	0xbd1e621c	-0.038667783
226	0xbd95738a	-0.07297428
227	0xbe2f175a	-0.17098752
228	0xbe56795f	-0.20944737
229	0xbbf984e0	-0.007614717
230	0x3e2f5c4e	0.17125055
231	0xbe438c88	-0.19096577
232	0x3dec8654	0.115490586
233	0xbdc27184	-0.09494308
234	0xbe40e81d	-0.18838544
235	0x3db68aac	0.08913168
236	0x3e0cabe0	0.1373744
237	0x3e52bf5e	0.20580813
238	0x3d2ca8d8	0.04215321
239	0xbcb945b0	-0.022616237
240	0x3e76567d	0.2405643
241	0xbe8c26c4	-0.27373326
242	0xbcd88923	-0.02643258
243	0xbe1cb56b	-0.1530358
244	0xbdf598ad	-0.11992011
245	0x3e447884	0.19186598
246	0x3e192536	0.14955601
247	0xbebc3fb3	-0.3676735
248	0x3d7775d8	0.06041512
249	0x3e0099cc	0.12558669
250	0xbe845d8f	-0.2585263
251	0x3ebefb02	0.3730088
252	0x3e64b495	0.22334512
253	0xbe81e15f	-0.25367257
254	0xbea43cd9	-0.32077673
255	0xbdcc7fee	-0.09985338

cluster_projector.0.bias f4 [128]
0	0xbe8e8778	-0.2783773
1	0xbd5145ac	-0.051091835
2	0x3e9e6982	0.3093987
3	0xbd40d13b	-0.047074538
4	0x3de63980	0.11241436
5	0x3ec3aef5	0.3821942
6	0x3ee0ea5c	0.43928802
7	0xbe8299a0	-0.25507832
8	0xbc56df21	-0.0131147215
9	0x3e848ac2	0.25887114
10	0xbecf8317	-0.405297
11	0x3d627440	0.055286646
12	0xbe568171	-0.20947815
13	0xbe931bc2	-0.28732115
14	0x3dd4d4f8	0.10392183
15	0x3ce55b10	0.027997524
16	0xbda431ea	-0.08017333
17	0xbd95c4a5	-0.073128976
18	0x3d063220	0.032762647
19	0xbe1fc830	-0.15603709
20	0xbd06022c	-0.032716915
21	0x3d1aa373	0.037753534
22	0x3ebee949	0.37287357
23	0x3d34e4c4	0.04416348
24	0xbd82c77c	-0.06385705
25	0x3e29aed4	0.16570598
26	0xbd656adc	-0.056010112
27	0x3e2c13f4	0.16804487
28	0x3d9f14ec	0.077676624
29	0x3de616d9	0.112348266
30	0xbe02fd2b	-0.12791888
31	0x3e1d73d0	0.1537621
32	0x3e8701b1	0.26368478
33	0x3e718270	0.23584914
34	0x3ec39508	0.3819964
35	0x3e6731c5	0.2257758
36	0xbe4cfded	-0.2001874
37	0xbe34c218	-0.17652166
38	0xbd85de06	-0.06536488
39	0x3c8495ae	0.016184654
40	0xbe2d92de	-0.16950557
41	0xbe25c7c6	-0.16189489
42	0x3e785f33	0.24255066
43	0x3de81f0c	0.11334047
44	0x3d1240f8	0.03570649
45	0x3edb2bb0	0.42806768
46	0x3ecdc420	0.40188694
47	0xbd6dbb4d	-0.058039952
48	0x3d3dcbb3	0.04633684
49	0x3e8429f5	0.2581326
50	0x3daf4e84	0.085598975
51	0x3d48e06e	0.049042158
52	0xbdf8aa77	-0.121418886
53	0xbe3d0b04	-0.18461233
54	0xbe7828e5	-0.2423435
55	0xbd226ceb	-0.039654654
56	0x3dc495f4	0.09598914
57	0x3d981ed5	0.07427756
58	0xbdef04af	-0.11670815
59	0xbdd5ac46	-0.10433249
60	0xbd73a9c4	-0.059488073
61	0xbd821155	-0.06350962
62	0x3eb5cd35	0.35508123
63	0x3c8d8ecf	0.01728001
64	0x3e607261	0.21918632
65	0xbdbcd444	-0.09220174
66	0x3d985667	0.07438355
67	0x3dc74b34	0.09731141
68	0xbd98b3e0	-0.074561834
69	0x3e7a651a	0.2445263
70	0x3dad707f	0.084687226
71	0x3e016b9c	0.12638706
72	0x3ec8df84	0.3923303
73	0x3e47b64c	0.19503134
74	0xbd4d1950	-0.050072968
75	0x3eb9ea05	0.36311355
76	0xbe9bb14b	-0.304087
77	0xbddc6895	-0.10762135
78	0x3e9e0e0e	0.30870098
79	0xbdbbe5f2	-0.09174718
80	0x3dd77912	0.10521139
81	0x3e334185	0.17505462
82	0x3c0df200	0.008663654
83	0x3d842ca8	0.0645383
84	0xbe8a9e86	-0.2707407
85	0x3eb3f0e0	0.3514471
86	0x3d755b98	0.059901804
87	0x3eb851b8	0.35999846
88	0x3e339d7a	0.17540541
89	0xbe5f4155	-0.21802266
90	0xbe19ff48	-0.15038788
91	0x3e9f712a	0.31141025
92	0x3e3cb533	0.18428497
93	0x3ec717bc	0.38885295
94	0x3e91d7e6	0.2848503
95	0xbeabf9de	-0.3358907
96	0xbea4e20e	-0.32203716
97	0xbe81f800	-0.2538452
98	0xbd8955b2	-0.06705798
99	0x3e49b47f	0.1969776
100	0x3e845e19	0.2585304
101	0xbea98ebe	-0.33116716
102	0xbe81369d	-0.2523698
103	0xbd91c87e	-0.07118319
104	0x3e20ce15	0.15703614
105	0x3d8d5be0	0.069022894
106	0xbe2c3139	-0.16815652
107	0x3d8eaaf0	0.069661975
108	0x3d6869e8	0.056741625
109	0xbe010421	-0.12599231
110	0x3eabcc1f	0.3355417
111	0x3e318430	0.17335582
112	0xbd6518c4	-0.05593182
113	0xbeaeff40	-0.34179115
114	0x3e9eddbf	0.31028554
115	0xbe7e6a58	-0.24845254
116	0x3e6c89db	0.23099463
117	0x3e46fbae	0.19431946
118	0xbe4749fe	-0.1946182
119	0x3e496426	0.1966711
120	0x3cecded0	0.028914839
121	0xbdb251f7	-0.0870704
122	0x3ebc4fe8	0.36779714
123	0x3e7de16a	0.2479302
124	0x3e8978c7	0.26849958
125	0xbe460361	-0.19337226
126	0xbe88bad8	-0.2670505
127	0x3e9a0abd	0.30086318

cluster_projector.2.weight f4 [50, 128]
0	0xbc21a5c6	-0.009866184
1	0x3d98dc1d	0.07463858
2	0x3e6b221f	0.22962235
3	0x3e9a490b	0.30133852
4	0xbd99bad1	-0.075063355
5	0x3eab7cb3	0.33493575
6	0xbec53859	-0.38519552
7	0xbe249288	-0.16071522
8	0xbe7ed95c	-0.24887604
9	0x3d086be0	0.033306003
10	0xbdb23083	-0.08700659
11	0xbd7b4682	-0.06134654
12	0xbd74baef	-0.059748586
13	0xbdb364d7	-0.08759468
14	0x3d8fde8f	0.070248716
15	0x3c9e1e14	0.019301452
16	0x3cf85ff4	0.030319192
17	0xbdd7d0dc	-0.10537884
18	0x3cdf1bf4	0.027235009
19	0x3d0b85dc	0.034063205
20	0xbbf87ec0	-0.007583469
21	0x3ed1557d	0.40885535
22	0xbe218b2c	-0.15775746
23	0xbd3ef3ed	-0.046619345
24	0xbdb0a54c	-0.08625278
25	0x3db3c531	0.08777846
26	0x3cbd9910	0.023144275
27	0x3c60f730	0.013730809
28	0x3e904bf2	0.28182942
29	0xbe3b3510	-0.1828196
30	0x3e442882	0.19156078
31	0x3e204266	0.15650329
32	0xbe226163	-0.15857463
33	0x3dfd9a0f	0.123829
34	0x3de9dbae	0.11418854
35	0xbe0666ec	-0.13125199
36	0xbde63b7b	-0.11241814
37	0x3d1ee4c6	0.038792394
38	0xbe7b5e8c	-0.24547786
39	0xbd800fea	-0.06253035
40	0xbe169368	-0.14704669
41	0xbd508c1c	-0.05091487
42	0xbe0c6b08	-0.13712704
43	0xbd2d58a7	-0.042320874
44	0x3daf6ecd	0.085660554
45	0xbe02ecfe	-0.12785718
46	0x3e42987b	0.19003479
47	0xbdf9e4cf	-0.12201845
48	0xbe3bcb99	-0.18339385
49	0x3e86801e	0.2626962
50	0xbcbe3c54	-0.023222126
51	0xbc63f06e	-0.013912303
52	0x3af134c0	0.0018402562
53	0xbd7faa1a	-0.06241808
54	0xbdea798b	-0.11448964
55	0xbd1d2ecb	-0.038374703
56	0x3cb83f6b	0.022491178
57	0x3dc041da	0.0938756
58	0xbe2a6dd0	-0.16643453
59	0xbd2bbf9a	-0.041930772
60	0xbc2583e8	-0.01010225
61	0xbe17724f	-0.14789699
62	0x3e8791e5	0.26478496
63	0x3e83f306	0.2577135
64	0xbe54aeb1	-0.20769764
65	0xbd76af9e	-0.060226075
66	0x3b4e0b38	0.0031439792
67	0x3d5567a3	0.05210079
68	0xbd0e35b1	-0.034719173
69	0xbe286eef	-0.16448568
70	0x3ecff1db	0.4061421
71	0x3e8d928a	0.27650863
72	0xbe1c7a9e	-0.1528115
73	0xbccf78b7	-0.025326116
74	0x3c856bc8	0.016286746
75	0x3e0ab5df	0.13545941
76	0xbdd9c6f0	-0.106336474
77	0x3d6f0dbe	0.058362715
78	0x3dbaa383	0.09113219
79	0xbd92829a	-0.071538165
80	0xbc3950d8	-0.011310779
81	0x3e6ffd3a	0.23436442
82	0xbd5ffb1c	-0.054682836
83	0xbd530d6e	-0.05152648
84	0xbdf878ed	-0.1213244
85	0x3c8cb92a	0.017178137
86	0xbd95a8a0	-0.07307553
87	0x3e2f5848	0.1712352
88	0x3e4e4426	0.20143184
89	0xbe2e0f76	-0.16998085
90	0xbc98aeec	-0.018638097
91	0x3e9be887	0.30450842
92	0x3e310d83	0.1729031
93	0xbea539a9	-0.32270554
94	0xbea4b7f8	-0.32171607
95	0xbd7c4a60	-0.061594367
96	0xbe14fedb	-0.14550345
97	0xbdf3a87b	-0.118973695
98	0x3d52b4ba	0.051441886
99	0x3e30765a	0.17232648
100	0xbdfa0dfb	-0.12209698
101	0xbd29a77e	-0.0414195
102	0xbe29bdf7	-0.16576372
103	0xbd7c81bc	-0.06164716
104	0x3dc1ea79	0.0946855
105	0xbd0f7ce3	-0.03503121
106	0xbe4157c3	-0.18881135
107	0x3e6c145c	0.23054641
108	0x3d46237d	0.048373688
109	0xbd712918	-0.05887708
110	0x3e012757	0.12612663
111	0xbd653569	-0.05595914
112	0xbd992234	-0.07477227
113	0xbe056db1	-0.13030125
114	0xbe7e30c9	-0.24823298
115	0xbdd183e8	-0.10230237
116	0xbe644157	-0.2229055
117	0xbe7082ca	-0.23487392
118	0x3dac6e93	0.08419528
119	0xbd2b1a67	-0.041773226
120	0x3d26aaa6	0.040690087
121	0xbe8c22f8	-0.2737043
122	0x3c0aee1d	0.008479622
123	0xbe002805	-0.12515266
124	0x3debc33e	0.11511849
125	0x3cf281f9	0.029602991
126	0xbdbbdeca	-0.09173353
127	0xbeaf298e	-0.3421139
128	0x3ea09282	0.31361777
129	0xbd0af2e0	-0.03392303
130	0xbe28d932	-0.16489103
131	0xbe9f84dc	-0.3115605
132	0x3cbfd33c	0.023416154
133	0xbdba8990	-0.09108269
134	0xbe46698f	-0.19376205
135	0x3df04a04	0.11732867
136	0x3e957e8f	0.2919812
137	0xbe7111bf	-0.23541926
138	0x3dd60ff0	0.104522586
139	0xbd3db629	-0.0463163
140	0x3ea4ad89	0.32163647
141	0x3e938804	0.2881471
142	0x3d7351f9	0.059404347
143	0x3d2935ea	0.041311182
144	0xbcf0570a	-0.029338378
145	0x3e63b33b	0.2223634
146	0xbd853584	-0.06504348
147	0x3ceca4d8	0.028887197
148	0xbd4326fc	-0.0476446
149	0xbecd0c51	-0.4004846
150	0xbdb3a269	-0.08771212
151	0x3e2f8ebc	0.17144293
152	0x3daafd33	0.08349075
153	0xbc7cade3	-0.015422317
154	0x3bc0c490	0.005882807
155	0xbca14774	-0.019687392
156	0xbeb95516	-0.36197728
157	0x3e1a14ed	0.15047045
158	0xbe981206	-0.2970125
159	0xbe611d56	-0.21983847
160	0x3e9aa6d8	0.30205417
161	0xbe8a785e	-0.27044958
162	0xbe041f10	-0.12902474
163	0x3cdf76cb	0.027278325
164	0x3e507436	0.20356831
165	0xbd8e0979	-0.069354005
166	0x3e1b4675	0.15163596
167	0xbe90ea6c	-0.2830385
168	0x3e3251e3	0.1741405
169	0x3c6d3a38	0.014479212
170	0x3ea52a69	0.3225892
171	0x3d94a03f	0.07257127
172	0xbccb34a0	-0.024805367
173	0xbe474cc4	-0.19462878
174	0xbeadaab2	-0.33919293
175	0xbe8e78ae	-0.27826446
176	0xbc95a460	-0.018266857
177	0xbe4a7a8e	-0.19773313
178	0x3c898fc0	0.016792178
179	0xbd79bf02	-0.060973175
180	0x3cb16388	0.021653906
181	0x3cb5c658	0.022189304
182	0x3e8c3d84	0.27390683
183	0xbe4fddfe	-0.20299527
184	0xbeac566c	-0.33659685
185	0xbe9e0cee	-0.3086924
186	0x3e489694	0.19588691
187	0xbb5cdbd5	-0.0033700366
188	0xbc90df48	-0.017684594
189	0xbe52fe9f	-0.20604943
190	0xbe361529	-0.1778151
191	0xbe864f98	-0.262326
192	0x3e5f9ac8	0.21836388
193	0xbb751f40	-0.003740266
194	0x3ea34b02	0.31893164
195	0xbcbbe442	-0.02293599
196	0x3e9ac753	0.30230197
197	0xbd0edcba	-0.03487847
198	0xbe87616c	-0.26441514
199	0xbe88f7ac	-0.2675146
200	0xbe8a69a0	-0.2703371
201	0x3d5b2cee	0.053509645
202	0x3d23d5ea	0.039998926
203	0xbe8c2fa5	-0.273801
204	0xbd0585a9	-0.03259817
205	0x3d0fe2ac	0.03512828
206	0xbdd4a596	-0.103831455
207	0x3d96c01b	0.0736086
208	0xbd9ead89	-0.07747943
209	0xbea7932c	-0.3272947
210	0xbd03aa63	-0.032144915
211	0xbd8695d1	-0.06571544
212	0x3dbc17e5	0.09184245
213	0xbea7dbe5	-0.32784954
214	0x3d17015e	0.03686654
215	0xbe554c43	-0.20829873
216	0xbe9c80c3	-0.30566987
217	0x3e75ff8f	0.24023269
218	0x3d49f076	0.049301587
219	0xbe2d6254	-0.1693204
220	0xbe80fa33	-0.25190887
221	0xbe4f2757	-0.2022985
222	0xbe20873f	-0.15676592
223	0x3e8c8ee1	0.27452758
224	0x3e681adb	0.22666495
225	0xbdd2e55e	-0.102976546
226	0x3d40a022	0.047027715
227	0x3e195ed7	0.14977585
228	0xbe85fd46	-0.26169795
229	0xbcb47f90	-0.022033483
230	0x3e488062	0.19580224
231	0xbd44aec4	-0.048018232
232	0xbe65b0a2	-0.22430661
233	0x3cf61490	0.030039102
234	0x3e40b9eb	0.18820922
235	0xbe2f6f0d	-0.17132206
236	0x3bb355b1	0.0054728617
237	0xbd072196	-0.032991014
238	0xbea6dafe	-0.32588953
239	0x3d912f89	0.07089145
240	0x3d88c85f	0.06678843
241	0x3e752e56	0.23943457
242	0xbc058a9a	-0.008150721
243	0x3e6aa0ac	0.22912854
244	0xbe3380d4	-0.17529613
245	0x3e3b59c7	0.18295966
246	0x3cb62870	0.022236079
247	0xbd75ae7f	-0.059980866
248	0xbd0c8f84	-0.034316555
249	0x3e72eab1	0.2372234
250	0xbe027b4c	-0.12742347
251	0xbe8d994b	-0.27656016
252	0xbe29bc86	-0.16575822
253	0x3d399cea	0.04531566
254	0xbe456eec	-0.19280595
255	0x3eaa46fd	0.33257285

cluster_projector.2.bias f4 [50]
0	0x3d51d561	0.051228885
1	0xbde350a5	-0.11099366
2	0xbd0d5808	-0.03450778
3	0x3e08aa61	0.13346244
4	0xbe09c2da	-0.13453236
5	0x3dae7734	0.0851883
6	0x3e1713c8	0.1475364
7	0xbdace8a8	-0.08442813
8	0x3d86090e	0.06544696
9	0xbe32ef45	-0.17474087
10	0xbe012943	-0.12613396
11	0xbda34acc	-0.07973251
12	0x3e2c128e	0.16803953
13	0x3e200249	0.15625872
14	0x3dbb6fe7	0.09152203
15	0x3e32ba5e	0.17453906
16	0xbde01cad	-0.109429695
17	0xbdbcc655	-0.09217516
18	0xbe0d109e	-0.1377587
19	0x3db3d1f6	0.08780281
20	0x3deb5810	0.11491406
21	0xbe070f75	-0.1318949
22	0x3e352682	0.17690471
23	0xbdf89052	-0.12136902
24	0xbd417fec	-0.047241136
25	0x3e707528	0.23482192
26	0xbc78810b	-0.015167485
27	0x3cfe3d3a	0.031035054
28	0xbe30cf2e	-0.17266533
29	0x3cb112db	0.021615436
30	0xbe0743d2	-0.13209465
31	0xbe523378	-0.20527446
32	0xbe39a5a4	-0.18129593
33	0x3d80c485	0.06287483
34	0xbe428f4c	-0.18999976
35	0xbe68f407	-0.22749339
36	0xbcf2dab8	-0.029645309
37	0x3e2a4e6b	0.16631477
38	0x3b3a1e71	0.0028399492
39	0x3e0c8e3a	0.1372613
40	0x3e516db0	0.20451999
41	0xbe1224f3	-0.14271908
42	0xbe33e876	-0.17569146
43	0xbe000ceb	-0.12504928
44	0x3e397bc8	0.18113625
45	0x3dfffbd2	0.12499203
46	0xbdeee389	-0.11664493
47	0xbdea1792	-0.11430277
48	0x3e0a7bdc	0.13523811
49	0xbe3bff98	-0.1835922

exp_avg f4 [128, 20]
0	0x00000000	0.0
1	0x00000000	0.0
2	0x00000000	0.0
3	0x00000000	0.0
4	0x00000000	0.0
5	0x00000000	0.0
6	0x00000000	0.0
7	0x00000000	0.0
8	0x00000000	0.0
9	0x00000000	0.0
10	0x00000000	0.0
11	0x00000000	0.0
12	0x00000000	0.0
13	0x00000000	0.0
14	0x00000000	0.0
15	0x00000000	0.0
16	0x00000000	0.0
17	0x00000000	0.0
18	0x00000000	0.0
19	0x00000000	0.0
20	0x3d75723a	0.059923388
21	0x3cf5723a	0.029961694
22	0x3ca6aefb	0.020347109
23	0x3c9ac650	0.01889339
24	0x3ce7136f	0.028207509
25	0x00000000	0.0
26	0x00000000	0.0
27	0x00000000	0.0
28	0x3c7bc326	0.015366351
29	0x00000000	0.0
30	0x3c7bc382	0.015366437
31	0xbda70066	-0.08154373
32	0xbd880d92	-0.06643213
33	0xbd0b120f	-0.03395277
34	0xbd046e49	-0.03233174
35	0xbd07b391	-0.033130232
36	0xbda454db	-0.080239974
37	0x00000000	0.0
38	0x00000000	0.0
39	0x00000000	0.0
40	0x3e285ffd	0.16442867
41	0x3da85ffd	0.08221433
42	0xbc13029a	-0.008972788
43	0x3d82467f	0.06361102
44	0x3d5e02ea	0.054201998
45	0x00000000	0.0
46	0x00000000	0.0
47	0x00000000	0.0
48	0x3d27f052	0.04100067
49	0x00000000	0.0
50	0x3d2838a6	0.04106965
51	0xbd962b7c	-0.07332513
52	0xbd74ae5b	-0.05973659
53	0xbdfe0950	-0.1240412
54	0xbdf1e850	-0.11811888
55	0xbdf7e334	-0.121038824
56	0xbd93c4d4	-0.07215276
57	0x00000000	0.0
58	0x00000000	0.0
59	0x00000000	0.0
60	0xbf6a4a70	-0.9151983
61	0xbd8bcf6c	-0.06826672
62	0x3d9c069a	0.07618447
63	0x3d5475b0	0.051870048
64	0x3db48027	0.088135056
65	0x00000000	0.0
66	0x00000000	0.0
67	0xbce108b0	-0.027469963
68	0x00000000	0.0
69	0x00000000	0.0
70	0xb31501de	-3.4693464e-08
71	0xbe8a6456	-0.27029675
72	0xbe64baf6	-0.22336945
73	0xbdcd6bff	-0.10030364
74	0xbd70007e	-0.05859422
75	0xbda1fbb0	-0.07909334
76	0xbe892856	-0.26788586
77	0x3d3ffabd	0.046869982
78	0xbbd76096	-0.0065727932
79	0xbd2b7886	-0.041862987
80	0x00000000	0.0
81	0x00000000	0.0
82	0x00000000	0.0
83	0x00000000	0.0
84	0x00000000	0.0
85	0x00000000	0.0
86	0x00000000	0.0
87	0x00000000	0.0
88	0x00000000	0.0
89	0x00000000	0.0
90	0x00000000	0.0
91	0x00000000	0.0
92	0x00000000	0.0
93	0x00000000	0.0
94	0x00000000	0.0
95	0x00000000	0.0
96	0x00000000	0.0
97	0x00000000	0.0
98	0x00000000	0.0
99	0x00000000	0.0
100	0x3ed6d512	0.41959435
101	0x3d784c85	0.06061985
102	0x3d145da7	0.036222126
103	0xbc3c651d	-0.011498717
104	0x3c09c32c	0.008408349
105	0x00000000	0.0
106	0x00000000	0.0
107	0x3bce842d	0.0063023777
108	0x3c8af719	0.016963528
109	0x00000000	0.0
110	0xbc2b1af2	-0.010443436
111	0x3d81ac02	0.06331636
112	0x3d450ae8	0.048106104
113	0x3d243694	0.040091112
114	0x3d1e8701	0.03870297
115	0x3d2155fc	0.03938864
116	0x3d7698f7	0.060204472
117	0x3a2f0cfd	0.00066776556
118	0xbbecaab5	-0.0072224983
119	0xbcf18593	-0.029482638
120	0xbf0da7b2	-0.5533401
121	0xbdb156d7	-0.086591415
122	0x38230c5a	3.887373e-05
123	0x39836def	0.00025068174
124	0x398477e6	0.00025266333
125	0x00000000	0.0
126	0x00000000	0.0
127	0xba86c1e6	-0.0010281175
128	0x362dd4a3	2.590278e-06
129	0x00000000	0.0
130	0xbb7e31fa	-0.0038787113
131	0xbe02f3be	-0.12788293
132	0xbdad6b62	-0.08467747
133	0xbd2b5319	-0.041827295
134	0xbae7124d	-0.0017629355
135	0xbcb0650f	-0.021532563
136	0xbde99737	-0.11405795
137	0x3d45ec16	0.048320852
138	0x3d25fce9	0.040524397
139	0xbc9ad5e6	-0.018900823
140	0x00000000	0.0
141	0x00000000	0.0
142	0x00000000	0.0
143	0x00000000	0.0
144	0x00000000	0.0
145	0x00000000	0.0
146	0x00000000	0.0
147	0x00000000	0.0
148	0x00000000	0.0
149	0x00000000	0.0
150	0x00000000	0.0
151	0x00000000	0.0
152	0x00000000	0.0
153	0x00000000	0.0
154	0x00000000	0.0
155	0x00000000	0.0
156	0x00000000	0.0
157	0x00000000	0.0
158	0x00000000	0.0
159	0x00000000	0.0
160	0xc00aa5c3	-2.1663673
161	0xbe7fb59c	-0.24971622
162	0x346ec19c	2.2235912e-07
163	0x35d5199d	1.5877191e-06
164	0x35d5199d	1.5877191e-06
165	0x00000000	0.0
166	0x00000000	0.0
167	0x3d99f71b	0.07517835
168	0x35d5199d	1.5877191e-06
169	0x00000000	0.0
170	0xb9611e11	-0.00021468873
171	0x3d1b16c9	0.037863526
172	0x3d43603c	0.047699198
173	0x3e3e69cd	0.18595047
174	0x3e1cce0e	0.15312979
175	0x3e2d67f9	0.16934194
176	0x3d424c03	0.04743577
177	0xbcf8f50e	-0.030390289
178	0x3d0f67bd	0.035011042
179	0xbe8110f3	-0.25208244
180	0xbf37f4a7	-0.71857685
181	0xbb5b4d9c	-0.0033463007
182	0xbc731baf	-0.014838143
183	0xbd1f2222	-0.03885091
184	0xbd3362f9	-0.04379556
185	0x00000000	0.0
186	0x00000000	0.0
187	0x3d8eb3d5	0.06967894
188	0x3c940e23	0.018073147
189	0x00000000	0.0
190	0x3cc49285	0.023995647
191	0x3b2f268a	0.0026725852
192	0xbb9087d9	-0.0044107256
193	0x3da65abc	0.08122775
194	0x3e096582	0.13417628
195	0x3ddcefec	0.10787949
196	0xbab0cb81	-0.0013488383
197	0x3d93b53a	0.072123006
198	0xbc603d82	-0.01368654
199	0xbe61d7bb	-0.22054951
200	0xbe8f914d	-0.28040543
201	0xbd7ad581	-0.06123877
202	0xbd1c3975	-0.038140733
203	0xbca81203	-0.020516401
204	0xbd200bcb	-0.039073747
205	0x00000000	0.0
206	0x00000000	0.0
207	0x3b39d7b4	0.002835733
208	0x3843c395	4.6673773e-05
209	0x00000000	0.0
210	0xb8112e2f	-3.4613706e-05
211	0x3d501e02	0.050809868
212	0x3d5caf08	0.05387786
213	0x3d482f86	0.048873447
214	0x3d1f2be8	0.03886023
215	0x3d336f4d	0.043807317
216	0x3d6babd3	0.05753691
217	0xbc1fb5ab	-0.009747903
218	0x3cd476cb	0.025935551
219	0xbccb9c1f	-0.024854718
220	0x3e34877a	0.17629805
221	0xbdad0e26	-0.08449964
222	0xbbd0866e	-0.0063636815
223	0xbd61ed4f	-0.055157956
224	0xbd5efe4b	-0.05444173
225	0x00000000	0.0
226	0x00000000	0.0
227	0xba295604	-0.00064596557
228	0x3b9a8a19	0.0047161696
229	0x00000000	0.0
230	0x3c80bbdf	0.015714584
231	0xbd69c738	-0.057074755
232	0xbd1ffecb	-0.03906135
233	0xbe1322ce	-0.14368746
234	0xbd06e3bb	-0.032932024
235	0xbdb3c887	-0.08778482
236	0xbd53a530	-0.051671207
237	0x3e070836	0.13186726
238	0x3c7d1e0d	0.015449059
239	0x3e0f2dcf	0.13982318
240	0x00000000	0.0
241	0x00000000	0.0
242	0x00000000	0.0
243	0x00000000	0.0
244	0x00000000	0.0
245	0x00000000	0.0
246	0x00000000	0.0
247	0x00000000	0.0
248	0x00000000	0.0
249	0x00000000	0.0
250	0x00000000	0.0
251	0x00000000	0.0
252	0x00000000	0.0
253	0x00000000	0.0
254	0x00000000	0.0
255	0x00000000	0.0

exp_avg_sq f4 [128, 20]
0	0x00000000	0.0
1	0x00000000	0.0
2	0x00000000	0.0
3	0x00000000	0.0
4	0x00000000	0.0
5	0x00000000	0.0
6	0x00000000	0.0
7	0x00000000	0.0
8	0x00000000	0.0
9	0x00000000	0.0
10	0x00000000	0.0
11	0x00000000	0.0
12	0x00000000	0.0
13	0x00000000	0.0
14	0x00000000	0.0
15	0x00000000	0.0
16	0x00000000	0.0
17	0x00000000	0.0
18	0x00000000	0.0
19	0x00000000	0.0
20	0x3f81d1db	1.0142168
21	0x3e81d1db	0.2535542
22	0x3e4248d9	0.18973102
23	0x3df13a48	0.117786944
24	0x3e54d8d1	0.20785834
25	0x00000000	0.0
26	0x00000000	0.0
27	0x00000000	0.0
28	0x3b094aff	0.0020949242
29	0x00000000	0.0
30	0x3b095314	0.002095406
31	0x3d271aca	0.040797032
32	0x3cddd101	0.0270772
33	0x3d0f1384	0.03493072
34	0x3d01bd56	0.031674705
35	0x3d083eb6	0.03326293
36	0x3d21cdcb	0.0395029
37	0x00000000	0.0
38	0x00000000	0.0
39	0x00000000	0.0
40	0x3f6c4418	0.922914
41	0x3e6c4418	0.2307285
42	0x3d0903d9	0.033450935
43	0x3d968165	0.07348899
44	0x3df10666	0.117687985
45	0x00000000	0.0
46	0x00000000	0.0
47	0x00000000	0.0
48	0x3bba0482	0.005676807
49	0x00000000	0.0
50	0x3bb99ec0	0.0056646764
51	0x3c770b90	0.01507844
52	0x3c23f717	0.010007641
53	0x3c659182	0.014011743
54	0x3c502b62	0.012705656
55	0x3c5a9b9b	0.013342763
56	0x3c6f3568	0.014600135
57	0x00000000	0.0
58	0x00000000	0.0
59	0x00000000	0.0
60	0x40866eba	4.2010164
61	0x3eefd9fc	0.46845996
62	0x3da8b058	0.0823676
63	0x3debaca5	0.11507539
64	0x3e4bfad4	0.19919902
65	0x00000000	0.0
66	0x00000000	0.0
67	0x3d174fbe	0.036941282
68	0x00000000	0.0
69	0x00000000	0.0
70	0x35285126	6.2702964e-07
71	0x3db93d4e	0.09044896
72	0x3d76ca56	0.060251556
73	0x3d564b7f	0.052318092
74	0x3dd6f5fe	0.10496138
75	0x3d96e2cc	0.07367477
76	0x3db3b0f0	0.087739825
77	0x3d165246	0.036699556
78	0x36dd6a8e	6.598718e-06
79	0x384efddc	4.9350652e-05
80	0x00000000	0.0
81	0x00000000	0.0
82	0x00000000	0.0
83	0x00000000	0.0
84	0x00000000	0.0
85	0x00000000	0.0
86	0x00000000	0.0
87	0x00000000	0.0
88	0x00000000	0.0
89	0x00000000	0.0
90	0x00000000	0.0
91	0x00000000	0.0
92	0x00000000	0.0
93	0x00000000	0.0
94	0x00000000	0.0
95	0x00000000	0.0
96	0x00000000	0.0
97	0x00000000	0.0
98	0x00000000	0.0
99	0x00000000	0.0
100	0x410008fa	8.002192
101	0x3edbcfe8	0.42932057
102	0x3da92728	0.082594216
103	0x3da97b14	0.082754284
104	0x3e2ab9f6	0.16672501
105	0x00000000	0.0
106	0x00000000	0.0
107	0x3c8326f9	0.016009795
108	0x3b81546f	0.003946833
109	0x00000000	0.0
110	0x3bdc203f	0.006717711
111	0x3d9fa848	0.07795769
112	0x3d6dcb61	0.058055285
113	0x3d7ee25f	0.062227603
114	0x3d71d3c7	0.059039857
115	0x3d782c4f	0.06058913
116	0x3da3b810	0.079940915
117	0x39104807	0.00013759742
118	0x3ae89028	0.0017743157
119	0x3d957e3f	0.0729947
120	0x4255afac	53.421555
121	0x3fdec6ca	1.7404416
122	0x3b216974	0.0024629505
123	0x3d1e0697	0.038580503
124	0x3d2ea366	0.042636298
125	0x00000000	0.0
126	0x00000000	0.0
127	0x3ebb6210	0.36598253
128	0x39baa4fd	0.0003559961
129	0x00000000	0.0
130	0x3ad1b24b	0.001599857
131	0x3e806c25	0.25082508
132	0x3e44ed17	0.19231068
133	0x3e09ba7b	0.13450043
134	0x3e5ba874	0.21450979
135	0x3e2978a4	0.16549927
136	0x3e85c51c	0.26126945
137	0x3d85080a	0.06495674
138	0x3bacd547	0.005274448
139	0x3dc40893	0.09571948
140	0x00000000	0.0
141	0x00000000	0.0
142	0x00000000	0.0
143	0x00000000	0.0
144	0x00000000	0.0
145	0x00000000	0.0
146	0x00000000	0.0
147	0x00000000	0.0
148	0x00000000	0.0
149	0x00000000	0.0
150	0x00000000	0.0
151	0x00000000	0.0
152	0x00000000	0.0
153	0x00000000	0.0
154	0x00000000	0.0
155	0x00000000	0.0
156	0x00000000	0.0
157	0x00000000	0.0
158	0x00000000	0.0
159	0x00000000	0.0
160	0x41707e61	15.030854
161	0x3f74410c	0.95411754
162	0x3588b7d9	1.0186296e-06
163	0x3859d3f4	5.193423e-05
164	0x3859d3f4	5.193423e-05
165	0x00000000	0.0
166	0x00000000	0.0
167	0x3c374865	0.011186694
168	0x3859d3f4	5.193423e-05
169	0x00000000	0.0
170	0x388af66c	6.6262524e-05
171	0x3cbd0756	0.023074787
172	0x3ca9f6ad	0.020747507
173	0x3bd05707	0.0063580307
174	0x3be3f498	0.006956648
175	0x3bd99ef5	0.0066412636
176	0x3cd63dd3	0.026152527
177	0x3947e203	0.00019062315
178	0x3aed86c4	0.0018121828
179	0x3dc11352	0.09427513
180	0x420af23e	34.736565
181	0x3fbc2de2	1.4701502
182	0x3dc12162	0.094301954
183	0x3dc02b7f	0.09383296
184	0x3e3e71bd	0.18598075
185	0x00000000	0.0
186	0x00000000	0.0
187	0x3dcec558	0.10096234
188	0x3b97d0d1	0.004633047
189	0x00000000	0.0
190	0x3b955464	0.0045571793
191	0x3e8f3931	0.2797332
192	0x3e57a0b9	0.21057405
193	0x3e8897ee	0.26678413
194	0x3eaa1f81	0.3322716
195	0x3e97e469	0.2966645
196	0x3e93cb3a	0.28865987
197	0x3cd5b010	0.02608493
198	0x3b90b13e	0.00441566
199	0x3db4f8cc	0.08836517
200	0x418b7ce5	17.435984
201	0x3edf04a7	0.43558237
202	0x3c0eb407	0.008709914
203	0x3c2a518b	0.010395418
204	0x3c3dcc06	0.0115842875
205	0x00000000	0.0
206	0x00000000	0.0
207	0x3ce2c7ce	0.027683165
208	0x394231c3	0.0001851982
209	0x00000000	0.0
210	0x3b85e5fb	0.0040862537
211	0x3d74d668	0.059774786
212	0x3d4f3fd2	0.050597973
213	0x3d6f2e97	0.05839404
214	0x3d691810	0.056907713
215	0x3d6c08cc	0.057625577
216	0x3d86334d	0.065527536
217	0x3951aa24	0.00019995176
218	0x3b787fd5	0.003791799
219	0x3e09e1c1	0.13465025
220	0x413ea014	11.914082
221	0x3f257660	0.6463375
222	0x3dc1659c	0.094432086
223	0x3d6053fb	0.05476759
224	0x3df3aaf7	0.11897843
225	0x00000000	0.0
226	0x00000000	0.0
227	0x3e4ae98a	0.1981565
228	0x3a480ca7	0.000763128
229	0x00000000	0.0
230	0x3b7a2166	0.003816688
231	0x3e1d4b1e	0.15360686
232	0x3ddebe00	0.108760834
233	0x3d88e500	0.06684303
234	0x3db2656c	0.08710751
235	0x3d81dcc1	0.063409336
236	0x3e1d11e8	0.15338862
237	0x3dafc129	0.08581764
238	0x3b7384c0	0.0037157983
239	0x3dc53eb2	0.09631099
240	0x00000000	0.0
241	0x00000000	0.0
242	0x00000000	0.0
243	0x00000000	0.0
244	0x00000000	0.0
245	0x00000000	0.0
246	0x00000000	0.0
247	0x00000000	0.0
248	0x00000000	0.0
249	0x00000000	0.0
250	0x00000000	0.0
251	0x00000000	0.0
252	0x00000000	0.0
253	0x00000000	0.0
254	0x00000000	0.0
255	0x00000000	0.0
