flaskProject/modules/Contrastive_Clustering/save/save5/model_checkpoint_color.tar (torch, 183506 bytes, 24 tensors)

instance_projector.0.weight f4 [128, 20]
0	0xbda38c93	-0.07985797
1	0x3d048cf0	0.03236097
2	0x3de59d5d	0.11211655
3	0xbd083c73	-0.033260774
4	0x3df5b7c7	0.11997943
5	0xbe37f9fc	-0.17966455
6	0x3e64936e	0.22321865
7	0x3d845b1c	0.0646269
8	0xbe27c4b0	-0.16383624
9	0xbd2094d8	-0.03920445
10	0x3cabb6b8	0.02096115
11	0x3c63c9b8	0.013903074
12	0xbcdf1c38	-0.027235135
13	0x3de408d3	0.111344956
14	0xbe602fa5	-0.21893175
15	0x3d666581	0.056249145
16	0x3d64c1da	0.055848934
17	0x3dc1424c	0.09436473
18	0xbdbd3d48	-0.09240204
19	0xbcc94aa0	-0.024571717
20	0x3de76d5d	0.11300156
21	0x3d1e50bd	0.038651217
22	0xbd2feacc	-0.04294853
23	0x3e265234	0.16242296
24	0x3e0dc36a	0.13844076
25	0xbe49c6ae	-0.19704697
26	0x3da6370c	0.08115968
27	0xbe1d3d1a	-0.1535534
28	0x3cff3b25	0.031156132
29	0xbe5cbd61	-0.21556617
30	0xbdeb8005	-0.11499027
31	0xbe0dd06a	-0.13849035
32	0xbdcb52f9	-0.09927935
33	0x3defa9c3	0.11702301
34	0xbd3521ef	-0.044221815
35	0xbe26e582	-0.16298488
36	0x3e22294d	0.15836067
37	0x3dde0c19	0.10842151
38	0xbd8d3808	-0.06895453
39	0x3e3b5f31	0.18298031
40	0xbcf5b461	-0.029993238
41	0x3deb80cd	0.11499176
42	0xbd729c33	-0.059230994
43	0xbe1f6bd2	-0.15568474
44	0xbe69d219	-0.22834052
45	0xbc81af10	-0.015830547
46	0x3e323020	0.1740117
47	0x3dfcf21d	0.12350867
48	0x3dba7108	0.0910359
49	0x3e07a0cc	0.13244933
50	0x3dbcc7f5	0.09217826
51	0xbe3446e4	-0.17605168
52	0xbb2c87c4	-0.002632604
53	0xbd938740	-0.07203531
54	0x3da56895	0.08076588
55	0x3d8f0da9	0.06985027
56	0xbe280b63	-0.16410594
57	0xbc28a852	-0.010294037
58	0xbdfdca9a	-0.12392159
59	0x3cb56b5b	0.022145918
60	0x3c2f8724	0.010713372
61	0x3d2d92ba	0.042376257
62	0x3e81e443	0.25369462
63	0x3e9a2583	0.30106744
64	0xbcc190f3	-0.023628687
65	0x3dc8d8d4	0.09806982
66	0x3dd1a770	0.10237014
67	0x3dfa43d8	0.122199714
68	0xbda6e48d	-0.08149061
69	0xbcdf06e0	-0.027224958
70	0x3ce2d9de	0.027691778
71	0x3e00cf82	0.12579158
72	0x3e8301ef	0.25587413
73	0xbdc1fc64	-0.09471968
74	0x3e15e77b	0.14639084
75	0xbd69014c	-0.056886002
76	0xbdd5b820	-0.1043551
77	0x3cc72e9b	0.024314215
78	0x3e0f687b	0.140047
79	0xbe7c7c1f	-0.24656723
80	0x3e58d76b	0.21175925
81	0x3e5f6229	0.21814789
82	0x3d12cbf9	0.035839055
83	0xbe10a7a8	-0.14126456
84	0x3e07e588	0.13271153
85	0x3e1a1b82	0.15049556
86	0xbdbb2f7e	-0.09139918
87	0xbd9695b1	-0.0735277
88	0x3deb5a5d	0.11491845
89	0xbe47c34d	-0.19508095
90	0xbd1645cc	-0.036687657
91	0x3e4b1449	0.19831957
92	0xbc4a35b0	-0.012341902
93	0xbdfffed9	-0.1249978
94	0xbe3d4623	-0.18483786
95	0x3e1faff7	0.15594469
96	0x3e56c745	0.20974453
97	0xbca8e89a	-0.020618726
98	0x3e62e04b	0.22155873
99	0xbda1e1b5	-0.07904378
100	0xbe5ec381	-0.21754266
101	0x3daddae0	0.08489013
102	0xbd5fb110	-0.05461222
103	0x3dea7288	0.11447626
104	0xbe48a182	-0.1959286
105	0x3e0f9126	0.14020213
106	0xbe57d6d9	-0.21078052
107	0xbd810c48	-0.063011706
108	0xbd60cb9c	-0.054881677
109	0xbd8278ee	-0.06370722
110	0x3c016110	0.007896677
111	0xbca337d8	-0.01992409
112	0x3e014e1e	0.12627456
113	0xbe4339a8	-0.19064963
114	0x3cb02800	0.021503448
115	0x3da14ca4	0.07875946
116	0x3d9a7820	0.07542443
117	0xba246600	-0.00062713027
118	0xbd5f7d58	-0.054562896
119	0xbd47398c	-0.048638865
120	0xbdd1a4ae	-0.10236488
121	0x3d09ec6f	0.033672746
122	0x3e393d7f	0.18089865
123	0x3e1bbf2d	0.15209647
124	0x3e190fae	0.14947388
125	0x3e536ce2	0.20647004
126	0xbd109f54	-0.035308197
127	0x3e681ed9	0.22668017
128	0xbe0e34ad	-0.13887282
129	0xbe58cce8	-0.21171916
130	0xbec138bf	-0.37738606
131	0xbb7d15b2	-0.0038617668
132	0xbe23c19e	-0.15991828
133	0x3e16cfcb	0.14727704
134	0xbb9aa48e	-0.0047193235
135	0x3d858b59	0.06520719
136	0xbe133189	-0.14374365
137	0x3e958f68	0.29210973
138	0x3eb3e6a9	0.35136917
139	0x3ea613d5	0.32437006
140	0xbdc50c04	-0.096214324
141	0x3e434fec	0.19073457
142	0x3da41de8	0.08013517
143	0x3d1da250	0.03848487
144	0xbe2e4343	-0.17017846
145	0x3e5165c6	0.2044898
146	0x3e3908da	0.18069783
147	0xbd16b9fc	-0.036798462
148	0xbe027ebe	-0.12743661
149	0x3d1f2dc8	0.03886202
150	0xb9d6c000	-0.00040960312
151	0xbe3cef51	-0.18450667
152	0x3dc1baa4	0.09459427
153	0xbde78cdd	-0.113061644
154	0x3c1d0130	0.009582803
155	0xbca0aee0	-0.019614637
156	0x3bd3f760	0.0064686984
157	0xbe2da87f	-0.16958807
158	0xb8220000	-3.862381e-05
159	0x3aa3ac80	0.0012487322
160	0x3dfa2b6f	0.122153156
161	0x3e3cedb5	0.18450053
162	0x3e27223f	0.16321658
163	0x3d6ef3f5	0.058338124
164	0xbde0de5f	-0.10979914
165	0xbc931288	-0.017953172
166	0xbdd6dd95	-0.10491482
167	0xbe0c406b	-0.13696449
168	0x3e634f34	0.22198182
169	0x3e360c58	0.17778146
170	0xbd4793f7	-0.048725095
171	0x3cab7017	0.020927472
172	0xbd5326c1	-0.05155063
173	0xbcd73993	-0.02627257
174	0xbe607b03	-0.21921925
175	0x3caa8ea9	0.020819979
176	0xbe55957a	-0.20857802
177	0xbb62540d	-0.0034534961
178	0x3e19409b	0.14966051
179	0x3e5bfc8e	0.2148306
180	0xbe631edc	-0.2217974
181	0x3e5d060c	0.21584338
182	0xbdf9b8b2	-0.12193431
183	0x3e3c6ffe	0.18402097
184	0xbe297de4	-0.1655193
185	0x3d2e1eb8	0.042509764
186	0x3e57a73e	0.21059892
187	0x3e48c814	0.19607574
188	0xbd866c30	-0.06563604
189	0xbe592d7b	-0.21208756
190	0x3c36b2d0	0.011151031
191	0x3c75dd60	0.015006393
192	0x3e540656	0.20705542
193	0xbe362b1c	-0.17789882
194	0x3e0b5432	0.13606337
195	0xbde84996	-0.113421604
196	0x3e0ffdc4	0.14061648
197	0x3e104444	0.14088541
198	0xbde70c95	-0.11281697
199	0xbd1d6328	-0.03842464
200	0xbe2863d2	-0.16444328
201	0x3e0579ce	0.13034746
202	0xbd894172	-0.06701936
203	0xbde9c117	-0.11413782
204	0x3dff85ac	0.12476668
205	0xbe1a3cd4	-0.15062267
206	0x3e1eb0d6	0.15497145
207	0x3cc91b90	0.024549276
208	0xbca3aa80	-0.019978762
209	0x3e19730e	0.14985296
210	0x3e4b9c6a	0.19883886
211	0xbdd418e3	-0.10356309
212	0x3e0642c6	0.1311141
213	0xbd007e84	-0.031370655
214	0xbe4d8f4c	-0.20074195
215	0xbd22ce68	-0.039747626
216	0xbd209938	-0.03920862
217	0xbda1f5a6	-0.07908182
218	0x3d2db4d8	0.042408794
219	0x3e074386	0.13209352
220	0x3d92d091	0.07168687
221	0x3e62b941	0.22140981
222	0x3e0fb9dc	0.14035743
223	0x3dd12f5f	0.102141134
224	0x3ccf230e	0.02528527
225	0xbe5cb473	-0.21553211
226	0x3d0732a8	0.033007294
227	0xbd0316db	-0.03200422
228	0x3c869087	0.016426338
229	0xbe5bcae4	-0.21464115
230	0xbd3eb379	-0.046557877
231	0x3e51a43f	0.20472811
232	0x3e3af1ac	0.18256253
233	0x3b38ea65	0.0028215882
234	0x3df209b9	0.11818261
235	0x3e17b521	0.14815189
236	0x3e067ff7	0.13134752
237	0x3e6cbe38	0.23119438
238	0xbe0d4962	-0.13797525
239	0xbe1c77cc	-0.15280074
240	0x3e12d666	0.14339599
241	0x3d6439a7	0.055719044
242	0xbe3ce639	-0.18447198
243	0xbdd64fa3	-0.10464408
244	0xbcc5c53e	-0.024141904
245	0x3da5b36c	0.08090863
246	0xbd8b5b14	-0.06804481
247	0x3da3bb6d	0.07994733
248	0x3dacf02e	0.08444248
249	0xbdd634ac	-0.10459265
250	0xbce76f3e	-0.028251287
251	0xbc906c72	-0.017629836
252	0x3d934341	0.07190562
253	0xbe4418af	-0.19150041
254	0xbe43115f	-0.19049595
255	0x3e5b443b	0.21412747

instance_projector.0.bias f4 [128]
0	0xbdd11af5	-0.1021022
1	0xbddcff9e	-0.107909426
2	0x3d586286	0.052828334
3	0xbde00c4a	-0.10939844
4	0x3dbc54cc	0.09195861
5	0xbc11c750	-0.008897617
6	0xbda68447	-0.08130699
7	0x3a403200	0.00073316693
8	0xbe4f05f6	-0.20217118
9	0xbe090a14	-0.13382751
10	0x3c3c6ff0	0.011501297
11	0xbdb6b75f	-0.08921694
12	0x3d011aa0	0.031519532
13	0x3d65b46f	0.056080278
14	0xbb153dc2	-0.0022772406
15	0xbd85723f	-0.06515931
16	0x3e0b8d0b	0.13628022
17	0x3e411552	0.1885579
18	0xbd35d469	-0.044392023
19	0x3c5ea86c	0.01358996
20	0x3d506f38	0.050887316
21	0x3c6caa42	0.0144448895
22	0x3e062024	0.13098198
23	0xbd0a6db4	-0.033796027
24	0xbe0437e6	-0.12911949
25	0x3dbee765	0.09321479
26	0xbbc88d06	-0.006120327
27	0x3e576027	0.21032773
28	0x3e1a958e	0.15096113
29	0x3e21d8b8	0.15805328
30	0x3e066faf	0.13128541
31	0xbc5345a0	-0.012895018
32	0x3d75988c	0.059959933
33	0x3dea551b	0.11442014
34	0x3dc2d793	0.09513774
35	0x3d84be3b	0.06481596
36	0xbdfe968a	-0.12431057
37	0xbe3dcf4d	-0.1853611
38	0xbe4e67d6	-0.20156798
39	0x3e11302e	0.14178535
40	0xbd0906f6	-0.033453904
41	0xbdd3f7c9	-0.10349996
42	0x3e1623e8	0.14662135
43	0x3e6f96d4	0.2339738
44	0xbe2624b8	-0.16224945
45	0x3e4e6142	0.20154288
46	0xbe515c1a	-0.2044529
47	0xbe65c255	-0.22437413
48	0xbda18268	-0.07886201
49	0xbdfab725	-0.12241963
50	0x3e45fbec	0.19334382
51	0xbe300ec4	-0.17193133
52	0xbe158313	-0.14600782
53	0xbc1bd780	-0.009511828
54	0x3e0fa9f0	0.1402967
55	0xbdbb1b2d	-0.09136043
56	0x3db53c07	0.0884934
57	0xbd9f31db	-0.07773181
58	0xbe179071	-0.14801194
59	0x3da06364	0.07831457
60	0xba735f92	-0.00092839554
61	0x3e282044	0.16418558
62	0x3e35d49e	0.17756888
63	0xbe611122	-0.21979192
64	0x3dd3f079	0.10348601
65	0xbe6bcb31	-0.2302673
66	0x3d2df293	0.042467665
67	0xbdbb057e	-0.09131907
68	0xbe0cdab8	-0.1375531
69	0xbc9c7985	-0.019100914
70	0x3e609d03	0.21934895
71	0xbd21ff81	-0.03955031
72	0xbdb151be	-0.08658169
73	0x3dfee60e	0.12446223
74	0x3d52a14d	0.05142336
75	0x3e7aa433	0.244767
76	0xbdf245e3	-0.11829736
77	0x3e4be146	0.19910154
78	0x3dafd788	0.08586031
79	0x3df2f0e1	0.1186235
80	0xbe401643	-0.18758492
81	0xbdfb60f5	-0.122743525
82	0xbe00d6e5	-0.12581976
83	0xbe356717	-0.17715107
84	0x3e309591	0.17244555
85	0x3de67928	0.112535775
86	0xbcadb7e0	-0.021205842
87	0x3e2fed71	0.1718042
88	0xbdf1c8af	-0.118058555
89	0x3d8f55a8	0.069987595
90	0xbc75ca34	-0.015001822
91	0xbd6d53f4	-0.057941392
92	0xbdfee802	-0.12446596
93	0x3d2035e0	0.03911388
94	0x3e37a3d7	0.17933594
95	0xbe1cf95d	-0.153295
96	0x3cf3a065	0.029739568
97	0x3dce4b3a	0.10072942
98	0x3cdfaba6	0.027303528
99	0x3e54be53	0.20775728
100	0x3dd40e4a	0.10354288
101	0x3d416887	0.047218826
102	0x3e121a8f	0.14267944
103	0xbe1120b5	-0.14172633
104	0x3e28b73e	0.16476151
105	0x3df4dc75	0.11956111
106	0xbcd97c1b	-0.026548436
107	0xbe47fdc7	-0.19530402
108	0xbe0b370d	-0.13595219
109	0xbe11953a	-0.14217082
110	0xbe0daa35	-0.1383446
111	0xbe485a0f	-0.19565605
112	0xbdad4761	-0.0846088
113	0x3dcf4a97	0.10121649
114	0x3d3a4229	0.04547325
115	0xbdd69ad1	-0.10478748
116	0xbdd7c718	-0.10536021
117	0xbe466302	-0.19373706
118	0xbdbadc24	-0.0912402
119	0x3e22e016	0.15905795
120	0x3e124667	0.14284669
121	0x3cd95a4b	0.026532313
122	0x3e002ad1	0.12516333
123	0x3dc3b31a	0.09555645
124	0x3d04e20e	0.032442145
125	0xbbd24793	-0.0064172237
126	0x395974ba	0.00020738217
127	0xbe2792b1	-0.16364552

instance_projector.2.weight f4 [20, 128]
0	0x3c65eef0	0.014034018
1	0x3d7b844a	0.061405458
2	0x3daf1a23	0.08549907
3	0xbc6805f7	-0.014161578
4	0xbd476474	-0.048679784
5	0x3d5b1c4e	0.05349379
6	0x3cea492a	0.02859934
7	0x3b4d12a0	0.003129162
8	0x3da1cdcd	0.079005815
9	0xbd0fab52	-0.035075493
10	0x3c8ec554	0.017428078
11	0x3d927bcb	0.07152518
12	0x3d734ad6	0.05939754
13	0xbce28417	-0.027650876
14	0xbd5cd4ea	-0.05391399
15	0xbd0ce7f3	-0.03440089
16	0x3ad516de	0.0016257425
17	0xbc3c7365	-0.011502122
18	0xbd736d9d	-0.059430707
19	0xbcfcc33a	-0.03085481
20	0xbd51fe3b	-0.051267844
21	0xbd986831	-0.07441748
22	0xbcd236fd	-0.025660986
23	0x3d9a2c39	0.07527966
24	0xbc8914f3	-0.016733622
25	0xbbf53e89	-0.0074842614
26	0xbdb8750c	-0.090067
27	0xbd95a827	-0.07307463
28	0xbd4a9164	-0.04945506
29	0x3cc83c52	0.024442825
30	0xbd1a3bcc	-0.037654683
31	0x3da4de9a	0.080502704
32	0xbd371ace	-0.044703297
33	0xbd1332ee	-0.035937242
34	0xbd8f71d5	-0.070041336
35	0x3ba484d4	0.005020717
36	0x3d87b144	0.066256076
37	0xbd9a4f1f	-0.075346224
38	0x3d8fac3d	0.07015274
39	0xbd7bc0d8	-0.061463207
40	0xbc97e1a9	-0.01854022
41	0x3d9d6b1e	0.076864466
42	0xbc668188	-0.014068969
43	0xbda0677f	-0.0783224
44	0xbd54d214	-0.05195816
45	0xbc975106	-0.018471252
46	0x3d796bcd	0.060893822
47	0x3d3eac49	0.046551023
48	0xbc9a69cc	-0.018849276
49	0xbd319a6f	-0.04336017
50	0x3d609a48	0.054834634
51	0x3d9b4bbd	0.07582805
52	0xbc7d5557	-0.015462241
53	0xbd6cc434	-0.0578043
54	0xbda014cb	-0.07816466
55	0x3d9c5c62	0.07634808
56	0x3d062c34	0.032757
57	0xbcf4d053	-0.029884493
58	0xbc63ab7a	-0.013895864
59	0x3c94ce5e	0.01816481
60	0xbdabead9	-0.08394403
61	0xbcc237d1	-0.023708256
62	0xbdb5cf5c	-0.08877441
63	0x3d7e5509	0.062092815
64	0xbba99f4b	-0.00517646
65	0xbcbda8b0	-0.023151726
66	0xbd8f47f0	-0.06996143
67	0xbc41ff1d	-0.011840609
68	0xbc699bb4	-0.014258314
69	0xbd8bab9d	-0.06819842
70	0x3d8fd4a3	0.07022979
71	0xbd82b3fb	-0.06381985
72	0x3d161fa6	0.036651276
73	0x3d4a310a	0.049363174
74	0x3a51ebf0	0.0008007875
75	0x3c38f42c	0.011288684
76	0x3ce2050c	0.027590297
77	0xbd0ed524	-0.034871235
78	0xbd31152f	-0.043233093
79	0xbd92d84d	-0.07170162
80	0x3d028ccd	0.03187256
81	0x3d14e4fd	0.036351193
82	0xbc280439	-0.010254913
83	0x3bf6515a	0.007517022
84	0xbd8b166e	-0.067913875
85	0x3d2fa8ee	0.042885713
86	0x3d76e14e	0.06027346
87	0xbcb0fdd4	-0.02160541
88	0x3ce9604c	0.0284883
89	0xbd6ff956	-0.058587395
90	0xbd6ab909	-0.05730537
91	0xbcaa2190	-0.020767957
92	0xbd0d9525	-0.034566063
93	0x3d6d9921	0.058007363
94	0xbd1707e9	-0.036872778
95	0x3c93f520	0.01806122
96	0xbcf3f90f	-0.029781846
97	0x3bca9115	0.006181846
98	0x3d83caf7	0.06435197
99	0x3da48286	0.08032708
100	0x3d7aa448	0.061191827
101	0x3b3c6cae	0.0028751302
102	0xbc094b01	-0.008379699
103	0xbce80e92	-0.02832726
104	0x3ca7cfe7	0.020484878
105	0xbd941430	-0.07230413
106	0xbcc7c9c1	-0.024388196
107	0x3d514338	0.051089495
108	0x3d7d7a44	0.06188418
109	0xbd59bc6c	-0.05315821
110	0xbd0bb9a1	-0.034112576
111	0xbd044acd	-0.032297898
112	0x3dbe4ca9	0.092919655
113	0xbdbcde7a	-0.092221215
114	0x3d0c66bd	0.034277666
115	0xbcb27087	-0.021782173
116	0x3da3d3d0	0.079993844
117	0xbd5144b2	-0.051090904
118	0xbc2f23cd	-0.010689688
119	0x3d949ec5	0.072568454
120	0xbc5dad41	-0.0135300765
121	0x3d2e5e74	0.042570546
122	0x3cb82d24	0.022482462
123	0x3d2be313	0.0419646
124	0xbcc99e35	-0.024611572
125	0xbbd362c9	-0.006450985
126	0xbd365626	-0.04451575
127	0x3cc0d9e4	0.023541398
128	0x3cc19ee7	0.02363534
129	0x3da2c0f8	0.07946962
130	0xbb9e7cad	-0.00483664
131	0x3d721b5b	0.05910812
132	0xbd33579e	-0.04378473
133	0x3ce2f618	0.027705237
134	0x3d38e0ea	0.04513637
135	0x3ce2c430	0.02768144
136	0xbd01d1df	-0.03169429
137	0x3d0a748e	0.03380256
138	0x3c8821f4	0.016617753
139	0x3db8780b	0.090072714
140	0xbd89426b	-0.06702121
141	0x3bd70163	0.0065614446
142	0xbd9cc265	-0.07654265
143	0x3cf2bef2	0.029632065
144	0xbd80efe4	-0.062957555
145	0xbd9095e3	-0.070598386
146	0xbd901177	-0.07034581
147	0xbd874a32	-0.066059485
148	0x3dba0752	0.090834275
149	0xbc3b3655	-0.011426528
150	0x3dbc1a96	0.09184758
151	0x3d3b2df6	0.04569813
152	0x3d9066d8	0.07050866
153	0x3da6e74c	0.08149585
154	0x3cd8f8da	0.02648585
155	0xbc24dd59	-0.010062539
156	0xbc6054df	-0.01369211
157	0x3d3f067a	0.046637036
158	0x3d4b6b10	0.04966265
159	0xbd801b4b	-0.06255206
160	0xbda207e2	-0.0791166
161	0x3d338b5e	0.043834083
162	0xbd864a86	-0.06557183
163	0xbce91ab1	-0.02845511
164	0x3d29d9aa	0.041467346
165	0xbced4254	-0.028962292
166	0x3c932ea0	0.017966568
167	0x3d71ed9f	0.059064504
168	0x3d2cf7a1	0.042228345
169	0x3d450ea3	0.04810966
170	0xbdad8941	-0.08473445
171	0xbbc7d186	-0.006097975
172	0x3d167327	0.03673091
173	0xbd3559e5	-0.044275183
174	0x3d8c8dd0	0.06862986
175	0x3c58d6ca	0.013234803
176	0x3c97cb0c	0.018529437
177	0xbd87597e	-0.06608866
178	0x3baa04ca	0.005188559
179	0xbd8168a9	-0.063187905
180	0xbddabf87	-0.10681062
181	0x3c8f2bf7	0.017477019
182	0x3d8f4733	0.06996002
183	0xbd8f63b4	-0.07001439
184	0x3c2b021b	0.010437514
185	0x3db36e8a	0.08761318
186	0x3e15e810	0.14639306
187	0x3d5f9526	0.0545856
188	0xbd3949db	-0.04523645
189	0xbd8f8813	-0.07008376
190	0x3dbc46f7	0.09193223
191	0xbca1b19a	-0.019738007
192	0x3d524ee3	0.051344763
193	0xbbe2eb7e	-0.0069250455
194	0xbcb4f8ed	-0.022091353
195	0xbd9df7e8	-0.077133
196	0x3db1e26a	0.08685763
197	0x3d3096bb	0.043112498
198	0x3d247271	0.040148202
199	0x3db56de3	0.0885885
200	0xbc69fe10	-0.014281765
201	0x3d6b9341	0.05751348
202	0x3dbd5c48	0.09246117
203	0xbd7769a4	-0.06040348
204	0xbcebd3f6	-0.028787594
205	0x3d2cfa50	0.042230904
206	0xbb9aba6d	-0.0047219307
207	0xbd84359b	-0.06455537
208	0x39f11edf	0.00045990103
209	0xbcc2177c	-0.023692839
210	0xbb1627ed	-0.0022911981
211	0x3dc37d7b	0.09545418
212	0xbd934a67	-0.071919255
213	0x3d9cfd7a	0.07665534
214	0xbcd7b126	-0.026329588
215	0xbcd04679	-0.025424229
216	0x3d498fca	0.049209394
217	0xbbba7d30	-0.005691193
218	0x3bfac300	0.0076526403
219	0x3daa65bf	0.08320188
220	0x3cbf23f8	0.02333258
221	0x3db5e606	0.08881764
222	0x3cdc359f	0.026881037
223	0xbd3434e8	-0.043995768
224	0xbda55949	-0.080736704
225	0x3b331ad0	0.0027329214
226	0x3d823c90	0.06359208
227	0xbd4a9087	-0.04945424
228	0x3defaeb1	0.117032416
229	0x3d8b3262	0.06796719
230	0xbd2826a3	-0.04105247
231	0x3d4105b4	0.04712458
232	0xbd934285	-0.07190422
233	0x3cbdd5e6	0.023173284
234	0xbda1558d	-0.07877646
235	0x3dba9bc2	0.0911174
236	0xbd9619ae	-0.07329117
237	0x3d696572	0.05698151
238	0xbcc2c8f4	-0.023777463
239	0x3d8167c3	0.06318619
240	0x3ce16dd3	0.027518189
241	0xbd0bcc9a	-0.03413067
242	0xbc8b8142	-0.017029408
243	0x3d5838d2	0.052788563
244	0x3d1b7ffe	0.03796386
245	0xbcfb7b8e	-0.030698564
246	0x3d327565	0.043568987
247	0xbd4f6d1c	-0.050641164
248	0xbd895646	-0.067059085
249	0x3db0bf17	0.086301975
250	0xbd38d70e	-0.045126967
251	0xbcab4a75	-0.020909527
252	0x3d86013d	0.06543205
253	0x3dc55e49	0.09637124
254	0x3d5b10f4	0.053482965
255	0xbd8ceae8	-0.06880742

instance_projector.2.bias f4 [20]
0	0x3ca7e851	0.02049652
1	0x3db6dfef	0.08929431
2	0xbbc4e741	-0.006009013
3	0xbda29c31	-0.079399474
4	0xbd4583c3	-0.04822136
5	0x3d894ab2	0.067037
6	0xbc308234	-0.01077323
7	0xbd59262b	-0.053014915
8	0xbb2dbac5	-0.0026509028
9	0xbd86dc33	-0.065849684
10	0xbbd71028	-0.0065632053
11	0xbd2d1e7e	-0.042265408
12	0x3b5e7fed	0.0033950761
13	0xbca08af1	-0.019597502
14	0x3db6f08c	0.089325994
15	0xbc9d587c	-0.019207232
16	0x3dae03e1	0.084968336
17	0xbcbcb770	-0.023036689
18	0xbd2e69f6	-0.04258152
19	0xbd502f76	-0.050826512

cluster_projector.0.weight f4 [128, 20]
0	0xbcc5d94a	-0.024151463
1	0x3de797f7	0.11308282
2	0xbd60de56	-0.054899536
3	0x3e36d629	0.17855133
4	0x3e40f90f	0.18845008
5	0xbdf1c9de	-0.11806081
6	0xbe033c68	-0.12816012
7	0xbe40eadf	-0.18839596
8	0x3d952424	0.07282284
9	0xbe53d3c2	-0.20686248
10	0xbd420c3a	-0.04737494
11	0x3e2eb52e	0.17061302
12	0x3d55cfcd	0.052200127
13	0xbe0d7b51	-0.13816573
14	0x3daaa555	0.08332316
15	0x3db9e4e5	0.09076861
16	0xbe664ac1	-0.22489454
17	0x3e508ad5	0.2036546
18	0x3defc5c3	0.11707642
19	0x3da9d9a2	0.08293463
20	0x3e6665ee	0.2249982
21	0x3c7f4ba6	0.015582001
22	0xbe5feefa	-0.21868506
23	0xbe76bdc5	-0.24095829
24	0xbb88ea82	-0.004178346
25	0xbe25cf84	-0.16192442
26	0x3d676900	0.05649662
27	0xbde9d130	-0.114168525
28	0xbe0ff38b	-0.14057748
29	0xbd921d5a	-0.071345046
30	0x3e2222c6	0.15833578
31	0x3e2d3e47	0.16918288
32	0x3caf0cf9	0.02136849
33	0xbe1a7c74	-0.15086538
34	0xbe69a75a	-0.22817746
35	0xbdce6271	-0.1007737
36	0x3ba04b6d	0.004891804
37	0xbdcf6b0b	-0.10127839
38	0x3e884a77	0.26619312
39	0x3cc84557	0.024447126
40	0xbdc4466a	-0.09583743
41	0xbe513390	-0.20429826
42	0x3e563f24	0.20922524
43	0xbddfd26e	-0.10928808
44	0x3d4eb618	0.050466627
45	0xbe17ccbe	-0.14824197
46	0xbe03e068	-0.12878573
47	0x3db3f934	0.08787766
48	0xbe561e40	-0.20909977
49	0x3ddc176c	0.10746655
50	0xbde1b814	-0.11021438
51	0xbd93d924	-0.07219151
52	0x3e074e5c	0.13213485
53	0xbe569e22	-0.2095876
54	0x3d1621d0	0.03665334
55	0xbe4bcabe	-0.19901559
56	0xbe2a0898	-0.16604841
57	0xbe356d3e	-0.17717454
58	0xbe57c682	-0.21071818
59	0xbdc4c832	-0.09608497
60	0x3e55d200	0.2088089
61	0xbdcd4d84	-0.100245506
62	0xbec9ebf2	-0.39437824
63	0xbe601578	-0.2188319
64	0xbdb8c9f9	-0.09022898
65	0x3da827d8	0.082107246
66	0xbd0f6c3c	-0.03501533
67	0x3e6bf011	0.23040797
68	0xbcbd1946	-0.02308334
69	0x3e26c0d0	0.1628449
70	0x3c9a664c	0.018847607
71	0x3e6affd5	0.22949155
72	0x3e9a97ed	0.30194035
73	0xbae4acb8	-0.0017446494
74	0xbe2e8ebe	-0.1704664
75	0x3e367db0	0.17821383
76	0x3ac116b3	0.0014731496
77	0xbd697aa1	-0.057001714
78	0xbc9537cc	-0.018215083
79	0x3eceeb70	0.40414
80	0x3d931149	0.07181031
81	0x3e1a05a6	0.15041217
82	0x3dd9dbec	0.1063765
83	0xbe32a4be	-0.17445657
84	0x3e8e0e68	0.27745366
85	0xbd101ec4	-0.03518559
86	0xbe25ad21	-0.16179325
87	0xbe0d4eb6	-0.13799557
88	0x3d5b1bf4	0.053493455
89	0x3e38e414	0.18055755
90	0x3e060037	0.1308602
91	0x3e8248dc	0.25446212
92	0xbe15f99d	-0.14646001
93	0x3e4e0419	0.2011875
94	0x3ddebb08	0.10875517
95	0x3e4b20b0	0.19836688
96	0xbe38acd8	-0.18034685
97	0x3e6faf24	0.23406655
98	0x3e0c5c9a	0.137072
99	0xbe4ec16b	-0.2019097
100	0xbd76295e	-0.060098045
101	0xbbc475f2	-0.0059955055
102	0x3d9f2230	0.077701926
103	0x3d778aaf	0.060434993
104	0x3e9c7915	0.30561128
105	0xbd3ecb44	-0.046580568
106	0xbe2f0a27	-0.17093717
107	0xbdae46ba	-0.08509584
108	0x3bcf8ae3	0.0063336953
109	0x3df669dc	0.1203191
110	0x3dd9e555	0.10639445
111	0x3e702367	0.23451005
112	0x3d5caf8c	0.053878352
113	0x3e0c2d83	0.13689236
114	0x3e35a4a6	0.1773859
115	0x3dcdcace	0.100484475
116	0x3ded640f	0.1159135
117	0x3e1dc958	0.15408838
118	0xbe229907	-0.15878688
119	0x3b7ad3ba	0.0038273172
120	0xbd608654	-0.054815605
121	0x3c67581f	0.014120131
122	0x3eb57488	0.3544047
123	0x3e2e2617	0.17006718
124	0x3ebf0240	0.37306404
125	0x3e12954c	0.14314765
126	0xbe4266d2	-0.18984535
127	0xbcd17447	-0.02556814
128	0x3e92e9a9	0.28693894
129	0xbe441354	-0.19147998
130	0x3e6d99fe	0.23203275
131	0xbe336292	-0.1751807
132	0x3d3034f3	0.043019246
133	0x3dddac8b	0.108239256
134	0x3d52c2d2	0.051455326
135	0xbe22c5cb	-0.15895765
136	0xbe1b9337	-0.15192877
137	0x3d86f140	0.065889835
138	0xbdb11dd5	-0.08648268
139	0xbc86d3c2	-0.016458396
140	0xbddddb27	-0.108328156
141	0x3e76d283	0.24103741
142	0x3e903b01	0.28170016
143	0x3e963b1e	0.29341978
144	0x3ea37593	0.3192564
145	0x3e63dba4	0.22251755
146	0xbd23ef5c	-0.040023193
147	0xbe53dc54	-0.20689517
148	0x3df2d89d	0.11857722
149	0xbe30e9ce	-0.1727669
150	0x3e5854fb	0.21126167
151	0x3e4d49af	0.2004764
152	0x3e7526a0	0.23940516
153	0x3e0b133e	0.13581559
154	0x3e45a639	0.1930169
155	0xbda13f89	-0.078734465
156	0x3ddbf66e	0.10740362
157	0xbe895bba	-0.26827794
158	0xbd2e9fcf	-0.042632874
159	0x3e8afe77	0.27147266
160	0x3e85e6d7	0.2615268
161	0x3d6b278d	0.057410765
162	0x3da0574d	0.07829151
163	0xbe1fdd4c	-0.15611762
164	0xbe9e56ce	-0.30925602
165	0xbe26d8ce	-0.16293642
166	0x3d16f540	0.036854982
167	0xbce180c3	-0.027527219
168	0xbda45177	-0.08023351
169	0x3dd772b8	0.10519928
170	0x3e275fa9	0.16345085
171	0xbc42e781	-0.011896015
172	0xbe495c6e	-0.19664165
173	0x3e2c626f	0.16834424
174	0xbdb039ef	-0.086048
175	0xbe4b95ba	-0.19881335
176	0x3d31f67c	0.043447956
177	0xbe5b13b7	-0.2139424
178	0x3e997698	0.29973292
179	0x3e9e6017	0.30932686
180	0xbdf9ef4c	-0.122038454
181	0x3d173b58	0.03692183
182	0x3ccda0e8	0.02510114
183	0xbc9b8558	-0.018984482
184	0xbe2fbdfb	-0.17162316
185	0xbd8d6c98	-0.06905478
186	0xbc994218	-0.018708274
187	0x3af9c680	0.001905635
188	0x3e311a8c	0.17295283
189	0xbdef647d	-0.116890885
190	0xbe1246df	-0.14284848
191	0x3d891754	0.066939026
192	0x3de8c230	0.11365163
193	0xbde511ce	-0.111850366
194	0xbde78ba5	-0.11305932
195	0xbe310a9e	-0.17289206
196	0xbe1e04e3	-0.15431552
197	0x3e5175b4	0.20455056
198	0x3d963818	0.07334918
199	0x3d149808	0.0362778
200	0xbd2f2110	-0.04275614
201	0x3e17b8e8	0.1481663
202	0x3e5fe0c0	0.21863079
203	0xbe04296b	-0.12906425
204	0xbe76f1b6	-0.24115643
205	0x3e188a5c	0.1489653
206	0x3e336230	0.17517924
207	0x3e0ad6bd	0.13558479
208	0xbda0c409	-0.07849891
209	0x3e546a78	0.2074374
210	0xbd91a6e9	-0.07111914
211	0x3de6b357	0.11264675
212	0xbddf8309	-0.10913665
213	0x3e39d154	0.18146259
214	0x3e127020	0.14300585
215	0xbcc2a6a2	-0.023761097
216	0x3db143ca	0.08655508
217	0xbcbab0a7	-0.022789313
218	0x3e92caf1	0.28670457
219	0x3d73dd52	0.05953724
220	0xbb853bcb	-0.004065966
221	0x3e5c8eec	0.21538895
222	0x3eb50d2d	0.35361615
223	0x3bd6e6d5	0.006558279
224	0x3eb2d097	0.34924766
225	0xbdd0bbce	-0.10192071
226	0x3e225300	0.15851974
227	0xbdaac247	-0.08337837
228	0x3dc669aa	0.096881226
229	0x3d836d78	0.06417364
230	0x3db1e173	0.08685579
231	0xbde79a67	-0.11308747
232	0x3e94d337	0.29067394
233	0xbe0bda51	-0.136575
234	0xbdd8de62	-0.10589291
235	0xbd82f2e5	-0.06393985
236	0x3cd05427	0.025430752
237	0x3e71b271	0.23603226
238	0x3dc139e2	0.094348684
239	0xbe6b1924	-0.22958809
240	0x3e3c28d2	0.18374947
241	0x3e6951d8	0.22785127
242	0x3eb3b20b	0.35096774
243	0xbd1def66	-0.038558386
244	0x3e02ce81	0.12774087
245	0x3e58bf74	0.21166784
246	0x3d171f38	0.036895007
247	0x3e3a7959	0.18210353
248	0x3a92034f	0.0011139902
249	0x3e077ece	0.13231966
250	0x3dc014a2	0.093789354
251	0xbdf4cc02	-0.11952974
252	0xbd66265c	-0.056188926
253	0xbe688f38	-0.22710884
254	0xbe3a08c4	-0.18167406
255	0x3db3f430	0.087868094

cluster_projector.0.bias f4 [128]
0	0x3e342425	0.17591913
1	0xbe6b609c	-0.22986072
2	0xbe2b15d4	-0.16707546
3	0xbe25bac2	-0.16184524
4	0x3e7866bb	0.24257939
5	0x3e77bcad	0.24193068
6	0x3e14ff63	0.14550547
7	0x3e23802d	0.15966864
8	0xbe5f9da9	-0.21837486
9	0xbdc26ff2	-0.09494008
10	0x3e72e14c	0.23718756
11	0x3e5ab873	0.21359424
12	0x3eacb1a5	0.33729282
13	0x3e0c7203	0.13715367
14	0xbdaaa819	-0.08332843
15	0xbdc47f82	-0.09594633
16	0x3e07ddba	0.13268176
17	0x3e3a1f3d	0.18175979
18	0xbc9fbfdb	-0.019500664
19	0xbd906a51	-0.07051528
20	0xbdcd9876	-0.10038845
21	0x3e4d7fe0	0.20068312
22	0xbb9c46d4	-0.0047691856
23	0xbe62672f	-0.22109674
24	0xbd9a3fb5	-0.075316824
25	0xbdcf7c49	-0.101311274
26	0x3d45ccc3	0.04829098
27	0x3d952535	0.07282487
28	0xbe372a2f	-0.17887186
29	0x3e9ea764	0.30987084
30	0x3e287167	0.1644951
31	0x3c81d51c	0.015848689
32	0xbe34bd90	-0.17650437
33	0x3cfd2272	0.030900214
34	0xbe265999	-0.16245116
35	0x3d1fb6c8	0.038992673
36	0xbe16c273	-0.14722614
37	0xbe4c127c	-0.19928926
38	0xbdfa92ee	-0.12235056
39	0x3e60c713	0.21950941
40	0x3e998eb4	0.29991686
41	0xbdb32b12	-0.087484494
42	0xbe5808a6	-0.21097049
43	0xbe5c1c00	-0.21495056
44	0x3de89de9	0.11358244
45	0x3df3847a	0.11890502
46	0x3e36ed47	0.17863952
47	0xbdc57eeb	-0.09643348
48	0x3cbf10eb	0.023323497
49	0x3e20f3f6	0.15718064
50	0x3cfeba73	0.031094765
51	0x3d3271b2	0.04356546
52	0x3e2e3abe	0.17014596
53	0x3d665017	0.056228723
54	0x3eac7546	0.33683223
55	0xbdcfbd11	-0.101434834
56	0x3e3fdb76	0.18736061
57	0x3e1ad393	0.15119772
58	0x3e030ed3	0.12798624
59	0x3cf3dc57	0.029768152
60	0x3e005309	0.12531675
61	0x3d02489b	0.031807523
62	0xbdf39c01	-0.1189499
63	0x3d7b3748	0.061332017
64	0x3e04d708	0.12972653
65	0x3e564a68	0.20926821
66	0xbe13e778	-0.14443767
67	0xbe4b6a4f	-0.19864772
68	0x3e3a873e	0.18215653
69	0x3e436639	0.19081964
70	0x3e01e7d8	0.12686098
71	0x3e51ef9d	0.20501561
72	0x3e822c54	0.25424445
73	0x3b9ef9d2	0.0048515582
74	0x3e06a2d1	0.13148047
75	0xbe01bab5	-0.1266888
76	0x3d9c0635	0.076183714
77	0x3e8e7fd7	0.2783191
78	0x3e25b02c	0.16180485
79	0x3d169188	0.036759883
80	0x3e2b65b3	0.16738014
81	0x3e5e88ae	0.21731827
82	0xbe33b963	-0.17551188
83	0x3df1f16b	0.11813625
84	0xbd6fb73c	-0.058524355
85	0x3e430414	0.19044524
86	0x3d8625ec	0.06550202
87	0x3e442b0b	0.19157045
88	0x3d9f0be4	0.0776594
89	0x3c73f23f	0.014889299
90	0x3e38a8a0	0.18033075
91	0x3e68eedd	0.22747369
92	0x3cc7641d	0.02433973
93	0x3e7268e1	0.2367282
94	0x3dfa7993	0.1223022
95	0xbe21dce6	-0.15806922
96	0xbe5ad112	-0.21368816
97	0xbe73e4b1	-0.23817708
98	0xbe1e4851	-0.15457274
99	0x3de78c40	0.113060474
100	0xbe33364a	-0.17501178
101	0x3d07ac80	0.033123493
102	0xbe68b12d	-0.22723837
103	0xb90cb4d4	-0.00013418804
104	0xbde35cf0	-0.11101711
105	0x3e492458	0.1964277
106	0xbe2c0154	-0.16797382
107	0x3c74dccf	0.014945223
108	0xbe3e087f	-0.18557929
109	0xbd9ee46d	-0.077584125
110	0x3e4256dd	0.18978448
111	0xbe0d9ba0	-0.13828897
112	0x3e209948	0.15683472
113	0xbe25b37d	-0.1618175
114	0xbe0da3e3	-0.13832049
115	0xbdc16704	-0.09443477
116	0xbe3c0f49	-0.18365206
117	0x3e2cfad1	0.16892554
118	0xbe2931dc	-0.16522926
119	0x3e239693	0.15975408
120	0xbe3a643b	-0.18202297
121	0xbd83c94d	-0.064348795
122	0xbe047609	-0.12935652
123	0xbce25538	-0.027628526
124	0x3e1dc9a8	0.15408957
125	0xbd5096e8	-0.050925165
126	0x3e685e87	0.2269231
127	0x3db96267	0.09051972

cluster_projector.2.weight f4 [50, 128]
0	0x3d80c368	0.06287271
1	0xbddcec54	-0.107872635
2	0x3cccae1c	0.024985366
3	0xbe07c989	-0.13260473
4	0x3d21cf0d	0.0395041
5	0x3d7a4118	0.061097234
6	0x3e3adb63	0.18247752
7	0x3d8ac659	0.06776113
8	0x3d9d83c1	0.07691146
9	0x3d2c3c3a	0.042049624
10	0x3e0b585b	0.13607924
11	0x3e16e72e	0.14736626
12	0x3dd8b945	0.10582212
13	0xbcbdc2e9	-0.02316423
14	0xbd440ae8	-0.047861964
15	0xbcecc1a8	-0.028900936
16	0xbd0b2007	-0.03396609
17	0x3dc71134	0.09720078
18	0xbcc0c377	-0.023530705
19	0xbe2262d6	-0.15858015
20	0xbd17681e	-0.03696453
21	0x3dea5e18	0.11443728
22	0xbd0fde62	-0.03512419
23	0x3cb0c210	0.021576911
24	0x3d8d6e40	0.06905794
25	0x3c2d26b2	0.010568308
26	0xbd74622e	-0.059663944
27	0xbdc31c63	-0.09526899
28	0xbd8aea3e	-0.067829594
29	0x3d789a83	0.06069423
30	0x3dfb3a9f	0.122670405
31	0x3d8b67e0	0.06806922
32	0xbb98a3c0	-0.0046581924
33	0x3d06f0f4	0.032944635
34	0x3d19ef39	0.037581656
35	0x3c4176d0	0.011808112
36	0xbb8769c1	-0.00413248
37	0xbd65f01c	-0.05613719
38	0x3da6715a	0.08127089
39	0x3d248779	0.04016826
40	0x3e3a8756	0.18215689
41	0xbc473c8c	-0.012160432
42	0xbd8643da	-0.065559104
43	0xbd44e535	-0.04807015
44	0xbd62bab9	-0.055353854
45	0xbd176368	-0.036960036
46	0xbd734054	-0.05938752
47	0x3d3b5c16	0.045742117
48	0x3bc53dbf	0.0060193236
49	0x3d32a0fa	0.04361055
50	0x3d03ecb7	0.03220817
51	0xbcaa3838	-0.02077876
52	0xbda928da	-0.08259745
53	0x3d686ec8	0.056746274
54	0x3e0f1a36	0.13974842
55	0x3e044bf6	0.12919602
56	0x3d12dbd0	0.03585416
57	0xbcb6aba2	-0.022298638
58	0xbcadd1f6	-0.021218281
59	0xbd6fd3b1	-0.058551494
60	0xbd904f3f	-0.07046365
61	0xbd577504	-0.05260183
62	0xbc5d8665	-0.013520812
63	0xbd827517	-0.06369989
64	0xbd429431	-0.047504608
65	0x3e2f94e5	0.17146643
66	0xbd0dd479	-0.034626458
67	0x3d5932be	0.053026907
68	0x3dcf2333	0.101141356
69	0x3c90aeec	0.017661534
70	0x3c5b9e7d	0.013404486
71	0xbca5cd90	-0.020239621
72	0x3dc50a4b	0.09621104
73	0xbce05d88	-0.02738835
74	0x3cc6c115	0.02426199
75	0xbdea5ff0	-0.1144408
76	0xbc39f423	-0.011349711
77	0x3d90fd63	0.0707958
78	0xbd83acd7	-0.06429451
79	0x3ba3bbd8	0.004996758
80	0x3c100e8a	0.008792529
81	0xbda213f1	-0.0791396
82	0x3c8cdabe	0.017194148
83	0x3d9c30ad	0.07626472
84	0xbcb45bd8	-0.02201645
85	0xbcfa58c7	-0.03055991
86	0xbd849a42	-0.06474735
87	0x3d4f0d80	0.050549984
88	0xbca21c76	-0.019788962
89	0x3dc8dd19	0.09807796
90	0x3d705aa5	0.058680195
91	0x3e177171	0.14789368
92	0x3c5d1c01	0.013495446
93	0x3db169c6	0.08662753
94	0xbd1adfb3	-0.037810992
95	0x3d95d193	0.07315364
96	0x3dab68a5	0.08369569
97	0x3d1c49f3	0.03815646
98	0xbc969312	-0.018380675
99	0x3c888af5	0.016667822
100	0x3d7f24c5	0.062290926
101	0xbdac290f	-0.08406269
102	0xbd83e49f	-0.064400904
103	0xbc4941c7	-0.012283749
104	0x3d3a0ef3	0.045424413
105	0x3cebf404	0.02880288
106	0x3d9f17a9	0.07768185
107	0xbd8dbceb	-0.06920799
108	0xbd23df7d	-0.040008057
109	0x3d9645dc	0.07337543
110	0xbc0babfe	-0.008524893
111	0x3d867729	0.06565697
112	0x3e19814e	0.14990732
113	0xbd6e585f	-0.058189746
114	0x3d72389d	0.059136022
115	0xbcaf7ffc	-0.021423332
116	0x3db5928d	0.08865843
117	0x3d01d3e0	0.0316962
118	0xbb515e52	-0.0031947088
119	0xbcb99be0	-0.022657335
120	0xbd717409	-0.05894855
121	0x3c6994bf	0.014256655
122	0x3dbe71c0	0.0929904
123	0xbd10de9d	-0.03536855
124	0x3dafd8d7	0.08586281
125	0x3dc0f97e	0.09422587
126	0x3d25bd89	0.040463958
127	0x3df53ebf	0.119748585
128	0xbe08ff91	-0.13378741
129	0xbbb6b87c	-0.0055761915
130	0x3d645a76	0.055750333
131	0x3db20d02	0.08693887
132	0xbda76f75	-0.081755556
133	0xbe4325b4	-0.19057351
134	0xbe2ff353	-0.17182665
135	0xbe30c02a	-0.17260805
136	0xbd042832	-0.032264896
137	0xbcdc6cee	-0.02690741
138	0xbcd53a56	-0.026028793
139	0xbd6bd9ad	-0.05758064
140	0x3de3712c	0.1110557
141	0xbe6498be	-0.22323892
142	0xbd503e5c	-0.05084072
143	0x3d8e3969	0.06944544
144	0xbe1dbf0c	-0.1540491
145	0xbdfa2e8c	-0.12215909
146	0x3dbe90e5	0.0930498
147	0xbda6148d	-0.081093885
148	0xbd9f306d	-0.07772908
149	0x3d6be769	0.057593737
150	0xbda977c5	-0.08274797
151	0x3d4787aa	0.048713364
152	0xbe4f92df	-0.2027087
153	0xbd7d68fc	-0.0618677
154	0x3e3758a7	0.17904912
155	0x3d80cde9	0.06289274
156	0xbd8c8c60	-0.06862712
157	0x3d2b048e	0.04175239
158	0x3d5bee36	0.053693973
159	0x3d1c0eb3	0.038099956
160	0x3c6edd88	0.014579184
161	0xbe858864	-0.2608062
162	0xbd34e1a6	-0.044160508
163	0xbd2d1281	-0.042253975
164	0x3e2f676d	0.17129298
165	0xbd94d166	-0.07266502
166	0x3c296a43	0.010340276
167	0xbea57c16	-0.32321233
168	0x3a1a0021	0.0005874653
169	0xbea04490	-0.3130231
170	0x3ba82dfc	0.005132435
171	0xbdeab027	-0.1145938
172	0x3b84dc3d	0.0040545748
173	0x3d7456e6	0.059653185
174	0xbd8a1103	-0.06741526
175	0x3d49f7da	0.049308635
176	0x3dd3e2e2	0.10346009
177	0x3c8265a8	0.015917614
178	0x3dc22935	0.09480516
179	0x3dce306a	0.10067828
180	0x3d6ec186	0.058290027
181	0x3e1a2659	0.15053691
182	0xbe338a47	-0.17533217
183	0x3d95d25a	0.07315512
184	0x3b40597f	0.0029350219
185	0x3e1a4854	0.15066653
186	0xbd28a1f1	-0.041170064
187	0x3dddface	0.10838853
188	0xbd1225a4	-0.03568043
189	0xbe76bff2	-0.24096659
190	0xbe719dc5	-0.2359534
191	0x3b355a80	0.002767235
192	0x3d9423f9	0.07233424
193	0xbdb6947a	-0.089150384
194	0xbc49f0a0	-0.012325436
195	0xbcefce62	-0.029273216
196	0x3e1398a9	0.14413704
197	0x3e1045ea	0.1408917
198	0xbdd9ca3e	-0.10634278
199	0xbc3e2ead	-0.011607808
200	0xbd1543a8	-0.036441475
201	0xbe14ad7c	-0.14519304
202	0xbc94c7a5	-0.018161604
203	0x3d8139b2	0.06309833
204	0x3d660fdd	0.056167472
205	0x3e49a3d5	0.19691403
206	0x3be70d20	0.007051125
207	0xbdd96660	-0.106152296
208	0xbdaa72a2	-0.08322646
209	0x3da28b97	0.07936781
210	0x3de921e4	0.11383417
211	0xbc6cd24e	-0.014454437
212	0xbd07a72c	-0.033118412
213	0x3c216ae0	0.009852141
214	0xbda39b7b	-0.0798864
215	0xbce35ee8	-0.027755216
216	0x3da705af	0.08155381
217	0x3d693013	0.056930613
218	0x3cbe3e41	0.023223044
219	0xbeb4bbb6	-0.35299462
220	0xbe4dae0b	-0.20085923
221	0xbdc4cf36	-0.09609835
222	0x3df9c640	0.12196016
223	0x3dafee18	0.08590335
224	0x3d8b0e7f	0.06789874
225	0xbda94b6f	-0.08266341
226	0xbe8241d4	-0.25440848
227	0xbdc604a4	-0.09668854
228	0x3d186644	0.037206903
229	0x3dd31db3	0.10308399
230	0xbe061dda	-0.13097325
231	0x3d74fe9e	0.059813134
232	0xbd760789	-0.06006578
233	0xbdb18f8c	-0.086699575
234	0xbc8d9f6f	-0.017287938
235	0xbd289989	-0.041162048
236	0x3d4e686a	0.050392546
237	0x3cdce698	0.026965424
238	0x3b16795c	0.002296052
239	0x3d33325a	0.04374919
240	0xbe63ee58	-0.2225889
241	0xbd831772	-0.06400956
242	0xbc4dbe85	-0.01255763
243	0x3ca40c45	0.020025382
244	0x3c0d1b42	0.008612456
245	0x3c4587a8	0.012056269
246	0xbc8a4f9e	-0.016883668
247	0x3e21eec8	0.15813744
248	0x3d9f235d	0.07770417
249	0x3c2ccb1b	0.010546471
250	0x3d10e09a	0.035370447
251	0x3d70e38e	0.058810763
252	0xbe5101bc	-0.20410818
253	0xbd86706b	-0.06564411
254	0x3cc08950	0.023502976
255	0xbcc2144f	-0.023691325

cluster_projector.2.bias f4 [50]
0	0xbb3af3ce	-0.0028526667
1	0xbd1c7cbd	-0.038204897
2	0x3c4db529	0.012555399
3	0x3d93d6e5	0.07218722
4	0xbcc3ae37	-0.023886783
5	0x3d7840bb	0.060608607
6	0x3da425e8	0.080150425
7	0xbcd64d27	-0.026159836
8	0x3cd1bd4b	0.025602957
9	0x3dcc4c44	0.09975484
10	0x3ae0d6a8	0.0017153816
11	0x3d86a69e	0.065747485
12	0xbe2cf870	-0.16891646
13	0xbd5e5f2b	-0.054289978
14	0xbe0e00d5	-0.13867505
15	0x3c87fcf4	0.01660011
16	0x3cf70af3	0.030156588
17	0xbd5940bf	-0.053040262
18	0xbd60fb78	-0.05492732
19	0x3dd55f33	0.104185484
20	0x3d5d2b86	0.053996585
21	0x3d306043	0.043060552
22	0xbd01966b	-0.03163759
23	0x3cce9dac	0.025221668
24	0x3dd23161	0.102633245
25	0xbd2015c6	-0.039083265
26	0xbd9f8bb8	-0.07790321
27	0xbc941301	-0.018075468
28	0x3d93aaac	0.072102875
29	0xbdb6ea03	-0.08931353
30	0xbce68e27	-0.028143955
31	0xbbffbc7a	-0.0078044506
32	0xbe20877b	-0.15676682
33	0x3d5d4853	0.054024052
34	0xbd242f5f	-0.04008424
35	0x3b9605ac	0.004578313
36	0xbb88bfa5	-0.0041732364
37	0xbd910671	-0.07081307
38	0x3d54cedf	0.0519551
39	0xbdaca2e2	-0.08429505
40	0x3dc9b003	0.09848025
41	0x3dbacc87	0.09121042
42	0x3d0c1a45	0.03420474
43	0xbdae98ab	-0.08525213
44	0x3d6ff8c5	0.058586854
45	0x3d859159	0.065218635
46	0x3cab95df	0.020945488
47	0xbd38776e	-0.045035772
48	0x3d5bd200	0.05366707
49	0xbd115419	-0.035480592

exp_avg f4 [128, 20]
0	0xba63ccb6	-0.0008689867
1	0xb9e3ccb6	-0.00043449335
2	0xb9e3ccb6	-0.00043449335
3	0xb93b548b	-0.00017865204
4	0xb9cea0e3	-0.00039411252
5	0x00000000	0.0
6	0x00000000	0.0
7	0x00000000	0.0
8	0x00000000	0.0
9	0x00000000	0.0
10	0xab141038	-5.260267e-13
11	0xb982807f	-0.0002489127
12	0xb954a28a	-0.00020278446
13	0xb70905a0	-8.167146e-06
14	0xb7027b46	-7.777306e-06
15	0xb705abfc	-7.967461e-06
16	0xb9806a59	-0.00024493298
17	0x00000000	0.0
18	0x00000000	0.0
19	0x00000000	0.0
20	0x3ac73379	0.0015197835
21	0xba90e882	-0.0011055621
22	0x3aafaaec	0.0013402379
23	0x3a5eca54	0.0008498777
24	0x3ac39ee1	0.0014924669
25	0x00000000	0.0
26	0x00000000	0.0
27	0xba96ae1b	-0.0011495979
28	0x38a04fd7	7.644266e-05
29	0x00000000	0.0
30	0x380e53c1	3.393344e-05
31	0x3a40f6a8	0.00073609734
32	0x3a27416c	0.0006380293
33	0x3a40d9df	0.0007356684
34	0x39fd0d57	0.0004826586
35	0x3a1ee0b4	0.0006060705
36	0x3a43f2ea	0.00074748567
37	0xb9910caf	-0.00027666005
38	0x38a70faa	7.966098e-05
39	0x3a7692ad	0.00094060117
40	0x3c142c8b	0.009043823
41	0xb96eb3e0	-0.00022764457
42	0x399d104c	0.00029957516
43	0xb9176bf6	-0.00014440701
44	0x37c83809	2.3867951e-05
45	0x00000000	0.0
46	0x00000000	0.0
47	0x3a76f4b1	0.0009420617
48	0x35e7fdd7	1.7284718e-06
49	0x00000000	0.0
50	0x39ab3cb3	0.00032660886
51	0x39d94024	0.00041437254
52	0x39c52965	0.0003760561
53	0xbd4260f5	-0.047455747
54	0xbd409a7c	-0.047022328
55	0xbd4174d6	-0.047230564
56	0x39e1f595	0.00043098317
57	0x3a1d7c8e	0.0006007635
58	0x38a7a0a1	7.9931e-05
59	0x3a83fdf2	0.0010070188
60	0x3d43fc9a	0.04784832
61	0x3c53f863	0.012937638
62	0x3b6ac47f	0.0035822687
63	0x3ba84ef7	0.0051363665
64	0x3bd9abe6	0.0066428063
65	0x00000000	0.0
66	0x00000000	0.0
67	0x3b968481	0.0045934324
68	0x3a894225	0.0010471983
69	0x00000000	0.0
70	0x3a894263	0.0010472055
71	0x3b871b09	0.004123096
72	0x3b615ac5	0.0034386378
73	0x398e3d61	0.0002713008
74	0x3af1bd3c	0.0018443237
75	0x3a8d2b88	0.001077042
76	0x3b868574	0.0041052643
77	0x3b03f85d	0.002013705
78	0x392d770f	0.00016542918
79	0x3a12dc10	0.000560225
80	0x39daee39	0.0004175769
81	0xbab5ee6d	-0.001388026
82	0xbabcf77a	-0.0014417015
83	0xbaf0b222	-0.0018363635
84	0xbb213203	-0.002459646
85	0x00000000	0.0
86	0x00000000	0.0
87	0x3a151124	0.0005686453
88	0xb6d81a7e	-6.4403857e-06
89	0x00000000	0.0
90	0xb9855cda	-0.00025436917
91	0x3826616a	3.9668208e-05
92	0x393f56a2	0.00018247453
93	0x3a39e5f1	0.0007091454
94	0x3a97713d	0.0011554133
95	0x3a75d256	0.0009377351
96	0x390804df	0.00012971785
97	0x3a1fcdd4	0.00060960394
98	0x39a38d98	0.00031195278
99	0xb9fb225a	-0.00047900045
100	0x00000000	0.0
101	0x00000000	0.0
102	0x00000000	0.0
103	0x00000000	0.0
104	0x00000000	0.0
105	0x00000000	0.0
106	0x00000000	0.0
107	0x00000000	0.0
108	0x00000000	0.0
109	0x00000000	0.0
110	0x00000000	0.0
111	0x00000000	0.0
112	0x00000000	0.0
113	0x00000000	0.0
114	0x00000000	0.0
115	0x00000000	0.0
116	0x00000000	0.0
117	0x00000000	0.0
118	0x00000000	0.0
119	0x00000000	0.0
120	0xbc1f427a	-0.009720439
121	0x3a3d0ddb	0.00072118425
122	0x3aafc7df	0.0013411007
123	0x3b003fd9	0.0019569306
124	0x3b250b9d	0.0025183924
125	0x00000000	0.0
126	0x00000000	0.0
127	0xba6c8a95	-0.0009023336
128	0x39513d8c	0.00019954721
129	0x00000000	0.0
130	0x3985064e	0.00025372434
131	0x38dc7342	0.00010511886
132	0xb7ee8ec6	-2.8438295e-05
133	0x3cc26b19	0.023732709
134	0x3cbe7398	0.023248479
135	0x3cc07af9	0.023496138
136	0x3810e3b5	3.4544344e-05
137	0xba1a7118	-0.0005891486
138	0xb97881ac	-0.0002369943
139	0xba5e54d4	-0.00084812683
140	0x00000000	0.0
141	0x00000000	0.0
142	0x00000000	0.0
143	0x00000000	0.0
144	0x00000000	0.0
145	0x00000000	0.0
146	0x00000000	0.0
147	0x00000000	0.0
148	0x00000000	0.0
149	0x00000000	0.0
150	0x00000000	0.0
151	0x00000000	0.0
152	0x00000000	0.0
153	0x00000000	0.0
154	0x00000000	0.0
155	0x00000000	0.0
156	0x00000000	0.0
157	0x00000000	0.0
158	0x00000000	0.0
159	0x00000000	0.0
160	0xbbdaa5f5	-0.0066726157
161	0xbb8e0984	-0.0043346304
162	0x3abc00c8	0.0014343495
163	0xb9f42311	-0.00046565433
164	0x39a98e26	0.000323401
165	0x00000000	0.0
166	0x00000000	0.0
167	0xba9c1a93	-0.0011909775
168	0xb91cb465	-0.00014944522
169	0x00000000	0.0
170	0xb9b36baf	-0.0003422177
171	0x39d97c8d	0.00041482263
172	0x39e744e9	0.00044111095
173	0x3a8e6d21	0.0010866263
174	0x3a8c2b5d	0.0010694076
175	0x3a8d452f	0.0010778065
176	0x39f6ac74	0.00047049264
177	0x383885e1	4.3993703e-05
178	0x3960bb32	0.0002143204
179	0x3a0f3a38	0.00054636924
180	0x00000000	0.0
181	0x00000000	0.0
182	0x00000000	0.0
183	0x00000000	0.0
184	0x00000000	0.0
185	0x00000000	0.0
186	0x00000000	0.0
187	0x00000000	0.0
188	0x00000000	0.0
189	0x00000000	0.0
190	0x00000000	0.0
191	0x00000000	0.0
192	0x00000000	0.0
193	0x00000000	0.0
194	0x00000000	0.0
195	0x00000000	0.0
196	0x00000000	0.0
197	0x00000000	0.0
198	0x00000000	0.0
199	0x00000000	0.0
200	0x00000000	0.0
201	0x00000000	0.0
202	0x00000000	0.0
203	0x00000000	0.0
204	0x00000000	0.0
205	0x00000000	0.0
206	0x00000000	0.0
207	0x00000000	0.0
208	0x00000000	0.0
209	0x00000000	0.0
210	0x00000000	0.0
211	0x00000000	0.0
212	0x00000000	0.0
213	0x00000000	0.0
214	0x00000000	0.0
215	0x00000000	0.0
216	0x00000000	0.0
217	0x00000000	0.0
218	0x00000000	0.0
219	0x00000000	0.0
220	0xbc25d6d4	-0.01012202
221	0xbb87c650	-0.0041435137
222	0xba107aea	-0.00055114797
223	0xbb31efc2	-0.0027150963
224	0xbb37d476	-0.002805022
225	0x00000000	0.0
226	0x00000000	0.0
227	0xbb0d765d	-0.0021585443
228	0xba6c43ad	-0.000901277
229	0x00000000	0.0
230	0xba7f9686	-0.0009749908
231	0xbabbd127	-0.00143293
232	0xba9557d2	-0.001139397
233	0x3c2ebf0a	0.010665664
234	0x3c2337ca	0.009962032
235	0x3c28d5e5	0.010304903
236	0xbab6995b	-0.0013931202
237	0xba6422a4	-0.00087026716
238	0x3873d751	5.8136244e-05
239	0x3a60472a	0.0008555526
240	0x3c937a71	0.01800272
241	0x3bd57a0c	0.0065147933
242	0x3ad75ece	0.0016431452
243	0x3b12110b	0.002228799
244	0x3b3ff721	0.0029291587
245	0x00000000	0.0
246	0x00000000	0.0
247	0x3992dd82	0.00028012326
248	0x3a19e395	0.0005870399
249	0x00000000	0.0
250	0x3a398574	0.0007077076
251	0x3ab18108	0.0013542483
252	0x3a9293c8	0.0011182958
253	0x3adce2de	0.001685228
254	0x3ab39282	0.0013700279
255	0x3ac7b966	0.0015237748

exp_avg_sq f4 [128, 20]
0	0x3a27ed73	0.0006405927
1	0x3927ed73	0.00016014818
2	0x3927ed73	0.00016014818
3	0x37e31f9a	2.7075224e-05
4	0x390a2a14	0.00013176381
5	0x00000000	0.0
6	0x00000000	0.0
7	0x00000000	0.0
8	0x00000000	0.0
9	0x00000000	0.0
10	0x1b92ee5d	2.4307713e-22
11	0x37fb0343	2.992305e-05
12	0x37a6993d	1.98601e-05
13	0x37c03954	2.2914879e-05
14	0x37ae4fac	2.0779516e-05
15	0x37b6f074	2.180806e-05
16	0x37f30ce0	2.8973853e-05
17	0x00000000	0.0
18	0x00000000	0.0
19	0x00000000	0.0
20	0x3f6d7387	0.92754406
21	0x3d79e060	0.061004996
22	0x3b23ef4d	0.002501446
23	0x3b88f4cd	0.004179573
24	0x3bede88d	0.007260388
25	0x00000000	0.0
26	0x00000000	0.0
27	0x3b0a4352	0.0021097255
28	0x38a743a9	7.975783e-05
29	0x00000000	0.0
30	0x39157d98	0.00014256535
31	0x3bcde81d	0.0062837736
32	0x3b967f0f	0.0045927833
33	0x3b88e5ab	0.004177769
34	0x3bb8d3b3	0.005640471
35	0x3b9ff77f	0.0048817988
36	0x3bd14faf	0.006387673
37	0x39d4b0a7	0.00040567407
38	0x386b6d2b	5.6130037e-05
39	0x3a8925c8	0.001046353
40	0x3c555ce4	0.013022635
41	0x3b5c35a9	0.003360132
42	0x37a50b5f	1.9674828e-05
43	0x366f60db	3.5670153e-06
44	0x378aa2c3	1.6526674e-05
45	0x00000000	0.0
46	0x00000000	0.0
47	0x37d8e6a7	2.5856612e-05
48	0x379c4e69	1.8633162e-05
49	0x00000000	0.0
50	0x37aa168f	2.0276084e-05
51	0x359462d5	1.1055623e-06
52	0x356c6679	8.806597e-07
53	0x400e5c78	2.2243938
54	0x400e331f	2.2218702
55	0x400e471f	2.223091
56	0x359d0e1b	1.1701517e-06
57	0x3684a8fd	3.9535794e-06
58	0x33be643d	8.865798e-08
59	0x36ad4589	5.1638967e-06
60	0x3e80194f	0.2501931
61	0x3c04376d	0.008069855
62	0x396cfef5	0.00022601693
63	0x39844f44	0.0002523606
64	0x3a0113e8	0.0004923926
65	0x00000000	0.0
66	0x00000000	0.0
67	0x3ad676f5	0.0016362356
68	0x365c5ffa	3.283842e-06
69	0x00000000	0.0
70	0x365b6f18	3.2698208e-06
71	0x3ae2e332	0.0017310141
72	0x3aad0548	0.0013200426
73	0x3cfa2781	0.030536415
74	0x3cfd0413	0.030885732
75	0x3cfb4190	0.030670911
76	0x3aebb2f5	0.001798241
77	0x39b51e63	0.0003454565
78	0x3806c51e	3.213167e-05
79	0x39814384	0.000246551
80	0x3f6e1e13	0.9301464
81	0x3d74d0e6	0.059769534
82	0x3b177ca7	0.002311507
83	0x3b7d4fa3	0.0038652204
84	0x3bdbf81a	0.0067129256
85	0x00000000	0.0
86	0x00000000	0.0
87	0x3b0d77b1	0.0021586234
88	0x3896bb02	7.18739e-05
89	0x00000000	0.0
90	0x38f4dd80	0.00011676084
91	0x3bc59039	0.0060291556
92	0x3b91d041	0.0044498746
93	0x3b79e804	0.0038132677
94	0x3ba97b22	0.0051721493
95	0x3b925529	0.0044657183
96	0x3bc9d0dc	0.006158931
97	0x39caa50c	0.00038651412
98	0x38946dc8	7.077638e-05
99	0x3a9205ff	0.0011140703
100	0x00000000	0.0
101	0x00000000	0.0
102	0x00000000	0.0
103	0x00000000	0.0
104	0x00000000	0.0
105	0x00000000	0.0
106	0x00000000	0.0
107	0x00000000	0.0
108	0x00000000	0.0
109	0x00000000	0.0
110	0x00000000	0.0
111	0x00000000	0.0
112	0x00000000	0.0
113	0x00000000	0.0
114	0x00000000	0.0
115	0x00000000	0.0
116	0x00000000	0.0
117	0x00000000	0.0
118	0x00000000	0.0
119	0x00000000	0.0
120	0x3a3403e7	0.00068670366
121	0x39591efb	0.00020706274
122	0x390e804a	0.00013589967
123	0x38c37b29	9.321265e-05
124	0x3961e0d5	0.00021541429
125	0x00000000	0.0
126	0x00000000	0.0
127	0x355456c1	7.91024e-07
128	0x33977444	7.052634e-08
129	0x00000000	0.0
130	0x33fb5c24	1.17048586e-07
131	0x380cf82e	3.3609736e-05
132	0x37b95dfb	2.2097482e-05
133	0x3fbcbdde	1.4745443
134	0x3fbcde1c	1.4755282
135	0x3fbcce30	1.4750423
136	0x3807d589	3.238538e-05
137	0x34c4eacb	3.667868e-07
138	0x338a5883	6.442226e-08
139	0x357ea4f1	9.4862395e-07
140	0x00000000	0.0
141	0x00000000	0.0
142	0x00000000	0.0
143	0x00000000	0.0
144	0x00000000	0.0
145	0x00000000	0.0
146	0x00000000	0.0
147	0x00000000	0.0
148	0x00000000	0.0
149	0x00000000	0.0
150	0x00000000	0.0
151	0x00000000	0.0
152	0x00000000	0.0
153	0x00000000	0.0
154	0x00000000	0.0
155	0x00000000	0.0
156	0x00000000	0.0
157	0x00000000	0.0
158	0x00000000	0.0
159	0x00000000	0.0
160	0x3e66c21f	0.22534989
161	0x3c49c04b	0.012313913
162	0x3a3005f9	0.0006714757
163	0x39ed789d	0.00045294026
164	0x3a8d93c9	0.001080149
165	0x00000000	0.0
166	0x00000000	0.0
167	0x3a0c32cd	0.0005348146
168	0x37b1d40f	2.1198792e-05
169	0x00000000	0.0
170	0x3819c060	3.6657206e-05
171	0x3aa2b85e	0.0012414565
172	0x3a742029	0.00093126536
173	0x3a4a0f40	0.0007707961
174	0x3a940dc8	0.0011295611
175	0x3a76d2d2	0.000941557
176	0x3aa79e87	0.0012788334
177	0x38e76ce2	0.00011035219
178	0x379657cf	1.7922282e-05
179	0x39b8699f	0.0003517391
180	0x00000000	0.0
181	0x00000000	0.0
182	0x00000000	0.0
183	0x00000000	0.0
184	0x00000000	0.0
185	0x00000000	0.0
186	0x00000000	0.0
187	0x00000000	0.0
188	0x00000000	0.0
189	0x00000000	0.0
190	0x00000000	0.0
191	0x00000000	0.0
192	0x00000000	0.0
193	0x00000000	0.0
194	0x00000000	0.0
195	0x00000000	0.0
196	0x00000000	0.0
197	0x00000000	0.0
198	0x00000000	0.0
199	0x00000000	0.0
200	0x00000000	0.0
201	0x00000000	0.0
202	0x00000000	0.0
203	0x00000000	0.0
204	0x00000000	0.0
205	0x00000000	0.0
206	0x00000000	0.0
207	0x00000000	0.0
208	0x00000000	0.0
209	0x00000000	0.0
210	0x00000000	0.0
211	0x00000000	0.0
212	0x00000000	0.0
213	0x00000000	0.0
214	0x00000000	0.0
215	0x00000000	0.0
216	0x00000000	0.0
217	0x00000000	0.0
218	0x00000000	0.0
219	0x00000000	0.0
220	0x3d800233	0.062504195
221	0x3b962b86	0.004582825
222	0x39840c65	0.00025186237
223	0x39daa32b	0.0004170177
224	0x3a3a72c9	0.0007112441
225	0x00000000	0.0
226	0x00000000	0.0
227	0x391674c8	0.00014348619
228	0x36fc63f8	7.521823e-06
229	0x00000000	0.0
230	0x374473b7	1.1709452e-05
231	0x39fd1b3c	0.00048276212
232	0x39b6219c	0.00034738786
233	0x3f7eaaf3	0.994796
234	0x3f7deb4c	0.9918716
235	0x3f7e4810	0.9932871
236	0x39ff39bb	0.00048680403
237	0x37b6dbaf	2.1798389e-05
238	0x36800062	3.814742e-06
239	0x3894c34f	7.093569e-05
240	0x3f2e7991	0.68154246
241	0x3d268267	0.040651705
242	0x3a877b60	0.0010336451
243	0x3b1b8b73	0.0023734241
244	0x3b738b13	0.0037161752
245	0x00000000	0.0
246	0x00000000	0.0
247	0x3ac56738	0.0015060669
248	0x383ff3ba	4.5764937e-05
249	0x00000000	0.0
250	0x38acd112	8.2405415e-05
251	0x3b84b486	0.0040498404
252	0x3b464e25	0.003025898
253	0x3b1c6457	0.0023863518
254	0x3b605299	0.003422892
255	0x3b3cf883	0.0028834648
