flaskProject/modules/Contrastive_Clustering/save/save5/model_checkpoint900.tar (torch, 183226 bytes, 24 tensors)

instance_projector.0.weight f4 [128, 20]
000000 90 c4 a2 bd 0f 14 f7 3e e6 a8 9d 3c e9 c7 55 ba
       -0.079476476 0.4825749 0.019245576 -0.0008155094
000010 8f 97 ab be 41 2a 8d bd 71 26 e7 bd f9 05 cc 3d
       -0.33514068 -0.06892825 -0.11286629 0.09962077
000020 c0 14 e1 3c 96 04 99 bd c3 f6 f4 bd 23 37 00 c0
       0.027475715 -0.07471578 -0.119611286 -2.0033653
000030 9f 8f f6 bf 46 3b b1 3d 41 69 8d bd 8a 79 05 bd
       -1.926258 0.08653884 -0.06904841 -0.03258661
000040 da 6a 03 c0 49 17 d7 be c0 44 bc bf 93 e9 64 bf
       -2.0533967 -0.42009953 -1.4708481 -0.89418906
000050 13 25 ea bc a1 85 29 3e a7 8e a9 3d a4 12 56 3e
       -0.028582131 0.16554882 0.08279162 0.20905548
000060 9d 90 d7 bc 0b 12 f6 3e e0 4f 60 bd f9 a9 ea be
       -0.026314074 0.4806064 -0.054763675 -0.45832804
000070 8e 39 e5 bc 9e df 90 bd 74 d6 6a 3e e4 fc f6 bf
       -0.027981546 -0.070739016 0.2293337 -1.9295926
000080 0a b7 ed bf 8e 55 60 bb f8 96 02 3e 88 1e 19 be
       -1.8571484 -0.0034230682 0.12752903 -0.14953053
000090 84 95 0d c0 e3 e8 65 bf 33 fa 05 bf 3f e4 04 bf
       -2.2122507 -0.8980848 -0.523349 -0.51910776
0000a0 32 6b e8 3e 45 dd 98 3f 84 2b b8 bf 5a e6 fc c0
       0.45394284 1.1942526 -1.438828 -7.903119
0000b0 1d 67 c9 c0 9d 31 8e c0 a1 e2 a1 3f 04 b9 52 c0
       -6.293837 -4.4435563 1.2647287 -3.2925425
0000c0 12 1c c8 3f 34 79 1e be 90 2d 41 c0 8d a6 2f c0
       1.5633566 -0.15475923 -3.018406 -2.7445405
0000d0 2f 01 33 c0 20 96 1d be 53 70 5d 3d 45 e9 ca 3d
       -2.7969472 -0.153893 0.0540622 0.09907774
0000e0 b3 98 26 c0 d2 53 56 3f 01 16 81 40 f0 64 a0 bd
       -2.60307 0.8372165 4.033936 -0.07831752
0000f0 13 dc 00 bf 6d cc 54 3e 98 45 c6 3f 74 7b 9e bd
       -0.50335807 0.20781107 1.5489988 -0.077383906
000100 c0 25 96 be 05 b9 f4 3f d6 13 1c c1 c9 92 4c bf
       -0.29325676 1.9118963 -9.754843 -0.79911476
000110 80 a3 cb bf 60 e1 7d 3d 9a 26 a4 be c2 22 a3 3d
       -1.5909271 0.061982512 -0.320607 0.07965614
000120 7c 98 fe be d3 76 1d be 1a 5d 04 3d e0 b8 ab 3d
       -0.4972571 -0.15377359 0.03231535 0.083848715
000130 86 e2 87 be 37 4c 34 40 34 3a 11 40 0c 28 e4 bd
       -0.2654001 2.8171518 2.2691774 -0.11140451
000140 31 87 0b bf 13 cb db 3e 7c 2a 1b c1 e9 92 e1 bf
       -0.5450316 0.4292837 -9.697872 -1.7622958
000150 40 75 74 c0 22 a6 a4 3f 8f 99 b0 c0 3c 97 6c be
       -3.8196564 1.28632 -5.518745 -0.23104566
000160 ea 27 8d 3f 2a 35 0d 3e fe c5 09 bf 59 11 d4 c0
       1.1027806 0.13789812 -0.5381774 -6.6271176
000170 33 93 d9 c0 7b 78 93 bc 3b 5d 02 3e 4b 8c c0 bd
       -6.7992187 -0.018001786 0.12730877 -0.09401759
000180 2b 6b d3 c0 b4 cf 68 be 1e 10 75 c0 36 2b 17 bf
       -6.606832 -0.22735482 -3.8291087 -0.5905031
000190 40 6c cb 3d df df 5d 3e 73 eb 4f c0 3c cf b6 c0
       0.099327564 0.21667431 -3.2487457 -5.712797
0001a0 a3 9d 04 c0 b9 dd 67 40 73 b9 02 be 09 85 90 3f
       -2.0721214 3.6229079 -0.12766056 1.1290599
0001b0 81 98 bb 3f f6 6f 45 be 51 3c 79 bf a4 e4 42 c0
       1.4655915 -0.19280991 -0.9735766 -3.045205
0001c0 c2 e6 27 c0 41 8d 5b be 1c 96 10 3e a1 de a7 3d
       -2.6234593 -0.21440603 0.14119762 0.0819676
0001d0 cb 65 3a c0 48 99 59 3f b9 39 6c 3f 65 54 22 bf
       -2.912463 0.84999514 0.9227558 -0.63410026
0001e0 ba 52 42 bd 5a fa a4 bd c7 a8 87 be 19 b0 02 3f
       -0.047442175 -0.08055563 -0.26495954 0.51049954
0001f0 81 9a 55 3f 1b b2 34 3f ad c2 36 3e ef a0 91 bf
       0.8343888 0.7058427 0.178477 -1.1377238
000200 5e 0d 29 be 64 e9 b0 bd 15 d3 47 bf df b0 87 3f
       -0.16509005 -0.08638266 -0.7805646 1.0600852
000210 32 b3 83 3f ce bb 1f 3d e0 0c 3e 3d 9a 32 2e be
       1.0289061 0.038997464 0.046398997 -0.1701149
000220 4a d7 b0 3f a1 ed ad bd c6 3f 07 3f 76 d5 7d be
       1.3815701 -0.0849259 0.52831686 -0.2478846
000230 a9 40 dd be c5 6a fa 3d c6 3f 3d 3e 5f d7 1c bf
       -0.43213394 0.12227396 0.18481359 -0.6126613
000240 18 ac 70 bf 5a 0b b7 bd 71 fb 19 be 9c 56 92 3e
       -0.94012594 -0.08937712 -0.15037324 0.28581703
000250 06 ad a9 3e f0 0b 16 bd 55 54 66 be ae c5 2f c1
       0.3313982 -0.03663248 -0.22493108 -10.985762
000260 07 1b 34 c1 ee fc bf bd 38 1b a5 bd 8b 8b 3e 3e
       -11.256598 -0.093744144 -0.08061832 0.18607919
000270 15 ce 35 c1 b7 e7 2b c0 9b 3d bb c0 d5 58 d9 c0
       -11.362813 -2.6860178 -5.85127 -6.7920938
000280 30 87 ed bc 11 c3 8d 3f 08 c3 81 bf 09 20 96 c0
       -0.028995126 1.1075155 -1.0137644 -4.6914105
000290 ed db 81 c0 e1 e1 e7 bf ca 40 6c c0 dc d9 8a bf
       -4.0580964 -1.8115808 -3.6914544 -1.0847735
0002a0 89 8e bf 3f 68 d6 2e 3d c1 2f 9f c0 5c 7f 9a 40
       1.4965373 0.042684942 -4.9745793 4.828047
0002b0 3a 4e 8e 40 0b 91 57 be ad 7f 02 3e 73 65 ac 3d
       4.447049 -0.21051423 0.12744017 0.084177874
0002c0 df 00 9b 40 0c df e8 3e 77 4d 3e bf c7 a5 07 bf
       4.8438563 0.4548267 -0.7433695 -0.5298733
0002d0 f9 29 a3 3e eb 5a ef be 19 22 e5 be 0b ed b1 c0
       0.3186796 -0.46749052 -0.44752577 -5.560186
0002e0 8a 42 cc bf f9 ee 9c 40 c4 bc a4 3e 09 ec 3b bd
       -1.5957806 4.9041715 0.32175267 -0.045879398
0002f0 b3 87 59 c0 f0 78 28 bd 83 f4 da 3e 24 34 0f 40
       -3.3989074 -0.04113096 0.42764673 2.2375574
000300 bb 0b ec 3f 7f e6 9a bc df 29 5b 3d 0d 20 12 bd
       1.844108 -0.018908737 0.05350673 -0.035675097
000310 3c 70 ed 3f 50 ee 01 c0 f1 a2 72 c1 26 9d d8 c0
       1.8549876 -2.0301704 -15.164781 -6.769183
000320 2a 95 55 bc 13 6f 31 be 32 97 8f 3d c2 1b 76 bf
       -0.013036052 -0.17327528 0.0701126 -0.96136105
000330 ef 78 ef 3e 54 54 1d bf 25 66 97 be df 64 b2 3e
       0.46771953 -0.614568 -0.29570118 0.34842584
000340 08 aa 24 3f 3c 60 3a bd 8d 25 dd 3e d9 75 4c be
       0.6432195 -0.045501933 0.4319271 -0.1996683
000350 cc ef 2a 3e 45 96 4e bd f8 43 36 bd 0a 57 60 3d
       0.16693038 -0.050436277 -0.044498414 0.054770507
000360 28 c6 f1 3d d0 07 cf 3e 48 67 85 3f 1c 71 c6 3e
       0.118053734 0.40435648 1.0422144 0.3875817
000370 a2 bf 7c bf 11 85 21 bf 22 97 a1 3f 1e 00 94 40
       -0.9872991 -0.6309367 1.2624247 4.6250143
000380 4e be 5c 40 08 cf a1 bf 02 af 82 bf 34 36 e6 be
       3.4491153 -1.2641306 -1.0209658 -0.4496323
000390 14 17 4c bc 4d cd 47 be 32 ba 57 3e 3a e0 de 3f
       -0.012456674 -0.1951191 0.21067122 1.7412179
0003a0 42 1e de 3f 7c a0 28 bd 0f 90 1e 3e 3c 01 e9 bd
       1.7352984 -0.041168675 0.15484641 -0.113771886
0003b0 dc b2 e4 3f 0f fc 0b c0 6b a6 39 c0 5a 4d a9 bf
       1.7867084 -2.1872594 -2.9007823 -1.3226731
0003c0 6e 46 f4 3c db 19 81 3e e1 7a 1c 3d 5a 17 50 bf
       0.02981874 0.2521504 0.038203124 -0.8128563
0003d0 31 b8 6b bf b3 b9 94 bf c4 1b eb 3e 75 8f e3 3d
       -0.9207793 -1.1619171 0.4591962 0.11111347
0003e0 a5 6f 0c bf d2 f7 62 be 83 e9 84 be 5c 69 f9 be
       -0.54857856 -0.22164848 -0.25959405 -0.48713195
0003f0 22 e3 ce be 3c 38 b9 bb e3 ce 99 3d 5b b2 b6 bd
       -0.40407664 -0.0056524556 0.07510164 -0.08920737

instance_projector.0.bias f4 [128]
000000 5d 04 2e 3f a9 ac dc 3e 6a 7b 93 3f 9b 2d 75 3d
       0.6797541 0.4310048 1.1522038 0.059857946
000010 35 68 c2 3a 5f 45 2a 3e 6b 9f 9a bd 52 a9 13 be
       0.0014832082 0.16628025 -0.07549938 -0.1442006
000020 92 5c 1c 3f 7b 1a 39 bf 06 c4 e5 be 56 7c 32 bf
       0.6107875 -0.7230603 -0.44876117 -0.6972097
000030 a3 47 cb 3e b0 60 e3 3e 1c 83 73 3b 7c f1 9a 3e
       0.39703092 0.44409704 0.0037157005 0.30262363
000040 e5 0d 44 3f 80 49 d9 be 7f c6 01 3f 09 00 91 bd
       0.765837 -0.4243889 0.50693506 -0.07080085
000050 f8 44 90 3c 7d 14 3e 3f 44 fc 41 3f 88 0a 16 3f
       0.017611012 0.7425001 0.7577555 0.5860982
000060 68 60 6f 3d a4 27 f5 be 92 19 0b 3e 70 64 12 3e
       0.05844155 -0.47881806 0.13583973 0.14296126
000070 b9 d8 05 3f eb 2d 29 be f8 c2 a0 be d5 68 82 3e
       0.5228382 -0.16521423 -0.3139875 0.25470605
000080 bb 2d 29 3e f8 ff 9e 3e 1a ba d2 3e 57 bc 74 3e
       0.16521351 0.31054664 0.4115761 0.23899971
000090 6f 4a 9c be 86 94 c1 3e 3a ea ee be 2e 6c 55 3e
       -0.30525538 0.37808627 -0.46663076 0.20842049
0000a0 90 48 56 3f 8b 59 bc 3e 28 1b ce 3c 64 50 ca 3e
       0.8370447 0.36787066 0.025159433 0.39514458
0000b0 35 4d 14 3e 42 6b dd 3e 4c 5e 63 3e dd 30 2e 3f
       0.14482577 0.43245894 0.2220394 0.6804331
0000c0 88 0c da bf 43 72 b0 3e 7e 71 27 bc 9d 9c 95 be
       -1.7035074 0.34462175 -0.01021993 -0.2922105
0000d0 de 6b 46 3f b6 d2 1a 3e b9 20 49 be ed d6 04 3e
       0.7750834 0.15119442 -0.19641389 0.12972613
0000e0 9b 27 bb 3e b4 35 ba be a4 61 e1 3e ee 8d 1a be
       0.36553654 -0.36369097 0.44019806 -0.15093204
0000f0 d5 87 f9 be 06 7e c3 bd 01 08 1c bf 13 a3 af be
       -0.48736444 -0.095455214 -0.60949713 -0.34304103
000100 ce a8 f2 3e cf 7a 4a bd 2d aa a6 3e fb b6 00 bf
       0.47394413 -0.049433526 0.3255171 -0.50279206
000110 af 66 59 be b5 5b 3e be e4 6c 98 bd 68 14 e5 3e
       -0.21230577 -0.18589671 -0.07442644 0.4474213
000120 27 6a 5e 3e 84 78 9e bd ee 83 72 3f b4 b1 8e bf
       0.21720181 -0.0773783 0.9473256 -1.1147981
000130 60 53 11 3e 81 47 f8 bf 66 f3 67 3d 3d 78 c2 be
       0.14191961 -1.9396821 0.056628607 -0.3798236
000140 d2 c7 f2 3e d6 05 08 3e 51 de d8 3d 85 4c 06 3f
       0.47418076 0.13283476 0.105892785 0.5246051
000150 0b 27 c3 be 56 8f 8d 3e 3b b7 c7 3e 58 87 0e 3f
       -0.38115725 0.2764842 0.3900698 0.5567527
000160 58 74 bd be 9e 7d 9a 3e d3 aa a6 bf cb 15 1f 3f
       -0.37002826 0.30173963 -1.3020881 0.6214263
000170 89 41 2f 3f fd c8 37 bc db fd 9d bc 84 46 09 be
       0.68459374 -0.011217353 -0.019286087 -0.13405806
000180 8e 7a 50 3f e6 6d d8 3e d4 93 d7 3e a1 b8 5d 3e
       0.81437004 0.42271346 0.4210497 0.21652462
000190 9d 46 d0 be 8c 16 65 3f c4 e4 e3 3e 90 d0 29 3e
       -0.40678874 0.8948753 0.44510472 0.16583467
0001a0 22 38 83 be 19 07 40 3e 36 ab 86 be a8 b4 5b 3f
       -0.25628763 0.18752708 -0.263025 0.85822535
0001b0 6b 32 63 bd af de 1f c0 3d 02 02 bf d6 a2 81 3f
       -0.055468004 -2.4979665 -0.50784665 1.0127819
0001c0 88 42 1c bf a1 c4 dd bd 51 e1 ba 3e 82 b9 43 3e
       -0.6103902 -0.108285196 0.36500028 0.19113734
0001d0 2b ff a6 bf 9e 1e 1e 3f 36 30 ab 3f 66 70 ba be
       -1.3046621 0.6176547 1.3374088 -0.36413878
0001e0 2e b1 2b bf e3 5e c3 bc 19 23 58 be b6 bd 97 3e
       -0.6706723 -0.023848956 -0.21107139 0.29636925
0001f0 63 8c 8e 3f 6d 21 e9 3d 95 1b 05 bf 82 aa 9f bd
       1.1136593 0.113833286 -0.5199521 -0.07796194

instance_projector.2.weight f4 [20, 128]
000000 2b 0d 71 bf 45 26 14 bf 9a 90 2b 3f 0e 51 d0 3c
       -0.9416072 -0.57870895 0.6701752 0.025429275
000010 72 86 44 bd 34 28 8f bd 58 c8 53 3e 3a 0e b3 be
       -0.04797978 -0.0699009 0.20681894 -0.34971792
000020 31 81 09 be e3 a7 78 be 7f 1d 09 be 35 ff f2 3e
       -0.13428189 -0.24282794 -0.13390158 0.47460333
000030 73 e4 34 3f 8d c9 ad be 72 bc 89 bf 40 96 4e 3e
       0.70661086 -0.33942834 -1.0760634 0.20174503
000040 38 d7 b2 3b 83 74 1b 3e 4c 6f 02 3f 2b 40 ee 3d
       0.005457785 0.15181164 0.50951076 0.11633333
000050 46 07 a7 3e 4e 7a 0c 3b 15 77 20 be 38 3a a1 3e
       0.32622737 0.0021435204 -0.15670426 0.3148973
000060 4a 87 72 bd 92 90 6c 3c b6 5c 2c 3d f6 08 2f be
       -0.059211053 0.014438765 0.042080604 -0.17093262
000070 15 4d 50 be a1 a0 93 3d 04 2b 56 bd c5 a2 a2 3e
       -0.20341904 0.07208372 -0.052287117 0.31764808
000080 e0 4b e4 3d 3b 4c 84 bf ee f2 9a 3c 11 e4 0f 3f
       0.111472845 -1.0335764 0.018914666 0.56207377
000090 2e 78 48 be 8b a8 f2 bd e5 8c 05 be ae 3d b3 bd
       -0.19577095 -0.11848553 -0.13042028 -0.08751999
0000a0 b4 85 ca 3e dc 1e f5 3d 34 60 81 bd f0 60 e9 bd
       0.39555132 0.119687766 -0.063171774 -0.113954425
0000b0 d1 a8 b7 bc 36 d9 8c 3c 4a bd cc 3c 07 aa e9 3c
       -0.022419365 0.017193418 0.024992604 0.028523458
0000c0 fc 2a 8a be 61 7d 99 3f bf fb 17 3d 6a 61 47 3d
       -0.2698592 1.1991388 0.03710532 0.048676886
0000d0 96 ab 80 be 56 1c b7 be 6c d8 0b 3e a7 3c d5 3f
       -0.2513091 -0.35763806 0.13656777 1.6659135
0000e0 d7 27 ca be 2d 7d b8 3d 87 21 9c 3d 58 df ab 3d
       -0.3948352 0.090082504 0.07623582 0.08392209
0000f0 23 1e e9 3e ae 61 80 bd 11 e3 b6 be ef 68 0a be
       0.45530805 -0.06268631 -0.35720113 -0.13516591
000100 e0 96 8b 3d b9 74 78 be cb 6b de 3e 56 4a 93 3e
       0.068158865 -0.24263276 0.43441615 0.2876765
000110 5c 23 04 3d 71 17 5b 3e 15 30 00 3c 91 01 49 3d
       0.032260284 0.21395661 0.007823964 0.04907376
000120 fe bb a9 3c e7 0c 0b 3f f1 ca 30 bf 46 7d 2c be
       0.020719524 0.5431656 -0.69059664 -0.16844663
000130 30 6d b1 3c 2e 16 45 3f 6e d7 b2 bc 39 6f 1d bc
       0.02165851 0.7698697 -0.02183124 -0.009609037
000140 87 4f 72 be 9d 83 84 bd 11 b6 4a bd 41 31 b1 be
       -0.2366315 -0.06470416 -0.04949004 -0.3460789
000150 ca f6 9a bc 03 05 80 bf c8 e7 f0 3c fc 34 eb 3e
       -0.018916506 -1.000153 0.029407397 0.4593886
000160 0f 6a d8 3b 11 9b ae 3d a8 5e 8a bf c9 99 ad be
       0.00660444 0.0852567 -1.0810137 -0.3390639
000170 fa c0 79 3e be 7e 17 bd 1b f4 86 3d c9 3a be bd
       0.24390021 -0.036986105 0.06589528 -0.09288556
000180 c9 ab 91 bd 79 6f 7c 3d eb 8d 07 bf 0a e8 47 be
       -0.071128435 0.061629746 -0.52950925 -0.1952211
000190 ee 80 de 3d 41 1c 6e bf 24 cf 91 be 20 85 cf bb
       0.10864435 -0.9301186 -0.28478348 -0.0063330084
0001a0 9d 2b 54 bd 2a d6 0d 3e 96 c7 17 be 05 dd c0 be
       -0.051799405 0.13851228 -0.1482223 -0.37668625
0001b0 ea 25 b2 be f0 35 7c bf 82 bf ec 3d 04 77 9a 3d
       -0.3479455 -0.985198 0.11559965 0.07542232
0001c0 ef a8 09 3d 86 38 63 3e 7d ca 4a 3e 41 72 04 bd
       0.033608373 0.2218953 0.19803806 -0.032335524
0001d0 55 c9 1d bc 43 20 87 3e 93 dc 3e bf 6d 62 7e be
       -0.009630521 0.263918 -0.7455532 -0.24842234
0001e0 10 75 ea be a1 f5 85 bc d2 47 09 bd e6 e6 9d bd
       -0.45792437 -0.016352477 -0.03351576 -0.07710056
0001f0 51 29 23 bf 38 23 ce 3d 21 7f a3 3d c0 1e 00 3c
       -0.6373492 0.10065311 0.07983232 0.007819831
000200 2a a4 84 be ba 6c aa be a0 24 20 be 6e 6a bd 3c
       -0.25906497 -0.33286077 -0.15638971 0.023122039
000210 0f 67 5d 3d 7a 07 77 3a 76 38 01 3e cb b9 1f be
       0.054053362 0.00094234163 0.12619194 -0.15598218
000220 9c c8 f1 3d 24 04 68 3c dd 9b c6 bd b7 01 b5 bc
       0.11805841 0.014161143 -0.09697697 -0.022095544
000230 4a 04 f7 be 6f 8e 94 3d 93 35 e5 3e 73 2b 65 3d
       -0.4824546 0.072537296 0.44767436 0.05594964
000240 8e 14 17 be 10 62 75 be d8 b1 21 bf 46 f4 04 be
       -0.14753935 -0.23963189 -0.63161993 -0.12983808
000250 10 43 c1 bd 94 cd df bc 81 dd 23 3e df 7e 05 be
       -0.09436619 -0.027319707 0.16002466 -0.13036679
000260 00 ba 86 bc a3 a5 1c 3e c0 31 af bb d2 29 2a 3e
       -0.016446114 0.1529756 -0.005346507 0.16617516
000270 f8 71 b7 3c a6 be a9 bd f9 63 ca 3d 55 64 8d 3e
       0.022393212 -0.082883164 0.098823495 0.2761561
000280 2d 15 52 be 41 85 3a bf e9 a0 8f 3d 9b 41 5c bf
       -0.2051589 -0.7285958 0.07013113 -0.86037606
000290 55 85 2b 3e 40 0d e3 3d 2f 35 a7 3c ba 57 36 bd
       0.16750081 0.110865116 0.020411102 -0.044517256
0002a0 70 b8 12 bf 83 9a 8a 3c 4c 05 e5 bc a5 ed a9 bd
       -0.5731268 0.01691938 -0.027956627 -0.0829728
0002b0 6d 6a 7c be 77 5b f4 3c 1c f5 5d be d3 51 a2 3e
       -0.24649973 0.02982877 -0.21675533 0.31703052
0002c0 ee b8 c1 3d 1f 6a fd 3e c4 00 1c bd 49 92 3b be
       0.09459101 0.49495026 -0.038086668 -0.18317522
0002d0 ce 30 bd 3d 91 21 0d bf 2a 93 4c 3b a1 32 56 3e
       0.092378244 -0.55129343 0.0031215646 0.20917751
0002e0 cf aa 9d be 0a a0 df bc 60 24 14 3e 8a 22 a7 3e
       -0.3079438 -0.027297992 0.14467001 0.3264354
0002f0 d5 66 48 bf ce ed 1e 3b 87 84 f5 bd 34 46 24 bd
       -0.7828191 0.002425063 -0.11988168 -0.040106013
000300 44 ad a6 3d 4f 7e bc 3e 97 88 9e be cb 18 29 3f
       0.081385165 0.36815116 -0.30963585 0.66053456
000310 b3 bc a9 3d 0f fa 59 bc 61 82 b1 3d e3 38 5e 3e
       0.08287945 -0.0133042475 0.08667446 0.21701388
000320 c4 2f 3e 3e 2a db 11 bf 85 21 15 be f0 bd eb 3d
       0.18572909 -0.5697504 -0.14563568 0.11510837
000330 d8 b3 60 bd 5a 31 ce 3e 91 28 9d 3d 84 19 db bd
       -0.054859012 0.40272027 0.07673753 -0.10698226
000340 3b c3 8e 3e ee 5b 5c 3d 46 2e 7a bd c4 96 43 3e
       0.27883324 0.05379861 -0.061079286 0.19100481
000350 e1 0e 8f bd 4f c0 90 3d cd 4f 02 3d e6 6d 15 bf
       -0.0698526 0.0706793 0.031814385 -0.58370817
000360 81 e1 45 3e 55 c6 85 3b d2 80 ca be f6 92 e7 3e
       0.19324304 0.004082481 -0.39551407 0.4522931
000370 7f 96 e0 3e 59 6b 3f 3e 8e 3d 04 be 28 d9 e0 3e
       0.4386482 0.18693294 -0.12914106 0.43915677
000380 24 77 a4 3e 4e f0 0c bf d6 09 3b bf ee ed 85 bf
       0.32122147 -0.55054176 -0.73061883 -1.0463235
000390 b0 af 82 be f6 c3 0c 3f c3 89 b7 bd 0d 40 93 3d
       -0.25524664 0.5498651 -0.08961823 0.07189951
0003a0 f8 ef d1 3d 07 84 64 3d 3e 13 5a be 14 57 b2 be
       0.102508485 0.055789974 -0.21296403 -0.3483206
0003b0 ec 4f 93 bd ad 2c b1 3e ab 18 5d 3e d3 d7 e9 3d
       -0.07192978 0.34604397 0.21591441 0.11418118
0003c0 35 f0 d3 bc 93 32 d8 3d fe 8b 99 3e de 51 8a 3d
       -0.025871376 0.10556521 0.29989618 0.06753896
0003d0 92 0b 08 bd 0e bc 0f 3f dd 89 8e 3f 03 b2 ba bd
       -0.03321416 0.56146324 1.1135823 -0.09115984
0003e0 11 db c9 bd 73 f8 b5 bc 4d 20 c7 bd 9f e5 57 3e
       -0.09856237 -0.022213196 -0.09722958 0.21083687
0003f0 20 81 99 bd 8c 39 61 3b dc 3e d7 3c 70 6b b9 bc
       -0.07495332 0.0034366576 0.02627509 -0.022634238

instance_projector.2.bias f4 [20]
000000 ad 1a 8e 3e f1 2d 73 3e 63 79 20 bd 98 71 a7 3e
       0.27754727 0.23747994 -0.039178263 0.32703853
000010 02 5f a9 be c9 34 74 3e 55 85 f9 be c9 26 25 3f
       -0.33080298 0.23848261 -0.48734537 0.64512306
000020 47 5b f5 3d da d5 7d 3e 66 f6 04 be e4 0d ec be
       0.119803004 0.24788609 -0.12984619 -0.46104348
000030 dd ca ec 3e 8e 1c 61 3f d1 f6 21 be ef a1 96 be
       0.46248522 0.87934196 -0.15816809 -0.2942042
000040 f4 33 28 be 9e 11 9c 3e bf 2d d9 3c 2c 59 90 be
       -0.16426069 0.3048219 0.026511071 -0.28193033

cluster_projector.0.weight f4 [128, 20]
000000 47 18 26 be 58 49 75 bd 86 58 20 3e 70 32 9e 3c
       -0.16220199 -0.0598844 0.15658769 0.01931116
000010 14 68 ea 3d 48 09 c7 3c 34 ed 5c be 40 f2 6c 3d
       0.114456326 0.024296418 -0.21574861 0.057848215
000020 62 94 c4 bd df 70 18 be 47 12 dc bd e4 ba 89 3d
       -0.09598614 -0.14886807 -0.107456736 0.067251
000030 d4 a3 17 3e 50 b2 4d 3d 2e f7 db bd b2 b4 2c be
       0.14808589 0.05021888 -0.10740505 -0.16865805
000040 76 1d 99 bd 03 26 fc bd f0 f1 38 3d 7e 2e 2c 3e
       -0.07476322 -0.12311938 0.045152605 0.1681461
000050 43 ba 83 bc 06 a2 e2 3d 91 b5 ec 3d ef c4 08 bf
       -0.016080027 0.1106606 0.115580685 -0.53425497
000060 94 06 d0 be cd 7b 5e bf b5 ac 05 3f 71 29 20 bf
       -0.4063002 -0.86907655 0.52216655 -0.62563235
000070 0a da 30 3f c4 11 53 bd 3a 36 9e 3d 6b 29 09 3d
       0.690827 -0.051530614 0.07725187 0.033486765
000080 9c e4 5a be b7 41 dd 3c 6e 55 06 3e ac e2 36 be
       -0.2137627 0.027008874 0.13118526 -0.17859906
000090 22 40 e2 be 13 2b b0 be 44 59 dd be 1a 21 92 3e
       -0.44189554 -0.34407863 -0.43232167 0.2854088
0000a0 fc 23 c6 bd 9c 3a 29 be 68 d5 0b be a0 6f f8 bb
       -0.09674832 -0.16526264 -0.13655627 -0.007581666
0000b0 6a 05 06 be f8 f2 52 3d a0 0c 7f bd 08 5a 62 bd
       -0.13088003 0.051501244 -0.0622679 -0.05526164
0000c0 4d a2 58 be 80 69 69 bb f4 cc 5e bd 74 a0 12 be
       -0.21155663 -0.0035615861 -0.054394677 -0.1431902
0000d0 5c 96 0f bd 9b 15 37 be eb 62 28 be 68 0b e5 3d
       -0.035055503 -0.17879336 -0.16443984 0.11183816
0000e0 98 6e 31 bd a4 16 66 bd 58 90 b1 bd b8 4c 54 3d
       -0.04331836 -0.056173936 -0.086701095 0.051830977
0000f0 0a 5e a7 3d 56 61 1a 3f c0 ea 3d bf 8a a8 fd be
       0.081722334 0.6030477 -0.74186325 -0.49542648
000100 01 4c c1 be a6 9f 44 bf b3 f8 77 be 58 52 37 be
       -0.377533 -0.76806104 -0.24215965 -0.17902505
000110 47 ec 34 3e 48 44 00 3d bf 3b cc bc 9f e8 ca be
       0.17668258 0.031315118 -0.024930833 -0.396306
000120 8e 91 11 bf c7 33 03 be eb 77 59 bc 1c 1e f1 3d
       -0.56862724 -0.1281272 -0.01327322 0.11773321
000130 e8 16 16 bf 32 f2 93 bd 38 b5 21 be 57 a0 36 bf
       -0.586287 -0.072239295 -0.15791786 -0.7133841
000140 f9 3d 35 bd 44 88 f4 bc dc 39 b8 bf 50 0c 4a bf
       -0.044248555 -0.029850133 -1.4392657 -0.7892504
000150 d7 b2 4b bf 82 8d c0 be 28 aa 02 3f c5 f7 f1 be
       -0.7956976 -0.37607962 0.5104089 -0.47259346
000160 07 ba 85 be a0 aa 51 bd 73 ce c6 be 44 a9 dd be
       -0.2611849 -0.05118811 -0.38829383 -0.43293202
000170 47 2b f7 be 72 4e 98 bc 61 79 9a 3d 8e 2c a4 bd
       -0.48275205 -0.018592093 0.075426824 -0.08016311
000180 ed 32 02 bf 02 1c 27 bd 1d 26 35 3f 08 0e b6 3d
       -0.50858957 -0.040798195 0.7076128 0.08889395
000190 66 0a 0d be e1 3c 5c 3e 66 7b 6c bf 8b f3 d7 bc
       -0.13773498 0.21507598 -0.9237579 -0.026361248
0001a0 52 47 e1 bd 10 09 8a bd 4c 26 e9 bd ae 0a 0e be
       -0.109999314 -0.0674001 -0.11384258 -0.13871261
0001b0 ac 6a 1f 3f a4 41 ef 3d 3b 8d 5f 3e 26 af 8e 3d
       0.62272143 0.11682442 0.21831219 0.06967001
0001c0 77 c3 16 3e d3 65 02 be 18 51 4a 3e 0d 87 c6 bd
       0.14723001 -0.12734155 0.19757497 -0.09693728
0001d0 f6 76 79 bd c6 36 85 be f9 1d 36 3c de 13 df 3d
       -0.060904466 -0.2601835 0.0111155445 0.10892461
0001e0 b8 b1 71 bd 5a 6a 3e be b5 7f 6b 3e 82 7c 2b be
       -0.059007376 -0.18595257 0.22997935 -0.16746715
0001f0 6d 1d 29 3f c3 59 ea 3e f9 74 7f be 81 b1 83 be
       0.66060525 0.45771608 -0.24946965 -0.25721362
000200 5e e5 d5 bf e2 b9 23 3e 4b 96 47 bf 3f 92 f5 3e
       -1.6710622 0.15988877 -0.77963704 0.4796314
000210 60 f4 01 3e a1 6d 5d bd 19 07 d2 bd 08 33 df 3d
       0.12690878 -0.05405963 -0.1025526 0.10898405
000220 c8 84 83 3e 56 a5 a2 3c 0e 49 fe 3e 7a 9f d0 3e
       0.25687242 0.019854229 0.4966511 0.4074667
000230 a5 f4 8b bc ca 45 82 be 2a af d7 3e 58 1e c6 3e
       -0.017084429 -0.2544387 0.42125827 0.38695025
000240 1f 7b b6 3e d7 6f 7f be 54 e3 ce 3e 6d 6f 2f be
       0.3564081 -0.24945007 0.40407813 -0.1713235
000250 e1 8d 85 3e 88 87 88 bd 01 f0 93 be 88 a5 e8 be
       0.26084808 -0.066664755 -0.28894046 -0.4543879
000260 87 34 3c bd 69 d9 9c 3d 44 88 59 bd 85 fa 48 bd
       -0.04594853 0.07658655 -0.05310847 -0.04906704
000270 d9 72 d6 be c1 34 0e bd 5c fe 12 bd c5 27 c4 bd
       -0.41884497 -0.03471828 -0.035887107 -0.09577898
000280 2a 8d 6f 3b 6d b6 a9 3e e2 75 62 be 38 e5 0d bf
       0.0036552646 0.33146992 -0.22115281 -0.55427885
000290 ba 6e 73 be 5c 5b c9 bc 26 8e b3 be a4 46 83 bd
       -0.23772708 -0.024579696 -0.35069388 -0.06409958
0002a0 02 2b 99 bd b0 94 7b 3c bc 64 e0 be b6 80 2f be
       -0.07478906 0.015355274 -0.43826854 -0.17138943
0002b0 b5 b7 9c be 04 50 5c bd ea f5 49 bc 79 b3 29 3d
       -0.30608907 -0.053787246 -0.012326697 0.041430924
0002c0 d8 2d b8 be ec d6 69 bd 75 89 b6 3d 8c a9 4b be
       -0.35972476 -0.05708973 0.089129366 -0.19888896
0002d0 f4 59 95 be c9 84 05 3f 0b 70 a6 bf 8e 2f 48 be
       -0.2917019 0.5215574 -1.3002943 -0.1954939
0002e0 37 ee 0d 3f 9b 00 c9 bf 3b d9 2b bf 7e f2 b8 3d
       0.5544161 -1.570331 -0.6712834 0.09030627
0002f0 d1 09 99 3e 32 83 c3 bd 07 0b b4 bb 31 b9 dd 3d
       0.29890302 -0.09546508 -0.0054944786 0.10826338
000300 b1 75 93 b9 8c 54 0a be 1e 44 07 bd f3 38 18 3e
       -0.00028125712 -0.13508815 -0.033023946 0.14865474
000310 bb 13 90 3d e6 01 d1 3c 2d 59 1a be 64 02 4d be
       0.07035013 0.0255136 -0.1507308 -0.20020443
000320 7e 01 3a be cc 0b d2 3d d0 42 88 3e 60 b1 20 3e
       -0.18164632 0.10256156 0.26613474 0.15692663
000330 9d 9d ae 3e a6 56 1f 3f c5 2a 73 bd 20 b2 69 be
       0.34104624 0.6224159 -0.05936696 -0.22821856
000340 e9 ba 96 3e 50 bc 40 be 90 31 85 bf 64 c3 a0 bf
       0.29439476 -0.18821836 -1.040575 -1.2559628
000350 9b f1 aa bf e1 68 d2 be 0b 20 74 bf d0 88 cc bf
       -1.3354982 -0.4109564 -0.95361394 -1.5979252
000360 91 aa 8d bf 5e 2d 86 bf 7b 65 78 bf 6a 2f 8a bf
       -1.1067678 -1.0482595 -0.97029847 -1.079572
000370 d9 4c c9 bd a6 46 03 be ca 3d cc be c7 5a 05 3e
       -0.09829111 -0.12819919 -0.3989089 0.1302291
000380 1d 6b f9 3e ac a4 8b be 64 1b 75 3f 0f 46 24 bf
       0.48714533 -0.27274072 0.9574492 -0.641694
000390 e8 27 1a 3e ee 63 3a be 61 a1 0d bf ef f8 3f be
       0.15054286 -0.18202183 -0.5532437 -0.18747304
0003a0 60 54 21 bf 46 24 bf 3d e1 bc 22 bc 22 a2 16 be
       -0.6301937 0.093330905 -0.009932728 -0.14710286
0003b0 d8 fe 49 be 28 d7 9a bf 51 9a 13 bf 6a 70 8e bf
       -0.19726121 -1.209691 -0.57657343 -1.1128056
0003c0 eb 31 41 3c 9e d7 4b bd c8 f8 8f bf 6f 56 53 bf
       0.0117916865 -0.049766175 -1.1247797 -0.8255376
0003d0 6d ea f7 3e 2f 2e b8 be 45 8d fc 3e 86 d5 cd bd
       0.4842104 -0.35972735 0.4932653 -0.10050492
0003e0 b0 e5 03 bf f3 67 46 be e5 1a a7 3c 15 61 b5 3e
       -0.5152235 -0.19375591 0.020398566 0.3542563
0003f0 fb c0 2e be 47 43 05 be 76 9b 50 bd 90 09 13 3e
       -0.17065804 -0.13013946 -0.05092951 0.14359117

cluster_projector.0.bias f4 [128]
000000 c8 69 cb 3d e8 9e 89 3e dc 18 31 bd ca 7f 16 3f
       0.099322855 0.26879048 -0.0432366 0.5878874
000010 ff 56 a3 3e 49 17 e3 3d 9c cd 1c be 8b 71 d4 bd
       0.3190231 0.11088426 -0.15312809 -0.10373219
000020 7b 7b 1f 3f 34 35 cc 3e 45 1e 4c be 83 42 d1 ba
       0.6229779 0.3988434 -0.19933422 -0.0015965257
000030 96 9b d4 be 43 c1 03 be 15 f7 41 3f 53 82 f2 3e
       -0.41524953 -0.12866692 0.7576764 0.47365054
000040 87 f8 47 3e ce fe bc 3e 6a 50 38 3d 81 44 33 3d
       0.195284 0.3691315 0.044998564 0.043766502
000050 b4 39 a3 3d c4 1e b1 bd 6e 36 2a be 68 71 e1 bc
       0.079699904 -0.08648446 -0.16622326 -0.027519897
000060 a1 a6 e7 bc e1 5a 8a 3e c4 98 04 bd 07 9f 27 3f
       -0.028277697 0.2702246 -0.03237225 0.6547703
000070 e3 b3 3e be a0 26 8a bd fb d2 66 3f 94 c9 fe 3e
       -0.18623309 -0.067456484 0.9016568 0.49763167
000080 23 15 3b be 5b ed 4e 3f 03 19 b0 bd c9 37 e8 3e
       -0.18269782 0.80830926 -0.085985206 0.4535506
000090 41 10 0a 3f b0 82 4a 3e 16 78 e9 3d a1 cc ab 3b
       0.5393105 0.19776416 0.11399858 0.0052428995
0000a0 b6 69 0a be 1b 90 f2 3e 60 f4 37 be 3d 1d f6 be
       -0.13516888 0.4737557 -0.17964315 -0.48069182
0000b0 c2 14 05 be c9 5d 0d 3f a9 84 b2 be 21 31 41 be
       -0.129962 0.5522123 -0.34866837 -0.18866397
0000c0 a9 23 38 be a8 24 f5 bd 28 ff 48 3d 75 db 5c 3e
       -0.17982353 -0.11969882 0.04907146 0.21568091
0000d0 d0 fe e0 be eb e2 67 bd ce 34 eb 3e 51 57 09 3e
       -0.43944407 -0.05661289 0.45938724 0.13412215
0000e0 54 92 14 3f f0 c9 c2 bc 39 df 5b 3c f0 99 ce 3c
       0.5803578 -0.023777932 0.01341992 0.025219887
0000f0 52 80 a3 be f7 81 da 3e c0 fb 33 3c 8c 5e 7a be
       -0.31933838 0.4267728 0.010985315 -0.2445013
000100 c7 2b 22 bf fb da fb 3e de ad 16 40 b1 d3 5e 3e
       -0.6334805 0.49190506 2.354362 0.21760441
000110 57 a1 86 bd e3 ab 87 3e 30 ef e1 bc 11 ca 15 3f
       -0.06573742 0.26498327 -0.027579874 0.58511454
000120 08 f7 13 be f8 8d 3f be 2e ed 0f 3e f8 15 31 3d
       -0.14449704 -0.187065 0.1405532 0.04323384
000130 67 cd 22 bf cc 4b 26 be c8 6e cf 3d 2b e6 c1 3f
       -0.6359467 -0.16239852 0.10128552 1.5148367
000140 8e 1d 09 3f 8a 7b 81 be 81 00 8f 3e 2a 19 fd 3d
       0.5356072 -0.25289565 0.27930072 0.12358315
000150 09 d6 62 be e0 60 a6 3d 47 92 08 bd dd c3 d6 38
       -0.2215196 0.08123946 -0.033342626 0.000102407976
000160 9d d3 25 3f 88 99 12 3e 4d bc 04 3d 10 52 1e 3d
       0.6477602 0.1431638 0.03240614 0.03865248
000170 e5 b2 ef 3e 42 5d 33 3f 98 49 88 be 4c 50 0b bf
       0.46816173 0.70064175 -0.26618648 -0.544194
000180 0a 3e 16 3f 0c 7f 51 be 1b cf 40 be 48 c5 5e 3e
       0.58688414 -0.20458621 -0.18829004 0.21754944
000190 c8 18 81 be b6 11 3f bd 40 62 3e 3b 43 5c 47 bd
       -0.2521422 -0.04664775 0.002905026 -0.048671972
0001a0 22 68 4e 3e a9 12 b6 3d 09 2d 27 3f a6 14 bb bd
       0.20156911 0.08890278 0.65303093 -0.09134798
0001b0 61 d3 5b be bb 1f 61 3e 52 83 05 be 6f 55 e4 bd
       -0.21467353 0.2198476 -0.13038376 -0.11149108
0001c0 2d a3 ae 3d d6 29 06 be 15 c5 a0 3e f6 2c 87 be
       0.08527217 -0.13101897 0.31400362 -0.2640149
0001d0 bb 49 88 3e 24 fe 51 3f d8 62 82 3d e0 cb c6 3e
       0.26618752 0.8202841 0.06366509 0.3882742
0001e0 f5 90 82 bb 22 6f 31 be 5c c8 e8 be 1b d2 2a be
       -0.0039845654 -0.1732755 -0.45465362 -0.16681711
0001f0 5e fb c1 be 1c d9 99 be 57 8c 4b be 30 68 70 be
       -0.3788709 -0.30048454 -0.19877754 -0.23477244

cluster_projector.2.weight f4 [50, 128]
000000 a0 06 e1 3c e2 f5 b8 bd e6 4e 69 bd 7e 42 35 bd
       0.02746898 -0.090312734 -0.05696001 -0.044252865
000010 89 3a 4f 3e 2d 23 89 3e de 47 31 3c 19 1d 7e be
       0.20237173 0.2678465 0.010820357 -0.24815787
000020 d5 1d 57 3e ef ed 31 3e ec 6b f5 bd 39 21 13 be
       0.21007474 0.1737592 -0.11983475 -0.14368142
000030 b0 77 52 be 9a b2 94 bc 41 92 6e 3e 66 15 24 3e
       -0.2055347 -0.01815157 0.23297979 0.16023788
000040 af a8 0c 3e c5 a5 48 3e 70 84 16 bf 15 7a bb bd
       0.13736223 0.19594486 -0.58795834 -0.09154145
000050 2a 56 1c bd 2b 03 cf be 2b ef 36 be 83 22 4b 3e
       -0.03816811 -0.40432104 -0.17864673 0.19837384
000060 da 85 ad 3e 92 eb 49 3e 78 8c f3 bd 75 95 5f 3e
       0.33891183 0.19718769 -0.11892027 0.21834357
000070 4e 65 86 3e 13 ea 1b bf 81 ee 6e 3e 72 f5 b4 3e
       0.26249164 -0.60904044 0.2333317 0.3534351
000080 4c 90 3b bd a4 cb a9 3e 7b 2f c6 bd 71 24 83 3e
       -0.04579191 0.33163178 -0.09677025 0.2561374
000090 7a 11 b0 3e af df 37 3e 61 d3 92 3e f8 99 cc be
       0.34388334 0.17956422 0.28676894 -0.3996122
0000a0 f2 87 ab bd 7a 6b 77 3d 70 57 cf bc 6a c5 cb bf
       -0.08375539 0.060405232 -0.025310248 -1.5919621
0000b0 59 6e a2 be f9 2a c3 3e 5a 32 3b bf 86 c1 56 bf
       -0.31724814 0.38118723 -0.73123705 -0.83889043
0000c0 f8 92 97 bf ff 06 06 3f 08 e0 02 bc 53 3d de 3d
       -1.1841726 0.52354425 -0.0079879835 0.108515404
0000d0 79 eb 37 be 9d 77 38 3e 5b 3e ab 3e d1 62 9e 3f
       -0.1796092 0.18014379 0.3344601 1.2373906
0000e0 18 fa 6c 3c 00 22 1f bc 58 8b 35 3f 7c d4 b8 3c
       0.014463924 -0.009712696 0.70915747 0.022562258
0000f0 ac 1d a4 3c da 0a 9f 3d aa ab 29 3d 66 8a 43 bd
       0.02003368 0.07765742 0.041423477 -0.04773941
000100 07 e9 87 3d c5 b5 04 3b 41 be a1 3d cf eb 6f 3e
       0.06636243 0.0020249945 0.07897616 0.23429798
000110 b4 23 65 be 2c 7c 21 3e ee 5d 8f bd 2d 3c 38 3e
       -0.22376901 0.15770024 -0.070003375 0.17991705
000120 6a 31 c7 3d fc d3 ac 3e 8c 2c c7 3c 97 5f 88 3d
       0.09726222 0.3375548 0.024313234 0.06658857
000130 0b 3e ad bd 11 ff 00 3e ab 5d 86 3d 6d 36 51 c0
       -0.084590994 0.125973 0.065608345 -3.268947
000140 c4 a5 90 3e 37 59 d3 3e fd 12 67 3e 29 52 43 c0
       0.2825147 0.41279003 0.22565837 -3.0518897
000150 48 e0 ac bc dc 99 4a c0 85 99 fb 3d eb 36 13 3d
       -0.02110304 -3.1656408 0.12285141 0.035941046
000160 1e 53 ce 3e 6d 92 f0 bd 8d 67 85 3d 77 83 87 bd
       0.40297788 -0.117466785 0.06513891 -0.06616872
000170 cf 8e 84 3e dd 72 8c bd 3b 1b e4 3d a3 58 d2 be
       0.25890204 -0.06857846 0.11138006 -0.4108325
000180 9b 96 41 3e 42 72 a0 bd 90 2a a7 3e f8 e1 72 3e
       0.18905108 -0.07834293 0.3264966 0.23719013
000190 34 23 30 bd a2 fd 21 bc 00 67 5e ba bb 90 a6 3e
       -0.043002322 -0.009887131 -0.0008483976 0.32532296
0001a0 3f 67 7a bf cb 40 69 3e 4c 2a 18 3f 55 f6 ba bd
       -0.9781379 0.22778623 0.5943954 -0.09129015
0001b0 20 4f f5 3c 7b 74 82 bb 31 7e 03 3d fd fd 33 3e
       0.029944956 -0.0039811707 0.032102767 0.17577358
0001c0 18 fa 2d 3d 30 8e a2 bf 99 be ac 3c a0 cc 66 3f
       0.042474836 -1.2699642 0.021086978 0.9015598
0001d0 46 56 52 3e 82 6e d6 3e d5 da 39 bd ba 4e ee 3e
       0.20540723 0.41881186 -0.04537471 0.4654444
0001e0 31 f4 e8 ba 7c 92 1f bf c7 20 34 bf 14 7d fc 3e
       -0.001777297 -0.6233289 -0.70362514 0.49314177
0001f0 18 c5 73 bd d6 92 3e 3d f5 d8 52 bc 19 a1 c7 3d
       -0.059514135 0.046526752 -0.012869109 0.09747524
000200 28 64 9a 3c 1b 11 25 3d a2 71 32 3d b6 88 33 38
       0.018846586 0.040299516 0.0435654 4.2804248e-05
000210 ce f7 b9 be 89 40 91 3d 5e 7a 16 c0 8c a0 12 3e
       -0.36321872 0.07092387 -2.3512187 0.14319056
000220 79 43 c1 be b8 58 13 3e 6f f5 07 bf 7b f0 0e 3e
       -0.3774679 0.14389312 -0.53108877 0.13958924
000230 24 e9 6f c0 61 b0 90 bf dc b2 01 3e 6e 02 3d c0
       -3.7486048 -1.1303827 0.12665886 -2.9532733
000240 75 9f 33 c0 c7 f9 44 bf 59 41 1c c0 27 90 02 bf
       -2.8066075 -0.7694363 -2.4414885 -0.5100121
000250 5e 98 60 3d a3 3e 86 bd 26 8d 73 c0 d3 0a ea bd
       0.05483281 -0.06554916 -3.80549 -0.11427846
000260 ad 91 10 3e 1f 5d f3 bd ca 28 9a bf a9 86 69 3d
       0.14118071 -0.11882996 -1.2043698 0.057013188
000270 0d b1 b1 3e d8 18 18 bf 99 60 52 bf 4c 9f 39 3f
       0.34705392 -0.5941291 -0.82178646 0.7250869
000280 d2 ff 52 bd 73 79 27 be c9 67 4d bf e0 35 6a 3d
       -0.0515135 -0.16354923 -0.8023649 0.057180285
000290 7d 5a 1e 3e 06 cc aa 3e 2c 16 82 bf 5e ab aa bb
       0.15464206 0.33358783 -1.0163016 -0.005208417
0002a0 8c 75 8e 3c 53 58 89 3c 4e 0c a8 bd b5 83 5e c0
       0.017390035 0.01676575 -0.08205472 -3.4767888
0002b0 74 42 d3 bf 15 a6 be 3d ac 5b 0d 3f e3 0a ee bf
       -1.6504655 0.093090214 0.55218005 -1.8597072
0002c0 ac 74 a3 c0 b4 ca 95 be 70 e9 ff 3c 69 fa d7 be
       -5.107992 -0.29256213 0.031239241 -0.42183235
0002d0 d1 3b 9c bf 46 39 10 bd 10 6c 72 3d 78 71 5a 3c
       -1.2205755 -0.03521087 0.059185088 0.013332717
0002e0 5a 2a 25 3d ff 18 38 bd 6f 96 98 3d 16 a8 91 bd
       0.040323593 -0.044945713 0.07450568 -0.07112138
0002f0 21 87 b2 be 43 58 ca bd c0 71 9e ba bb fd b5 be
       -0.3486872 -0.09880116 -0.0012088344 -0.35545143
000300 03 20 10 be 73 ff f7 3d 9c 7c 0a 3f 79 e9 b4 3d
       -0.14074712 0.1210927 0.5409639 0.08833594
000310 8a 8e c0 be 23 20 ac 3e 7f 72 48 bd 5d eb 4c 3d
       -0.3760875 0.33618268 -0.048937317 0.050029147
000320 b5 dd 77 3d 5d ba 87 c0 7b 94 b2 bc 9d 0e 48 3e
       0.06051417 -4.2414994 -0.021799317 0.19536825
000330 97 3c 05 bf be 7b af 3d 6a c5 2a 3d df 11 5a 3e
       -0.5204558 0.08568524 0.041692175 0.2129588
000340 f5 9b 5c be 78 47 23 3f 04 3b e8 3d 9c 90 a1 3e
       -0.21543868 0.6378093 0.11339381 0.3155564
000350 79 f2 15 bd e6 49 1d 3e 17 42 50 3e 19 2a 40 bd
       -0.036608193 0.15360221 0.20337711 -0.046915147
000360 90 fb cd 3c 27 ac 07 3e 94 4e 30 3d 54 3e 67 c0
       0.025144368 0.13249265 0.043043688 -3.6131792
000370 31 36 24 be 09 c4 bc bd f3 10 38 3f 63 e0 0c bf
       -0.16036297 -0.09217078 0.7190086 -0.55029887
000380 85 16 53 3e 6b bd 80 3d dd 5c d2 bf d3 16 5a bb
       0.2061406 0.062861286 -1.643459 -0.0033277764
000390 b5 7f 7e 3e f8 a7 7c c0 62 ef 6d bd f3 65 54 3e
       0.24853404 -3.947752 -0.05808962 0.20742016
0003a0 b0 53 72 bf bf 39 82 3f d3 60 92 bf 22 02 73 3d
       -0.94658947 1.0173873 -1.1435798 0.059328206
0003b0 db 47 e9 bf 1a 4b 69 be be b7 af bd 50 9a 31 3e
       -1.8225054 -0.22782555 -0.08579968 0.17344022
0003c0 4f 55 8a 3d 12 24 74 be 6a da 14 c0 eb 23 80 3e
       0.067545526 -0.23841885 -2.325831 0.25027403
0003d0 03 46 f8 3d 1e 4d b9 be 78 58 ca bc 22 11 0a be
       0.12122729 -0.36191648 -0.024700388 -0.13483098
0003e0 95 57 9a 3f d5 29 99 c0 9a 02 70 3d aa 8a eb be
       1.2057978 -4.7863564 0.05859623 -0.4600423
0003f0 6c d6 d3 3d ed e0 c3 be 0d 56 16 3f 61 2f 5d 3e
       0.10343632 -0.38257542 0.58725053 0.21600105

cluster_projector.2.bias f4 [50]
000000 45 81 d2 3e 38 ac 78 be c9 01 28 3e 2d ac 9c 3e
       0.4111425 -0.24284446 0.16406931 0.3060011
000010 c7 70 71 3e 89 82 e8 be db 0c 7b bc fb 5f 54 be
       0.23578177 -0.4541209 -0.015322889 -0.20739739
000020 10 c5 54 3e 8a 2b 77 3e 2f 88 37 3e 7a b0 1a be
       0.20778298 0.24137703 0.17923044 -0.15106383
000030 2d 8d 3d 3e 6d d4 30 be fb ce bb be 01 fc dc 3d
       0.18510886 -0.17268534 -0.3668135 0.107902534
000040 49 51 b5 3c db dc 34 3e 8a e7 a1 3e a8 ca 60 be
       0.022133486 0.17662375 0.31621963 -0.21952307
000050 aa 90 02 be 9c 4d a8 3e 85 b1 22 bd 1e c9 13 3e
       -0.12750497 0.3287171 -0.039720077 0.14432189
000060 58 94 4e be ba 5b e4 3e 28 c2 10 be cd 4e 68 3d
       -0.20173776 0.44601232 -0.14136565 0.056715775
000070 fd 56 6d 3e 3d d0 1f 3e 52 29 28 be d8 74 e4 bd
       0.23177715 0.1560678 -0.16422012 -0.11155099
000080 59 2e 9d 3e 9e 46 da 3e b8 bd d0 3e 68 d1 c5 3d
       0.30699423 0.42632002 0.40769744 0.09659082
000090 0d 04 b2 3e 23 53 c4 3e 21 f6 11 3e 4d 93 1a be
       0.34768716 0.38344678 0.14254047 -0.15095253
0000a0 0c 5a da bd 6f a0 62 3e 7a ca 5b 3e ca 90 6e 3c
       -0.10661706 0.22131513 0.21463957 0.014560888
0000b0 58 2d 58 be f5 4e 26 3e d9 74 4f be 6e 9e 50 be
       -0.21111047 0.16241057 -0.20259418 -0.20372936
0000c0 70 86 2e 3f 4b ea 93 3c
       0.68173885 0.018056056

exp_avg f4 [128, 20]
000000 e4 53 4d bf 10 44 56 be 1e 9d 9a bc f3 c2 bc bd
       -0.8020613 -0.20924401 -0.018873747 -0.09216871
000010 16 70 b2 bd 79 8a b4 bd 05 51 97 bd 3a eb c5 bd
       -0.08712785 -0.08815474 -0.073885 -0.096640065
000020 f7 4f af bd 00 00 00 00 eb df 33 bc 7b 43 5c bc
       -0.08560174 0.0 -0.010978679 -0.013443823
000030 14 19 61 bc 7c 6f e6 bd fc 3f e1 bd 7d 29 e2 bd
       -0.013738889 -0.11251733 -0.10998532 -0.110430695
000040 58 ff 5d bc 0a 7d 11 bc cf 93 05 bc 89 21 6f ba
       -0.013549648 -0.008879909 -0.008152916 -0.00091221236
000050 65 b7 81 be 0a ee a3 bd 6d 51 2d bc 2b 68 6c bd
       -0.2533523 -0.08004387 -0.010578495 -0.05771653
000060 18 c1 5e bd 53 85 c7 bc 4b 31 e2 bb 58 90 da bc
       -0.054383367 -0.024355566 -0.006902849 -0.026680157
000070 7d 52 65 bd 00 00 00 00 d8 5b a9 bb d6 69 9d bb
       -0.05598687 0.0 -0.0051684193 -0.0048038764
000080 05 41 a5 bb 9a 4f 51 bd e4 bb 4a bd 45 7d 4c bd
       -0.0050431513 -0.051101305 -0.049495593 -0.049924154
000090 26 36 a1 bb 8d 17 67 bb 9c 64 59 bb 85 8c 27 ba
       -0.004919785 -0.003526184 -0.003317154 -0.00063914835
0000a0 f9 15 06 3c 9d 92 6a bc a5 9c 83 37 e1 78 83 3b
       0.00818395 -0.014317182 1.568936e-05 0.0040122126
0000b0 e2 c2 aa 3b 0d 55 9a bb 00 74 b5 bc c7 3b 12 bb
       0.00521122 -0.004709846 -0.02215004 -0.0022313462
0000c0 3d 13 a3 3b 00 00 00 00 35 99 45 38 7d da 2b ba
       0.0049766586 0.0 4.7111145e-05 -0.00065556896
0000d0 b5 fb 7a ba cf 9b 47 41 6a 94 47 41 a1 97 47 41
       -0.00095742504 12.475539 12.473734 12.474519
0000e0 aa a5 3b ba 2f 77 cd ba f7 6b 79 ba a6 23 66 3a
       -0.000715817 -0.0015675778 -0.0009514684 0.0008779116
0000f0 47 1b 67 3b e3 43 ec 3a c2 0f c6 b9 97 42 b4 3a
       0.0035264061 0.0018025603 -0.00037777243 0.0013752755
000100 a8 3d bd 3a 96 53 05 3b fd 99 e6 38 3a 90 04 3b
       0.0014437931 0.002034401 0.00010995937 0.0020227567
000110 93 72 71 36 00 00 00 00 2d df 9a 39 3b 87 f1 38
       3.597849e-06 0.0 0.00029539448 0.00011516964
000120 7b 5c fa 38 44 85 3e 3b 91 7a 38 3b e5 0c 3b 3b
       0.00011938155 0.0029071132 0.0028149227 0.0028541621
000130 73 19 f6 38 c4 be ab 39 35 e7 5f 39 44 d9 c3 37
       0.000117349344 0.00032757793 0.00021353069 2.3346984e-05
000140 80 b2 c1 3c 54 77 12 3c e8 51 91 39 a5 8e 98 3b
       0.023644686 0.008939583 0.0002771758 0.0046556764
000150 37 ab bc 3b 9b 80 c5 3b 9c 61 3c b7 2b 15 ce 3b
       0.005757715 0.006027294 -1.12284e-05 0.0062891445
000160 bb d6 b6 3a 00 00 00 00 d0 c2 4d 3a d9 02 3a 3a
       0.0013949493 0.0 0.0007849159 0.0007095761
000170 a3 73 41 3a 88 9b 91 40 7e 9a 91 40 1c 9b 91 40
       0.0007379597 4.5502357 4.550109 4.5501842
000180 ca 0d 3d 3a f7 43 37 3a b7 7c 84 3a 64 b2 06 39
       0.00072118326 0.00069910235 0.0010107969 0.00012845692
000190 6b 00 a0 bc 2b 36 a4 bb 64 b1 8a ba 47 3f 16 3a
       -0.01953145 -0.00501134 -0.0010581431 0.0005731475
0001a0 5c 42 da ba ff f8 33 bb ea 87 82 bb 8e cf f9 ba
       -0.0016651857 -0.0027461646 -0.0039834874 -0.0019059048
0001b0 49 4b 03 bb 00 00 00 00 0c 50 9b b9 e2 2a c3 b9
       -0.0020033887 0.0 -0.00029623543 -0.00037225249
0001c0 a7 74 9c b9 46 c5 d5 3f 1c c2 d5 3f 0b c0 d5 3f
       -0.0002984155 1.6700828 1.6699862 1.6699232
0001d0 bf 2b a0 b9 4b 95 fb 37 f1 9d b7 39 fd f7 6c 39
       -0.00030550172 2.9991052e-05 0.00035022155 0.00022599097
0001e0 d6 09 1b bc 12 7d 7a 3b 98 c2 c1 bb eb 8f 20 3c
       -0.009462794 0.003822152 -0.00591309 0.009799938
0001f0 c8 14 ed 3a ed 26 b9 3b d7 68 ae 3a 55 39 b6 3b
       0.0018087858 0.0056503923 0.0013306391 0.0055610337
000200 39 6b 64 3a 00 00 00 00 96 55 ff 3a cb 5e 93 ba
       0.0008713487 0.0 0.0019480463 -0.001124346
000210 86 61 77 ba 8a d2 4e 3b d9 69 1c 3b 2e 42 29 3b
       -0.00094368344 0.0031558597 0.00238668 0.00258268
000220 be 13 95 ba 5a 0d 5a 39 15 4e a7 b8 3d 74 14 b9
       -0.0011373681 0.00020795074 -7.9777245e-05 -0.00014157682
000230 c8 1c 84 3e bd 04 80 3d a5 67 2e 3b eb c1 be 3c
       0.25803208 0.06250904 0.002661207 0.023285827
000240 d7 d8 b6 3c 2a 57 e8 3c 76 0a b0 3c 81 b9 e9 3c
       0.022320194 0.028361876 0.021489363 0.028530838
000250 8c cc bb 3c 00 00 00 00 ab d7 4e 3b 96 e6 bf 3b
       0.022924684 0.0 0.0031561654 0.0058563454
000260 c7 d8 c1 3b 74 a6 f5 41 ae a5 f5 41 25 a6 f5 41
       0.0059157345 30.706276 30.705898 30.706125
000270 b3 a4 c0 3b 7f 29 5a 3b 6f 29 10 3b 1e b0 16 39
       0.0058790087 0.0033288894 0.0021997353 0.00014370724
000280 2b f4 d0 bd fa c8 fb bc f9 55 ff bb 93 46 bb bb
       -0.10202821 -0.030735482 -0.007792231 -0.0057152
000290 0d 22 10 bc 79 e3 22 35 7b a9 9d 36 72 4f cb ba
       -0.008797181 6.068072e-07 4.6986947e-06 -0.0015511347
0002a0 07 3d 34 bc 00 00 00 00 ce 6d 6b bc a7 6c 3a bc
       -0.011000878 0.0 -0.014369441 -0.011378444
0002b0 6a c9 33 bc 78 16 87 c1 6d 16 87 c1 35 15 87 c1
       -0.010973314 -16.885971 -16.88595 -16.885355
0002c0 8c ec 36 bc 15 76 9a ba 59 6f 41 bb 7d 64 52 3a
       -0.011164796 -0.0011784459 -0.0029515831 0.0008025838
0002d0 ca 41 0f be 44 18 45 bc d8 03 d2 ba 73 1e f2 ba
       -0.1398994 -0.012029711 -0.0016022874 -0.0018472209
0002e0 a1 75 05 bb 99 67 3a bc d1 ad 46 bc a6 25 e2 bb
       -0.0020364302 -0.011377239 -0.012126402 -0.0069014607
0002f0 39 88 cc ba 00 00 00 00 28 a8 2e 38 b1 24 ec ba
       -0.0015604562 0.0 4.164144e-05 -0.0018016306
000300 a3 2c e3 ba 82 1f b3 40 69 1c b3 40 c6 1c b3 40
       -0.0017332028 5.597596 5.597218 5.5972624
000310 b5 b0 e3 ba ed 9c 07 ba e0 2c c2 36 31 6b 04 b9
       -0.0017371388 -0.0005173225 5.7868747e-06 -0.00012628433
000320 05 de db 3d 6a 4c b9 3c 1c bc 03 3c 79 88 e0 3b
       0.10735706 0.022619445 0.008040454 0.0068522063
000330 8d a1 8d 3c d7 97 9e 38 03 dd db 39 93 dc 2c 3b
       0.017288947 7.5623095e-05 0.00041935602 0.002637659
000340 2b 9f 98 3c 00 00 00 00 ec 7d 7a 3b bd 2a 80 3b
       0.018630585 0.0 0.0038222028 0.003911345
000350 ea 68 7d 3b 4b 01 27 3c ee d7 29 3c 51 96 29 3c
       0.003866727 0.010193179 0.010366423 0.01035078
000360 df bb 80 3b 0c ee 60 3a 20 12 90 3a d3 aa d3 39
       0.003928646 0.00085803936 0.001099173 0.0004037233
000370 1f f3 39 3d 45 20 4d 3c ea 70 99 bc cb 01 a8 3c
       0.045397874 0.012519901 -0.0187306 0.020508667
000380 bd 1e fb ba 9c 46 c8 3b 9e f2 16 3b 1a 2d 1c 3a
       -0.0019158941 0.006111933 0.0023032795 0.00059576484
000390 73 5b 2c 3c 00 00 00 00 22 f9 cb 3a ab 6e 24 3b
       0.01051985 0.0 0.0015561918 0.0025090377
0003a0 3f 0f 29 3b a0 27 35 c1 e9 28 35 c1 51 2b 35 c1
       0.002579644 -11.322174 -11.322488 -11.323075
0003b0 48 90 27 3b a0 59 80 3b 89 35 08 3b fb 18 a7 3a
       0.0025568176 0.003916934 0.0020783863 0.0012748534
0003c0 ca ed 88 3f f6 73 38 3e 08 6e 28 b6 c5 43 da b8
       1.0697567 0.18012986 -2.5097997e-06 -0.00010407673
0003d0 c8 ca 32 b9 9c a6 11 3e 3e f2 35 3e f1 10 02 3e
       -0.00017050945 0.14223713 0.1776819 0.12701775
0003e0 23 ff 3c ba 00 00 00 00 eb 8b 00 3c 9c 37 88 3c
       -0.0007209649 0.0 0.007845859 0.01662808
0003f0 9d a4 84 3c 57 47 89 3d 07 54 93 3d 5c cc 8f 3d
       0.016191775 0.0670306 0.07193761 0.070214
