flaskProject/modules/Contrastive_Clustering/save/save5/model_checkpoint_color_100.tar (torch, 183650 bytes, 24 tensors)

instance_projector.0.weight f4 [128, 20]
0.013139616 -0.2309502 -0.8004428 -0.97786695 -0.8701561 -0.1365669 -0.14256763 0.0674638
-0.6468671 -0.116062574 -0.040489506 0.051243626 0.013064385 0.060220655 0.09750558 -0.23481797
-0.10022738 0.08223977 -0.17906907 0.08617647 -1.9517084 0.11270769 1.3218248 1.7162819
1.7527075 -0.05696632 -0.011078343 -1.3788464 0.5460382 0.071896285 -0.40768602 -0.536632
-0.7752656 -0.07244712 0.1687547 0.103330635 -0.5197501 -1.983397 -2.8168674 -3.2627017
-0.18055265 0.1717027 -0.22487015 0.16496794 0.049077984 -0.08219291 0.0982191 -0.14151597
-0.07074083 0.12198177 0.07679067 -0.12399349 0.13695794 -0.15817147 0.051826023 0.023190789
-0.19418961 -0.29429287 -0.2424115 -0.24309748 0.31354627 0.07329718 -1.3267965 -0.81808686
-0.9532438 0.18972236 0.11445564 0.072868235 -1.5303421 0.21351373 -0.2779473 0.039388586
0.29348668 0.030209133 0.15803578 -0.13053499 0.19077863 0.7732555 0.56018084 0.44831073
0.029059485 0.0034598252 0.037094086 -0.013513818 -0.21878032 0.1163238 0.033074975 -0.24392745
-0.06370804 0.16209018 0.09673442 -0.12692508 -0.21789719 0.10848501 -0.17135341 -0.1365864
-0.17423376 0.06489531 -0.2569481 -0.0466321 0.24744111 0.098158926 0.011219378 -0.29140222
-0.3416366 -0.17702457 -0.0002207458 0.35668764 0.00022435168 0.007833347 -0.23981898 0.338761
0.3455701 0.16551395 -0.25094092 0.14545617 -0.07431402 0.032755822 0.06968002 -0.19279052
-0.09886329 -0.1401841 -0.1242674 -0.12149864 0.1138193 0.2148351 -0.09271921 0.15667927
-0.04276596 -0.18045053 -0.19492166 -0.09658967 -0.03639081 -0.19236964 -0.18265864 0.003722623
0.17873979 -0.056513295 -0.17636126 -0.00047513843 -0.07192714 0.13736996 0.016468685 -0.113590375
-0.07613216 0.082033426 0.00058698654 0.10119269 0.104370564 0.1690282 0.23823836 0.028408233
0.0054022 -0.064777546 -0.19894631 -0.1804995 -0.059017047 -0.32145074 -0.2547701 -0.1918409
-0.17687489 -0.1975172 -0.060821757 0.02429919 -0.02526632 -0.13825901 0.129863 -0.11330658
0.02564393 0.006997466 -0.093287155 0.08106473 -0.17512397 0.14179888 -0.1722599 -0.22231622
0.1629211 -0.17545679 0.09255856 -0.051971212 -0.2789806 -0.109269485 0.19329676 0.2317701
0.2899417 -0.049034625 0.026045874 -0.60494757 -0.021189552 0.12107974 -0.60945123 -0.015402015
0.10406058 0.08843493 -0.022981944 0.01956524 0.115942195 -1.5917819 -2.3720915 -2.5557103
-0.16239265 -0.03326222 -0.14774819 0.14345768 0.22391304 0.18530196 -0.040537596 -0.09954144
-0.11774677 0.0098748505 0.015187981 -0.12048178 -0.080266796 0.12019924 -0.15011518 -0.0061382786
0.2683906 -0.005795117 -0.18072623 -0.08464707 0.04676153 -0.2836295 -0.2693657 0.0818362
0.06991736 -0.19102278 0.0532462 0.17053045 0.14130981 -0.19217867 -0.05633623 -0.2683412
0.051488988 -0.06571765 -0.095573105 0.09178266 -0.17165309 -0.060655545 -0.0037590933 -0.15420488
0.019644612 -0.101358026 0.16216105 -0.05756667 -0.24200854 0.06220424 0.003823638 0.08220287
0.0470025 0.04276994 -0.057705473 -0.0031907556 0.11183172 0.09661545 -0.09333467 -0.0688274
00000000: 8b47 573c 367e 6cbe d2e9 4cbf 7d55 7abf
00000010: 8dc2 5ebf 32d8 0bbe 40fd 11be 762a 8a3d
00000020: 1599 25bf 37b2 edbd 53d8 25bd d6e4 513d
00000030: 010c 563c efa9 763d 01b1 c73d 1f74 70be
00000040: 0344 cdbd 536d a83d e25d 37be 4a7d b03d
00000050: 95d1 f9bf 4ad3 e63d 8e31 a93f 20af db3f
00000060: b858 e03f 8455 69bd f081 35bc 0a7e b0bf
00000070: 29c9 0b3f 5c3e 933d 39bc d0be b760 09bf
00000080: ce77 46bf 285f 94bd 08ce 2c3e 039f d33d
00000090: 580e 05bf f4df fdbf 8e47 34c0 1bd0 50c0
000000a0: cbe2 38be d5d2 2f3e 5c44 66be 5bed 283e
000000b0: ff05 493d c254 a8bd 1827 c93d 90e9 10be
000000c0: 91e0 90bd 94d1 f93d 6d44 9d3d 4df0 fdbd
000000d0: b43e 0c3e b4f7 21be 8647 543d 9cfa bd3c
000000e0: a4d9 46be 8ead 96be b83a 78be 8cee 78be
000000f0: 2389 a03e d51c 963d 78d4 a9bf 246e 51bf
00000100: c907 74bf 9446 423e b867 ea3d f13b 953d
00000110: 40e2 c3bf 58a3 5a3e 1c4f 8ebe ed55 213d
00000120: e343 963e 2579 f73c 22d4 213e f7aa 05be
00000130: 795b 433e 13f4 453f 0368 0f3f fc88 e53e
00000140: 280e ee3c 3cbe 623b f8ef 173d 1069 5dbc
00000150: f307 60be 2c3b ee3d a079 073d 1ec8 79be
00000160: 5c79 82bd f8fa 253e b21c c63d a6f8 01be
00000170: 7120 5fbe 642d de3d 4577 2fbe 4edd 0bbe
00000180: 566a 32be d5e7 843d b48e 83be 4d01 3fbd
00000190: 3461 7d3e 8c07 c93d 7bd1 373c ac32 95be
000001a0: feea aebe ee45 35be 0078 67b9 c39f b63e
000001b0: f23f 6b39 7057 003c 1b93 75be 1572 ad3e
000001c0: 90ee b03e 7d7c 293e 547b 80be 76f2 143e
000001d0: f331 98bd f82a 063d 66b4 8e3d e16a 45be
000001e0: d678 cabd 6c8c 0fbe e87f febd 47d4 f8bd
000001f0: 181a e93d bcfd 5b3e 92e3 bdbd 8870 203e
00000200: 5c2b 2fbd 06c8 38be 8b99 47be ced0 c5bd
00000210: 880e 15bd 8cfc 44be de0a 3bbe 40f7 733b
00000220: 9007 373e 7c7a 67bd 0c98 34be 001c f9b9
00000230: 894e 93bd b6aa 0c3e 56e9 863c 12a2 e8bd
00000240: 2eeb 9bbd 2401 a83d 00e0 193a 1d3e cf3d
00000250: 3cc0 d53d ba15 2d3e c2f4 733e 62b8 e83c
00000260: f004 b13b 17aa 84bd 95b8 4bbe dcd4 38be
00000270: dcbb 71bd 3195 a4be 3a71 82be f171 44be
00000280: b11e 35be f341 4abe 3c20 79bd 180f c73c
00000290: 50fb cebc c593 0dbe cefa 043e 480d e8bd
000002a0: 3813 d23c 004b e53b 560d bfbd 4405 a63d
000002b0: b353 33be ba33 113e e664 30be dda6 63be
000002c0: cad4 263e f2aa 33be 588f bd3d c4df 54bd
000002d0: 8cd6 8ebe aec8 dfbd 96ef 453e 2455 6d3e
000002e0: 3d73 943e 88d8 48bd 285e d53c d8dd 1abf
000002f0: b695 adbc a8f8 f73d ff04 1cbf bc58 7cbc
00000300: b71d d53d 5f1d b53d a144 bcbc 4847 a03c
00000310: 1a73 ed3d 82bf cbbf 59d0 17c0 c290 23c0
00000320: 424a 26be f73d 08bd 4d4b 17be 92e6 123e
00000330: 7649 653e ccbf 3d3e c00a 26bd 62dc cbbd
00000340: 3825 f1bd 20ca 213c 02d7 783c 27bf f6bd
00000350: eb62 a4bd 052b f63d cbb7 19be 9d23 c9bb
00000360: 7e6a 893e f7e4 bdbb 4c10 39be 715b adbd
00000370: 0589 3f3d e337 91be 4dea 89be bd99 a73d
00000380: d530 8f3d 7a9b 43be b018 5a3d 899f 2e3e
00000390: 85b3 103e 7cca 44be d2c0 66bd 0564 89be
000003a0: 1ee6 523d fa96 86bd d5bb c3bd 8cf8 bb3d
000003b0: d4c5 2fbe f371 78bd 1f5b 76bb e2e7 1dbe
000003c0: bded a03c cc94 cfbd 8c0d 263e 07cb 6bbd
000003d0: 16d1 77be e0c9 7e3d 0096 7a3b fa59 a83d
000003e0: b285 403d 882f 2f3d 935c 6cbd ff1b 51bb
000003f0: 0708 e53d 52de c53d 3f26 bfbd 61f5 8cbd

instance_projector.0.bias f4 [128]
-0.22308183 0.40075174 -0.071351014 -0.18978056 -0.22219282 -0.020057863 0.058251023 0.2175796
-0.045212746 0.1730361 0.0015913624 -0.12730172 -0.059963115 0.20648669 -0.2039557 -0.04554877
-0.24923731 0.0736861 0.12420192 -0.2526995 0.13891669 -0.10901339 -0.031873204 -0.116766095
0.1300837 -0.22335759 0.07823384 0.059401292 0.060173623 0.60678184 0.042333998 -0.2501249
-0.051690914 0.10139469 0.29330885 0.15139647 -0.19653071 -0.02978921 0.35445288 -0.042867165
-0.076363645 0.04285641 -0.027310502 0.061053313 0.22160754 -0.16433229 -0.12107566 -0.0697477
0.05226028 0.011382451 -0.1714051 -0.10905111 -0.1490695 0.385619 -0.009794923 -0.3994374
0.1493755 -0.14337154 -0.18121928 0.2173311 0.4025576 -0.024727192 -0.13265614 -0.16616784
0.021685058 -0.02397608 0.07222176 -0.01864052 0.21699385 -0.1623681 -0.19938427 0.1409811
0.13604388 0.14370517 -0.37754467 0.039543178 0.11813073 0.0002976521 -0.19283943 0.07702944
0.09622447 0.22501919 -0.1800301 0.21550961 0.09556485 0.16032575 -0.11819396 0.09303647
0.11772208 0.05041341 -0.097565375 0.057756104 -0.34353033 0.09273415 -0.06432338 0.34966177
0.1669758 -0.038794816 -0.24221085 -0.014706164 0.37460873 0.09645287 -0.06878135 0.11272865
0.41593605 -0.12790613 0.18986219 -0.11988399 0.15447469 -0.036152612 -0.14525917 0.37214574
0.31742227 -0.12138728 -0.08954195 -0.21424294 -0.022286328 0.12335384 0.20606673 0.085204735
-0.40075168 0.15225632 -0.13264391 0.5853089 -0.055540707 0.026832521 -0.19887729 0.17743048
00000000: 906f 64be 552f cd3e 7b20 92bd d655 42be
00000010: 8486 63be 6350 a4bc a098 6e3d 30cd 5e3e
00000020: 0031 39bd 6030 313e 4395 d03a 625b 02be
00000030: e29b 75bd 3f71 533e c3d9 50be 5991 3abd
00000040: 1138 7fbe bde8 963d 945d fe3d d461 81be
00000050: 2d40 0e3e 6a42 dfbd 7a8d 02bd 1023 efbd
00000060: a934 053e dab7 64be 1039 a03d c54e 733d
00000070: 9e78 763d 0e56 1b3f 6a66 2d3d 5f10 80be
00000080: dab9 53bd 05a8 cf3d 942c 963e ad07 1b3e
00000090: 593f 49be 8008 f4bc d97a b53e 7b95 2fbd
000000a0: 8b64 9cbd 348a 2f3d 46ba dfbc 0a13 7a3d
000000b0: 16ed 623e b946 28be 84f6 f7bd e2d7 8ebd
000000c0: e00e 563d 767d 3a3c d284 2fbe 3056 dfbd
000000d0: ada5 18be db6f c53e e27a 20bc 0f83 ccbe
000000e0: e4f5 183e fdcf 12be 8c91 39be 0b8c 5e3e
000000f0: 081c ce3e ae90 cabc 03d7 07be e727 2abe
00000100: dda4 b13c 7c69 c4bc 01e9 933d 01b4 98bc
00000110: a333 5e3e d343 26be 642b 4cbe 595d 103e
00000120: 164f 0b3e 7327 133e 894d c1be 07f8 213d
00000130: 86ee f13d 300e 9c39 b377 45be 9cc1 9d3d
00000140: 5611 c53d 6e6b 663e cf59 38be 8dae 5c3e
00000150: 81b7 c33d 6f2c 243e ad0f f2bd e889 be3d
00000160: 4618 f13d 4b7e 4e3d 5bd0 c7bd aa91 6c3d
00000170: 35e3 afbe 67eb bd3d fabb 83bd de06 b33e
00000180: b4fb 2a3e 50e7 1ebd 1f06 78be 1ff2 70bc
00000190: b7cc bf3e 1589 c53d 3ddd 8cbd 47de e63d
000001a0: 92f5 d43e d3f9 02be 3c6b 423e bd85 f5bd
000001b0: 9d2e 1e3e c314 14bd d2be 14be e389 be3e
000001c0: 2c85 a23e e599 f8bd c561 b7bd 8062 5bbe
000001d0: d191 b6bc f0a0 fc3d 2803 533e d27f ae3d
000001e0: 532f cdbe 15e9 1b3e ced3 07be ced6 153f
000001f0: a77e 63bd e0cf db3c 7da6 4bbe 56b0 353e

instance_projector.2.weight f4 [20, 128]
0.035489284 0.07351139 -0.008365845 0.0714881 0.0022381188 -0.039151605 0.0025180876 0.040165197
-0.04157699 0.1428761 0.110909194 0.10712011 0.012603282 0.18260926 0.10904387 -0.030152269
-0.025649402 -0.003146716 0.103785224 -0.06051454 -0.013679746 -0.04914788 0.012340927 -0.027884614
0.11623755 -0.004730329 -0.0055270437 -0.026347328 0.04054486 0.25443527 0.13760921 -0.033798877
0.043877635 -0.03422842 0.17473708 0.021386491 0.06341172 0.06358768 0.010453683 -0.028654631
0.0032287806 0.18971743 0.13267796 0.075505644 -0.052056044 0.042087533 0.0053946674 -0.020717092
0.036478825 0.014806626 0.052734412 0.1664245 0.011830732 0.07661128 0.032581083 0.012808798
0.08311737 0.013142856 0.12559645 0.053124193 0.27814218 0.023408398 0.078311644 0.059826422
-0.028202208 0.057229392 0.06824321 0.06584476 0.030173047 0.024151837 -0.08273898 0.035332773
0.014819212 0.08054562 0.09406314 0.22342765 -0.06440091 -0.038134318 0.0033299564 0.07460242
0.12310959 0.05978725 0.011701791 0.11676913 0.070212334 -0.00717319 0.039405055 0.05161993
0.08837806 0.028926328 0.033427186 0.121654876 -0.051810265 0.022213843 0.035635307 0.14003155
0.07782338 0.0006735805 -0.021823388 0.018203111 -0.2679253 -0.0078454595 -0.34787706 0.116854675
0.124662556 -0.006591737 -0.042926766 0.53468674 0.12713556 0.1480292 -0.02564711 0.14670312
0.0017355151 0.044870514 0.0953459 0.11436571 0.0755118 0.046970874 -0.0018431693 0.07609268
-0.023031192 0.026850538 0.04772993 0.2714205 0.155274 -0.07704499 0.038297255 0.07488607
0.03719676 -0.034592386 -0.019072056 0.022337565 -0.07483748 -0.028406288 0.0034204274 0.07033076
0.08306701 -0.14178279 -0.004992236 -0.12457787 0.004559344 0.08450352 -0.1904637 -0.13378105
-0.029698811 0.03190148 -0.117165916 -0.10685656 -0.028567549 -0.041583493 0.011964517 -0.06404972
-0.11211161 -0.07847971 -0.07411257 -0.0912914 -0.12208403 0.00037037258 0.03475306 -0.00725099
0.023659004 -0.0070572984 0.048923153 0.015909709 -0.067199595 -0.0058027166 0.056021553 0.03751896
-0.09526909 0.12309944 -0.107565075 -0.03126715 -0.07921282 0.07310403 0.043095745 -0.07054317
0.08618608 0.0148832975 -0.068190955 -0.017105276 0.111494616 0.06560842 -0.10756916 -0.111288
0.032245953 0.096161135 -0.017778767 -0.032457367 0.12566017 0.040396404 0.021015065 -0.123872966
0.05155755 -0.04979375 -0.052083623 0.009908605 0.066083804 0.007134391 -0.025032476 0.037663963
-0.066132374 -0.061237734 -0.019801943 0.06497464 -0.051140014 -0.009077563 0.005947523 -0.07007436
-0.13762863 -0.017852949 0.010042887 -0.092090495 -0.07814992 0.007481594 0.07359431 -0.045327768
0.016182048 -0.13008481 -0.11507153 0.023446217 0.063022435 -0.02657721 0.04709422 -0.050726544
-0.0330702 -0.035590805 -0.12222759 -0.064812176 0.121986635 -0.084481746 0.29769272 -0.009173077
-0.12963286 -0.017900897 -0.07731326 0.2513671 -0.1051364 -0.09295981 0.0025443323 -0.03635154
-0.11879728 -0.07289264 -0.042017255 -0.0039689518 -0.115284726 0.03706159 -0.074502006 0.096220694
0.012984938 -0.073608845 0.17867374 -0.034612235 -0.049619425 -0.03695346 -0.04174572 -0.031555638
00000000: 365d 113d 248d 963d e610 09bc 5a68 923d
00000010: 67ad 123b 6f5d 20bd 8006 253b 4384 243d
00000020: a24c 2abd 1d4e 123e 5c24 e33d ca61 db3d
00000030: ff7d 4e3c ecfd 3a3e 6452 df3d e401 f7bc
00000040: b21e d2bc 2239 4ebb 598d d43d 18de 77bd
00000050: 0321 60bc 4a4f 49bd 9931 4a3c 466e e4bc
00000060: f40d ee3d e000 9bbb 341c b5bb 5ad6 d7bc
00000070: 5e12 263d 5745 823e 6ee9 0c3e b170 0abd
00000080: 09b9 333d 1a33 0cbd 47ee 323e b932 af3c
00000090: 01de 813d 423a 823d ed45 2b3c 1ebd eabc
000000a0: f399 533b 4945 423e bbdc 073e b4a2 9a3d
000000b0: b838 55bd fa63 2c3d c0c5 b03b e4b6 a9bc
000000c0: d26a 153d 7e97 723c 0a00 583d 2f6b 2a3e
000000d0: b0d5 413c 60e6 9c3d be73 053d fedb 513c
000000e0: 7139 aa3d 2255 573c 5b9c 003e c198 593d
000000f0: a768 8e3e f8c2 bf3c db61 a03d 8d0c 753d
00000100: 5108 e7bc 5e69 6a3d 19c3 8b3d 9ed9 863d
00000110: 772d f73c 13da c53c 0e73 a9bd 19b9 103d
00000120: 48cc 723c 1af5 a43d 2da4 c03d 38ca 643e
00000130: a0e4 83bd bb32 1cbd 663b 5a3b 27c9 983d
00000140: e120 fc3d 7ae3 743d deb8 3f3c a724 ef3d
00000150: 7ccb 8f3d 140d ebbb 3267 213d 6b6f 533d
00000160: 8eff b43d e8f6 ec3c f2ea 083d 3126 f93d
00000170: 0037 54bd cef9 b53c 54f6 113d 6e64 0f3e
00000180: dd61 9f3d 3993 303a f6c6 b2bc b11e 953c
00000190: 812d 89be 3e8a 00bc f11c b2be 8151 ef3d
000001a0: 154f ff3d 7fff d7bb fad3 2fbd 3be1 083f
000001b0: d32f 023e f794 173e e319 d2bc 5839 163e
000001c0: 397a e33a 25ca 373d b644 c33d 9238 ea3d
000001d0: eea5 9a3d 8864 403d 8096 f1ba 7bd6 9b3d
000001e0: e9ab bcbc a9f5 db3c 7680 433d a1f7 8a3e
000001f0: 2600 1f3e c4c9 9dbd 95dd 1c3d de5d 993d
00000200: a15b 183d bfb0 0dbd 003d 9cbc 45fd b63c
00000210: 6544 99bd 4eb4 e8bc 4029 603b 9309 903d
00000220: 091f aa3d 822f 11be e995 a3bb af22 ffbd
00000230: 8d66 953b 2e10 ad3d eb08 43be e6fd 08be
00000240: ec4a f3bc 20ab 023d aff4 efbd 9dd7 dabd
00000250: 7e06 eabc 7453 2abd d206 443c 802c 83bd
00000260: c69a e5bd f8b9 a0bd 55c8 97bd fcf6 babd
00000270: 3107 fabd 912e c239 3a59 0e3d b699 edbb
00000280: 87d0 c13c e940 e7bb a563 483d 1455 823c
00000290: f19f 89bd b724 bebb db76 653d 7bad 193d
000002a0: 711c c3bd 8f1b fc3d 144b dcbd fc11 00bd
000002b0: 553a a2bd 91b7 953d 2a85 303d f078 90bd
000002c0: 5482 b03d 13d9 733c b3a7 8bbd 5d20 8cbc
000002d0: 4a57 e43d b55d 863d 384d dcbd f7ea e3bd
000002e0: 5514 043d 21f0 c43d c7a4 91bc 04f2 04bd
000002f0: 0fad 003e b376 253d c927 ac3c 1cb1 fdbd
00000300: 022e 533d 88f4 4bbd a355 55bd b457 223c
00000310: f256 873d 9cc7 e93b e810 cdbc 8745 1a3d
00000320: 6970 87bd 6bd4 7abd af37 a2bc 6d11 853d
00000330: 3178 51bd 0fba 14bc 70e3 c23b 2583 8fbd
00000340: 85ee 0cbe 5940 92bc ec8a 243c f199 bcbd
00000350: 110d a0bd 2928 f53b 9db8 963d 9ca9 39bd
00000360: 3790 843c f434 05be 9faa ebbd 4812 c03c
00000370: e811 813d 73b8 d9bc dee5 403d a3c6 4fbd
00000380: 9e74 07bd aac7 11bd 7552 fabd 3fbc 84bd
00000390: 21d4 f93d c404 adbd 2e6b 983e ac4a 16bc
000003a0: 7abe 04be e7a4 92bc 6a56 9ebd 30b3 803e
000003b0: c151 d7bd b661 bebd d0be 263b 5ae5 14bd
000003c0: fd4b f3bd bd48 95bd 491a 2cbd fb0d 82bb
000003d0: 661a ecbd e5cd 173d 8294 98bd 5b0f c53d
000003e0: c7be 543c 3cc0 96bd 40f6 363e 8fc5 0dbd
000003f0: bd3d 4bbd 835c 17bd 8ffd 2abd 7c40 01bd

instance_projector.2.bias f4 [20]
0.042217214 -0.035569467 0.10752482 -0.10237574 -0.13495967 -0.034939468 0.028925126 0.046631522
-0.13736485 -0.22268195 -0.12876494 0.04967401 0.017953996 0.012960815 -0.042504538 0.24011584
-0.13761756 -0.20237273 0.03453602 -0.08012263
00000000: f5eb 2c3d 4ab1 11bd f935 dc3d 5faa d1bd
00000010: de32 0abe b01c 0fbd 63f4 ec3c b200 3f3d
00000020: 5fa9 0cbe bd06 64be f5da 03be fa76 4b3d
00000030: 4214 933c 9959 543c 3d19 2ebd ede0 753e
00000040: 9eeb 0cbe cc3a 4fbe a475 0d3d 5517 a4bd

cluster_projector.0.weight f4 [128, 20]
-0.24102241 -0.1642474 -0.093720786 0.14686029 -0.0273121 0.1388928 -0.09722 -0.112235
-0.21766463 -0.15306586 -0.19875968 -0.2058131 0.17463873 0.10899824 0.035142075 -0.06956346
-0.1513757 0.061019383 -0.009661116 -0.1642831 -0.09272534 -0.19603646 -0.09512525 -0.09196684
-0.035557035 -0.12405807 -0.09376663 -0.14740443 0.1572267 0.107239366 0.15208532 -0.11626343
-0.0541085 -0.015420467 -0.024245396 -0.027660802 -0.17725192 -0.11080897 -0.16266964 0.18869063
-0.15936287 0.17580299 0.44347632 0.13306506 -0.14100605 0.1251128 -0.19452693 -0.030710183
0.0072317957 -0.16596249 -0.04484264 -0.048338633 -0.011475215 0.10682037 0.25014767 0.042450637
0.32197294 -0.18935479 0.0910664 0.17999941 0.08058868 0.32448915 -0.1053172 0.15201317
0.15067454 0.18087399 0.16353583 0.316833 0.010019877 -0.0692998 -0.35989773 -0.29920113
-0.0043977518 -0.4534268 0.027072554 -0.30857986 -0.31732085 0.038701 -0.5071962 -0.41422155
-0.20288734 -0.07301985 0.16978389 -0.05848506 -0.16335595 -0.18127587 0.09536597 0.15408489
0.15708432 -0.067197695 -0.14684363 -0.13462137 0.035325855 0.0042348206 0.046780825 -0.14530322
0.063290924 -0.08254552 -0.20914556 0.077340394 0.1694901 -0.23209019 -0.0010594638 -0.3094862
-0.17814155 -0.04083498 -0.10502824 -0.12396041 0.07153774 -0.175862 -0.03458343 0.2569329
-0.048789915 0.21171486 -0.13199939 -0.13405132 0.31205434 -0.5240136 0.49622732 0.31459913
0.05032527 -0.07926428 -0.19127715 -0.17617066 -0.2400523 -0.069470644 -0.20281634 0.080534026
0.1467276 -0.19931592 -0.076174654 0.039546013 0.04436254 0.018872377 0.11839653 0.23799255
-0.15681285 0.57002795 -0.13554175 0.102084406 0.13528357 -0.10431946 -0.04056717 -0.19502528
-0.3196416 -0.03585115 -0.19885747 0.25211272 0.048615314 0.006024897 -0.49216774 0.018040415
0.20471571 0.1308609 -0.07394968 0.11164197 0.18935148 0.29381227 -0.26197174 -0.34190837
0.20400321 -0.18539162 -0.223921 -0.17874718 -0.055767145 0.121300906 -0.10619881 0.32072163
-0.06179227 -0.18408847 -0.1775715 0.27498758 0.20037964 0.12964892 0.03686731 -0.027746748
0.21031131 0.13000666 0.25104243 -0.1589564 0.09636994 -0.10989222 0.06991029 -0.064025044
-0.20559779 -0.06561433 0.17979482 0.33905992 -0.09510299 0.07554543 -0.32397616 0.058873724
0.25397107 0.14986904 0.12329394 0.14343485 -0.1449017 0.316812 -0.34258896 -0.4553821
0.109605044 -0.16969079 -0.19229074 -0.28586876 -0.15356235 0.07572651 -0.020475283 -0.057745606
-0.052734807 0.086364746 0.038200624 0.08358017 0.3153126 0.15858646 -0.37045294 -0.3460266
0.2813599 -0.39247638 0.43329445 0.38077602 -0.17750187 -0.10684996 0.019666536 -0.110235184
0.1049107 -0.0012910366 -0.17652014 0.22810966 0.11772242 0.01092267 0.23585679 0.15024745
0.015218243 0.17585449 0.120640695 -0.005416743 0.08071919 -0.017796423 -0.08374002 0.06734706
-0.13230473 0.034166902 0.21925583 -0.11258919 0.016705528 -0.21563798 0.048698545 0.1676383
-0.007525742 -0.08906335 -0.075805575 0.16467994 -0.13599922 -0.19226462 -0.15906477 -0.09322725
00000000: 94ce 76be 7830 28be aff0 bfbd 8b62 163e
00000010: a0bd dfbc ea39 0e3e 481b c7bd 77db e5bd
00000020: 7ae3 5ebe 4cbd 1cbe a887 4bbe abc0 52be
00000030: 7fd4 323e 783a df3d 23f1 0f3d 4a77 8ebd
00000040: 3b02 1bbe 76ef 793d a849 1ebc d439 28be
00000050: c8e6 bdbd c8bd 48be 07d1 c2bd 1c59 bcbd
00000060: 41a4 11bd 2812 febd b808 c0bd 30f1 16be
00000070: 0900 213e 50a0 db3d 41bc 1b3e 851b eebd
00000080: e0a0 5dbd 20a6 7cbc 489e c6bc e898 e2bc
00000090: 8781 35be d0ef e2bd df92 26be 1e38 413e
000000a0: 0530 23be b305 343e 540f e33e 3542 083e
000000b0: e463 10be 921d 003e 1132 47be ec93 fbbc
000000c0: b3f8 ec3b 12f2 29be ebac 37bd bbfe 45bd
000000d0: 8a02 3cbc a3c4 da3d 5b13 803e b8e0 2d3d
000000e0: a3d9 a43e 39e6 41be 0581 ba3d c451 383e
000000f0: ae0b a53d 7123 a63e 8bb0 d7bd 57a9 1b3e
00000100: 6d4a 1a3e 0837 393e f075 273e ef37 a23e
00000110: 692a 243c 0eed 8dbd 8444 b8be e430 99be
00000120: 041b 90bb 8f27 e8be 43c7 dd3c 2efe 9dbe
00000130: e177 a2be f184 1e3d 9cd7 01bf d914 d4be
00000140: b3c1 4fbe 6e8b 95bd d4db 2d3e 088e 6fbd
00000150: c846 27be 62a0 39be 3c4f c33d 6ec8 1d3e
00000160: b6da 203e f29e 89bd 2d5e 16be 2fda 09be
00000170: d8b1 103d 40c4 8a3b 409d 3f3d 5eca 14be
00000180: ac9e 813d a00d a9bd 412a 56be a464 9e3d
00000190: d08e 2d3e 0da9 6dbe b5dd 8aba fa74 9ebe
000001a0: bd6a 36be 9442 27bd 0c19 d7bd f5de fdbd
000001b0: 6182 923d 2b15 34be 5ba7 0dbd b68c 833e
000001c0: efd7 47bd c8cb 583e d92a 07be c044 09be
000001d0: 96c5 9f3e c125 06bf 8211 fe3e 2313 a13e
000001e0: df21 4e3d 5055 a2bd 28de 43be 1566 34be
000001f0: 45d0 75be a046 8ebd 16af 4fbe 06ef a43d
00000200: c33f 163e 7919 4cbe 7501 9cbd 00fb 213d
00000210: 7fb5 353d 3e9a 9a3c e179 f23d 52b4 733e
00000220: 8c93 20be 5aed 113f 75cb 0abe a111 d13d
00000230: c787 0a3e 71a5 d5bd c329 26bd b5b4 47be
00000240: 10a8 a3be a8d8 12bd 4ba1 4bbe eb14 813e
00000250: da20 473d 806c c53b 69fd fbbe 7ec9 933c
00000260: ffa0 513e 6600 063e ee72 97bd 8ca4 e43d
00000270: 5be5 413e 906e 963e 2921 86be 9d0e afbe
00000280: 38e6 503e 4dd7 3dbe 8c4b 65be 8009 37be
00000290: 176c 64bd 9c6c f83d c37e d9bd a035 a43e
000002a0: e419 7dbd b081 3cbe 4ed5 35be 2ccb 8c3e
000002b0: 5230 4d3e b0c2 043e 2d02 173d 264d e3bc
000002c0: d95b 573e 7720 053e a288 803e 77c5 22be
000002d0: 9a5d c53d 2c0f e1bd 202d 8f3d 901f 83bd
000002e0: 3a88 52be ce60 86bd 221c 383e 4399 ad3e
000002f0: 5bc5 c2bd 90b7 9a3d 34e0 a5be 9325 713d
00000300: 7f08 823e 4577 193e 8981 fc3d 96e0 123e
00000310: 1c61 14be 2f35 a23e d267 afbe d827 e9be
00000320: 9c78 e03d 6cc3 2dbe dde7 44be 645d 92be
00000330: 733f 1dbe 8016 9b3d c8bb a7bc a886 6cbd
00000340: 7400 58bd 00e0 b03d 4278 1c3d 152c ab3d
00000350: a770 a13e 7d64 223e 02ac bdbe 662a b1be
00000360: 680e 903e aaf2 c8be c5d8 dd3e 13f5 c23e
00000370: 0dc3 35be 27d4 dabd b71b a13c fcc2 e1bd
00000380: 6cdb d63d 0038 a9ba b2c1 34be 9495 693e
00000390: 7418 f13d 00f5 323c 7184 713e 78da 193e
000003a0: f055 793c 3313 343e 7812 f73d ef7e b1bb
000003b0: 1a50 a53d cec9 91bc e37f abbd 41ed 893d
000003c0: e47a 07be 98f2 0b3d 9a84 603e 2995 e6bd
000003d0: 08da 883c 34d0 5cbe 2078 473d 60a9 2b3e
000003e0: 809a f6bb d866 b6bd f43f 9bbd dca1 283e
000003f0: 6143 0bbe 04e1 44be e0e1 22be eeed bebd

cluster_projector.0.bias f4 [128]
0.030604046 0.08727048 -0.10348373 0.04695196 -0.09998042 -0.31281915 -0.088178955 -0.26802534
-0.26008892 -0.010214133 -0.14377607 -0.17010847 -0.15400639 -0.19558866 -0.21270536 0.07148167
-0.19438066 -0.11130226 0.117937386 -0.01857093 0.3974354 -0.060104236 -0.29445964 -0.012518428
-0.17647383 0.06950569 0.019933933 -0.024350358 -0.13243496 -0.201143 0.10815319 0.26630288
0.025810167 -0.2689047 0.41664207 -0.15876576 -0.27029458 0.021802753 0.2743938 -0.06869718
-0.07232945 0.14825203 -0.13204035 -0.15127546 -0.26840907 -0.12370346 -0.014687625 -0.06455858
-0.012158944 -0.29192844 0.07026427 -0.02494947 0.38619533 0.053990334 -0.23250933 0.17000768
0.24873188 -0.00071131735 0.059331805 0.08859882 0.07362313 -0.020441666 -0.11378533 0.14329319
-0.12424871 -0.1091949 -0.015818551 -0.250624 0.1334206 0.10667465 0.004875217 0.19707158
0.17432936 -0.22304773 -0.026701711 -0.12743667 0.052716438 -0.14049682 0.09787759 0.26830494
-0.11756192 0.13384694 -0.14331344 0.14802319 -0.034868002 0.15617956 -0.08716725 0.20934881
0.26495266 0.022028191 0.04205504 0.096131355 -0.02174415 -0.13255544 -0.22003666 -0.12105407
0.13816224 0.20252253 0.23764059 0.05568384 0.101931095 -0.10347721 0.15850227 -0.05024768
-0.2289272 0.26073113 -0.20966037 0.02449847 0.22780164 -0.092648156 0.21803164 0.20125324
-0.15566388 -0.27932298 -0.030959466 -0.24030511 0.19246325 -0.1319686 -0.34105518 -0.38058037
-0.09896629 0.15342934 0.17991635 -0.22503154 -0.1132995 0.001892085 -0.09276138 -0.063629605
00000000: 56b5 fa3c deba b23d 47ef d3bd b350 403d
00000010: 89c2 ccbd d529 a0be 2b97 b4bd 9e3a 89be
00000020: 602a 85be 2e59 27bc 093a 13be ea30 2ebe
00000030: dab3 1dbe 6548 48be 6fcf 59be fb64 923d
00000040: b90b 47be 70f2 e3bd 2889 f13d 1022 98bc
00000050: a77c cb3e dc2f 76bd 6ac3 96be 181a 4dbc
00000060: 8eb5 34be 0059 8e3d 7d4c a33c 677a c7bc
00000070: 089d 07be 6ef8 4dbe 6b7f dd3d da58 883e
00000080: d86f d33c e0ad 89be 1c52 d53e 7e93 22be
00000090: 0d64 8abe b09b b23c 587d 8c3e 1bb1 8cbd
000000a0: 7621 94bd 61cf 173e 9635 07be f4e7 1abe
000000b0: ea6c 89be 3d58 fdbd 5da4 70bc 4a37 84bd
000000c0: 4f36 47bc a577 95be b7e6 8f3d d562 ccbc
000000d0: 65bb c53e f824 5d3d ed16 6ebe 7e16 2e3e
000000e0: 92b3 7e3e b377 3aba e805 733d 4c73 b53d
000000f0: b9c7 963d 4875 a7bc 4808 e9bd 73bb 123e
00000100: 1c76 febd 93a1 dfbd e895 81bc ca51 80be
00000110: 699f 083e 3d78 da3d 49c0 9f3b 22cd 493e
00000120: 6583 323e a066 64be 8cbd dabc c27e 02be
00000130: 31ed 573d 66de 0fbe 0c74 c83d 445f 893e
00000140: 4ec4 f0bd 2c0f 093e c2c0 12be 6493 173e
00000150: c0d1 0ebd 89ed 1f3e be84 b2bd 895f 563e
00000160: e0a7 873e 7774 b43c e841 2c3d 84e0 c43d
00000170: ca20 b2bc 9dbc 07be 4a51 61be 32eb f7bd
00000180: 677a 0d3e 1162 4f3e 0e58 733e bd14 643d
00000190: 40c1 d03d dceb d3bd 6b4e 223e 83d0 4dbd
000001a0: e46b 6abe 8d7e 853e 35b1 56be 04b1 c83c
000001b0: d544 693e 51be bdbd b043 5f3e 5415 4e3e
000001c0: 5a66 1fbe 6c03 8fbe b59e fdbc 8b12 76be
000001d0: 1615 453e c722 07be c99e aebe 6edb c2be
000001e0: d7ae cabd 951c 1d3e fe3b 383e ab6e 66be
000001f0: 9109 e8bd d6ff f73a aef9 bdbd 3d50 82bd

cluster_projector.2.weight f4 [50, 128]
0.012625698 -0.005722284 -0.06648649 0.064278536 0.015528657 0.07516723 0.03527023 0.19617027
0.2832641 0.11058862 0.24753222 0.0046714926 0.08036124 0.021136664 -0.0006361944 0.010809322
-0.039694667 0.06684081 -0.024041532 0.09122946 -0.15040433 -0.031734552 0.09812172 0.032137047
0.05763211 -0.060310062 -0.04811287 0.0149960155 -0.083971575 0.006905843 0.08274259 -0.3067458
0.09844522 0.10760193 -0.14832528 -0.05697978 0.049778942 0.016677856 0.015116588 -0.019406691
0.14751993 0.22618313 -0.038793772 -0.03920559 0.055873945 0.1404182 -0.08952553 0.020514727
-0.04876691 0.082432985 0.11484203 0.020463414 0.051944662 -0.0414472 0.10057262 -0.1255458
0.0027969228 0.08570765 -0.059679277 0.05167484 -0.17465171 0.084871925 0.004030727 0.14256734
0.078754835 0.08257092 -0.077415414 0.09442418 0.054133356 0.0032730324 -0.097078785 -0.040551078
0.006157101 0.2954597 0.08497325 -0.24373552 0.08284617 -0.03685114 0.06566765 -0.033313427
0.13728923 0.21065575 -0.010487666 0.0635831 0.02891744 -0.65964216 -0.008988857 -0.0018546274
-0.16363262 0.0028525342 0.06215381 -0.07341273 0.08187095 -0.027168626 0.07011168 -0.027241312
0.014015456 0.03653306 -0.41338637 0.09424184 0.18140481 0.029859757 -0.08173046 -0.06174714
0.08342242 0.09422561 0.03365509 -0.45915195 -0.27428964 -0.07490768 0.015079187 -0.1416264
0.0797453 0.08571768 -0.2264688 0.0045921756 0.022209577 0.08169725 0.050025597 0.09409773
0.07919242 0.03927308 -0.07662024 0.102345526 0.0065386896 -0.04529008 -0.016976915 -0.09167651
0.019971691 -0.022372391 -0.76167125 0.1306592 0.00067875534 0.21379028 -0.058930535 0.11877897
0.09527619 0.06581493 0.10444472 0.008308426 0.07274205 -0.017702617 -0.06553096 0.1058376
0.030878324 -0.096323036 -0.15661216 0.16287553 0.22313331 0.084666334 0.14499857 -0.005554999
0.03655576 0.04789392 -0.07779807 0.24981025 -0.000991188 0.06990632 -0.024439182 -0.080119126
0.24462484 0.096027575 0.15900978 -0.8235941 0.083674975 0.06841094 0.114513434 0.070937224
0.17371808 0.026525302 -0.051575307 -0.057641514 -0.038130272 0.23059623 -0.17953567 0.03128627
-0.0113085415 0.08111928 0.13194321 -0.085694686 0.19501121 -0.0020485967 0.119889185 -0.43442512
-0.25849298 -0.0755966 -0.017161233 0.025664127 0.11214122 0.05785545 0.06147351 0.034527488
-0.008407347 -0.01720158 -0.07829594 -0.068104744 -0.4739485 -0.08220765 -0.07000961 -0.0760652
-0.02624691 0.17911676 0.09900254 0.075563274 0.008347876 -0.079153284 0.028495677 -0.27722976
0.07364765 0.200583 -0.14285746 -0.23245147 -0.08662669 -0.74584526 -0.04825258 -0.055459876
-0.56229925 -0.15716949 0.0322045 0.06499512 -0.1743913 -0.069648996 0.12784865 0.24741471
-0.100845516 -0.034308325 -0.33831346 0.044174057 0.05267975 -0.022497408 -0.11260057 0.0055829166
0.11674861 -0.058435086 -0.017491234 -0.36778137 -0.5963262 -0.054792937 -0.03570991 0.04867574
0.028743811 0.07154225 -0.3912108 0.08221198 -0.03936138 0.09156651 0.09113329 0.086335495
-0.06772326 -0.093470745 -0.243952 0.12377486 0.15952945 -0.0958515 -0.08552346 -0.18066092
00000000: 04dc 4e3c ff81 bbbb 122a 88bd 77a4 833d
00000010: e86b 7e3c 47f1 993d 8477 103d dce0 483e
00000020: fe07 913e 497c e23d 1679 7d3e 5213 993b
00000030: 6f94 a43d cc26 ad3c 49c6 26ba 9519 313c
00000040: e096 22bd d6e3 883d bff2 c4bc 83d6 ba3d
00000050: 9803 1abe 17fc 01bd 0af4 c83d 23a2 033d
00000060: a60f 6c3d af07 77bd 0012 45bd d9b1 753c
00000070: 4af9 abbd 694a e23b f274 a93d c90d 9dbe
00000080: a69d c93d 675e dc3d 95e2 17be a163 69bd
00000090: 01e5 4b3d 00a0 883c 91ab 773c c8fa 9ebc
000000a0: 770f 173e 8d9c 673e 38e6 1ebd 0a96 20bd
000000b0: 14dc 643d cac9 0f3e 2959 b7bd 800e a83c
000000c0: d0bf 47bd a0d2 a83d 4c32 eb3d e4a2 a73c
000000d0: edc3 543d 8ac4 29bd 05f9 cd3d 148f 00be
000000e0: 944c 373b 7e87 af3d 4272 74bd ffa8 533d
000000f0: e6d7 32be 55d1 ad3d 3014 843b 2cfd 113e
00000100: 374a a13d f11a a93d f98b 9ebd 7761 c13d
00000110: f0ba 5d3d 5f80 563b 3ed1 c6bd e318 26bd
00000120: 82c1 c93b 7e46 973e 7506 ae3d ce95 79be
00000130: 41ab a93d 39f1 16bd c37c 863d a973 08bd
00000140: 8c95 0c3e 24b6 573e 76d4 2bbc db37 823d
00000150: 44e4 ec3c 4fde 28bf 0046 13bc f816 f3ba
00000160: 4f8f 27be 95f1 3a3b fe94 7e3d 6a59 96bd
00000170: f5ab a73d bd90 debc b696 8f3d 2c29 dfbc
00000180: 15a1 653c b1a3 153d 61a7 d3be de01 c13d
00000190: 2fc2 393e 739c f43c 4d62 a7bd 92ea 7cbd
000001a0: 60d9 aa3d 5bf9 c03d ebd9 093d f715 ebbe
000001b0: b16f 8cbe 3369 99bd b20e 773c 8306 11be
000001c0: 8151 a33d c08c af3d 70e7 67be f679 963b
000001d0: dcf0 b53c e350 a73d a4e7 4c3d 50b6 c03d
000001e0: a32f a23d cfdc 203d 13eb 9cbd 889a d13d
000001f0: 8142 d63b 1782 39bd 2c13 8bbc e5c0 bbbd
00000200: ac9b a33c 4e46 b7bc e3fc 42bf 86cb 053e
00000210: 80ee 313a d7eb 5a3e 2561 71bd 6342 f33d
00000220: 2a20 c33d fac9 863d 1de7 d53d 1020 083c
00000230: c9f9 943d 1405 91bc 1935 86bd 62c1 d83d
00000240: 8af4 fc3c 0345 c5bd f05e 20be d8c8 263e
00000250: 0f7d 643e 8b65 ad3d 817a 143e b606 b6bb
00000260: 7ebb 153d 6a2c 443d 9854 9fbd 42ce 7f3e
00000270: c0ea 81ba 0b2b 8f3d ae34 c8bc 7f15 a4bd
00000280: ef7e 7a3e 1baa c43d 76d3 223e 10d7 52bf
00000290: c95d ab3d 091b 8c3d 0586 ea3d 8947 913d
000002a0: 27e3 313e 974b d93c a140 53bd 8219 6cbd
000002b0: 7d2e 1cbd 6b21 6c3e 33d8 37be 0826 003d
000002c0: 7647 39bc dd21 a63d 1f1c 073e b280 afbd
000002d0: 05b1 473e c041 06bb 7688 f53d f86c debe
000002e0: 3159 84be 64d2 9abd b795 8cbc 933d d23c
000002f0: 4caa e53d d6f9 6c3d a6cb 7b3d b26c 0d3d
00000300: f8be 09bc 54ea 8cbc 9f59 a0bd 807a 8bbd
00000310: 61a9 f2be 7c5c a8bd 3361 8fbd 12c8 9bbd
00000320: c303 d7bc 626a 373e d8c1 ca3d ebc0 9a3d
00000330: 88c5 083c 1e1b a2bd c46f e93c 0ff1 8dbe
00000340: 94d4 963d a165 4d3e 3a49 12be c207 6ebe
00000350: 5669 b1bd b7ef 3ebf 7fa4 45bd e529 63bd
00000360: d8f2 0fbf 0af1 20be dee8 033d 291c 853d
00000370: a293 32be 22a4 8ebd c2ea 023e 485a 7d3e
00000380: 1888 cebd e386 0cbd 6c37 adbe dbef 343d
00000390: b9c6 573d 7c4c b8bc 219b e6bd e6f0 b63b
000003a0: e519 ef3d a159 6fbd c749 8fbc d74d bcbe
000003b0: d5a8 18bf 8f6e 60bd 8e44 12bd 3660 473d
000003c0: 2478 eb3c be84 923d c84c c8be c15e a83d
000003d0: 6639 21bd 3987 bb3d 17a4 ba3d aad0 b03d
000003e0: 7eb2 8abd 976d bfbd 8ece 79be ac7d fd3d
000003f0: b05b 233e cb4d c4bd ec26 afbd 2dff 38be

cluster_projector.2.bias f4 [50]
-0.016765473 -0.078406006 0.0077845263 -0.17691058 -0.16493635 0.13415444 0.051670916 0.12152033
-0.037821453 -0.13153271 -0.03762926 0.06425018 -0.050017115 0.059492316 -0.030544903 -0.103635184
0.063911974 0.1581018 0.19719212 -0.13057971 0.03344607 0.04926433 0.16337998 -0.18804105
-0.16431934 0.13028459 -0.08389471 -0.1728041 -0.21229549 -0.18840912 -0.16413365 -0.117914826
-0.16213328 0.24483274 0.046849106 0.043233622 -0.13356861 0.20756926 0.07792432 0.11128316
-0.13518812 0.15402694 -0.060737025 0.16697267 0.013650047 0.067327365 -0.17487252 0.16748865
-0.20175336 0.28680968
00000000: bf57 89bc 5493 a0bd 5715 ff3b 0c28 35be
00000010: 13e5 28be c85f 093e e2a4 533d a7df f83d
00000020: abea 1abd 83b0 06be 2421 1abd 9995 833d
00000030: bfde 4cbd 37ae 733d 4e39 fabc af3e d4bd
00000040: 48e4 823d 70e5 213e bbec 493e b0b6 05be
00000050: bffe 083d 65c9 493d 154d 273e d58d 40be
00000060: 5443 28be 5369 053e fdd0 abbd 8ff3 30be
00000070: fd63 59be 52ee 40be a712 28be 547d f1bd
00000080: 4406 26be 6fb5 7a3e d9e4 3f3d bd15 313d
00000090: 36c6 08be 098d 543e c996 9f3d 6de8 e33d
000000a0: c16e 0abe 3db9 1d3e 63c7 78bd e2fa 2a3e
000000b0: 72a4 5f3c eee2 893d c811 33be 2582 2b3e
000000c0: 6f98 4ebe b8d8 923e

exp_avg f4 [128, 20]
3.686167e-36 5.6447472e-37 9.44718e-39 1.4107372e-38 1.803878e-38 0.0 0.0 2.699628e-37
1.875139e-39 0.0 9.267001e-39 2.5784212e-37 2.283844e-37 3.2133832e-36 3.2747544e-36 3.244893e-36
2.6478653e-37 8.9712675e-38 3.8070662e-38 1.2741877e-37 -0.004921113 -0.010273785 0.009051845 0.007029179
0.011274166 0.0 0.0 -0.03161833 0.0030111766 0.0 0.006017621 -0.013604011
-0.009010501 -8.873817 -8.872164 -8.873013 -0.012134915 0.0018742278 0.004305471 0.02891604
3.5725165e-37 3.763781e-38 -3.172349e-39 -4.081453e-39 -5.449937e-39 0.0 0.0 1.4328546e-38
-7.77264e-40 0.0 9.11263e-40 2.1420412e-38 1.986018e-38 1.8601989e-35 1.8606735e-35 1.8604316e-35
2.2533053e-38 7.07287e-39 5.005482e-39 2.6390326e-38 0.15399745 0.056678955 0.002951812 0.0037688683
0.0050443425 0.0 0.0 0.00015978809 0.00040525146 0.0 0.00080084574 -0.004543717
-0.003222354 0.94747806 0.9454561 0.9464871 -0.004181596 -0.0029431125 0.000995797 0.011052893
4.152415e-36 5.3102723e-37 0.0 0.0 0.0 0.0 0.0 1.4928068e-37
0.0 0.0 8.145838e-39 1.9766795e-37 1.8699746e-37 2.061248e-37 2.459988e-37 2.2654936e-37
2.1018645e-37 6.3119886e-38 5.3934683e-38 2.967953e-37 0.10021488 0.043748017 0.012352866 0.014903448
0.020305123 0.0 0.0 -0.006016548 0.0003062822 0.0 0.0007111473 0.0055659614
0.0048353504 -0.18861935 -0.19035415 -0.18950753 0.0056586717 -0.0018735884 0.0006250504 0.008862902
0.0 0.0 0.0 0.0 0.0 0.0 0.0 0.0
0.0 0.0 0.0 0.0 0.0 0.0 0.0 0.0
0.0 0.0 0.0 0.0 -0.07908986 -0.03954754 -0.0013991214 -0.00060054107
-0.0012924885 0.0 0.0 -0.008552688 -2.8611152e-05 0.0 -0.00011635329 -0.00092894986
-0.0007567769 -0.00039749354 -0.0003785231 -0.0003877764 -0.0009140848 -3.777047e-09 4.3677353e-08 6.679011e-11
0.0 0.0 0.0 0.0 0.0 0.0 0.0 0.0
0.0 0.0 0.0 0.0 0.0 0.0 0.0 0.0
0.0 0.0 0.0 0.0 0.05894221 0.024245946 0.020045573 0.024259416
0.033019446 0.0 0.0 -0.015447044 0.00037997105 0.0 0.0018797775 0.009076691
0.008429218 -3.388928 -3.3890626 -3.3890085 0.009556397 0.00052617106 0.0021494012 0.014246925
0.024606211 0.012303106 0.001730695 0.012297862 0.012302275 0.0 0.0 -5.2379713e-15
3.0833896e-06 0.0 3.083415e-06 0.0063187447 0.0051477617 0.005127541 0.0048827888 0.0050021727
0.006217718 3.0394509e-15 1.3926234e-14 8.4426986e-14 1.9074754e-10 2.3237075e-11 1.03456516e-13 7.387144e-13
7.387144e-13 0.0 0.0 3.6104787e-12 7.387144e-13 0.0 1.877871e-12 6.6282817e-12
6.381377e-12 6.532471e-12 8.676642e-12 7.63077e-12 7.1150243e-12 3.11836e-12 2.038952e-12 1.667424e-11
0.007695309 0.0012814772 2.1147303e-11 8.695211e-12 1.9181915e-11 0.0 0.0 0.0007872597
1.7029557e-12 0.0 3.8495993e-09 0.00010134103 8.27152e-05 0.0001677038 0.00016738378 0.0001675399
00000000: ceca 9c04 af14 4003 e5de 6600 9d9d 9900
00000010: c86c c400 0000 0000 0000 0000 27ba b702
00000020: 206b 1400 0000 0000 a1e8 6400 6f7a af02
00000030: 2d6e 9b02 a5ae 8804 eb4a 8b04 c105 8a04
00000040: 5234 b402 9c38 f401 c246 4f01 f66e 2d02
00000050: 4a41 a1bb 6153 28bc 314e 143c 0755 e63b
00000060: 48b7 383c 0000 0000 0000 0000 3982 01bd
00000070: 2957 453b 0000 0000 772f c53b 5ce3 5ebc
00000080: c8a0 13bc 28fb 0dc1 62f4 0dc1 dcf7 0dc1
00000090: 86d1 46bc a6a8 f53a e914 8d3b 55e1 ec3c
000000a0: 0422 f302 73eb 4c01 388b 2280 6e71 2c80
000000b0: 3558 3b80 0000 0000 0000 0000 2806 9c00
000000c0: b276 0880 0000 0000 3bec 0900 653f e900
000000d0: 1a42 d800 6ecf c505 5adc c505 c4d5 c505
000000e0: fc5c f500 4904 4d00 3f81 3600 bfae 0f01
000000f0: 82b1 1d3e 3128 683d 3073 413b 1eff 763b
00000100: 034b a53b 0000 0000 0000 0000 ca8c 2739
00000110: ee77 d439 0000 0000 d9ef 513a 76e3 94bb
00000120: 212e 53bb ec8d 723f 6909 723f fb4c 723f
00000130: c505 89bb 3ce1 40bb 6785 823a 3117 353c
00000140: cc9f b004 ffb2 3403 0000 0000 0000 0000
00000150: 0000 0000 0000 0000 0000 0000 ba30 4b02
00000160: 0000 0000 0000 0000 48b3 5800 9d86 8602
00000170: 1b87 7e02 0148 8c02 096b a702 772e 9a02
00000180: a50b 8f02 24d4 ab01 fdd2 9201 09fd c902
00000190: 763d cd3d 1f31 333d ad63 4a3c 972d 743c
000001a0: ee56 a63c 0000 0000 0000 0000 7626 c5bb
000001b0: 8094 a039 0000 0000 4a6c 3a3a ab62 b63b
000001c0: dc71 9e3b 6e25 41be 33ec 42be 430e 42be
000001d0: 616c b93b 3293 f5ba 6cda 233a b535 113c
000001e0: 0000 0000 0000 0000 0000 0000 0000 0000
000001f0: 0000 0000 0000 0000 0000 0000 0000 0000
00000200: 0000 0000 0000 0000 0000 0000 0000 0000
00000210: 0000 0000 0000 0000 0000 0000 0000 0000
00000220: 0000 0000 0000 0000 0000 0000 0000 0000
00000230: ddf9 a1bd 9afc 21bd b962 b7ba a16d 1dba
00000240: b868 a9ba 0000 0000 0000 0000 9320 0cbc
00000250: fb01 f0b7 0000 0000 b202 f4b8 c584 73ba
00000260: 7062 46ba ae66 d0b9 8374 c6b9 784e cbb9
00000270: 319f 6fba 42c7 81b1 c297 3b33 7ddf 922e
00000280: 0000 0000 0000 0000 0000 0000 0000 0000
00000290: 0000 0000 0000 0000 0000 0000 0000 0000
000002a0: 0000 0000 0000 0000 0000 0000 0000 0000
000002b0: 0000 0000 0000 0000 0000 0000 0000 0000
000002c0: 0000 0000 0000 0000 0000 0000 0000 0000
000002d0: 636d 713d 6f9f c63c 9d36 a43c afbb c63c
000002e0: 663f 073d 0000 0000 0000 0000 9915 7dbc
000002f0: da36 c739 0000 0000 de62 f63a 67b6 143c
00000300: b41a 0a3c 32e4 58c0 67e6 58c0 84e5 58c0
00000310: 6f92 1c3c beee 093a f8dc 0c3b ef6b 693c
00000320: f792 c93c f792 493c 7dd8 e23a f97c 493c
00000330: 7b8f 493c 0000 0000 0000 0000 c2b7 bca7
00000340: 3bec 4e36 0000 0000 abec 4e36 790d cf3b
00000350: 8eae a83b ee04 a83b cdff 9f3b 44e9 a33b
00000360: 00be cb3b f903 5b27 6bdf 7a28 d81c be29
00000370: a9ba 512f 3e65 cc2d 9ff6 e829 fbed 4f2b
00000380: fbed 4f2b 0000 0000 0000 0000 9a10 7e2c
00000390: fbed 4f2b 0000 0000 b724 042c 4136 e92c
000003a0: 5686 e02c 45d7 e52c 1fa4 182d ef3d 062d
000003b0: 7156 fa2c 616f 5b2c 7e7a 0f2c 0dab 922d
000003c0: ee28 fc3b 3df7 a73a 7e03 ba2d c0f7 182d
000003d0: d5b9 a82d 0000 0000 0000 0000 1b60 4e3a
000003e0: 72ab ef2b 0000 0000 6f45 8431 0d87 d438
000003f0: 6377 ad38 a5d9 2f39 be83 2f39 a6ad 2f39

exp_avg_sq f4 [128, 20]
0.02746244 0.00056975154 5.307955e-08 1.09486784e-07 1.7902434e-07 0.0 0.0 0.00013539137
4.9662696e-09 0.0 8.3063543e-07 0.000120323035 9.483849e-05 0.050959144 0.051585842 0.05127672
0.00012713627 2.6460828e-05 3.5115818e-06 5.1589657e-05 0.11859221 0.0037405356 0.0001746589 0.00024848126
0.00042804278 0.0 0.0 0.00090584665 1.3490262e-05 0.0 2.3558752e-05 0.00067739695
0.0004951723 888.333 888.6367 888.48096 0.00068775914 0.00011745106 1.6549855e-05 0.00033553824
0.00069116673 0.00013753826 2.8704526e-06 0.00012570382 0.00012710333 0.0 0.0 1.6467713e-07
5.8492815e-06 0.0 5.8528594e-06 2.736712e-05 1.8378456e-05 0.5211222 0.5212373 0.5211766
2.6654714e-05 4.0301327e-08 1.1021827e-08 2.3497469e-07 1.0528191 0.046638794 4.230415e-05 0.00018444151
0.0002372645 0.0 0.0 0.010940948 8.2560774e-07 0.0 7.888881e-06 0.006590898
0.0044934223 242.88463 242.93535 242.90895 0.0064670113 0.00012884896 1.9282592e-05 0.00046331485
0.0466799 0.0013712213 0.0 0.0 0.0 0.0 0.0 0.00010110246
0.0 0.0 2.2818538e-06 0.000109165005 8.9621106e-05 9.857717e-05 0.00017311102 0.00013350809
0.00011783745 2.605094e-05 4.5882507e-06 0.0001648725 0.3838973 0.025065068 0.0015169209 0.0024728891
0.0043229465 0.0 0.0 0.0018382099 1.7477441e-05 0.0 2.9976107e-05 0.0026463692
0.0019148623 71.48364 71.52029 71.50202 0.002674985 0.00032952786 3.576021e-05 0.00090943737
0.0 0.0 0.0 0.0 0.0 0.0 0.0 0.0
0.0 0.0 0.0 0.0 0.0 0.0 0.0 0.0
0.0 0.0 0.0 0.0 1.5549061 0.06359428 0.0009284926 0.0012466711
0.0023055077 0.0 0.0 0.015711548 2.6535386e-06 0.0 3.0336298e-06 0.011525385
0.007907162 0.004970562 0.004603965 0.004778521 0.011346568 1.6218564e-05 1.4191104e-05 4.8732214e-05
0.0 0.0 0.0 0.0 0.0 0.0 0.0 0.0
0.0 0.0 0.0 0.0 0.0 0.0 0.0 0.0
0.0 0.0 0.0 0.0 0.032616626 0.004728113 0.0017477095 0.0022956494
0.004286302 0.0 0.0 0.0001601955 5.661798e-06 0.0 8.439262e-06 0.0011168807
0.0007440212 168.04494 168.10344 168.0738 0.0010831748 1.7891158e-05 3.2676394e-06 7.0512186e-05
0.008695486 0.002213805 0.0004266334 0.0014906197 0.00201144 0.0 0.0 2.0065578e-07
2.3379434e-05 0.0 2.3388284e-05 0.00046420476 0.0003077903 1.9210875 1.9216993 1.9213973
0.00044925613 3.5631217e-08 1.9487828e-08 5.3296986e-07 0.08503024 0.004775793 0.00017552247 0.00031657584
0.0004764877 0.0 0.0 0.00035338494 5.415538e-06 0.0 6.2327267e-06 0.0005801882
0.00041616955 0.7601247 0.7535022 0.75672305 0.00058405026 6.205122e-05 4.927673e-06 7.944712e-05
0.30541316 0.013700224 0.00094606203 0.001018823 0.0020606401 0.0 0.0 0.0013745244
7.777403e-05 0.0 8.239534e-05 0.0023206791 0.0017253925 0.23947094 0.23457159 0.23693188
00000000: e9f8 e03c 615b 153a 95f9 6333 ff1e eb33
00000010: d639 4034 0000 0000 0000 0000 d8f7 0d39
00000020: c5a3 aa31 0000 0000 d5f8 5e35 f055 fc38
00000030: 07e4 c638 89ba 503d ad4b 533d 8a07 523d
00000040: e24f 0539 32f8 dd37 84a8 6b36 f961 5838
00000050: 79e0 f23d c623 753b a424 3739 9746 8239
00000060: ee6a e039 0000 0000 0000 0000 5776 6d3a
00000070: 3c54 6237 0000 0000 09a0 c537 5793 313a
00000080: 73ce 013a 5015 5e44 c028 5e44 c81e 5e44
00000090: bc4a 343a 0f50 f638 8bd4 8a37 2eeb af39
000000a0: 6a2f 353a 2538 1039 00a2 4036 5dcf 0339
000000b0: 0a47 0539 0000 0000 0000 0000 1bd2 3034
000000c0: f244 c436 0000 0000 ae63 c436 7192 e537
000000d0: 6f2b 9a37 4468 053f cf6f 053f d46b 053f
000000e0: 9098 df37 c717 2d33 825a 3d32 5a4d 7c34
000000f0: c7c2 863f 5208 3f3d bc6f 3138 a466 4139
00000100: 34ca 7839 0000 0000 0000 0000 a941 333c
00000110: 559f 5d35 0000 0000 7c5a 0437 76f8 d73b
00000120: 8f3d 933b 77e2 7243 73ef 7243 b1e8 7243
00000130: 39e9 d33b a11b 0739 0dc1 a137 11e9 f239
00000140: 6c33 3f3d 8dba b33a 0000 0000 0000 0000
00000150: 0000 0000 0000 0000 0000 0000 f806 d438
00000160: 0000 0000 0000 0000 f321 1936 84ef e438
00000170: f7f2 bb38 37bb ce38 2385 3539 4efe 0b39
00000180: 801f f738 f887 da37 c6f4 9936 a0e1 2c39
00000190: 308e c43e 4255 cd3c 6bd3 c63a 3210 223b
000001a0: 81a7 8d3b 0000 0000 0000 0000 17f0 f03a
000001b0: 859c 9237 0000 0000 3375 fb37 b56e 2d3b
000001c0: 1efc fa3a a0f7 8e42 630a 8f42 0901 8f42
000001d0: cd4e 2f3b 7bc4 ac39 3cfd 1538 4f67 6e3a
000001e0: 0000 0000 0000 0000 0000 0000 0000 0000
000001f0: 0000 0000 0000 0000 0000 0000 0000 0000
00000200: 0000 0000 0000 0000 0000 0000 0000 0000
00000210: 0000 0000 0000 0000 0000 0000 0000 0000
00000220: 0000 0000 0000 0000 0000 0000 0000 0000
00000230: 2a07 c73f b83d 823d 1566 733a 5767 a33a
00000240: 0018 173b 0000 0000 0000 0000 81b5 803c
00000250: 7213 3236 0000 0000 5d95 4b36 f8d4 3c3c
00000260: 0b8d 013c 19e0 a23b dcdc 963b 2495 9c3b
00000270: f5e6 393c 1a0d 8837 5416 6e37 d165 4c38
00000280: 0000 0000 0000 0000 0000 0000 0000 0000
00000290: 0000 0000 0000 0000 0000 0000 0000 0000
000002a0: 0000 0000 0000 0000 0000 0000 0000 0000
000002b0: 0000 0000 0000 0000 0000 0000 0000 0000
000002c0: 0000 0000 0000 0000 0000 0000 0000 0000
000002d0: 0399 053d 49ee 9a3b 6613 e53a 9b72 163b
000002e0: 1b74 8c3b 0000 0000 0000 0000 27fa 2739
000002f0: 79fa bd36 0000 0000 5b96 0d37 4c64 923a
00000300: 6b0a 433a 810b 2843 7b1a 2843 e512 2843
00000310: 51f9 8d3a f814 9637 9e49 5b36 f1df 9338
00000320: 8377 0e3c 7c15 113b c4ad df39 e660 c33a
00000330: 5dd2 033b 0000 0000 0000 0000 d773 5734
00000340: f41e c437 0000 0000 f531 c437 8260 f339
00000350: ea5e a139 32e6 f53f 3efa f53f 59f0 f53f
00000360: 238a eb39 f008 1933 3066 a732 6911 0f35
00000370: 5624 ae3d 417e 9c3b 740c 3839 17fa a539
00000380: 19d1 f939 0000 0000 0000 0000 8646 b939
00000390: 1eb7 b536 0000 0000 b722 d136 c517 183a
000003a0: 5531 da39 8897 423f 85e5 403f 9ab8 413f
000003b0: f31a 193a 7f21 8238 6458 a536 d99c a638
000003c0: 1d5f 9c3e e876 603c 2601 783a 078a 853a
000003d0: ce0b 073b 0000 0000 0000 0000 6329 b43a
000003e0: 9d1a a338 0000 0000 a9cb ac38 8916 183b
000003f0: 9126 e23a df37 753e 8933 703e 459e 723e

exp_avg f4 [128]
5.6447472e-37 -0.0102737835 3.763781e-38 0.056678955 5.3102723e-37 0.04374802 0.0 -0.03954754
0.0 0.024245942 0.012303106 2.3237075e-11 0.0012814772 -0.03692327 3.696453e-10 2.7272526e-10
0.032873444 4.6511917e-37 0.037840307 0.055493526 -0.055183258 0.0 6e-45 0.017734015
0.06323868 0.0 0.09593441 0.038854945 0.005159108 -0.07322502 2.2278641e-20 5.4398353e-37
0.001311171 0.011942367 -0.010146599 0.020338072 0.0 4.408719e-11 -0.0050109113 6e-45
-0.011753271 -0.03270457 2.6092663e-11 0.03639074 0.0 0.0 0.0 0.0
-0.0051987106 3.6404487e-07 0.0 0.19039986 0.0031185285 -0.06625363 2.4716713e-16 0.028904347
0.0010501813 0.00037501007 9.833558e-20 0.09352667 -0.14272155 1.2509568e-09 -0.00074304896 1.15530545e-11
6e-45 6e-45 0.010624536 0.0004052237 -0.014154681 2.0719556e-38 0.0 0.0043174103
0.12647657 6e-45 3.736622e-11 -0.036526464 6e-45 2.3928952e-19 4.1968797e-09 6e-45
0.044699453 0.008490362 -0.0013585163 -0.021158347 6.5150545e-37 0.037965924 0.0 0.016365396
9.2800605e-08 -0.0143786995 2.7168386e-05 0.0071731107 0.026435187 0.023711542 6e-45 0.0077034202
0.0 0.013381226 -0.0042943927 1.1935267e-11 -0.32061568 0.047556996 -0.23221862 -0.006471897
-0.06212025 0.017197521 0.0 -0.101830356 -0.0093715135 0.08912631 1.289331e-11 0.112183854
0.108540535 -0.0057720738 -0.0007012179 3.3164704e-10 0.075525776 0.00027219183 0.0 6e-45
0.0017528965 0.026345076 4.5767687e-20 0.029941263 1.0569678e-36 0.0 0.09410919 0.059086103
00000000: af14 4003 5f53 28bc 73eb 4c01 3128 683d
00000010: ffb2 3403 2031 333d 0000 0000 9afc 21bd
00000020: 0000 0000 6d9f c63c f792 493c 3e65 cc2d
00000030: 3df7 a73a db3c 17bd f336 cb2f abee 952f
00000040: 4ea6 063d 9845 1e03 70fe 1a3d 2e4d 633d
00000050: d707 62bd 0000 0000 0400 0000 ed46 913c
00000060: 4883 813d 0000 0000 4379 c43d 5d26 1f3d
00000070: bc0d a93b 00f7 95bd 736a d21e a61b 3903
00000080: 99db ab3a eba9 433c ec3d 26bc 079c a63c
00000090: 0000 0000 c3e5 412e 9232 a4bb 0400 0000
000000a0: cb90 40bc 3af5 05bd 7483 e52d 750e 153d
000000b0: 0000 0000 0000 0000 0000 0000 0000 0000
000000c0: f259 aabb f271 c334 0000 0000 2ef8 423e
000000d0: 3a60 4c3b fcaf 87bd 6e7b 8e25 cfc8 ec3c
000000e0: 3da6 893a 009d c439 3630 e81f e98a bf3d
000000f0: 9925 12be 21ee ab30 2cc9 42ba 553e 4b2d
00000100: 0400 0000 0400 0000 8912 2e3c 3474 d439
00000110: 09e9 67bc b19d e100 0000 0000 1079 8d3b
00000120: 1383 013e 0400 0000 a056 242e c69c 15bd
00000130: 0400 0000 6940 8d20 2534 9031 0400 0000
00000140: c616 373d 291b 0b3c 3e10 b2ba 4554 adbc
00000150: 21b2 5d03 2882 1b3d 0000 0000 b910 863c
00000160: ac49 c733 a394 6bbc aae7 e337 6a0c eb3b
00000170: 9b8e d83c b53e c23c 0400 0000 f96c fc3b
00000180: 0000 0000 ee3c 5b3c fab7 8cbb aaf7 512d
00000190: bd27 a4be 20cb 423d b8ca 6dbe 3512 d4bb
000001a0: ce71 7ebd d1e1 8c3c 0000 0000 6f8c d0bd
000001b0: fa8a 19bc db87 b63d 4ed2 622d a6c0 e53d
000001c0: 804a de3d aa23 bdbb f0d1 37ba 2c53 b62f
000001d0: 42ad 9a3d f8b4 8e39 0000 0000 0400 0000
000001e0: 72c1 e53a a1d1 d73c bd21 581f 6147 f53c
000001f0: 71d5 b303 0000 0000 52bc c03d 4504 723d
