flaskProject/modules/Contrastive_Clustering/save/save5/model_checkpoint800.tar (torch, 183226 bytes, 24 tensors)

instance_projector.0.weight f4 [128, 20]
0	0xbd97c62e	-0.07410847
1	0x3ef0950e	0.4698872
2	0x3cd0fbfa	0.025510777
3	0x3abc7eb5	0.0014381023
4	0xbeb75efc	-0.35814655
5	0xbd92c77e	-0.07166956
6	0xbdf5d957	-0.12004345
7	0x3dd7c2f4	0.10535231
8	0x3cef2eae	0.029197063
9	0xbd990496	-0.07471578
10	0xbe20b8bd	-0.15695472
11	0xbfeb6d19	-1.8392669
12	0xbfe1f3fa	-1.7652581
13	0x3daeae31	0.08529318
14	0xbd9148c4	-0.07093957
15	0xbd10bec9	-0.035338197
16	0xbff1c414	-1.8887963
17	0xbeecfba9	-0.4628575
18	0xbfc7eb50	-1.5618687
19	0xbf69dbd5	-0.9135106
20	0xbcdf5eca	-0.027266879
21	0x3e0c9d8a	0.13731971
22	0x3de3a6b8	0.111157835
23	0x3e7f227e	0.24915501
24	0x3ab073be	0.0013462228
25	0x3ee482f2	0.44631153
26	0xbd84ed90	-0.06490624
27	0xbeebe51a	-0.46073228
28	0xbd80b994	-0.06285396
29	0xbd90df9e	-0.070739016
30	0x3e9562c9	0.2917693
31	0xbfeb1c40	-1.8367996
32	0xbfe2092d	-1.765905
33	0xbafdca14	-0.0019362592
34	0x3e02b2ee	0.12763569
35	0xbe19ed81	-0.15032007
36	0xc007b43e	-2.120376
37	0xbf5c8925	-0.86146766
38	0xbf0d33ed	-0.5515736
39	0xbec65360	-0.38735485
40	0x3efc6360	0.49294567
41	0x3f93be6b	1.1542486
42	0xbfb936c8	-1.4469843
43	0xc0eb0f4d	-7.345618
44	0xc0bcf075	-5.9043527
45	0xc07ed6b1	-3.9818537
46	0x3f8c8d33	1.098059
47	0xc035bc46	-2.8396163
48	0x3fad78f8	1.3552542
49	0xbe1e7934	-0.15475923
50	0xc0288c84	-2.6335764
51	0xc01ad81f	-2.419441
52	0xc01e63c1	-2.4748385
53	0xbe1d8f99	-0.1538681
54	0x3d5db4d2	0.05412752
55	0x3dcafd86	0.09911637
56	0xc0119d7e	-2.2752376
57	0x3f897bc7	1.0740899
58	0x407638ca	3.8472161
59	0x3e81cbed	0.25350896
60	0xbf00113a	-0.50026286
61	0x3e5df0e9	0.21673931
62	0x3fc46af5	1.5345141
63	0xbd5c2709	-0.053748164
64	0xbe7decd9	-0.24797381
65	0x3ff74a4d	1.931955
66	0xc11bc188	-9.734749
67	0xbf47aa57	-0.7799429
68	0xbfc398c3	-1.5280994
69	0x3d7de160	0.061982512
70	0xbe9aed44	-0.30259144
71	0xbcae435a	-0.02127235
72	0xbf16da20	-0.5892658
73	0xbe164f27	-0.14678632
74	0x3d23cc63	0.03998984
75	0x3dbbacbc	0.09163806
76	0xbeb8aec0	-0.36070824
77	0x403ab173	2.9170806
78	0x4013ae22	2.3075032
79	0x3e2eb8dc	0.17062706
80	0xbf0682ff	-0.52543634
81	0x3ed3e044	0.4138204
82	0xc110d65f	-9.052337
83	0xbfd2e303	-1.6475528
84	0xc0635412	-3.5520062
85	0x3f9acecc	1.2094359
86	0xc0a58a82	-5.1731577
87	0xbe0ef412	-0.13960293
88	0x3f82018f	1.0156726
89	0x3e0d352a	0.13789812
90	0xbf1c1ef0	-0.60984707
91	0xc0c462fb	-6.1370826
92	0xc0c9315d	-6.287276
93	0xbc965a05	-0.018353472
94	0x3e0206cf	0.1269791
95	0xbdc1407e	-0.09436129
96	0xc0c37f9a	-6.1093264
97	0xbdab7def	-0.08373629
98	0xc06a1919	-3.6577818
99	0xbc1d19bb	-0.009588654
100	0x3db5ac11	0.0887071
101	0x3e60d581	0.21956445
102	0xc0412dc6	-3.0184188
103	0xc0af4a6e	-5.4778357
104	0xbffee83c	-1.9914622
105	0x4062ae4c	3.5418882
106	0x3becce2a	0.007226725
107	0x3f8cd45a	1.1002305
108	0x3f9215b9	1.1412879
109	0xbe456ff6	-0.19280991
110	0xbf7d664a	-0.98984206
111	0xc03eca92	-2.981114
112	0xc023c705	-2.5590222
113	0xbe5af221	-0.21381427
114	0x3e113466	0.14180145
115	0x3da91637	0.0825619
116	0xc036097b	-2.8443286
117	0x3f727261	0.9470578
118	0x3f7c806f	0.98633474
119	0xbed7bf61	-0.42138198
120	0xbd57c8cd	-0.052681733
121	0xbd4e1518	-0.050313085
122	0xbe8d96fe	-0.2765426
123	0x3f09015f	0.5351772
124	0x3f5c6382	0.86089337
125	0x3f441fae	0.7661084
126	0x3e7ff9b7	0.24997602
127	0xbf8cd2ec	-1.1001868
128	0xbe088cfd	-0.13335033
129	0xbdb0e964	-0.08638266
130	0xbf3d5371	-0.73955446
131	0x3f8b4aa7	1.0882157
132	0x3f861338	1.0474615
133	0x3d517db6	0.051145278
134	0x3d7f0ec8	0.062269956
135	0xbe1e0ab2	-0.15433767
136	0x3fb3f5eb	1.4059423
137	0xbdc1ba78	-0.09459394
138	0x3f035fb5	0.5131791
139	0xbe9e0138	-0.30860305
140	0xbec64483	-0.38724145
141	0x3db6cccf	0.08925783
142	0x3e4e2c69	0.20134129
143	0xbf1bbb1e	-0.60832393
144	0xbf5ec461	-0.870184
145	0xbdca52a7	-0.09879046
146	0x3d6803b3	0.056644153
147	0x3e8d9ae1	0.27657226
148	0x3e730999	0.2373413
149	0xbd160bf0	-0.03663248
150	0xbec1e755	-0.37871805
151	0xc122d280	-10.176392
152	0xc12752ba	-10.457697
153	0xbdbfe7c3	-0.09370377
154	0xbda4fbec	-0.08055863
155	0x3e3e95fd	0.18611903
156	0xc128f142	-10.558901
157	0xc02d6f5e	-2.7099223
158	0xc0bbd97a	-5.8702974
159	0xc0dcf689	-6.9050946
160	0xbc953d52	-0.018217716
161	0x3f7a513e	0.97780216
162	0xbf61bd16	-0.8817915
163	0xc08ce604	-4.403078
164	0xc07846aa	-3.879313
165	0xbfd6f198	-1.6792479
166	0xc06a3782	-3.659638
167	0xbf5cb7ab	-0.86217755
168	0x3fc4ccdd	1.5375019
169	0x3d2ed668	0.042684942
170	0xc0953471	-4.6626515
171	0x4093c0b6	4.6172743
172	0x4088eb35	4.278712
173	0xbe57ace7	-0.21062051
174	0x3e02700c	0.12738055
175	0x3dac306e	0.08407675
176	0x40950e7c	4.658018
177	0x3f117d47	0.56831783
178	0xbedf9ac4	-0.43672764
179	0xbeb45255	-0.35219064
180	0x3e9e26ed	0.30889073
181	0xbed305f7	-0.41215488
182	0xbe058bd4	-0.13041621
183	0xc0a4bda6	-5.1481504
184	0xbfc6030e	-1.5469682
185	0x408ebfe5	4.4609246
186	0x3e7fcd57	0.24980675
187	0xbd806f16	-0.06271188
188	0xc0583fc8	-3.378893
189	0xbd2878f0	-0.04113096
190	0x3f2fb6c2	0.6863824
191	0x40126335	2.287305
192	0x3ff5ca28	1.9202318
193	0xbc96c911	-0.018406423
194	0x3d5d4905	0.054024715
195	0xbd100302	-0.03515912
196	0x3ff459ac	1.9089866
197	0xbfffeaae	-1.9993494
198	0xc16539da	-14.326624
199	0xc0c4e032	-6.1523676
200	0xbbd5a843	-0.0065203025
201	0xbe2187ca	-0.15774456
202	0xbc074700	-0.008256674
203	0xbf3ff6db	-0.74986047
204	0x3edf42c3	0.43605623
205	0xbf25ce81	-0.64768225
206	0xbe47748a	-0.1947805
207	0x3ea6dcdf	0.32590386
208	0x3f15b132	0.58473504
209	0xbd3a603c	-0.045501933
210	0x3eed8c0d	0.46395913
211	0xbe2a453a	-0.1662797
212	0x3ddb658c	0.10712728
213	0xbd1e1b3e	-0.0386002
214	0xbd8a0809	-0.06739814
215	0x3d89ba81	0.06725026
216	0x3dea731f	0.11447739
217	0x3edf91a6	0.43665808
218	0x3f676fbc	0.9040487
219	0x3ec7775c	0.3895825
220	0xbf70e750	-0.94102955
221	0xbf152fda	-0.5827614
222	0x3f9f1764	1.2429013
223	0x408af50a	4.342412
224	0x40507ee8	3.2577457
225	0xbf99e75c	-1.202373
226	0xbf827149	-1.0190822
227	0xbecd1cf0	-0.4006114
228	0x3c965aeb	0.0183539
229	0xbe47cd4d	-0.1951191
230	0x3e489784	0.19589049
231	0x3fe4f042	1.7885821
232	0x3fe32050	1.7744236
233	0xbd2830e7	-0.041062262
234	0x3e1ea801	0.15493776
235	0xbde8c93b	-0.11366507
236	0x3fea103d	1.8286206
237	0xc0052b1a	-2.0807557
238	0xc032f16e	-2.7959857
239	0xbf997da7	-1.1991471
240	0x3d2886f8	0.04114434
241	0x3e62e8ee	0.22159168
242	0x3e8fbcbd	0.28073683
243	0xbef5a878	-0.47980094
244	0xbf441aed	-0.76603585
245	0xbf921e72	-1.1415541
246	0x3edd9675	0.43278852
247	0x3de7834b	0.11304339
248	0xbefc83a0	-0.49319172
249	0xbe62f7d2	-0.22164848
250	0xbe6cac96	-0.23112711
251	0xbedf3aa8	-0.4359944
252	0xbeb97188	-0.3621943
253	0xba6d8944	-0.00090612867
254	0x3da65e4a	0.08123453
255	0xbdabd8a0	-0.08390927

instance_projector.0.bias f4 [128]
0	0x3f252b4f	0.6451921
1	0x3ec1785d	0.37787142
2	0x3f90a577	1.1300496
3	0x3d8e4b5e	0.06947969
4	0x3b26d8b1	0.0025458748
5	0x3e2c7bd8	0.16844118
6	0xbd39e4bc	-0.045384154
7	0xbe137f95	-0.14404137
8	0x3efcf3c9	0.49404743
9	0xbf2ae178	-0.6675029
10	0xbee4f586	-0.4471857
11	0xbf223f30	-0.63377666
12	0x3eb93c8f	0.36179015
13	0x3ef813cb	0.484526
14	0x3d1cccf2	0.03828139
15	0x3e8ae4f5	0.27127805
16	0x3f32c4f4	0.69831777
17	0xbee291cc	-0.4425186
18	0x3ef6c315	0.4819571
19	0xbdda5871	-0.106614
20	0x3d800ccf	0.06252443
21	0x3f4516c3	0.76987857
22	0x3f3b5945	0.7318309
23	0x3f115b8e	0.56780326
24	0x3d6f6068	0.05844155
25	0xbef07ef5	-0.4697186
26	0x3e0b1992	0.13583973
27	0x3e1229bf	0.14273737
28	0x3efffc8c	0.49997365
29	0xbe292deb	-0.16521423
30	0xbe8299ba	-0.2550791
31	0x3e7e6462	0.2484298
32	0x3e2aefd4	0.1669305
33	0x3e9b7447	0.3036215
34	0x3ec1ba19	0.37837294
35	0x3e5d3347	0.21601592
36	0xbe8a7b5b	-0.27047238
37	0x3ecdb1b8	0.4017465
38	0xbeca8d08	-0.39560723
39	0x3e069c26	0.13145503
40	0x3f506938	0.8141055
41	0x3ec1befd	0.37841025
42	0x3cce1b28	0.025159433
43	0x3ed37273	0.41298255
44	0x3e16a207	0.14710246
45	0x3efcfe74	0.49412882
46	0x3e6a0895	0.22854836
47	0x3f2a5dae	0.66549194
48	0xbfce052e	-1.6095331
49	0x3ea2f86a	0.3183015
50	0xbbea5e41	-0.007152349
51	0xbe91b3c7	-0.28457472
52	0x3f359582	0.70931256
53	0x3ddce72b	0.10786279
54	0xbe1ac713	-0.15115003
55	0x3e15fe8f	0.14647888
56	0x3ea9e6ec	0.33183992
57	0xbeab68be	-0.3347835
58	0x3ebbb3c9	0.36660603
59	0xbe058e61	-0.13042594
60	0xbef777a5	-0.4833347
61	0xbde6954f	-0.11258947
62	0xbf200c26	-0.6251854
63	0xbe8ee706	-0.27910632
64	0x3ee61c09	0.44943264
65	0xbcf0436f	-0.02932903
66	0x3e9e833c	0.309595
67	0xbf0c0f51	-0.5471087
68	0xbe5966af	-0.21230577
69	0xbe39fb98	-0.18162382
70	0xbd51c3c5	-0.05121209
71	0x3ee41265	0.44545284
72	0x3e245f96	0.16052088
73	0xbd3d8c8c	-0.046276614
74	0x3f62c706	0.88584936
75	0xbf851d3c	-1.0399547
76	0x3e0f8236	0.14014515
77	0xbff254da	-1.8932145
78	0x3d6a71bd	0.057237376
79	0xbec53041	-0.38513377
80	0x3ef54781	0.47906116
81	0x3e0805d6	0.13283476
82	0x3db3e20d	0.0878335
83	0x3ef61c65	0.48068538
84	0xbeb19d54	-0.34690344
85	0x3e561e5e	0.20910022
86	0x3ebfd362	0.3746596
87	0x3f0deb9e	0.5543765
88	0xbeb9b0c6	-0.3626768
89	0x3e8dee81	0.27721027
90	0xbf9db835	-1.232184
91	0x3f17d09e	0.593027
92	0x3f2bdfff	0.67138666
93	0xbc181d18	-0.00928428
94	0xbd4467d8	-0.047950596
95	0xbddc361e	-0.107525095
96	0x3f388fc4	0.7209437
97	0x3ed73124	0.4202968
98	0x3ed477d9	0.41497687
99	0x3e1c8cba	0.15288058
100	0xbeb2d86a	-0.34930736
101	0x3f560d05	0.83613616
102	0x3ed909f2	0.423904
103	0x3e29d090	0.16583467
104	0xbe85fb2a	-0.26168185
105	0x3e334000	0.17504883
106	0xbe55c4d9	-0.20875873
107	0x3f54922a	0.8303553
108	0xbdde9062	-0.108673826
109	0xc01aa93e	-2.4165797
110	0xbf0519dd	-0.5199259
111	0x3f713146	0.9421581
112	0xbf2028c3	-0.625622
113	0xbe160d3a	-0.14653483
114	0x3eaba358	0.3352306
115	0x3e3a690a	0.18204132
116	0xbf88df5f	-1.0693167
117	0x3f11869b	0.56846017
118	0x3fa04dae	1.2523706
119	0xbe9fefac	-0.31237543
120	0xbf260ebe	-0.64866245
121	0xbc1b7748	-0.009488888
122	0xbe5df1e1	-0.216743
123	0x3e97ef0c	0.29674566
124	0x3f8890da	1.0669205
125	0x3de9a773	0.114088915
126	0xbf015d00	-0.5053253
127	0xbd9faa82	-0.07796194

instance_projector.2.weight f4 [20, 128]
0	0xbf63f372	-0.89043343
1	0xbf0f2d47	-0.5592846
2	0x3f0b7110	0.54469395
3	0x3bf7e3b4	0.007564986
4	0xbd80931c	-0.06278059
5	0xbdddc5f3	-0.108287714
6	0x3e6d5365	0.23176344
7	0xbebcf3de	-0.36904806
8	0xbe14f6de	-0.14547297
9	0xbe76425b	-0.2404875
10	0xbdac8cf9	-0.08425326
11	0x3efdbb87	0.49557135
12	0x3f27b173	0.6550514
13	0xbe9af53f	-0.30265233
14	0xbf855d20	-1.0419044
15	0x3e4d159a	0.20027772
16	0xbd0a01f8	-0.033693284
17	0x3e13944c	0.1441204
18	0x3ee8a284	0.4543649
19	0x3de0953c	0.10965964
20	0x3e8ed8ed	0.27899876
21	0x3c30e14c	0.010795902
22	0xbe3e4fd1	-0.18585135
23	0x3eb1056f	0.34574458
24	0xbd72874a	-0.059211053
25	0x3d4dda39	0.05025694
26	0x3d2c5cb6	0.042080604
27	0xbdf85366	-0.12125282
28	0xbec8df1f	-0.39232728
29	0x3d93a0a1	0.07208372
30	0xbdbe81bd	-0.09302089
31	0x3ea40afe	0.32039636
32	0x3da3cae1	0.079976805
33	0xbf75f266	-0.96072996
34	0x3cd37308	0.025811687
35	0x3efa9b6d	0.48946705
36	0xbdcb6942	-0.09932186
37	0xbcb0264d	-0.021502638
38	0xbe3c195f	-0.18369053
39	0xbdbb11b9	-0.0913424
40	0x3ec12aa5	0.37727848
41	0x3d897ecb	0.06713637
42	0xbd816034	-0.063171774
43	0xbde61f92	-0.1123649
44	0xbd69150b	-0.056904834
45	0x3ca6d5f4	0.020365693
46	0xbb8efcbe	-0.0043636253
47	0x3cc105fb	0.023562422
48	0xbe615ea1	-0.22008754
49	0x3f90b1e3	1.1304287
50	0x3d30691e	0.043068998
51	0x3d9e72e5	0.07736758
52	0xbe72e47d	-0.23719974
53	0xbeb032de	-0.3441381
54	0x3e18b65d	0.14913316
55	0x3f96d1c7	1.1782769
56	0xbeef7a63	-0.4677306
57	0xbad0fc29	-0.001594429
58	0x3dff9e4a	0.12481363
59	0x3dc5319b	0.09628602
60	0x3edf5476	0.43619126
61	0xbd90eda0	-0.07076573
62	0xbec0cc8a	-0.3765605
63	0xbdd6b6fa	-0.10484119
64	0x3d953a19	0.07286472
65	0xbe74edec	-0.23918885
66	0x3eefc65a	0.46831018
67	0x3ec2fcba	0.3808344
68	0x3d04235c	0.032260284
69	0x3e402cfe	0.18767163
70	0xbbf0b29d	-0.007345511
71	0x3da15d1c	0.07879087
72	0x3d1df639	0.038564894
73	0x3f168168	0.5879121
74	0xbf24b99f	-0.64345735
75	0xbe1f342d	-0.15547247
76	0xbd1fa619	-0.038976762
77	0x3f52af19	0.8229843
78	0xbd2de0fe	-0.042450897
79	0xbd6522e7	-0.05594149
80	0xbe37d417	-0.17952
81	0xbd84839d	-0.06470416
82	0xbd1775c1	-0.036977533
83	0xbed162fc	-0.40895832
84	0xbcf95e74	-0.030440547
85	0xbf7872e1	-0.9705029
86	0x3d40e292	0.047091074
87	0x3eeac396	0.45852345
88	0x3b9a139e	0.0047020456
89	0x3d9ee0ac	0.077576965
90	0xbf937aa6	-1.1521804
91	0xbec6e715	-0.38848177
92	0x3e55a41d	0.20863385
93	0xbdbabd1a	-0.091180995
94	0x3d8aa71d	0.067701556
95	0xbd9125e4	-0.07087305
96	0xbdbf706c	-0.09347615
97	0x3e0ce94b	0.13760869
98	0xbefe015c	-0.49610412
99	0xbdb79468	-0.08963853
100	0x3b17a2c9	0.00231378
101	0xbf695dd3	-0.9115879
102	0xbe6646d7	-0.22487961
103	0xbbcf8520	-0.0063330084
104	0xbd6d5702	-0.057944305
105	0x3e1ceeb6	0.15325436
106	0xbdf91f54	-0.121641785
107	0xbea9b804	-0.33148205
108	0xbeba689a	-0.3640793
109	0xbf70f58f	-0.9412469
110	0x3d8ece12	0.069728985
111	0x3d8178c7	0.063218646
112	0x3d048d05	0.03236105
113	0x3e80e48e	0.25174373
114	0x3e0c74fa	0.13716498
115	0xbde3867c	-0.11109635
116	0xbb44d3f1	-0.0030033553
117	0x3ea7458a	0.32670242
118	0xbf437faf	-0.76366705
119	0xbe5d8aca	-0.21634975
120	0xbeef7eeb	-0.46776518
121	0xbc1b4e90	-0.00947918
122	0xbcbdb107	-0.023155702
123	0xbdaf6b51	-0.08565391
124	0xbf19a0a6	-0.60010755
125	0x3de72a0f	0.11287319
126	0x3d5f7583	0.054555427
127	0x3c001ec0	0.007819831
128	0xbe360c27	-0.17778073
129	0xbea5d46b	-0.32388625
130	0xbe3c6bc0	-0.18400478
131	0xbcb85d17	-0.022505326
132	0x3d496ffb	0.04917906
133	0xbc13baad	-0.009016675
134	0x3e099d6b	0.13438956
135	0xbe107596	-0.14107355
136	0x3e19cc90	0.1501944
137	0x3c8e36d1	0.017360123
138	0xbd70cc8d	-0.058788825
139	0xbd0e0ae9	-0.034678373
140	0xbed17aae	-0.4091391
141	0x3d8d57a8	0.06901485
142	0x3e8e7a53	0.278277
143	0x3c5d83e2	0.013520213
144	0xbe6c96de	-0.23104426
145	0xbeb375ba	-0.35050756
146	0xbf0c469c	-0.5479524
147	0xbe18b82c	-0.14914006
148	0xbdb4ccb7	-0.08828109
149	0xbc2aa684	-0.010415677
150	0x3e1a37c3	0.15060334
151	0xbe1603b5	-0.14649852
152	0xbc86ba00	-0.016446114
153	0x3e214ed7	0.15752731
154	0xbbaf31c0	-0.005346507
155	0x3e297112	0.16547039
156	0x3d916d9c	0.071009845
157	0xbda9bea6	-0.082883164
158	0x3da54188	0.0806914
159	0x3e8e21e5	0.27760234
160	0xbe54a177	-0.20764719
161	0xbf38291a	-0.71937716
162	0x3db43067	0.087982945
163	0xbf4096de	-0.75230205
164	0x3d9154d0	0.07096255
165	0x3dd016f8	0.10160631
166	0x3d0d1dc8	0.03445223
167	0xbcf5ec49	-0.030019896
168	0xbf0f2e48	-0.55929995
169	0xbb8f5e3a	-0.0043752464
170	0xbce5054c	-0.027956627
171	0xbdbb94eb	-0.09159263
172	0xbe5c9298	-0.21540296
173	0x3d25f61e	0.04051792
174	0xbe3504f6	-0.17677674
175	0x3e8ebf5f	0.2788038
176	0x3e375dba	0.17906848
177	0x3ed89f18	0.4230888
178	0xbd541d00	-0.05178547
179	0xbe1300e4	-0.14355808
180	0x3dd25f34	0.10272065
181	0xbf0c071e	-0.5469836
182	0xbc3d432f	-0.011551662
183	0x3e30b7ba	0.17257586
184	0xbe77d767	-0.24203263
185	0xbc283a7c	-0.01026785
186	0x3d9cec86	0.07662301
187	0x3e99e386	0.300564
188	0xbf618f84	-0.8810961
189	0x3bad3880	0.0052862763
190	0xbdbd7fbc	-0.09252879
191	0x3d8b0e03	0.06789782
192	0x3d9f67b4	0.07783452
193	0x3ec744d3	0.38919696
194	0xbe8e7130	-0.2782073
195	0x3f1c29b3	0.6100113
196	0x3da9bcb3	0.08287945
197	0x3c9cb6fa	0.019130219
198	0x3d972523	0.0738013
199	0x3e855483	0.2604104
200	0x3e2b8a97	0.16752087
201	0xbf10bf09	-0.56541497
202	0xbe0f39b9	-0.13986863
203	0x3dfe0768	0.124037564
204	0xbdab83ca	-0.08374746
205	0x3eb9ac4e	0.3626427
206	0x3dac1b0a	0.08403595
207	0xbe0ee951	-0.1395619
208	0x3e8db033	0.27673492
209	0x3d5c5bee	0.05379861
210	0xbc8ae34e	-0.01695409
211	0x3e6ab642	0.22921088
212	0xbd780b4d	-0.060557652
213	0x3dbe50df	0.09292769
214	0x3cc027cf	0.023456482
215	0xbf0ecac6	-0.5577816
216	0x3e49f38c	0.19721812
217	0xbcc97360	-0.024591148
218	0xbed78207	-0.4209139
219	0x3ec6a617	0.38798591
220	0x3ec20b38	0.37899184
221	0x3e226404	0.15858465
222	0xbe0d58e4	-0.1380344
223	0x3ed93c7d	0.4242896
224	0x3ec0e333	0.3767334
225	0xbf02b1e1	-0.5105267
226	0xbf30b596	-0.6902708
227	0xbf59c598	-0.8506713
228	0xbe8fb546	-0.28067988
229	0x3ee0e5f1	0.4392543
230	0xbdb99182	-0.090609565
231	0x3d93400d	0.07189951
232	0x3ddf0dc8	0.108913004
233	0x3d502e58	0.050825447
234	0xbe5272c0	-0.20551586
235	0xbe9dc51a	-0.3081444
236	0xbc06e29c	-0.008232739
237	0x3e9ce14b	0.30640635
238	0x3e749d19	0.23888053
239	0x3dfc64da	0.123239234
240	0xbd3ff7d4	-0.046867207
241	0x3df79747	0.12089401
242	0x3e82f19a	0.25574952
243	0x3d826e4f	0.06368696
244	0xbcc8bb1e	-0.024503287
245	0x3f01586a	0.50525534
246	0x3f7fb580	0.9988632
247	0xbd95c4e5	-0.07312945
248	0xbdf804ed	-0.121103145
249	0x3bda08e7	0.0066538933
250	0xbd6d430e	-0.057925276
251	0x3e7e1a77	0.24814783
252	0xbddaa4a7	-0.10675936
253	0xbd1463e2	-0.03622807
254	0x3cab8dcd	0.02094164
255	0xbcb96b70	-0.022634238

instance_projector.2.bias f4 [20]
0	0x3e874779	0.26421717
1	0x3e79a6d6	0.24380049
2	0xbcdf0d75	-0.027228097
3	0x3e9d0ec1	0.3067532
4	0xbea162f9	-0.31520823
5	0x3e55278a	0.20815864
6	0xbee57173	-0.44813117
7	0x3f1d9f75	0.6157144
8	0x3db94028	0.0904544
9	0x3e72cdd5	0.23711331
10	0xbe054f27	-0.13018475
11	0xbeea5745	-0.45769706
12	0x3ed9db74	0.42550242
13	0x3f50fa12	0.81631577
14	0xbde69a48	-0.112598956
15	0xbe8834a1	-0.26602653
16	0xbe278fbc	-0.16363424
17	0x3e8dc17e	0.27686685
18	0x3ca42872	0.020038817
19	0xbe7af18b	-0.24506204

cluster_projector.0.weight f4 [128, 20]
0	0xbe261847	-0.16220199
1	0xbd754958	-0.0598844
2	0x3e205886	0.15658769
3	0x3c9e3270	0.01931116
4	0x3dea6814	0.114456326
5	0x3cc70948	0.024296418
6	0xbe5ced34	-0.21574861
7	0x3d6cf240	0.057848215
8	0xbdc49462	-0.09598614
9	0xbe1870df	-0.14886807
10	0xbddc1247	-0.107456736
11	0x3d89bae4	0.067251
12	0x3e17a3d4	0.14808589
13	0x3d4db250	0.05021888
14	0xbddbf72e	-0.10740505
15	0xbe2cb4b2	-0.16865805
16	0xbd991d76	-0.07476322
17	0xbdfc2603	-0.12311938
18	0x3d38f1f0	0.045152605
19	0x3e2c2e7e	0.1681461
20	0xbc69cfea	-0.014270762
21	0x3dbde8c4	0.09272912
22	0x3e10223a	0.14075556
23	0xbf04f318	-0.5193343
24	0xbed1ddac	-0.40989435
25	0xbf530d07	-0.82441753
26	0x3f144a33	0.5792572
27	0xbf275610	-0.65365696
28	0x3f2e3c60	0.68060875
29	0xbd5311c4	-0.051530614
30	0x3dd27c6d	0.102776386
31	0x3c531f55	0.012885888
32	0xbe599a15	-0.21250184
33	0x3ccde2a6	0.025132488
34	0x3e08205e	0.13293597
35	0xbe37f029	-0.17962708
36	0xbee83236	-0.45350808
37	0xbeb1f6ab	-0.34758505
38	0xbef05230	-0.46937704
39	0x3ea41cd8	0.32053256
40	0xbdc623fc	-0.09674832
41	0xbe293a9c	-0.16526264
42	0xbe0bd568	-0.13655627
43	0xbbf86fa0	-0.007581666
44	0xbe06056a	-0.13088003
45	0x3d52f2f8	0.051501244
46	0xbd7f0ca0	-0.0622679
47	0xbd625a08	-0.05526164
48	0xbe58a24d	-0.21155663
49	0xbb696980	-0.0035615861
50	0xbd5eccf4	-0.054394677
51	0xbe12a074	-0.1431902
52	0xbd0f965c	-0.035055503
53	0xbe37159b	-0.17879336
54	0xbe2862eb	-0.16443984
55	0x3de50b68	0.11183816
56	0xbd316e98	-0.04331836
57	0xbd6616a4	-0.056173936
58	0xbdb19058	-0.086701095
59	0x3d544cb8	0.051830977
60	0x3dcb3b97	0.09923475
61	0x3f181233	0.5940277
62	0xbf31edcc	-0.69503474
63	0xbef2304c	-0.47302473
64	0xbebc11ce	-0.36732334
65	0xbf499ce6	-0.78755033
66	0xbe955ccc	-0.2917236
67	0xbe4a2dae	-0.19743988
68	0x3e44d5b0	0.1922214
69	0x3d004448	0.031315118
70	0xbda81ac4	-0.0820823
71	0xbec193b2	-0.37807995
72	0xbf099a7b	-0.53751343
73	0xbe035a6d	-0.12827463
74	0xbc001cbc	-0.007819351
75	0x3df63bd6	0.120231315
76	0xbf0e3889	-0.55555016
77	0xbd5f88fd	-0.054574
78	0xbcf99a45	-0.03046907
79	0xbf216667	-0.6304688
80	0xbd4c98e1	-0.049950484
81	0xbc05f285	-0.008175497
82	0xbfb703b9	-1.4298011
83	0xbf479bed	-0.779723
84	0xbf46d1cc	-0.77663875
85	0xbec197ad	-0.37811032
86	0x3eed53bb	0.46352944
87	0xbef6c186	-0.48194522
88	0xbe8e9acc	-0.27852476
89	0xbd51aaa0	-0.05118811
90	0xbed0e983	-0.40803155
91	0xbeea489b	-0.4575852
92	0xbf0e305e	-0.5554255
93	0xbc4c3d94	-0.012465853
94	0x3da01758	0.078169525
95	0xbd9f4760	-0.077772856
96	0xbf13a641	-0.5767556
97	0xbd9fb347	-0.07797866
98	0x3f369df4	0.7133477
99	0x3e059512	0.13045147
100	0xbdf6d7c3	-0.12052872
101	0x3e5e5478	0.2171191
102	0xbf60efd4	-0.8786595
103	0xbd398480	-0.045292377
104	0xbdf42254	-0.1192061
105	0xbe215b13	-0.15757398
106	0xbd61f08d	-0.055161048
107	0xbd4ca2f2	-0.049960084
108	0x3f194dfb	0.59884614
109	0x3def41a4	0.11682442
110	0x3e436637	0.1908196
111	0x3d8e9cff	0.069635384
112	0x3e13652c	0.14394063
113	0xbe02b30c	-0.12763613
114	0x3e4f2f50	0.20232892
115	0xbdc6a93a	-0.09700246
116	0xbd761c11	-0.06008536
117	0xbe964bad	-0.2935461
118	0x3d9669ea	0.0734442
119	0x3de924c7	0.11383968
120	0xbd287f95	-0.041137297
121	0xbe788ba0	-0.24272013
122	0x3e91e9ff	0.28498837
123	0xbe1f72dc	-0.15571159
124	0x3f25207d	0.645027
125	0x3ee637e0	0.44964504
126	0xbe44f954	-0.19235736
127	0xbe8eac61	-0.2786589
128	0xbfca4fcc	-1.5805602
129	0x3e23b9e2	0.15988877
130	0xbf4a54e1	-0.79035765
131	0x3ef3148d	0.47476617
132	0x3e020d0a	0.12700287
133	0xbd04e1d0	-0.032441914
134	0xbdc3a622	-0.09553172
135	0x3dfafd4e	0.12255345
136	0x3e8111b0	0.25208807
137	0x3d1431c8	0.036180288
138	0x3f04f7fe	0.51940906
139	0x3ec41534	0.38297427
140	0xbc1b15fe	-0.009465693
141	0xbe88ac50	-0.26693964
142	0x3ee70859	0.45123556
143	0x3ebeb020	0.37243748
144	0x3eb72a92	0.35774666
145	0xbe810e22	-0.25206095
146	0x3eaf64c3	0.34256563
147	0xbe4bb326	-0.19892558
148	0x3e8f2998	0.2796142
149	0xbd888788	-0.066664755
150	0xbea8ac60	-0.32944012
151	0xbefaa67a	-0.48955137
152	0xbdaf8deb	-0.085719906
153	0x3d995f64	0.074888974
154	0xbd56f435	-0.052478988
155	0xbd49e5a2	-0.04929126
156	0xbee919a2	-0.4552737
157	0xbdbf5b4c	-0.09343585
158	0xbda15ece	-0.07879411
159	0xbdf57eb6	-0.11987059
160	0xbab4dc8e	-0.001379864
161	0x3ea588e4	0.32331002
162	0xbe608cbb	-0.21928684
163	0xbf08fb6f	-0.5350866
164	0xbe7d580d	-0.2474062
165	0xbb283fd8	-0.002567282
166	0xbeb795c0	-0.35856438
167	0xbd8bb427	-0.06821471
168	0xbdf71e87	-0.120663695
169	0x3c7b94b0	0.015355274
170	0xbec45d9c	-0.38352668
171	0xbe0e8773	-0.13918857
172	0xbe8a7010	-0.27038622
173	0xbd4bb0b1	-0.049729053
174	0xbc1f1522	-0.009709628
175	0x3d353f85	0.04425003
176	0xbea4481f	-0.32086274
177	0xbdaaac29	-0.08333618
178	0x3dff6408	0.12470251
179	0xbd994ac4	-0.074849635
180	0xbe93fcc8	-0.28903794
181	0x3efe1df1	0.49632218
182	0xbf9ff78b	-1.2497419
183	0xbe40521f	-0.18781327
184	0x3f08cc52	0.5343677
185	0xbfc76314	-1.5577111
186	0xbf2b2110	-0.66847324
187	0x3d8835ca	0.066508844
188	0x3e9eeb7f	0.31039044
189	0xbdc38332	-0.09546508
190	0xbd788379	-0.060672257
191	0x3dfd3912	0.12364401
192	0x3da109e0	0.07863212
193	0xbe09d977	-0.13461863
194	0xbd12a795	-0.03580435
195	0x3e1242d3	0.14283304
196	0x3dd1b5e4	0.10239771
197	0x3ccaf893	0.024776733
198	0xbe223a04	-0.15842444
199	0xbe52763c	-0.20552915
200	0xbe386aed	-0.18009539
201	0x3dc872ea	0.09787543
202	0x3e857df9	0.26072672
203	0x3e390042	0.18066505
204	0x3eb1dcb8	0.34738708
205	0x3f1fc303	0.6240694
206	0xbd3b3ef1	-0.045714322
207	0xbe6adfce	-0.22936937
208	0x3e902a2b	0.28157172
209	0xbe40bc50	-0.18821836
210	0xbf73c41b	-0.9522111
211	0xbf9d78ab	-1.230245
212	0xbfa88cdf	-1.316799
213	0xbed92e39	-0.42418078
214	0xbf51dc02	-0.8197633
215	0xbfaf5cc1	-1.3700181
216	0xbf8b1b3e	-1.0867689
217	0xbf83a31a	-1.028415
218	0xbf7430ce	-0.9538697
219	0xbf868567	-1.0509461
220	0xbd967d2d	-0.07348094
221	0xbdd0e9a2	-0.10200812
222	0xbed95672	-0.42448765
223	0x3e0f3556	0.1398519
224	0x3eff49e8	0.49861073
225	0xbe88b6f8	-0.26702094
226	0x3f74dea6	0.95652235
227	0xbf208bec	-0.62713504
228	0x3e4c6bfe	0.19963071
229	0xbe3a63ee	-0.18202183
230	0xbf03c928	-0.51478815
231	0xbdfe96f1	-0.124311335
232	0xbf0c8e62	-0.5490476
233	0x3ddbe836	0.1073765
234	0x3a560a06	0.0008164946
235	0xbe09bd3b	-0.13451092
236	0xbdfb09f8	-0.12257761
237	0xbf875023	-1.0571331
238	0xbee90073	-0.45508155
239	0xbf7bb7df	-0.9832744
240	0x3cd413e5	0.025888393
241	0xbdac9818	-0.08427447
242	0xbf883113	-1.0639976
243	0xbf40963e	-0.7522925
244	0x3ede9d56	0.43479413
245	0xbeabdf29	-0.33568695
246	0x3f054950	0.5206499
247	0xbd410b72	-0.047130056
248	0xbee926ed	-0.4553751
249	0xbe4667f3	-0.19375591
250	0x3dc98428	0.0983966
251	0x3ebbe511	0.366982
252	0xbe17feaf	-0.14843248
253	0xbe0600cf	-0.13086246
254	0xbd58b7ba	-0.05290959
255	0x3e123674	0.14278585

cluster_projector.0.bias f4 [128]
0	0x3dcb69c8	0.099322855
1	0x3e80f9c3	0.25190553
2	0xbd3118dc	-0.0432366
3	0x3f0be996	0.546533
4	0x3eb115b9	0.34586886
5	0x3dfd29ea	0.1236151
6	0xbe15442e	-0.1457679
7	0xbdf1d72d	-0.1180862
8	0x3f1c6c2d	0.61102563
9	0x3ecf220d	0.40455666
10	0xbe50eae6	-0.20402107
11	0x3ca0c748	0.019626275
12	0xbedd1b30	-0.43184805
13	0xbe03c143	-0.12866692
14	0x3f35f73b	0.7108037
15	0x3ef7e962	0.48420244
16	0x3e5020f5	0.20325072
17	0x3eb8eb7a	0.36117154
18	0x3d2a769e	0.04161703
19	0x3cff5766	0.031169605
20	0x3da339b4	0.079699904
21	0xbdc6bfcd	-0.09704552
22	0xbe13aa6c	-0.1442048
23	0xbcae3976	-0.021267634
24	0xbc3f21de	-0.011665789
25	0x3e83dd49	0.25754765
26	0xbcd65998	-0.026165769
27	0x3f2416ee	0.6409749
28	0xbe0714c5	-0.13191517
29	0xbd2f3760	-0.04277742
30	0x3f643892	0.8914882
31	0x3ef64110	0.48096514
32	0xbe3b1523	-0.18269782
33	0x3f463d42	0.7743722
34	0xbd78f56a	-0.06078092
35	0x3ed2636e	0.41091484
36	0x3f0eb981	0.55751806
37	0x3e5bf0a1	0.21478511
38	0x3de33bec	0.110954136
39	0x3ca7d97c	0.020489447
40	0xbe0a69b6	-0.13516888
41	0x3ef334cc	0.47501218
42	0xbe37f460	-0.17964315
43	0xbee33dae	-0.44382995
44	0xbdfd551b	-0.12369748
45	0x3f060057	0.5234427
46	0xbeab14a2	-0.3341418
47	0xbe3ca5d9	-0.18422641
48	0xbe386de2	-0.18010667
49	0xbdcd2943	-0.10017636
50	0x3d48ff28	0.04907146
51	0x3e487d11	0.19578959
52	0xbed4f572	-0.4159351
53	0xbd67e2eb	-0.05661289
54	0x3ef0a465	0.47000423
55	0x3e0a7f53	0.13525133
56	0x3f13287a	0.5748364
57	0xbcc2c9f0	-0.023777932
58	0x3c7a7bcf	0.015288307
59	0x3cce99f0	0.025219887
60	0xbea38052	-0.31933838
61	0x3eda7dd8	0.42674136
62	0x3c33fbc0	0.010985315
63	0xbe7e392d	-0.24826498
64	0xbf235221	-0.63797194
65	0x3ef7841b	0.48342976
66	0x4008e306	2.1388564
67	0x3e74c179	0.23901929
68	0xbdcd5ec9	-0.100278445
69	0x3e80c944	0.25153553
70	0xbce1ef30	-0.027579874
71	0x3f0ea219	0.5571609
72	0xbe123f94	-0.14282066
73	0xbe43db01	-0.19126512
74	0x3e184645	0.14870556
75	0x3cd1c88f	0.02560833
76	0xbf1c35dd	-0.6101969
77	0xbe0f5968	-0.1399895
78	0x3dcf6ec8	0.10128552
79	0x3fb6c72b	1.4279531
80	0x3f072fe9	0.5280748
81	0xbe817b8a	-0.25289565
82	0x3e973916	0.2953574
83	0x3dfdadd8	0.12386674
84	0xbe62d609	-0.2215196
85	0x3d89b115	0.06723229
86	0xbd47300d	-0.04862981
87	0x3c3a5ea2	0.011375101
88	0x3f20f750	0.6287737
89	0x3e230b78	0.15922344
90	0x3cbc4893	0.022983825
91	0x3dba24ff	0.09089088
92	0x3ef28a06	0.4737093
93	0x3f336256	0.70071924
94	0xbe820d9a	-0.25401002
95	0xbf04fe84	-0.5195086
96	0x3f138cc0	0.5763664
97	0xbe517f0c	-0.20458621
98	0xbe321559	-0.17390956
99	0x3e6b03e7	0.22950707
100	0xbe7f42b5	-0.2492779
101	0xbd290cac	-0.04127185
102	0x3b3e6240	0.002905026
103	0xbd4c17e3	-0.049827468
104	0x3e27746f	0.1635301
105	0x3dbf77e7	0.093490414
106	0x3f29e29b	0.663614
107	0xbdb457a4	-0.088057786
108	0xbe36a4d6	-0.17836317
109	0x3e4ea223	0.20179038
110	0xbe058352	-0.13038376
111	0xbd686296	-0.056734644
112	0x3e00a53d	0.12563033
113	0xbe00cb33	-0.12577514
114	0x3e9d03d9	0.30666998
115	0xbe8074a4	-0.2508899
116	0x3e7c9f41	0.24670126
117	0x3f540e98	0.8283477
118	0x3d8262d8	0.06366509
119	0x3ed2ebbf	0.41195485
120	0x3c94c5bf	0.018160699
121	0xbe302e11	-0.17205073
122	0xbee79fac	-0.45239007
123	0xbe2ad21b	-0.16681711
124	0xbec112a7	-0.37709543
125	0xbe99d91c	-0.30048454
126	0xbe462e14	-0.19353515
127	0xbe4fed86	-0.20305452

cluster_projector.2.weight f4 [50, 128]
0	0x3ce106a0	0.02746898
1	0xbd5ce911	-0.053933207
2	0xbd694ee6	-0.05696001
3	0xbd9ae1df	-0.07562613
4	0x3e4f4a46	0.20243177
5	0x3e7e916b	0.2486016
6	0xbc16af8f	-0.00919713
7	0xbea9c582	-0.331585
8	0x3e22f269	0.15912785
9	0x3e51b507	0.20479213
10	0xbdaa86bd	-0.083264805
11	0xbe2da30a	-0.16956726
12	0xbe2e7dd0	-0.17040181
13	0xbc94b29a	-0.01815157
14	0x3e320fae	0.17388794
15	0x3e41c6ec	0.18923539
16	0x3e146100	0.14490128
17	0x3e499f88	0.19689763
18	0xbf0ec3d9	-0.5576759
19	0xbc082183	-0.008308771
20	0xbd1c562a	-0.03816811
21	0xbedcf400	-0.43154907
22	0xbd9393be	-0.07205914
23	0x3e56fbc3	0.20994477
24	0x3eb6d22b	0.3570722
25	0x3e34a3b2	0.1764057
26	0xbca1f283	-0.019768959
27	0x3e5331f7	0.20624529
28	0x3e976acd	0.2957367
29	0xbf0453e1	-0.5169049
30	0x3e55de49	0.20885576
31	0x3ea958a5	0.33075443
32	0xbd3b904c	-0.04579191
33	0x3ea1e530	0.3162017
34	0xbd82f15e	-0.063936934
35	0x3e47bd8c	0.195059
36	0x3eafa4bd	0.34305373
37	0x3e438f34	0.19097596
38	0x3e922d8e	0.2855038
39	0xbee2d986	-0.44306582
40	0xbdab87f2	-0.08375539
41	0xbcc1f39c	-0.023675732
42	0xbccf5770	-0.025310248
43	0xbfbee038	-1.4912176
44	0xbe8294ad	-0.25504056
45	0x3eb832d4	0.3597628
46	0xbf43a06a	-0.7641665
47	0xbf523b3a	-0.8212162
48	0xbf8d84b0	-1.1056118
49	0x3ef14b04	0.47127545
50	0xbc02e008	-0.0079879835
51	0x3db419c8	0.0879398
52	0xbdbe4535	-0.09290544
53	0x3e38779d	0.18014379
54	0x3e9d62bb	0.30739388
55	0x3f9e7e61	1.2382318
56	0x3b1b4cbc	0.002369686
57	0xbc1f2200	-0.009712696
58	0x3f24a3c0	0.6431236
59	0x3cb8d47c	0.022562258
60	0x3ca41dac	0.02003368
61	0x3d59fdac	0.053220436
62	0x3d29abaa	0.041423477
63	0xbd51e384	-0.051242366
64	0x3b10f0cf	0.002211619
65	0xbd4ef7bb	-0.050529223
66	0x3dcadb0b	0.099050604
67	0x3e686619	0.22695197
68	0xbe88110d	-0.2657551
69	0x3e1425ef	0.14467596
70	0xbd8f5dee	-0.070003375
71	0x3df09ab4	0.11748257
72	0xbb5ba99e	-0.0033517848
73	0x3ea2e1b7	0.31812832
74	0xbb0262c1	-0.0019895288
75	0x3d612b03	0.05497266
76	0xbdad3e0b	-0.084590994
77	0x3da16e5f	0.0788238
78	0x3d865dab	0.065608345
79	0xc04665da	-3.0999665
80	0x3e888123	0.26661023
81	0x3ed35937	0.41279003
82	0x3e726bda	0.23673955
83	0xc04307bf	-3.0473478
84	0xbcace048	-0.02110304
85	0xc03e9482	-2.9778142
86	0x3e27b0ff	0.16376112
87	0x3c813c46	0.01577581
88	0x3ec22204	0.37916577
89	0xbe41d843	-0.18930154
90	0x3c86ed29	0.016470509
91	0xbcb76230	-0.022385687
92	0x3e88f8af	0.2675223
93	0xbd342ede	-0.04399001
94	0x3dbc2880	0.09187412
95	0xbed9d91c	-0.42548454
96	0x3e4bdc22	0.19908193
97	0xbda07242	-0.07834293
98	0x3ed332ad	0.412496
99	0x3e71cee1	0.23614074
100	0x3a5bfc7e	0.0008391811
101	0x3ca16534	0.019701578
102	0xba5e6700	-0.0008483976
103	0x3e9a51c1	0.30140498
104	0xbf8224a4	-1.0167432
105	0x3e55bb24	0.2087217
106	0x3f266f86	0.6501392
107	0xbe71c7d7	-0.23611389
108	0x3cf00bb0	0.029302448
109	0x3dcb8a3d	0.09938476
110	0x3d037e31	0.032102767
111	0x3e7015d9	0.23445834
112	0x3ca84b83	0.02054382
113	0xbfa0d1bb	-1.2564005
114	0xbd02d0e4	-0.031937495
115	0x3f65578b	0.89586705
116	0x3e433847	0.19064437
117	0x3ec5573f	0.38543126
118	0xbd39dad5	-0.04537471
119	0x3ecd96c2	0.40154082
120	0x3b81c955	0.003960768
121	0xbf12c95f	-0.5733852
122	0xbf086461	-0.53278166
123	0x3efc7d14	0.49314177
124	0xbd94dacd	-0.072682954
125	0x3d3e92d6	0.046526752
126	0xbdcdad69	-0.10042841
127	0x3e223989	0.1584226
128	0x3c9a6428	0.018846586
129	0x3cfeb372	0.031091426
130	0x3d3271a2	0.0435654
131	0xbd11828a	-0.035524882
132	0xbe8e5eab	-0.278066
133	0x3d43c47b	0.0477948
134	0xbfd25875	-1.6433245
135	0x3e0a5801	0.13510133
136	0xbf02e1be	-0.51125705
137	0x3e1a69f5	0.15079482
138	0xbef89a3e	-0.48555177
139	0x3e4ec41b	0.20191996
140	0xc0500c7b	-3.2507617
141	0xbf90b061	-1.1303827
142	0x3e02dbaa	0.12779108
143	0xc0434f74	-3.0517244
144	0xc0336be2	-2.8034596
145	0xbf5af3a8	-0.8552804
146	0xc020c2d4	-2.5118914
147	0xbeae0d22	-0.33994395
148	0x3d60985e	0.05483281
149	0xbdbc271c	-0.09187147
150	0xc05a78b2	-3.4136167
151	0xbdbdf6e1	-0.09275604
152	0x3e0580d9	0.13037433
153	0xbe66e25f	-0.22547291
154	0xbf9d1134	-1.2270875
155	0x3d8b3605	0.06797413
156	0x3eab74fd	0.33487692
157	0xbe132e95	-0.14373238
158	0xbf57f220	-0.8435383
159	0x3f46d5ec	0.7767017
160	0xbd52ffd2	-0.0515135
161	0xbe47537c	-0.1946544
162	0xbf5894b5	-0.8460191
163	0x3d252a83	0.040323745
164	0x3e0e506c	0.13897866
165	0x3eaca757	0.3372142
166	0xbf860567	-1.0470399
167	0x3e083f53	0.13305406
168	0x3c8e758c	0.017390035
169	0xbd8b3d45	-0.067987956
170	0xbda80c4e	-0.08205472
171	0xc05e83b5	-3.4767888
172	0xbfb25bf4	-1.3934312
173	0x3d867171	0.06564606
174	0x3f0605a9	0.52352387
175	0xbfed14a2	-1.8521922
176	0xc094ba23	-4.647722
177	0xbea84a99	-0.32869413
178	0x3cffe970	0.031239241
179	0xbf04a891	-0.5181971
180	0xbf98eb15	-1.1946741
181	0xbd103946	-0.03521087
182	0x3d81a83b	0.063309155
183	0x3d57f37c	0.05272244
184	0x3cf69673	0.030101037
185	0xbd3818ff	-0.044945713
186	0x3d30c91a	0.043160535
187	0xbd91a816	-0.07112138
188	0xbeb28721	-0.3486872
189	0xbe21f6e6	-0.1581684
190	0xba9e71c0	-0.0012088344
191	0xbf08ecc8	-0.534863
192	0xbde6ae5c	-0.11263725
193	0x3def66cf	0.11689531
194	0x3f0cbe15	0.5497754
195	0x3e2dd200	0.1697464
196	0xbf11173a	-0.56676066
197	0x3ebe3fd2	0.37158066
198	0xbd48727f	-0.048937317
199	0x3d428c69	0.047497187
200	0x3d8a978f	0.06767189
201	0xc07a2f80	-3.9091492
202	0xbd41f732	-0.047354884
203	0x3e534734	0.2063263
204	0xbf053c97	-0.5204558
205	0x3db24223	0.08704021
206	0x3d2ac56a	0.041692175
207	0x3e6124e1	0.21986724
208	0xbeb2f821	-0.34954932
209	0x3f234778	0.6378093
210	0x3df60036	0.12011759
211	0x3e9d1aec	0.30684602
212	0xbd15f279	-0.036608193
213	0x3e4b4b10	0.19852853
214	0x3e282a86	0.16422471
215	0xbd69e292	-0.05710084
216	0x3bdaaaed	0.006673208
217	0x3e047132	0.12933806
218	0x3c39ba78	0.0113359615
219	0xc069fccc	-3.6560545
220	0xbe47ede2	-0.19524339
221	0xbe0d63a7	-0.13807546
222	0x3f590b54	0.8478291
223	0xbe46d8d9	-0.19418658
224	0x3e5948f0	0.2121923
225	0x3d80bd6b	0.062861286
226	0xbfacd0bd	-1.3501202
227	0xbdac0010	-0.083984494
228	0x3e86a845	0.26300254
229	0xc07b6e59	-3.92861
230	0xbd6def62	-0.05808962
231	0x3e47689d	0.194735
232	0xbf5d44d5	-0.86433154
233	0x3f4618fe	0.77381885
234	0xbf8ed8ba	-1.115989
235	0x3d5cccf0	0.05390638
236	0xbfe94526	-1.8224227
237	0xbe5ab91c	-0.21359676
238	0xbdafb7be	-0.08579968
239	0x3e40c5c3	0.1882544
240	0xbb36fa30	-0.002792012
241	0xbe9555d5	-0.29167047
242	0xc0162e06	-2.346559
243	0x3e85247b	0.26004395
244	0x3e028552	0.1274617
245	0xbea07437	-0.31338665
246	0xbcca5878	-0.024700388
247	0xbe063df5	-0.13109572
248	0x3f84289f	1.0324897
249	0xc0843549	-4.1315045
250	0x3d2785f2	0.040899225
251	0xbeeb8aaa	-0.4600423
252	0x3dc67769	0.096907444
253	0xbec3e0ed	-0.38257542
254	0x3ef40449	0.4765952
255	0x3e5639e3	0.2092052

cluster_projector.2.bias f4 [50]
0	0x3eb4a226	0.3527996
1	0xbe6c315e	-0.23065707
2	0x3e1733c7	0.14765845
3	0x3e95473a	0.29155904
4	0x3e714b62	0.23563913
5	0xbed67eb0	-0.4189353
6	0xbcc0bb7b	-0.023526898
7	0xbe4d45b7	-0.20046125
8	0x3e4631fe	0.19355008
9	0x3e652b8a	0.2237989
10	0x3e010b58	0.12601984
11	0xbe1d46ad	-0.15358992
12	0x3e14290f	0.14468788
13	0xbe140ef0	-0.14458823
14	0xbec8d030	-0.39221334
15	0x3e023671	0.1271608
16	0x3d1d35bf	0.038381334
17	0x3e0aac5f	0.13542317
18	0x3e9849c0	0.29743767
19	0xbe64eaf9	-0.2235526
20	0xbdf93108	-0.12167555
21	0x3e93cc71	0.28866914
22	0xbd4f679f	-0.05063593
23	0x3e24a36e	0.16077968
24	0xbe488cc6	-0.19584951
25	0x3edbf441	0.42959788
26	0xbe123894	-0.14279395
27	0x3d2b5376	0.04182764
28	0x3e74345d	0.238481
29	0x3e29670f	0.1654322
30	0xbe1db2ff	-0.15400313
31	0xbe06e7f0	-0.13174415
32	0x3e94f604	0.29093945
33	0x3ed1409b	0.40869603
34	0x3ec3108b	0.3809856
35	0x3dd22acb	0.10262068
36	0x3ea7220d	0.32643166
37	0x3ec1bdc9	0.37840107
38	0x3e18caa2	0.14921048
39	0xbe476dba	-0.19475451
40	0xbddac735	-0.10682527
41	0x3e5d1ae1	0.21592285
42	0x3e4f65bf	0.20253657
43	0x3c8c8e76	0.017157774
44	0xbe4051be	-0.18781182
45	0x3e3ff150	0.18744397
46	0xbe42fd94	-0.19042045
47	0xbe4bae16	-0.19890627
48	0x3f23c9fb	0.6398007
49	0x3ca51389	0.020150917

exp_avg f4 [128, 20]
0	0xbf95fbb0	-1.1717434
1	0xbe81fdea	-0.25389034
2	0x3ba13b86	0.004920426
3	0xbd8d6fa8	-0.06906062
4	0xbd82fd77	-0.06396001
5	0xbdf101dc	-0.11767933
6	0xbe0ac558	-0.13551843
7	0xbdf6af80	-0.12045193
8	0xbda51428	-0.08060485
9	0x00000000	0.0
10	0xbc22d9a5	-0.009939586
11	0xbc91e3ff	-0.017808912
12	0xbc93a06b	-0.01802083
13	0xbe17e4af	-0.1483333
14	0xbe177596	-0.14790949
15	0xbe17e97f	-0.14835165
16	0xbc922c26	-0.017843317
17	0xbc57572c	-0.013143342
18	0xbc08c844	-0.008348528
19	0xb9ffc1f7	-0.00048781905
20	0xbea00d6c	-0.3126024
21	0xbdbfb21a	-0.09360142
22	0xbbe61673	-0.007021719
23	0xbd84001a	-0.06445332
24	0xbd7bfeb1	-0.06152219
25	0xbd05679c	-0.032569513
26	0xbb8bd9c8	-0.004267905
27	0xbd0fd481	-0.03511477
28	0xbd831b11	-0.06401647
29	0x00000000	0.0
30	0xbbc2af11	-0.0059412797
31	0xbbb7b216	-0.0056059463
32	0xbbbb237e	-0.005711018
33	0xbd86e176	-0.06585972
34	0xbd82d389	-0.063880034
35	0xbd842150	-0.06451666
36	0xbbb92f5d	-0.005651398
37	0xbb73e975	-0.0037218009
38	0xbb94a1fb	-0.004535911
39	0xb9d7cf9e	-0.00041162682
40	0xbee7ca10	-0.4527135
41	0xbcce055d	-0.025149042
42	0xbb7be36a	-0.003843511
43	0xbbd14f69	-0.0063876403
44	0xbc079c18	-0.008276962
45	0xbbd5fff9	-0.0065307585
46	0xbc415dec	-0.011802178
47	0xbc3a90b9	-0.011387044
48	0xbc0f0f1e	-0.008731632
49	0x00000000	0.0
50	0xba8e7086	-0.0010867275
51	0xbb9e755f	-0.004835769
52	0xbba46f63	-0.005018161
53	0x42086d53	34.106762
54	0x42086bb8	34.105194
55	0x42086c02	34.105476
56	0xbba794c0	-0.005114168
57	0xbbb4edd4	-0.0055215154
58	0xbb26a524	-0.0025428021
59	0xbb8c2af3	-0.004277581
60	0x3c5df5ff	0.01354742
61	0x3bcb004d	0.006195104
62	0xba8656e0	-0.001024928
63	0x3b881721	0.004153148
64	0x3b8bdd16	0.004268299
65	0x3bc19bd0	0.005908467
66	0x39a76ec9	0.00031935264
67	0x3bc19bd0	0.005908467
68	0x37e09523	2.6772328e-05
69	0x00000000	0.0
70	0x3a80d9bf	0.0009830518
71	0x3a0daeff	0.00054047996
72	0x3a112b4f	0.00055377645
73	0x3c2163be	0.009850441
74	0x3c23fe3d	0.010009346
75	0x3c22801b	0.009918238
76	0x3a0f6905	0.0005470666
77	0x3ac5d653	0.0015093781
78	0x3a1123f8	0.0005536671
79	0x38af89ef	8.3703424e-05
80	0x39a301a8	0.00031091017
81	0x3a88eb99	0.001044619
82	0x38c01947	9.159982e-05
83	0x3a90109d	0.0010991279
84	0x3b4ec1cf	0.0031548624
85	0x3aeb26c8	0.0017940635
86	0xb94fd622	-0.00019820829
87	0x3add1f74	0.0016870336
88	0xba626b56	-0.000863721
89	0x00000000	0.0
90	0x39cca256	0.00039030862
91	0x39534503	0.00020148237
92	0x397b8662	0.00023987287
93	0x3f37bf8b	0.71776646
94	0x3f37dd52	0.71822083
95	0x3f37cf75	0.7180093
96	0x395b7d00	0.00020932034
97	0x39f709a6	0.000471187
98	0x38fa4a16	0.000119347285
99	0xb7dea3a7	-2.6540669e-05
100	0xbae4d801	-0.0017459394
101	0xbaed5c2c	-0.0018109134
102	0x3a178d15	0.0005781216
103	0x3b1629e5	0.0022913155
104	0x3b037b0c	0.0020062355
105	0xbb776fec	-0.003775592
106	0xbbdb9dc5	-0.006702157
107	0xb9b497b9	-0.00034445318
108	0xba067b15	-0.0005130035
109	0x00000000	0.0
110	0x3afb9049	0.0019192781
111	0x3a728886	0.0009251911
112	0x3a541791	0.000809067
113	0x403eec0a	2.9831567
114	0x403ef05f	2.983421
115	0x403eedf4	2.9832735
116	0x3a646414	0.00087124226
117	0x39c1932a	0.00036921474
118	0x39097d69	0.00013112057
119	0x3a00791e	0.00049008604
120	0x3e910b9d	0.28329173
121	0x3d705a97	0.058680143
122	0x3be46fef	0.0069713513
123	0x3ccdf3e3	0.025140708
124	0x3cd9384a	0.026516099
125	0x3cd00180	0.02539134
126	0x3c65d821	0.01402858
127	0x3cd8d0ad	0.026466692
128	0x3ced0d40	0.028936982
129	0x00000000	0.0
130	0x3bd580ab	0.0065155826
131	0x3bef39d4	0.007300595
132	0x3bf0a95b	0.0073444075
133	0x3cf0e29a	0.029404927
134	0x3cef35e6	0.029200505
135	0x3cee62e3	0.029099887
136	0x3bee601c	0.0072746407
137	0x3b23ecd8	0.0025012996
138	0x3b25e86d	0.0025315539
139	0x39bd826d	0.00036146064
140	0xbd733316	-0.05937489
141	0xbcb34ad7	-0.021886272
142	0xbba019a6	-0.00488587
143	0xbc8f1f92	-0.017471109
144	0xbcb597cf	-0.022167115
145	0x3bc50c53	0.006013432
146	0x3c50186c	0.012701135
147	0x3be49405	0.006975653
148	0xbcf53f16	-0.029937308
149	0x00000000	0.0
150	0xb926d1fb	-0.00015909217
151	0xb9b266a8	-0.0003402729
152	0xb9eb28d8	-0.00044853124
153	0xc1283aa6	-10.514318
154	0xc1283746	-10.5134945
155	0xc12839b7	-10.514091
156	0xb9c4c780	-0.00037532672
157	0x395e574b	0.00021204089
158	0xbb01f630	-0.0019830577
159	0xb8fdeb87	-0.000121078505
160	0xbea38b01	-0.3194199
161	0xbd3dd3dc	-0.046344623
162	0xbbc242fe	-0.0059283962
163	0xbbc95157	-0.0061437297
164	0xbbb5a148	-0.005542908
165	0xb67781db	-3.6881454e-06
166	0xb80ba4e5	-3.3293752e-05
167	0xbca6c47b	-0.020357361
168	0xbce63431	-0.028101059
169	0x00000000	0.0
170	0xbcd84dc4	-0.026404269
171	0xbcd6c897	-0.026218696
172	0xbcd51cc9	-0.026014702
173	0xc1556cc8	-13.339058
174	0xc15571c0	-13.340271
175	0xc1556ef4	-13.339588
176	0xbcd5a7a9	-0.026080923
177	0xbbc69fb4	-0.0060615186
178	0xbb1990f7	-0.0023432353
179	0xbb96df06	-0.004604223
180	0x3de040fd	0.109498955
181	0x3c4b7860	0.012418836
182	0x3aba6011	0.0014219304
183	0x3a0534f4	0.0005081438
184	0x3aa51817	0.001259568
185	0x3b4d53d9	0.0031330495
186	0x3ba66f81	0.0050792103
187	0x3ba79071	0.0051136543
188	0x3b691ca1	0.0035570043
189	0x00000000	0.0
190	0x3b46fa5f	0.0030361635
191	0x3b8d4e95	0.004312346
192	0x3b8224da	0.003971678
193	0xc14001da	-12.000452
194	0xc14002c1	-12.000672
195	0xc140010e	-12.0002575
196	0x3b886a23	0.004163043
197	0x3a593f9a	0.00082873704
198	0x398c8f5f	0.000268097
199	0x39259bf4	0.00015793723
200	0x3c6cc7af	0.014451905
201	0x3b3144b1	0.0027049
202	0x3b34cb13	0.0027586862
203	0x3b1d7cf7	0.0024030784
204	0x3bc4b62e	0.006003163
205	0xb885e71e	-6.384983e-05
206	0xb9bf5da2	-0.0003650012
207	0xbbba92db	-0.005693776
208	0x3bd7e404	0.006588461
209	0x00000000	0.0
210	0xbb2607c3	-0.0025334216
211	0xbb0b4383	-0.0021249957
212	0xbb0bd286	-0.0021335199
213	0x3ae9f542	0.0017849582
214	0x3afdf51a	0.0019375414
215	0x3af3d129	0.0018601763
216	0xbb091f2e	-0.0020923126
217	0x39731135	0.00023180696
218	0x38040363	3.1474407e-05
219	0x38d2a93e	0.00010045104
220	0xbe906b00	-0.28206635
221	0xbdb4b3d3	-0.08823361
222	0xbd304def	-0.043043073
223	0xbd8d0711	-0.068861134
224	0xbd8663d3	-0.06562009
225	0xbd067fb1	-0.03283662
226	0xbbbe9d08	-0.0058170594
227	0xbcfc84db	-0.03082507
228	0xbd5da572	-0.05411286
229	0x00000000	0.0
230	0xbbe46e0e	-0.0069711274
231	0xbc84f5c6	-0.016230475
232	0xbc88415e	-0.016632732
233	0x4108b4f1	8.544175
234	0x4108b9d4	8.545368
235	0x4108b8bc	8.545101
236	0xbc86c551	-0.01645151
237	0xbb99bdcc	-0.004691815
238	0xbbc3ca1f	-0.0059750224
239	0xbadc4690	-0.0016805697
240	0xbfc4cffd	-1.5375973
241	0xbe82ed30	-0.25571585
242	0xba96b2ae	-0.0011497342
243	0xbacd870c	-0.0015680506
244	0xbad41bea	-0.0016182635
245	0xbe31b774	-0.17355138
246	0xbe70a3e3	-0.23500018
247	0xbe2ea6c8	-0.1705581
248	0xbb25d42b	-0.0025303464
249	0x00000000	0.0
250	0xbc72719d	-0.014797595
251	0xbcdda088	-0.027054086
252	0xbcdaf8f9	-0.026730048
253	0xbe064a1a	-0.13114205
254	0xbe0c3629	-0.13692535
255	0xbe0a82a9	-0.13526405

exp_avg_sq f4 [128, 20]
0	0x411d9773	9.849475
1	0x3f219d4b	0.63130635
2	0x3c322ed1	0.01087542
3	0x3e4ce773	0.20010166
4	0x3e4654e9	0.19368328
5	0x3de4f0f6	0.11178772
6	0x3d809897	0.06279104
7	0x3df2bed8	0.11852807
8	0x3e567974	0.20944768
9	0x00000000	0.0
10	0x3af8bf7e	0.0018977968
11	0x3b45a173	0.0030156046
12	0x3b49fdfa	0.0030821548
13	0x3e8d2f01	0.27574924
14	0x3e888637	0.26664898
15	0x3e8a1ca1	0.26974967
16	0x3b471fc1	0.0030383917
17	0x3aa0b068	0.0012259604
18	0x3a871a56	0.0010307531
19	0x36f1c846	7.2056746e-06
20	0x3faa4af4	1.3304124
21	0x3de9bcce	0.11412965
22	0x3b8b12dd	0.004244192
23	0x3d84c30c	0.06482515
24	0x3d7f7100	0.062363625
25	0x3c92b7a6	0.017909836
26	0x3a6d888d	0.000906118
27	0x3c9cd5c7	0.019144906
28	0x3d6e2d5e	0.058148734
29	0x00000000	0.0
30	0x3a139e7a	0.000563122
31	0x39e34121	0.0004334534
32	0x39ee7385	0.00045480966
33	0x415b266e	13.696882
34	0x415b1a40	13.693909
35	0x415b1dae	13.694746
36	0x39e813aa	0.0004426514
37	0x393574be	0.00017304995
38	0x399beda0	0.00029740948
39	0x3692c65a	4.3742302e-06
40	0x40f4acfd	7.6461167
41	0x3d8cc4f5	0.06873504
42	0x3a91291c	0.0011074874
43	0x3ab6eb4b	0.0013955621
44	0x3b089992	0.0020843488
45	0x3c78c278	0.015183084
46	0x3cfc54d7	0.030802174
47	0x3ca5828c	0.020203851
48	0x3bb4e65e	0.005520626
49	0x00000000	0.0
50	0x39bb4da6	0.00035725272
51	0x3ac818a3	0.0015266131
52	0x3ad5d440	0.0016313866
53	0x463a80ed	11936.231
54	0x463a83e9	11936.978
55	0x463a8163	11936.347
56	0x3ad5e4df	0.0016318819
57	0x3a82af4d	0.0009970457
58	0x39b40fc1	0.00034344013
59	0x3973c673	0.00023248214
60	0x3b2463c3	0.0025083877
61	0x3a1de91e	0.0006023812
62	0x3846c59e	4.7390924e-05
63	0x399e7d39	0.00030229407
64	0x398a63b1	0.00026395687
65	0x3a1adf2d	0.00059078896
66	0x35e7a696	1.7259324e-06
67	0x3a1b0d20	0.00059147365
68	0x3305bf8d	3.114069e-08
69	0x00000000	0.0
70	0x37716e97	1.4390468e-05
71	0x366d96b4	3.5403473e-06
72	0x367eb15c	3.7952186e-06
73	0x3a2f9948	0.0006698561
74	0x3a2cee9a	0.00065968337
75	0x3a2d2123	0.0006604364
76	0x36762708	3.6679576e-06
77	0x378eed44	1.7038205e-05
78	0x370746df	8.063128e-06
79	0x344fb581	1.9344408e-07
80	0x3e18ad2a	0.14909807
81	0x3c5326fc	0.012887713
82	0x37a2528c	1.9350344e-05
83	0x3bbf703e	0.0058422377
84	0x3bbe426b	0.0058062575
85	0x3ad65462	0.0016352052
86	0x371e3163	9.429033e-06
87	0x3ae8f879	0.0017774246
88	0x3bb4b8f7	0.0055152136
89	0x00000000	0.0
90	0x3875ac35	5.8572932e-05
91	0x3891b858	6.9484755e-05
92	0x3894f577	7.102911e-05
93	0x454c2597	3266.3494
94	0x454c21ee	3266.1206
95	0x454c2460	3266.2734
96	0x3892874b	6.987023e-05
97	0x37d288ba	2.5097619e-05
98	0x3827acdf	3.99769e-05
99	0x34e1197f	4.1928067e-07
100	0x3e82d201	0.25550845
101	0x3c023226	0.007946527
102	0x3904125c	0.0001259534
103	0x3a819ba5	0.0009888305
104	0x3ab354ca	0.0013681885
105	0x3b02b014	0.0019941377
106	0x3ae5289b	0.0017483415
107	0x3b204db7	0.0024460384
108	0x3a9a9866	0.0011794686
109	0x00000000	0.0
110	0x386cb613	5.6436354e-05
111	0x38b90ad4	8.823504e-05
112	0x38bfb4ca	9.141264e-05
113	0x44bb4cdb	1498.4017
114	0x44bb4cd6	1498.4011
115	0x44bb4ced	1498.4039
116	0x38bd173e	9.0165515e-05
117	0x3845bf55	4.7146652e-05
118	0x37da4b22	2.6022612e-05
119	0x364e2ab2	3.0721244e-06
120	0x3f7baede	0.983137
121	0x3d554d0b	0.052075427
122	0x3b38aa9e	0.0028177868
123	0x3ca6c63c	0.020358197
124	0x3ccdb320	0.025109828
125	0x3bdc172b	0.006716629
126	0x3a920cf3	0.0011142775
127	0x3bef1e2b	0.0072972975
128	0x3cb6d796	0.022319596
129	0x00000000	0.0
130	0x399b7b92	0.0002965597
131	0x3a5e16d2	0.00084720284
132	0x3a65ef52	0.0008771318
133	0x3c98c6a0	0.0186494
134	0x3c92c0bc	0.017914169
135	0x3c9499b2	0.018139694
136	0x3a64173d	0.00087009725
137	0x391439d7	0.00014135927
138	0x394c4674	0.00019481202
139	0x37ee4cac	2.8407514e-05
140	0x401ed897	2.4819696
141	0x3e236408	0.15956128
142	0x3b814632	0.0039451355
143	0x3d408981	0.047006134
144	0x3d600f9e	0.054702394
145	0x3cd4c93f	0.025974868
146	0x3c602510	0.013680711
147	0x3cda097f	0.026615856
148	0x3d5316da	0.051535465
149	0x00000000	0.0
150	0x39e5e96f	0.00043852205
151	0x3a5baa26	0.0008379541
152	0x3a5fb379	0.00085335184
153	0x471fb9ba	40889.727
154	0x471fb7e4	40887.89
155	0x471fb920	40889.125
156	0x3a5c4ec1	0.0008404069
157	0x399207fb	0.00027853236
158	0x3984c37f	0.00025322658
159	0x35e93bcc	1.7377256e-06
160	0x408b251f	4.3482814
161	0x3d4a2f61	0.04936159
162	0x3b131edb	0.0022448811
163	0x3b04a025	0.0020237055
164	0x3b5efc2f	0.0034024825
165	0x36907d04	4.306088e-06
166	0x362ac877	2.544866e-06
167	0x3c19b0ce	0.009380532
168	0x3c14c5ed	0.009080392
169	0x00000000	0.0
170	0x3b8d03f1	0.0043034484
171	0x3c2909a0	0.010317236
172	0x3c2a10d6	0.010379991
173	0x45c7769f	6382.8276
174	0x45c77d60	6383.672
175	0x45c778e0	6383.1094
176	0x3c2be567	0.0104917055
177	0x3ab59479	0.0013853452
178	0x3a5d2644	0.0008436183
179	0x3a1748aa	0.00057710207
180	0x3f94b1af	1.1616725
181	0x3c5ccd66	0.013476705
182	0x3940e2eb	0.0001839508
183	0x395bd4af	0.00020964698
184	0x39c6c78a	0.0003791417
185	0x3b8818b6	0.0041533364
186	0x3be17aaa	0.006881078
187	0x3bbc6d1c	0.0057503115
188	0x3a0462fc	0.000505015
189	0x00000000	0.0
190	0x39abd3ef	0.00032773564
191	0x3a220933	0.00061811804
192	0x3a188293	0.0005817797
193	0x44f3a56a	1949.1692
194	0x44f3a756	1949.2292
195	0x44f3a516	1949.1589
196	0x3a1c79c6	0.00059690734
197	0x3854307f	5.0589904e-05
198	0x35896423	1.0236439e-06
199	0x35ab8d13	1.2781551e-06
200	0x3d5a1d64	0.053250685
201	0x3abb119c	0.0014272216
202	0x3904cd70	0.00012665032
203	0x38c318c4	9.3029375e-05
204	0x3a10c15b	0.0005521976
205	0x35c42759	1.461459e-06
206	0x36f55567	7.311511e-06
207	0x39ac74a5	0.00032893303
208	0x3a4e7ab8	0.0007876563
209	0x00000000	0.0
210	0x3941e156	0.00018489858
211	0x392f0681	0.00016691723
212	0x3939c06b	0.00017714656
213	0x3a05d0c9	0.0005104659
214	0x3a0f93ce	0.00054770417
215	0x3a0d5ad9	0.00053922605
216	0x3935aa1c	0.00017324876
217	0x38223ab4	3.867848e-05
218	0x37f4a5f9	2.9164354e-05
219	0x3777ab6e	1.4762261e-05
220	0x4121fd5b	10.124354
221	0x3f6dbabb	0.92863053
222	0x3dc57f2f	0.09643399
223	0x3ef30d55	0.4747111
224	0x3f1641c8	0.58694124
225	0x3dc4de07	0.09612661
226	0x3b94d8a3	0.0045424267
227	0x3dedd4a5	0.11612824
228	0x3f02f109	0.5114904
229	0x00000000	0.0
230	0x3b8cbfe5	0.0042953365
231	0x3c1b201b	0.009468104
232	0x3c2254e0	0.009907931
233	0x482299da	166503.4
234	0x48229788	166494.12
235	0x48229958	166501.38
236	0x3c1f39da	0.009718383
237	0x3addae10	0.0016912837
238	0x3b297208	0.0025855321
239	0x3934d362	0.00017244884
240	0x40d5a3c6	6.676242
241	0x3e0eab7a	0.139326
242	0x3963e1af	0.0002173248
243	0x39dcfd36	0.00042150327
244	0x3a25fbc9	0.00063317694
245	0x3d8c29f2	0.06843938
246	0x3df1b317	0.11801737
247	0x3d7c5342	0.06160284
248	0x3aaf258e	0.0013362633
249	0x00000000	0.0
250	0x39b49599	0.00034443734
251	0x3aa5ab50	0.0012639556
252	0x3aa270f7	0.0012393285
253	0x3d6c0bc3	0.057628404
254	0x3d73273a	0.05936358
255	0x3d72aae4	0.059245005
