flaskProject/modules/Contrastive_Clustering/save/save5/model_checkpoint_census.tar (torch, 183542 bytes, 24 tensors)

instance_projector.0.weight f4 [128, 20]
000000 f0 90 89 bd 0a bb 63 3d 47 2c 17 be af 2a 5c 3e
       -0.06717098 0.055598296 -0.14762984 0.21500657
000010 1d a3 02 3e 5a 36 fd bd a8 62 c5 3d 6d c1 4d bc
       0.12757535 -0.12363882 0.09637958 -0.012558323
000020 ae 33 13 bd ea 70 34 be 2b 5e aa bd e8 71 c3 bd
       -0.035937957 -0.17621198 -0.08318742 -0.0954321
000030 44 87 14 be 5b 19 47 be f1 f1 14 3c 3c 3f da 3b
       -0.14504725 -0.19443266 0.009090886 0.00666037
000040 39 f6 b0 bd f1 a2 38 be 27 08 e8 3d e7 8a 4d 3e
       -0.08640713 -0.18030907 0.1132968 0.20072518
000050 ce 73 7a be 68 c8 f5 bc e2 ff bd 3d 89 ae 4e 3e
       -0.24458238 -0.030002788 0.092773214 0.20183767
000060 a6 fe a0 3e 3e 05 e7 bd 48 d3 81 bd e4 87 aa 3e
       0.3144428 -0.11280297 -0.06339127 0.333068
000070 8e 66 4d be 70 1c ff 3c 08 8f 31 bd df 3d be 3d
       -0.20058653 0.03114149 -0.043349296 0.09289145
000080 43 db 96 bd a3 8f 3f 3e c2 a6 ce 3d 7c 9b 0e be
       -0.073660396 0.18707137 0.100904 -0.139265
000090 91 0e 1e be 3b 56 b9 bd 46 c9 e8 bc f3 ee cd bc
       -0.15435244 -0.0904965 -0.028416287 -0.025138354
0000a0 8c 00 97 3d c2 bd 45 be 2a 74 5f be 26 02 76 be
       0.07373151 -0.19310668 -0.21821657 -0.24024257
0000b0 be ca 9b be 0f 02 ff bd 17 a0 ce bd 5c bf 39 be
       -0.30428118 -0.124515645 -0.100891285 -0.18139404
0000c0 e5 e3 e9 bd d2 97 ff bd 90 31 85 3e 07 8c 93 3d
       -0.114204206 -0.12480129 0.26014376 0.072044425
0000d0 93 05 7c bd 67 21 98 3c 10 2f 36 3e c9 9f b4 bc
       -0.061528753 0.018570615 0.1779139 -0.022048848
0000e0 45 4f 03 be a2 50 a9 bd aa 45 dc 3d 85 71 95 bd
       -0.12823208 -0.082673326 0.10755475 -0.07297043
0000f0 b6 f3 1b 3e 49 1c d9 3d 34 59 4b 3d 05 e6 01 3e
       0.15229687 0.10601098 0.049645618 0.12685402
000100 08 84 6d 39 34 02 7d bd 85 fa 48 be 74 8c 34 3e
       0.00022651267 -0.06176968 -0.19626816 0.17631704
000110 60 70 3c 3e f7 59 5d be f2 49 c6 3d 18 40 8d bd
       0.18402243 -0.2161635 0.09682073 -0.068969905
000120 99 de 3c be ab 1c 23 be a4 29 0b 3d e6 c4 a2 3d
       -0.1844429 -0.15928905 0.03397526 0.07947712
000130 da 60 5f be ef 69 11 be 3b 9a 81 3d 18 df 4b 3e
       -0.2181429 -0.14200567 0.06328245 0.19909322
000140 f9 f6 9f 3c 76 ed c1 bd 89 35 7e 3d 77 0f 26 bd
       0.019526945 -0.0946912 0.062062774 -0.040542092
000150 07 db b2 3d 16 1b 19 be c8 77 5e bd 5f 83 dd bd
       0.087331824 -0.14951739 -0.05431345 -0.10816073
000160 01 ba fb bc 68 88 57 3d be b7 58 be 06 42 ec 3d
       -0.030728342 0.05262032 -0.21163842 0.115360305
000170 4e 5c d6 bd 85 f9 2e be f5 be 8f bd c4 bc b0 3d
       -0.104668245 -0.17087372 -0.07018844 0.08629754
000180 89 cf e8 bd ed 3a c5 bd 8a 7f 04 be f1 8c 44 be
       -0.11367709 -0.0963038 -0.12939277 -0.1919439
000190 3e 5c a2 3d 70 4a 25 3d b9 56 bb 3d cf 43 37 be
       0.0792775 0.040354192 0.091474004 -0.1789696
0001a0 3a 4b 3a 3e 30 7e d9 3c b8 a6 dd 3d 68 d9 84 3d
       0.18192759 0.026549429 0.10822815 0.064867795
0001b0 d4 e8 52 3e 60 36 e9 3d 31 98 6b 3d 4b 32 6b bd
       0.2059663 0.11387324 0.057518188 -0.05742101
0001c0 25 24 31 3d 00 48 6f bd 90 e8 90 bd 8f 75 81 bd
       0.04324736 -0.058418274 -0.07075608 -0.06321251
0001d0 5f e8 63 3c e8 f0 d8 bc fd 11 33 be 53 d5 ec bb
       0.013910382 -0.02648206 -0.1748733 -0.0072275787
0001e0 9b db be 3d 17 3a 9c 3c 83 cb 3d be c0 80 02 be
       0.0931923 0.019070668 -0.18534665 -0.12744427
0001f0 1e bd 07 be 30 21 4c 3e ac 75 62 3e af 77 75 3d
       -0.13255736 0.19934535 0.22115201 0.059928592
000200 52 cd f0 3d 3a 8f 86 bd 57 dc ee bd f4 7f 3f 3c
       0.11757912 -0.06570287 -0.1166312 0.011688221
000210 8e 10 db bd c7 32 45 be 69 72 f7 3d 4c 5f a7 3d
       -0.10696517 -0.19257651 0.12082369 0.08172473
000220 f4 a9 3d be db 63 21 3e 09 23 c8 bd 9e d7 41 3e
       -0.18521863 0.15760748 -0.097723074 0.18929908
000230 de f1 56 bc 96 b0 37 3e 70 d2 22 be 7b b2 1b be
       -0.013119189 0.17938456 -0.15900588 -0.15204804
000240 87 cc 5b bd 42 6a c0 bd 30 f9 00 3e 1d 72 3d 3e
       -0.05366185 -0.09395267 0.12595057 0.18500562
000250 ef 36 08 3e 44 7a c2 3d 78 a5 6c be 98 49 05 be
       0.13302206 0.094959766 -0.23109996 -0.13016355
000260 68 ad 9c bd 57 03 90 bc 36 1b cc bd 3b 4d 2c 3e
       -0.07650262 -0.017579718 -0.099661276 0.16826336
000270 8c bd df 3d ef e1 36 bd a8 57 26 be 3a 98 4b 3e
       0.10924825 -0.04464906 -0.16244376 0.19882289
000280 03 12 1a 3e 20 cb ae b9 c4 33 f1 bd 99 83 0d 3d
       0.15045933 -0.00033339206 -0.11777452 0.03454933
000290 f2 7f ae 3d 1c e6 ac bd 22 6b 06 3e db 66 59 3e
       0.085204974 -0.084423274 0.13126805 0.21230642
0002a0 08 85 a7 3d 58 05 c6 3d d5 61 e2 bd 5e 25 45 3e
       0.081796706 0.09668988 -0.11053816 0.19252536
0002b0 db d7 0f be 7c f0 c1 3d 74 6a 11 be 6a 4a ce 3d
       -0.14047186 0.09469697 -0.14200765 0.10072787
0002c0 08 b0 57 be cd 0c 9b 3d a0 89 31 bd 02 c2 63 bd
       -0.21063244 0.07570801 -0.04334414 -0.055604942
0002d0 60 86 82 bd 7a 35 8e bd 60 51 0a bc a5 3e 28 be
       -0.06373286 -0.069437936 -0.008442253 -0.16430147
0002e0 04 05 f4 bd 90 9c f3 3d fb 34 47 be 30 94 49 3e
       -0.11915019 0.11895096 -0.19453804 0.19685435
0002f0 8f f1 52 be 5c 8c 90 3d 88 ae 34 3d b0 45 63 3d
       -0.2059996 0.070580214 0.04411176 0.05548638
000300 e0 ea b4 bd f4 71 1a be 02 20 b0 bd 88 11 1b bd
       -0.08833861 -0.15082532 -0.08599855 -0.037858516
000310 10 0b 18 3d 88 d8 e0 bc f0 54 72 bc 94 98 aa 3d
       0.037119925 -0.027447 -0.0147907585 0.08329883
000320 3d 74 2f 3e 49 65 ea 3c 58 37 18 3d e1 42 2f be
       0.17134185 0.02861275 0.037162155 -0.17115356
000330 3c 26 a1 bd 56 1d 20 3e bd 63 39 be a1 0a e9 3d
       -0.07868621 0.15636191 -0.18104453 0.113789804
000340 ed 34 8e bd 92 7d 16 be b8 6e 72 3d c2 58 da bd
       -0.069436885 -0.14696339 0.05918762 -0.106614605
000350 ee 7b 2d be 5e 72 51 be 7e 33 2b be 2b 58 4c 3d
       -0.16941807 -0.20453784 -0.16718861 0.04988877
000360 47 74 9c bd a5 bd 2d 3e 95 8e 37 be a0 00 b9 3d
       -0.07639366 0.16966875 -0.17925484 0.09033322
000370 8c 57 26 bc 3b db d9 bd b0 4b d2 3d d0 7a 27 3e
       -0.010152709 -0.10637518 0.102683425 0.16355443
000380 24 bb 44 3e e8 e3 28 3e 65 9b 39 be 04 41 1f be
       0.19212013 0.1649319 -0.18125685 -0.15552145
000390 03 1f 08 bc 5c 76 fa 3d 0e d2 02 be e5 97 55 be
       -0.008308175 0.122296065 -0.12775442 -0.20858724
0003a0 8b 2f 1d 3e 70 ef f7 3d 49 8c b1 bd 67 a6 23 3e
       0.15350167 0.12106216 -0.086693354 0.15981446
0003b0 ec 7e 76 be 33 7b 42 3d f2 10 0b bd f1 64 a8 bb
       -0.24071854 0.047480773 -0.033951707 -0.0051389863
0003c0 87 fa 64 3d 2b 4d 32 3e 05 13 53 3e ff 1f 00 bc
       0.055902984 0.1741225 0.20612724 -0.007820128
0003d0 11 af 08 3d 66 fb 57 3e c0 30 95 bd c2 7f a9 bd
       0.03337008 0.21091995 -0.07284689 -0.08276321
0003e0 07 a2 f8 3d 20 32 2e bc ed 10 3d 3e 9f 90 ee bd
       0.12140279 -0.010632068 0.18463488 -0.11648678
0003f0 38 5c bc bc 00 9f 50 3e ed 98 6b bd 5b c8 4c be
       -0.022993192 0.20373154 -0.05751889 -0.19998305

instance_projector.0.bias f4 [128]
000000 20 47 ef bd 06 ea e4 3c 10 c5 64 be 65 23 8f 3d
       -0.11683488 0.027943622 -0.22340798 0.06989173
000010 fb 82 66 be 87 2c 42 3e e5 92 ee 3d 8a 7c 4c 3e
       -0.22510903 0.18962298 0.11649112 0.19969383
000020 d9 d6 57 bd d8 39 3e 3e 6b 4a cf 3c 12 48 d1 bd
       -0.05269513 0.18576753 0.02530404 -0.102188244
000030 a3 6b c7 bd a4 2b 8e bd 04 71 97 bd f6 30 92 bd
       -0.09737327 -0.069419175 -0.07394603 -0.07138245
000040 85 eb 52 be e2 7b 55 bd 3f 34 f8 bc 7c 9f 10 bc
       -0.20597656 -0.052120097 -0.03029835 -0.008827087
000050 1c 04 0f 3e fe 00 2f be 36 7e 43 be f7 b9 44 3e
       0.13966411 -0.17090222 -0.19091114 0.19211565
000060 40 3f 54 be b9 87 4c be a6 00 2d 3e ef dc 4b bd
       -0.20727253 -0.19973649 0.16894779 -0.049771246
000070 93 e6 50 be 7c e5 82 bd 91 b7 be bb 78 79 ba 3d
       -0.20400457 -0.06391427 -0.0058202227 0.091051996
000080 60 56 a4 ba 59 ca 3b be 09 66 fc bd 5a d0 13 be
       -0.0012537949 -0.18338908 -0.12324149 -0.14434949
000090 6b 82 b7 3b 69 f0 3a 3e 10 23 7a bd 05 08 dd 3d
       0.005600264 0.18255772 -0.061068594 0.10792545
0000a0 5e d8 bf bd ec 73 3d 3e 87 50 53 3e 76 96 44 be
       -0.09367441 0.18501252 0.20636187 -0.19198021
0000b0 e8 59 94 bd 47 b4 d9 bd 51 9a b8 bd bb 97 3a be
       -0.07243711 -0.10630088 -0.090138085 -0.18221943
0000c0 7c 0e ac 3d c0 47 a2 3d d1 d1 ae bc 3c 3f 0f be
       0.084012 0.079238415 -0.021340283 -0.13988966
0000d0 0f c2 43 be fe ae f5 3d 82 44 5e 3d 8d 72 4b be
       -0.19116996 0.11996268 0.054264553 -0.19867916
0000e0 13 41 43 bd 95 d0 37 3e 84 93 12 bd 54 97 be 3c
       -0.04766948 0.17950661 -0.035785213 0.023265518
0000f0 86 75 31 3e 02 f6 14 be a8 88 3e be 86 cb c7 3d
       0.17329988 -0.1454697 -0.18606818 0.09755616
000100 22 7c 15 be 48 e6 8f 3d 18 b1 2e 3e 02 47 a6 bd
       -0.14598134 0.070263445 0.17059743 -0.081190124
000110 43 57 31 be bf f6 c8 3d 42 ff db 3d 4f a6 3e be
       -0.17318444 0.09812688 0.10742046 -0.18618129
000120 67 1c 07 3e f5 5f 0c 3e 5d 75 05 3e bf f9 34 be
       0.13194428 0.1370848 0.13033052 -0.17673396
000130 b1 5a 19 bd 77 9f 19 3d 8b d6 47 bd 3c 7e 31 3e
       -0.037440006 0.037505593 -0.04878859 0.17333311
000140 c4 fc 10 3e 7d 53 75 be 14 f2 3e be d7 f9 3a 3d
       0.14158922 -0.2395763 -0.18647033 0.045648422
000150 61 1c ac 3c 38 99 09 be f4 99 33 be 94 cc 17 3c
       0.021009626 -0.13437355 -0.17539197 0.009265084
000160 7c fc 10 3b 8e 8a dc bd 53 00 6d 3e 34 13 08 bd
       0.0022123149 -0.10768615 0.23144655 -0.03322144
000170 95 a4 ea 3d 1a 13 49 be 64 27 c6 3d c4 56 02 3e
       0.11457173 -0.19636193 0.09675482 0.12728411
000180 1a e6 53 bd bc 8a e9 3d 1d 00 dc 3d 97 8b d7 bd
       -0.051733114 0.114034146 0.10742209 -0.105246715
000190 fa da 4b be da d7 6d 3d 7d e6 c0 bd 25 bc 4f be
       -0.19907752 0.05806718 -0.09418962 -0.20286615
0001a0 7c 44 82 3c b1 84 76 3e 1c bd 30 3e 4c 89 3f be
       0.015901797 0.24074055 0.1725964 -0.18704718
0001b0 4e 68 e6 3c a5 5e cf 3d 3a f2 77 bd 80 48 83 3d
       0.028125908 0.10125474 -0.06053374 0.06410313
0001c0 63 9c 1d be 92 a6 1a be 19 17 55 be af 78 f6 bd
       -0.15391688 -0.15102604 -0.20809592 -0.12034737
0001d0 58 9d cb bb dc a6 06 3e 2a 58 e7 3d cf 5d 47 bd
       -0.006213825 0.1314959 0.11296113 -0.048673447
0001e0 79 ca c4 bc ca 8b 0f 3e ce 12 89 be 07 ee e8 bd
       -0.024022328 0.14018169 -0.2677216 -0.11373525
0001f0 d6 90 ce bd 54 46 c6 bd fa 52 0a 3e e4 95 02 be
       -0.10086219 -0.09681383 0.13508216 -0.12752491

instance_projector.2.weight f4 [20, 128]
000000 94 92 2a bd dd a8 75 3d b0 64 5f 3d 8a 6a 91 bc
       -0.041643694 0.059975494 0.054539382 -0.017750997
000010 5d 2f 71 bd 49 44 ae 3d 83 90 8a bc d2 bf 13 bb
       -0.05888306 0.08509118 -0.016914612 -0.0022544754
000020 9a fd f1 39 dc 55 2c bd 2c 19 25 bd 55 67 54 3c
       0.0004615605 -0.04207407 -0.04030721 0.012964089
000030 70 d3 29 bc 2e 1e 2d bd 8b fc b1 3d 3b 6b 19 bd
       -0.010365352 -0.04226511 0.08690747 -0.03745578
000040 d4 d8 b3 bc 7e 60 20 3d e2 dc 06 3d e3 f8 00 3d
       -0.021953978 0.039154522 0.032925494 0.031487357
000050 8c a1 58 3d 36 6e 04 bd ea 8a 26 3d ef a5 9d bd
       0.052888438 -0.032331668 0.040659823 -0.07697665
000060 30 47 c0 3c 01 c9 12 bd 7a 8e 1c 3d 59 63 99 bd
       0.023471445 -0.035836224 0.038221814 -0.07489652
000070 74 bc 44 3d 17 8f 99 3d f5 b9 c9 bc a1 e5 09 3b
       0.048031285 0.07497995 -0.024624804 0.002104141
000080 10 bb 2f 3d 46 7e a8 3b 6c ad 37 3b 96 9d 08 bd
       0.042903006 0.005142006 0.0028026951 -0.03335341
000090 81 3c bd 3a b0 dd dc bc 49 aa 30 bd 6e 4a 0b 3c
       0.0014437587 -0.026961178 -0.043131147 0.008501632
0000a0 97 7b 7b bd ee 37 aa bd 01 99 69 bd 54 16 ff 3c
       -0.06139716 -0.08311449 -0.05703068 0.031138577
0000b0 62 62 02 be 59 6f 84 3d 4b 20 a5 3d 03 73 a2 3b
       -0.12732843 0.064665504 0.080628 0.004957558
0000c0 e4 15 6f 3d d3 55 4f bc bc 99 92 3b 3c f9 ab 3c
       0.058370486 -0.012654739 0.004473893 0.020992868
0000d0 67 bb 28 3c 96 86 78 3d c5 b8 90 3d 88 16 40 bd
       0.010298586 0.060675226 0.07066492 -0.046896487
0000e0 9b 50 4e 3d 3f 0a a9 bd b5 44 20 bd e2 73 35 bd
       0.05036984 -0.082539074 -0.039128024 -0.044299968
0000f0 7d 30 3f 3d cf f0 87 3d c6 56 95 bd 9b d5 67 bb
       0.0466771 0.066377275 -0.07291941 -0.0035375122
000100 9b 37 85 bd e3 5a 8b 3d 18 5a 47 3d 33 98 77 bd
       -0.065047465 0.06804445 0.048669904 -0.060447883
000110 37 6c 3d bd fa ba 82 3d 78 12 b7 bc 89 58 8c 3d
       -0.04624578 0.06383319 -0.022347674 0.06852824
000120 29 1f 9b 3d 3c b7 52 bb 2a b2 c8 bc a2 44 1c bd
       0.07574303 -0.0032152673 -0.024499018 -0.03815139
000130 2e 6b 5a 3d e5 ec 4b 3c f7 88 2a 3d f7 0c 91 bd
       0.05332487 0.012446617 0.041634526 -0.07082551
000140 79 3c a8 3d 50 3a 62 bd 20 a5 13 3d 47 13 a8 bc
       0.08214659 -0.055231392 0.036046147 -0.020517005
000150 31 68 90 bd f5 b9 a3 bd 72 91 5f bd 99 dd d9 bc
       -0.07051123 -0.07994453 -0.054582067 -0.026594924
000160 64 88 03 bd 03 41 49 3d 34 36 87 3d d7 a0 8e 3d
       -0.032112494 0.049134266 0.06602135 0.069642715
000170 30 81 0f bd 16 81 29 bd 97 c9 93 bd b0 9a 6e bc
       -0.035035312 -0.04138287 -0.072161846 -0.014563248
000180 87 69 cd 3c e2 7b d6 bc 2b d3 8b 3d bb 9a 31 bc
       0.025074733 -0.026182119 0.068273865 -0.010840113
000190 fc 48 fe bd ed 3d 40 bd 37 e0 8f bd 09 1e 35 bd
       -0.124162644 -0.046934057 -0.070251875 -0.044218097
0001a0 1b fb 3e 3d e9 8b 43 bd d2 90 9b 3c 11 4e 8a 3d
       0.04662619 -0.04774085 0.018989954 0.06753171
0001b0 4c 43 11 3d f7 1b e3 3c 24 c5 17 bd 68 42 24 bc
       0.03546457 0.027723296 -0.037053242 -0.010025598
0001c0 76 9b 20 bd b1 70 34 3d 41 52 08 bc 28 f4 12 bd
       -0.03921076 0.044052783 -0.008320392 -0.035877377
0001d0 de 1d c3 bd 57 a6 8e 3d 8e ec 3e bd 4e 7f aa 3d
       -0.09527181 0.069653206 -0.046612315 0.08325063
0001e0 84 c5 87 bd e5 9a 91 3d fc 93 68 3d 67 ec b0 3d
       -0.0662947 0.07109622 0.056781754 0.0863884
0001f0 e1 99 3d bd f4 30 ae bb 82 81 ae ba d0 87 0a 3d
       -0.04628933 -0.0053158943 -0.0013313743 0.033820927
000200 6e 51 8e 3c 7e 38 6c 3c f1 ea 5c bd 65 d0 ae bd
       0.017372813 0.014417766 -0.053934995 -0.08535842
000210 71 25 2d bd 9f c5 4a 3d 74 3a c4 3c 5d 4a 31 bc
       -0.042272035 0.049504872 0.023953654 -0.010820952
000220 2b 0d 92 3d 8c 50 9c 3c 4f 09 bb bc 82 ea 62 3d
       0.07131418 0.019081376 -0.022831587 0.055399425
000230 e4 04 01 bd b5 26 83 3d 3d 65 aa bd 3f c5 a6 3d
       -0.031498805 0.06403867 -0.08320091 0.081430905
000240 7d 12 c5 3c 52 95 90 bd 43 c7 31 3d 1d 5d d9 bc
       0.024056667 -0.070597306 0.04340292 -0.026533658
000250 67 1e b2 bd 40 d8 8d bc 96 bd 41 3d 38 81 1b bd
       -0.08697205 -0.01731503 0.047299944 -0.03796503
000260 f5 8b 8b bd a5 f1 46 bc 0e cc 7c 3d 33 3e c0 3d
       -0.06813804 -0.0121425735 0.06171804 0.093868636
000270 df 71 b5 bd 4b e3 24 3d 00 da 8b 3c c0 9e 1c 3d
       -0.0885961 0.040255826 0.017071724 0.038237333
000280 bc 33 91 bc de fa ad 3a 11 e0 ab bd 0d 6a 14 ba
       -0.017724864 0.0013273617 -0.08392347 -0.0005661555
000290 81 49 92 3a a9 b4 11 bc cb 95 90 3d 04 25 33 3d
       0.0011160822 -0.00889317 0.07059821 0.043736473
0002a0 7f e4 c6 3c 4f 81 50 bd 28 a8 e1 bc 10 4e 30 bd
       0.024278877 -0.05090457 -0.027546003 -0.043043196
0002b0 f0 64 0b 3b cf 2c 3e 3d b6 8b 48 bd ba 55 88 bd
       0.002126988 0.04642945 -0.048961364 -0.06656976
0002c0 48 28 e3 3c cc bb e2 3c 48 83 99 bd 0a 79 7c 3d
       0.027729169 0.02767744 -0.07495743 0.06163887
0002d0 d4 1c bb 3c 8d ea 27 3d ae 9b 14 bd e8 4d 12 3d
       0.022840895 0.04099517 -0.03628128 0.03571883
0002e0 e6 71 09 bd 79 69 4e 3c cd 64 a5 3d 6b b1 6d bd
       -0.033555888 0.012598389 0.08075867 -0.058030527
0002f0 07 68 38 bd cd e3 99 bd a6 93 1a bd 49 f2 af 3d
       -0.045021083 -0.07514153 -0.037738465 0.08591134
000300 3a bf 96 bd 7f a9 7b bd 28 80 74 3d be cf 95 bd
       -0.07360692 -0.06144094 0.05969253 -0.07315014
000310 5e 02 b6 3c 0b 07 95 3d 90 31 9b bd 91 9b 90 bc
       0.022217926 0.07276734 -0.07577813 -0.017652305
000320 10 ac 8a 3c 18 e6 b4 3d 00 b9 86 bd d4 0e 99 3d
       0.016927749 0.088329494 -0.06578255 0.07473531
000330 2d 3c 1e bd 2f 23 2e bd 1a be 24 3d 2c 28 ab 3d
       -0.038631607 -0.042514022 0.040220357 0.083572716
000340 b0 e3 65 bc d7 75 a3 3a 29 7b 27 bd 33 d6 5e bd
       -0.014031336 0.0012471032 -0.04088894 -0.054403495
000350 d7 46 eb 3a 92 0d 9c bd 1d 73 85 bd 84 b2 ae 3d
       0.0017950189 -0.07619776 -0.06516097 0.08530143
000360 6a 14 8c bb ac 16 54 bd 9b 74 f4 bc 6b fc b3 3d
       -0.0042748945 -0.051779434 -0.029840758 0.08788379
000370 55 18 e1 bc e8 f4 74 bd c3 7b a8 bd 96 c3 a6 bd
       -0.027477423 -0.059803873 -0.08226731 -0.08142774
000380 73 ed af 3c 3d 18 9d bd 26 97 50 bc 25 44 cc 3c
       0.02147553 -0.07670639 -0.012731349 0.024934838
000390 b9 39 a3 3d 5e f2 70 3b 81 e7 d0 3c 96 9a f3 bb
       0.07969994 0.0036765556 0.025501015 -0.0074341996
0003a0 1a cd eb bc c8 db 9a 3d 86 62 8c 3d 9b f2 9c 3d
       -0.028784323 0.07561451 0.06854729 0.07663461
0003b0 1e 8f 6d 3c 59 6d cc 3c 0b 23 64 3d 67 f2 8b 3d
       0.014499454 0.024954485 0.055697482 0.06833344
0003c0 f8 cb 51 3d db 22 58 bc 6e b4 99 3d 21 ba 98 bc
       0.05121991 -0.013191904 0.07505117 -0.01864344
0003d0 e7 c6 4e bb 66 e4 d4 bc 8f 94 66 bc 74 d3 b5 3d
       -0.003155166 -0.025987815 -0.014073505 0.08878222
0003e0 5b 8f 3b bc bb df 75 3d 96 53 7e 3d 1b 8f 9f bd
       -0.011447753 0.06002782 0.062091433 -0.07790967
0003f0 fa 54 ac 3d 97 55 44 bd 97 76 44 3d 14 0e 15 bd
       0.084146455 -0.047933187 0.04796466 -0.03639038

instance_projector.2.bias f4 [20]
000000 c5 d5 5f 3d a5 4e 0d 3c fc 63 50 3d c0 53 35 3d
       0.054647226 0.008624707 0.050876603 0.044269323
000010 48 26 8a bd a0 b6 82 bd ed 54 42 3c 59 8d 8b bd
       -0.06745583 -0.06382489 0.011861068 -0.06814069
000020 50 d8 3a bd e1 b1 85 3d 8c e6 a2 3d d4 7b c0 bd
       -0.045616448 0.06528068 0.079541296 -0.09398618
000030 92 3a 5a bc d3 77 32 3d 51 5b 64 3d e7 01 27 bd
       -0.013319628 0.043571305 0.05575115 -0.0407733
000040 7d 4d 26 3d 68 6e 69 3c 61 4c 8e 3d 8c aa 1f bd
       0.040601242 0.014247514 0.06948162 -0.038981006

cluster_projector.0.weight f4 [128, 20]
000000 be e0 27 bd 50 e1 02 3e f5 9d 07 3d e2 fe 61 3e
       -0.040985815 0.12781262 0.033109624 0.22069886
000010 f3 e6 89 3e ac 97 9b 3d 79 7a 3e be f9 32 ec bc
       0.26934013 0.075972885 -0.18601407 -0.0288329
000020 e5 ee b8 bd 80 be 2f be 19 aa c1 3d 6f a9 88 3e
       -0.090299405 -0.17162514 0.09456272 0.26691768
000030 83 ca 38 3e 66 e8 18 3e c3 f2 5c 3e 78 88 39 3e
       0.18046002 0.14932403 0.21576981 0.18118465
000040 6e 54 35 3e 72 86 f5 3d 87 0c a3 3e 2c c7 8b 3d
       0.17707989 0.11988534 0.31845495 0.068250984
000050 f2 9a a2 bd 06 08 26 be 6e 4a e3 bd 80 29 c1 bb
       -0.0793971 -0.16213998 -0.11098181 -0.0058948398
000060 9d 7c 31 be 70 65 81 3d 38 10 f1 bc 85 2a f0 bd
       -0.17332692 0.06318176 -0.029426679 -0.1172686
000070 78 ae 46 be 20 4b 41 3e d8 38 37 bd 4a 6b 91 bd
       -0.19402492 0.18876314 -0.044731945 -0.07100542
000080 a0 e4 73 3d 68 9a 98 3d 7e 98 ac bd a3 ee e0 bd
       0.059544206 0.07451326 -0.08427523 -0.10983016
000090 a9 2d 26 be 20 92 eb bd e0 3f 51 3d f0 23 26 bc
       -0.16228355 -0.115024805 0.051086307 -0.010140404
0000a0 9b da f0 bc 75 78 54 3d bb ed dc bd bd ba 17 3d
       -0.029401114 0.05187269 -0.10787531 0.037043322
0000b0 f0 78 94 3e b0 94 d6 3c f8 db 58 be 0e 17 34 bc
       0.28998518 0.026193947 -0.21177661 -0.010991825
0000c0 f5 fa 00 3e 28 36 2f 3e 5b e4 ce bd 29 6f 9d 3d
       0.12595733 0.17110503 -0.10102149 0.07687218
0000d0 d2 a9 61 3e 8a 30 93 3d 96 98 28 be 4a 92 c6 3d
       0.22037438 0.071869925 -0.16464457 0.09695871
0000e0 ee 84 29 be 29 d0 2c 3e 7a 88 5b 3e ff 7b 5f 3e
       -0.16554615 0.16876282 0.2143878 0.21824645
0000f0 56 b3 fe bd 2e bb 07 be 80 28 74 3c f0 95 3e bd
       -0.12436549 -0.13254997 0.014902234 -0.04652971
000100 2e 36 44 3e f8 cf 43 3e 24 43 e2 3d f8 65 b2 3d
       0.19161293 0.19122303 0.11047962 0.08710855
000110 d0 e4 0a bc 4c 40 e3 bd e2 b7 38 be 1c f6 ad 3d
       -0.008477405 -0.11096248 -0.18038896 0.08494207
000120 96 69 0e 3e 1a 8b 14 3e 72 85 15 be 8a 84 b6 bd
       0.13907465 0.14506188 -0.14601687 -0.089119986
000130 65 5b 1e be 8c 1c 80 3d 40 8f 5e 3d f8 cb 5f be
       -0.15464552 0.06255445 0.054335833 -0.21855152
000140 ca 44 71 be 17 a8 02 be d2 38 3d 3e 7a 55 48 be
       -0.23561397 -0.12759434 0.18478706 -0.19563857
000150 b7 a7 6c 3b 80 26 4f 3b 91 03 48 be b7 a0 f2 bd
       0.0036110708 0.003160864 -0.1953261 -0.1184706
000160 fc 80 04 be 66 b6 50 3e 3e 40 4d 3e 9c d7 25 3d
       -0.12939829 0.2038208 0.20044038 0.040488824
000170 e6 8c c3 3c 12 b0 72 bd 06 d3 4a 3e 7d 3b 58 bd
       0.023870897 -0.059249945 0.19807062 -0.052791107
000180 9b 1a 50 be 69 d1 2e 3e 7a 9d 0a 3e 89 48 42 3e
       -0.20322649 0.17072071 0.13536635 0.18972982
000190 e9 d5 56 3e ba d6 80 3e ac 07 24 3e 21 97 24 be
       0.20980038 0.25163823 0.16018552 -0.16073276
0001a0 98 5c 02 3e 53 e3 19 be ff c8 29 be ef 2e 03 be
       0.12730634 -0.15028124 -0.1658058 -0.12810872
0001b0 b3 38 eb 3d ca 99 ff bd 7e a1 42 bd a3 9c 91 bc
       0.11485424 -0.12480505 -0.047517292 -0.017774886
0001c0 b4 8c 06 bd 86 82 ed 3d c0 0e 81 3b 86 44 1a be
       -0.03284903 0.11597161 0.003938526 -0.15065202
0001d0 78 6f 1e be 25 73 2a bd 50 c6 84 3c cb c1 86 bd
       -0.1547221 -0.041613717 0.016207844 -0.06579932
0001e0 35 13 24 3c b6 22 ca bd f6 d1 d9 3c 86 9b 94 3d
       0.010014345 -0.09869902 0.026589375 0.07256226
0001f0 f9 2c 73 bd e6 db 31 3e 18 03 af 3d 3e b0 10 3d
       -0.05936906 0.17369041 0.08545512 0.035324328
000200 a0 0e 06 bc 6e fe 5d be 70 38 02 be 21 39 86 3e
       -0.008182198 -0.21679088 -0.12716842 0.2621546
000210 3c eb 9d 3d 81 ee 47 3e 02 eb 90 3d f1 f9 10 3e
       0.07710883 0.19524576 0.07076074 0.14157845
000220 bc 1b 88 3e 2f a1 f4 bc 47 1b 5c 3e fc b5 d6 3d
       0.2658366 -0.029862015 0.2149478 0.104839295
000230 5b 01 40 be 60 5d 87 3d b1 2a d1 3d d4 26 af 3d
       -0.18750517 0.06609607 0.10213221 0.08552328
000240 2f 1a 4f be a0 2d b3 bc 50 95 33 3c 36 2e e8 bd
       -0.20224832 -0.021872342 0.010960892 -0.11336939
000250 dc 81 9d 3d 5e b3 2d 3e 2c 9b 5f be 5f b6 cd bd
       0.07690784 0.16962954 -0.21836537 -0.1004455
000260 41 ab 4c 3e 52 e2 2f 3e 17 4b 62 3d eb 30 4b 3e
       0.19987203 0.17176178 0.055247393 0.1984288
000270 72 dc 38 be 07 7d 41 3e 05 83 7e 3c 2f f8 97 bd
       -0.18052843 0.1889535 0.015534167 -0.07420384
000280 27 7b 0d be 9b 14 61 3e 91 0d 8d bb 2a 62 c4 bd
       -0.1381651 0.21980517 -0.0043045958 -0.09589036
000290 d7 de b6 3d ba ba 58 3e 34 78 33 3e 77 17 31 3e
       0.08929222 0.2116498 0.17526323 0.17294107
0002a0 c1 4b f1 3d cc 68 22 bd d9 62 37 be 29 21 0b 3e
       0.11782027 -0.039650723 -0.17908801 0.13586868
0002b0 98 78 70 3e 23 c4 4e 3e 6d 49 d3 bd 57 a1 00 3e
       0.23483503 0.20192008 -0.10316739 0.12561546
0002c0 6f ff a8 3d 95 25 25 3e b9 66 6d 3c 0d e0 66 3e
       0.08251845 0.16127618 0.014489823 0.22546406
0002d0 cf 23 8c 3e 65 f4 10 3e 15 a3 3d bd e4 78 d0 be
       0.2737107 0.14155729 -0.046298105 -0.40717232
0002e0 8c d8 94 be d2 79 35 be b2 eb 0a be 54 a9 bc be
       -0.29071462 -0.17722252 -0.13566473 -0.36847937
0002f0 d4 9d 40 3d 00 4a b7 bd 8e 7a 3d be 0a a8 d0 3d
       0.047025517 -0.08949661 -0.18503782 0.10188301
000300 a8 45 38 3e 41 41 cd bc 6c 4e 21 be e4 53 26 3e
       0.17995322 -0.02505553 -0.15752572 0.16242939
000310 0e c3 dd 3b 47 bb a1 be 75 4a 8e bd ac 93 ca be
       0.006767637 -0.31588194 -0.06947795 -0.3956579
000320 95 ff a8 bd 72 bb 08 3d f0 d0 e9 3d a9 d6 84 3e
       -0.082518734 0.033381887 0.11416805 0.25945023
000330 aa 12 09 3e 40 da 68 bd 8a d6 27 3e f8 4d 90 bd
       0.13386026 -0.056848764 0.16390434 -0.07046121
000340 14 90 80 3d ac 88 21 bd 9f dc b6 bd 81 69 da bc
       0.06277481 -0.03943698 -0.08928799 -0.026661636
000350 58 ec 1f 3b 03 a3 86 3d 96 a7 04 3e 7d ba 30 3e
       0.0024402346 0.06574061 0.12954554 0.1725864
000360 23 49 17 3e b4 70 18 be 74 b6 98 3e d2 1c 06 3e
       0.14773993 -0.14886743 0.298267 0.13096932
000370 2f e1 05 bc 52 08 10 3e 33 97 ae 3e 1c 18 57 3e
       -0.008171364 0.14065674 0.3409973 0.21005291
000380 06 8c 2b 3e ba b4 56 3e 80 2c 10 bb 80 f0 9b 3e
       0.16752633 0.20967379 -0.002199918 0.30456924
000390 bc 83 83 3c 14 00 60 bd b8 77 f6 3c df 53 7d 3e
       0.016054027 -0.054687575 0.030086383 0.24739026
0003a0 25 0f 66 3d 63 a8 66 3c 9e aa 07 3e a4 24 1d be
       0.056166787 0.014078232 0.13248679 -0.15346009
0003b0 06 7f 1e 3e fa d0 34 bd 0d 88 56 3e 33 e4 78 3e
       0.15478143 -0.044144608 0.20950337 0.24305801
0003c0 e6 7a 55 be 68 86 e8 3c 91 7a cb 3d 01 cb 2c 3e
       -0.20847663 0.028384402 0.09935487 0.16874315
0003d0 40 d5 63 3e 6c 2d 25 3e f5 54 ee bd 47 d0 1c 3e
       0.22249317 0.16130608 -0.11637298 0.15313827
0003e0 c2 f9 0a 3e 06 9b ca bd 9f e0 2a be fe bc b6 bd
       0.13571838 -0.098928496 -0.16687249 -0.08922766
0003f0 96 cc 1a be 2d 60 e8 3d 02 26 3f bc 66 2a 1d 3e
       -0.15117106 0.11346469 -0.011666777 0.15348205

cluster_projector.0.bias f4 [128]
000000 09 33 2d 3e 57 fb 5a be f4 8c 9f bd 78 87 50 bd
       0.16914 -0.21384941 -0.077905566 -0.050910443
000010 2d 9d fe bd da fd 8d 3e 4b db c5 bc 1b 0f 70 bb
       -0.12432323 0.27732736 -0.024152419 -0.0036630097
000020 15 f1 ae 3d 70 82 1b 3e a9 63 20 3e cb e1 88 3c
       0.085420765 0.15186477 0.15663017 0.016709229
000030 a7 59 72 3e a6 c0 1a 3e c0 12 b6 3d ce e5 aa bb
       0.23667012 0.15112552 0.08890295 -0.005215383
000040 fd 13 4b 3e 21 4c 80 be 50 7d 94 bd c7 e5 34 be
       0.19831844 -0.25058082 -0.07250464 -0.17665778
000050 df 7f 0e 3c db 28 f7 bd 48 66 ad be da a9 5d bd
       0.008697479 -0.120683394 -0.33867097 -0.05411706
000060 17 56 82 3d a0 99 e9 bc 38 9d 00 be 7d f3 c2 bd
       0.063640766 -0.028515637 -0.12559974 -0.09519098
000070 c1 b9 23 3e 4f 71 95 3c 5c e8 71 bd ab a5 f8 3c
       0.15988828 0.018242506 -0.059059486 0.030352434
000080 cf 5c 6b 3e 2d 7e 01 bd 98 75 e0 bd 0e 4c 1d 3e
       0.22984622 -0.03161447 -0.10959929 0.15361044
000090 73 27 08 3e 54 b0 24 be b0 98 30 3e fa da 3a 3e
       0.13296299 -0.16082889 0.17245746 0.18247595
0000a0 9f 6d 65 be 3f a6 14 be e3 4d 29 bd 3a ec 94 3e
       -0.22405098 -0.14516543 -0.041334044 0.29086477
0000b0 58 ed fb 3d 3c a1 10 3e 05 61 cb bd 73 e1 b1 3d
       0.12301129 0.14124006 -0.099306144 0.08685579
0000c0 2a 66 11 be 86 64 ac 3c c2 ff f1 bd 1f 11 71 be
       -0.14199129 0.021044027 -0.1181636 -0.23541687
0000d0 c0 b9 87 bc 9c 09 3e be fc f2 61 3e b6 13 af 3d
       -0.016568065 -0.18558353 0.22065347 0.085486814
0000e0 67 74 d4 3d 4d 71 18 3e f1 2a b5 3d a0 09 44 3c
       0.103737645 0.14886971 0.08846081 0.011965185
0000f0 7e 48 c3 ba 0e 39 fb bd 59 03 ab 3e da 37 67 bd
       -0.0014898924 -0.12266742 0.33400992 -0.05644975
000100 5e b2 a2 3d cc b0 31 be 9e 17 de 3d c1 24 60 3e
       0.07944177 -0.17352599 0.10844348 0.2188902
000110 db e9 23 bd e5 55 62 3e cc 6b 07 be cc 79 64 3e
       -0.040017944 0.22103079 -0.13224715 0.22312087
000120 cc 99 a5 3d 24 11 e5 3d fa 50 3b 3e 1a e3 bd 3d
       0.08085975 0.1118491 0.18292609 0.09271832
000130 0e fd dc 3d 6f 04 10 3e 10 22 15 bd 50 be 96 3d
       0.10790454 0.14064191 -0.036409438 0.07360518
000140 c8 23 fa 3d 5c 05 5c be 9d 61 80 be 06 ff f6 3d
       0.12213856 -0.2148642 -0.25074473 0.120603606
000150 e1 d0 d0 bd fb 0f 22 3d da 6b 01 3e d0 bf 20 be
       -0.101960905 0.03956602 0.12638798 -0.1569817
000160 70 af a1 bd 2a 53 69 bc 49 b1 01 be 68 2f 18 3e
       -0.0789479 -0.014241019 -0.12665285 0.14861834
000170 55 80 92 be 3b 78 c6 3e b5 5c 1b 3b ea 6c 7f 3c
       -0.28613535 0.38763604 0.002370638 0.015589932
000180 bd 44 72 3e 75 c3 db 3d 7a 41 a3 bd ac 98 e4 3d
       0.23659034 0.1073064 -0.07971473 0.11161932
000190 63 74 d5 3d 9d 1b 65 bc 03 48 39 3e 92 b5 30 be
       0.1042259 -0.013983634 0.18093877 -0.17256764
0001a0 1a 76 3c be 84 ac 04 3e 07 1e a8 bd 40 1e 1c 3d
       -0.18404427 0.12956434 -0.08208852 0.038114786
0001b0 dc 79 9f bd d9 81 cd 3c 37 ab 20 3e 99 7a 04 be
       -0.07786915 0.02508633 0.15690313 -0.12937392
0001c0 dd ed f0 bd ea 48 8a bd 80 8b d1 3d 52 6c 16 3e
       -0.11764119 -0.067521885 0.10231686 0.14689758
0001d0 98 f8 82 bd b5 a5 a9 3d e2 6a 22 3e 92 f2 a6 bd
       -0.06395072 0.08283559 0.15861085 -0.08151735
0001e0 bf 1d 83 39 1f 2f 84 3e b1 ef 74 be d4 2d b4 be
       0.0002500843 0.258172 -0.2391956 -0.35191214
0001f0 d9 d0 1c be 23 08 65 be ce 6e 47 3e 69 f3 42 bc
       -0.15314044 -0.22366385 0.19475862 -0.011898854

cluster_projector.2.weight f4 [50, 128]
000000 25 29 e8 3b 4a a3 77 3d d8 04 e4 bc a4 b5 a7 bd
       0.007084983 0.06045846 -0.02783434 -0.08188942
000010 7f a1 a7 bd 8b 63 75 bd de 58 95 bd a6 68 9a 3c
       -0.081851 -0.059909385 -0.07292341 0.018848728
000020 fa 14 d6 bd 7b 19 27 bc c5 4b ff bd 95 79 b9 3c
       -0.1045322 -0.010198946 -0.12465624 0.022640983
000030 df bf 16 bc 4e c1 61 bd 98 83 d5 bc b5 63 88 3c
       -0.009201019 -0.05511599 -0.026063725 0.016649107
000040 71 54 da bd 62 91 07 3e bd b7 96 3d a2 fe 27 3b
       -0.10660637 0.13239053 0.07359264 0.002563395
000050 3d e4 14 bc f4 3a 1b be 06 73 2d 3e 7d 6b 11 3d
       -0.009087619 -0.15159208 0.16938409 0.0355029
000060 30 6d 1a 3d a9 f3 55 bd 13 08 1c bd 5c 8b 7a bd
       0.037701786 -0.052234326 -0.038093638 -0.06116806
000070 fe 7d c9 bc 48 0d 66 bc bf 0c 0e 3e e4 af cc bd
       -0.02459621 -0.014041252 0.1387205 -0.09994486
000080 e9 fc 18 be 7b f9 90 bc 11 c2 0f bd 89 3c 87 3d
       -0.14940228 -0.017697087 -0.035097186 0.06603343
000090 5a 33 f3 bd fd 4b 23 bd d7 fd be bd 47 db a2 bd
       -0.11875029 -0.03986739 -0.0932576 -0.0795198
0000a0 75 8c c2 3b 50 7b a2 bc f8 6f 04 be d4 5e 74 3d
       0.005937154 -0.01983419 -0.12933338 0.059660748
0000b0 00 08 0b 3c 84 dc c2 bc ba 25 7d bd cf a7 01 bd
       0.008485794 -0.02378679 -0.061803557 -0.031654175
0000c0 c0 c7 88 3d e2 00 1f 3d 83 77 39 bd c2 c2 4c 3c
       0.06678724 0.0388192 -0.04527999 0.012497606
0000d0 b0 fe 47 bc a1 73 2f 3e fc 10 d8 bd f2 96 93 3b
       -0.012206718 0.17133953 -0.105501145 0.004504078
0000e0 67 e6 64 3d a6 12 08 be b2 fa 67 bd 20 47 04 3d
       0.05588379 -0.13288364 -0.056635566 0.032294393
0000f0 71 74 df 3d 80 bd 75 bb 5b dc 35 be 94 64 74 bd
       0.10910881 -0.0037496984 -0.1775984 -0.05966623
000100 c3 54 99 3d 6a f6 21 3d 74 32 ab bd 53 67 55 be
       0.0748687 0.03954164 -0.083592325 -0.20840196
000110 2a c6 46 bd eb bd 2d be 60 2d 0b 3b 70 dd fd 3c
       -0.048528828 -0.16966979 0.0021236762 0.030989379
000120 3b e5 b3 3d a9 97 04 be d9 69 13 3d 29 04 2f 3e
       0.087839566 -0.12948479 0.035989616 0.1709143
000130 fa 68 8a bd 43 c0 e5 bd 5a a3 9c bd a3 6d 56 bd
       -0.06758304 -0.11218312 -0.07648344 -0.05235065
000140 43 fb af 3c 86 c1 42 3e a6 03 e0 3d f8 e7 89 3d
       0.021482116 0.19019136 0.10938196 0.06733698
000150 54 5d 90 bc a2 2d ba 3d f3 cd b4 3b 7a 1e d1 bc
       -0.017622627 0.09090735 0.005517715 -0.025527228
000160 07 56 e3 3d 31 3c b8 bc b4 a6 82 bc ea 41 69 3d
       0.11100393 -0.022489639 -0.01594863 0.056947626
000170 9a 2d 60 3d 5c bc b4 bd 84 23 12 bc c0 1f c3 3d
       0.05473099 -0.08824989 -0.0089196 0.0952754
000180 5d 79 e6 bd 12 7d 0c 3b a1 f4 8c 3d d9 96 88 3d
       -0.11253617 0.0021436852 0.06882597 0.06669397
000190 2a 19 2f bd 8e 09 3b 3d 9b f4 e3 bb 2d 2b 48 bd
       -0.042748608 0.04566341 -0.0069566495 -0.0488693
0001a0 2c f5 c9 bc 88 1b e4 3c 8d c4 2c bd 74 35 c0 bc
       -0.02465304 0.02784516 -0.042179633 -0.023462988
0001b0 48 a6 8a bd 20 88 12 be 7f ec 02 3d 09 55 cb bd
       -0.06769997 -0.1430974 0.03196382 -0.099283285
0001c0 a2 1d 42 3d 92 ca 94 bc 0b d5 0a bd e9 d9 81 3d
       0.04739154 -0.018163 -0.03389458 0.06340391
0001d0 a0 58 88 3b 9f e2 a3 bd ae 9a 93 bd 1e 9c 35 3d
       0.0041609555 -0.08002209 -0.07207237 0.044338338
0001e0 eb da 89 bd 4d 64 2f be 1b ba 99 ba a1 38 21 3d
       -0.067312084 -0.17128105 -0.0011728437 0.039360646
0001f0 5c 66 1c be e0 c9 f7 bd 04 65 00 3d 29 06 b0 3c
       -0.15273422 -0.120990515 0.031346336 0.021487312
000200 e9 fc 8a 3b 9c 8d fe 3c db eb d9 bb ba 87 4e 3d
       0.004241575 0.031073384 -0.0066504306 0.050422408
000210 47 b5 26 3d 2d 27 52 3d 70 2d 69 bd 99 a6 d5 3d
       0.040700223 0.051306892 -0.0569281 0.104321666
000220 91 f4 4b bc 65 c9 9a 3d 13 b6 07 3c eb 5a 56 3d
       -0.012448446 0.07557944 0.008283156 0.0523328
000230 d5 bf 96 3c ef d8 9b 3d 60 04 50 bc ff 1c b9 3d
       0.01840202 0.07609736 -0.012696356 0.09038734
000240 68 df 17 3e 15 3e 74 bd 1e f2 99 3d 5a 78 68 3d
       0.14831316 -0.05962952 0.07516883 0.0567554
000250 1f 0e 9c bd eb 11 78 3d 21 4d 1c bd c0 9a 26 3c
       -0.07619881 0.060563963 -0.038159493 0.010168731
000260 3d 93 65 bd 9c ed f3 3c 33 9c 14 bd 9b 52 2c 3d
       -0.05604862 0.029776387 -0.036281776 0.042070966
000270 7d 8a bc 3c ae 8a 6c 3d b2 b6 95 bd 54 52 87 3d
       0.023015255 0.057749443 -0.07310237 0.066075
000280 63 29 42 be e5 9d 94 bd 50 9a 91 bd 80 57 06 be
       -0.189611 -0.072566785 -0.07109511 -0.13119316
000290 81 56 8e bd 9f 39 ab 3d fb 55 b9 bc 37 ee c6 bc
       -0.06950093 0.083606 -0.022624006 -0.024283512
0002a0 53 69 a8 3d 0e bd 27 bd 11 56 7e bc df 95 79 3d
       0.08223214 -0.04095178 -0.0155234495 0.060933944
0002b0 3e 29 37 3d a5 b6 81 bd 0b 4e d7 3c 05 26 0c bd
       0.044717066 -0.06333665 0.026282331 -0.034215946
0002c0 ee b6 90 3d 95 d8 6f bd b3 8a 64 bd 28 ec 30 3d
       0.07066141 -0.058556158 -0.055796336 0.043193966
0002d0 51 f2 95 3d 4b f5 2d be e0 02 de bc ff 04 da bc
       0.07321609 -0.16988103 -0.02710098 -0.02661371
0002e0 89 4b 5f bc 78 7f e3 bc 5d fc f3 bd 18 74 2a bc
       -0.013628849 -0.027770743 -0.11913369 -0.0104036555
0002f0 e4 11 28 bd c2 18 5d 3c f9 3b 1b be 57 03 00 3d
       -0.041032687 0.013494672 -0.15159597 0.031253185
000300 cf 23 a8 3b 68 51 a9 3c bd fa 53 3d 46 3c 0d 3d
       0.005131222 0.0206687 0.051752795 0.03448131
000310 50 fe ba 3d ac 6f 19 3e c0 76 9d 3c c2 86 8e bd
       0.091305375 0.14984006 0.019221663 -0.06959297
000320 d9 32 9e 3d 2e c9 37 bd 6a 8c 20 bd 6f 60 22 3d
       0.07724542 -0.044869594 -0.03919641 0.039642747
000330 f4 42 9b 3c ec a8 92 3d 57 ee 28 bd 88 59 03 3d
       0.018952824 0.071611255 -0.041242924 0.032067806
000340 62 cb e8 3c 56 9b 80 3a c7 f3 92 bc f6 14 e6 3c
       0.028417293 0.0009811919 -0.017938508 0.028086167
000350 89 5c 9b 3d 34 e5 5b 3c 2b ae 0d 3d 2c a0 cf 3c
       0.07586009 0.0134213455 0.034589928 0.02534493
000360 f2 37 9e bc cf e8 70 bc 3a f0 7a bd 25 e5 71 3d
       -0.019313786 -0.014703943 -0.061264254 0.05905642
000370 af 2d 2a bd 27 8e 50 bd 3a 9a eb bc 99 8b a3 bd
       -0.041547474 -0.050916817 -0.028760064 -0.079856105
000380 ff 3c 67 bd da 75 db bc 80 4e 04 3c 0a f1 16 3d
       -0.056454655 -0.026789594 0.0080753565 0.036850967
000390 6d 64 28 3d 32 87 d5 bb 10 c4 c1 3d cc d7 59 bd
       0.0411114 -0.0065163607 0.09461224 -0.053184316
0003a0 6d 15 52 bd 2b 95 7c 3d 93 db 84 3d 40 f2 52 3b
       -0.051289964 0.061665695 0.06487193 0.003218785
0003b0 3a 25 02 bd d6 cc b7 3d 28 af 5a 3d 98 f1 98 bd
       -0.031773783 0.08974616 0.0533897 -0.07467955
0003c0 13 08 56 3d 17 94 22 3c 40 74 d7 3b 0c 8f f2 bc
       0.052253794 0.009923003 0.0065751374 -0.029609226
0003d0 93 ad a3 3d 7d e2 c6 3d a1 54 82 3d 31 b8 39 bd
       0.07992091 0.09711168 0.06363798 -0.045341674
0003e0 0b 9f 78 bd 8a eb c0 3d 17 14 09 bd 62 5c 99 bd
       -0.06069855 0.094199255 -0.033466425 -0.07488324
0003f0 9c 63 08 bd 5e 08 9d 3c db 51 ad bd f3 a4 a8 3d
       -0.03329812 0.019169029 -0.08462878 0.082345866

cluster_projector.2.bias f4 [50]
000000 7c 4a 2d be 4c 5b a6 bb f6 2e b1 bb 1c 0f 42 3e
       -0.16922945 -0.0050768014 -0.0054072095 0.18951076
000010 f9 ad f6 3d 5d bd 15 be e1 25 25 be 43 e2 e3 3d
       0.120449014 -0.14623018 -0.16127731 0.111271404
000020 23 16 01 3e 0f 40 30 bd 56 b6 5e 3d e3 a0 d4 bc
       0.126061 -0.04302984 0.054373108 -0.025955623
000030 2c 40 ac bd bf 59 90 bd 02 ff 1d 3d fc 7d 95 bd
       -0.08410677 -0.07048368 0.038573273 -0.0729942
000040 18 ea 71 3d 42 8e 65 3e 8e 48 a5 bd 04 9a ef bd
       0.05906114 0.22417548 -0.08070479 -0.11699298
000050 0e a5 b3 3d 2b 0e 9f 3b 60 91 16 be 72 10 c1 bb
       0.08771716 0.004853984 -0.14703894 -0.005891853
000060 9e 1a 81 3d 6d e7 40 3d c0 6f 0c bc ef 86 86 3d
       0.06303905 0.047095705 -0.008571565 0.06568705
000070 23 6d 9c 3d 14 b6 30 3d 22 a2 39 3a e2 85 e1 bc
       0.07638004 0.043142393 0.00070813496 -0.02752966
000080 62 02 63 bd d8 19 02 be da c8 47 3d 24 5d 48 3d
       -0.055422194 -0.12705171 0.04877553 0.04891695
000090 af a4 31 3d 34 0e be 3b 8f bf 97 bc 76 19 82 bd
       0.043369945 0.005800033 -0.01852396 -0.063525125
0000a0 47 40 1a bd 32 ba 0c 3d 3e 02 ae 3d 2b 53 db bd
       -0.037658956 0.034357257 0.084965214 -0.107092224
0000b0 99 e2 36 3d 6d b7 49 bd 59 c1 30 3c bd 7c 1e 3e
       0.044649694 -0.049247194 0.010788285 0.15477271
0000c0 2d 92 4a 3e 1c 72 fb bd
       0.19782324 -0.12277624

exp_avg f4 [128, 20]
000000 28 eb c6 bb 28 eb 46 bb 44 75 12 b9 53 a4 2d bb
       -0.0060705133 -0.0030352566 -0.0001396733 -0.002649565
000010 03 1d 17 bb 00 00 00 00 00 00 00 00 28 eb 46 bb
       -0.0023058064 0.0 0.0 -0.0030352566
000020 28 eb 46 bb 00 00 00 00 52 98 08 b8 1c ab 9a b9
       -0.0030352566 0.0 -3.2566786e-05 -0.00029500655
000030 ac 4f ac ba 6a c6 5c ba a2 a1 9a ba c3 33 69 ba
       -0.0013146303 -0.00084219 -0.0011797438 -0.0008895958
000040 8a 2c 34 ba 99 26 c7 ba 4e 5b 22 bb 26 94 17 bb
       -0.0006873092 -0.0015193998 -0.002477366 -0.0023129075
000050 a9 21 0a 3f 02 5e 67 3a 8a c8 74 bb fe fe d3 bb
       0.5395761 0.0008825959 -0.0037350976 -0.0064696064
000060 d2 ce ea bb 00 00 00 00 00 00 00 00 2b 99 17 bc
       -0.007165768 0.0 0.0 -0.009252827
000070 02 5e 67 3a 00 00 00 00 e6 ad b0 3b 49 da d7 3a
       0.0008825959 0.0 0.005391824 0.0016468252
000080 85 94 fc ba 09 2d d8 3e 54 13 d7 3e 92 95 d7 3e
       -0.0019270336 0.4222186 0.42006934 0.421063
000090 07 1f 35 b9 44 93 66 bb f9 df d2 bb a8 b1 b6 bb
       -0.00017273064 -0.0035182992 -0.006435391 -0.0055753775
0000a0 dd 3d 83 be fb 2c c6 3c 62 6c c1 ba 53 d4 33 bb
       -0.25633135 0.02419137 -0.0014757032 -0.0027439788
0000b0 56 14 49 bb 00 00 00 00 00 00 00 00 f2 bc 8c bb
       -0.0030682287 0.0 0.0 -0.004294985
0000c0 fb 2c c6 3c 00 00 00 00 bf 9a ec bb 97 58 76 3c
       0.02419137 0.0 -0.0072205956 0.01503577
0000d0 97 8f 34 3c 58 b3 77 bf d2 66 78 bf b0 32 78 bf
       0.011020563 -0.9675803 -0.9703189 -0.96952343
0000e0 82 92 53 3c 7a d1 1f 3b 7f 50 55 bb c9 82 13 bb
       0.012913348 0.0024386332 -0.00325492 -0.0022508374
0000f0 99 02 56 bd 9a 22 a1 bb 55 ad 76 3b 66 36 c0 3b
       -0.05224857 -0.004917455 0.0037639935 0.00586586
000100 d4 f5 b7 3b 00 00 00 00 00 00 00 00 f0 65 14 3c
       0.005614022 0.0 0.0 0.009057507
000110 9a 22 a1 bb 00 00 00 00 8a b2 79 3a c0 d3 f9 bb
       -0.004917455 0.0 0.00095252006 -0.0076241195
000120 0b 31 0e bb f4 50 52 bb 17 97 1b bb 8a 21 32 bb
       -0.0021696712 -0.003209171 -0.002374118 -0.0027180635
000130 27 07 a9 bb 86 5f b1 38 74 78 1a 3c 57 6f c7 3b
       -0.0051583233 8.45781e-05 0.009428132 0.006086271
000140 cb 85 6e 3c 72 12 1b 3a e8 38 59 37 ed 00 dd 38
       0.014558266 0.00059155293 1.2947457e-05 0.00010538274
000150 e6 63 c9 38 00 00 00 00 00 00 00 00 df f5 dd 38
       9.6030344e-05 0.0 0.0 0.00010583898
000160 72 12 1b 3a 00 00 00 00 88 aa 03 38 00 df 31 39
       0.00059155293 0.0 3.1391653e-05 0.0001696311
000170 3b 03 e9 38 c7 37 1b 39 67 e2 15 39 7c bc fa 38
       0.000111109075 0.0001480273 0.00014294089 0.00011956037
000180 6c 68 f8 38 f6 8d 3f 39 30 55 de 36 b5 c3 eb 37
       0.000118450116 0.00018268064 6.6260327e-06 2.8105316e-05
000190 b2 5c c8 bc a1 c6 46 bd 8c f9 cb bb f0 18 d3 bb
       -0.024458263 -0.04852927 -0.0062248167 -0.0064421818
0001a0 b5 60 da bb 00 00 00 00 00 00 00 00 09 c8 42 bc
       -0.0066643604 0.0 0.0 -0.011888512
0001b0 a1 c6 46 bd 00 00 00 00 f2 01 a0 3b 10 f7 8b bc
       -0.04852927 0.0 0.0048830444 -0.017085582
0001c0 be 2d a6 bc f4 96 ce bc ce dd ac bc 81 2b b4 bc
       -0.020285483 -0.025218464 -0.021101858 -0.0219934
0001d0 ba cf 8f bc d5 74 e2 bb f4 d8 73 bc 6a fa 1e bc
       -0.017555106 -0.0069109 -0.014883269 -0.009703258
0001e0 b1 b8 67 be 17 ca 27 3d 84 e2 71 3a 93 1d ba bb
       -0.22629048 0.040964212 0.0009227174 -0.005679795
0001f0 59 dd c9 bb 00 00 00 00 00 00 00 00 80 2a c3 bb
       -0.00616042 0.0 0.0 -0.005955994
000200 17 ca 27 3d 00 00 00 00 c2 4c 08 bc 93 31 b8 3c
       0.040964212 0.0 -0.008319082 0.022484576
000210 59 f7 98 3c 46 80 0c 3f 4d a0 0a 3f 30 65 0b 3f
       0.018672632 0.5488323 0.5415085 0.54451275
000220 8f 74 a5 3c 4e f0 2f ba 3c 3c 0f 39 f5 e3 a2 bb
       0.020197181 -0.00067115284 0.00013659982 -0.0049710223
000230 9e 3f 5c be 5c dc e1 bd 3e 4a 83 bc 29 f9 a7 bc
       -0.21508643 -0.11028358 -0.016026612 -0.020504551
000240 84 c7 c4 bc 00 00 00 00 00 00 00 00 ed a3 0a bd
       -0.024020918 0.0 0.0 -0.033847738
000250 5c dc e1 bd 00 00 00 00 cb 7e a4 3b e4 86 42 bd
       -0.11028358 0.0 0.0050199977 -0.047491923
000260 bb 54 5c bd a3 9d 65 bf fc 1a 64 bf 0b 42 64 bf
       -0.053791743 -0.8969366 -0.89103675 -0.89163274
000270 7a 76 48 bd 4b 6b b1 bc db c6 00 bd cf 9f 8e bc
       -0.048941113 -0.021657607 -0.031439643 -0.017410187
000280 8c 21 80 be 3e 88 31 3d 6b fc b1 3a dd ce 6d ba
       -0.25025594 0.04334282 0.0013579255 -0.00090716576
000290 10 a1 2a 3a 00 00 00 00 00 00 00 00 9b 50 a6 3a
       0.00065089855 0.0 0.0 0.0012688817
0002a0 3e 88 31 3d 00 00 00 00 25 d6 07 bc ab 96 c7 3c
       0.04334282 0.0 -0.008290802 0.024363836
0002b0 1b e2 9a 3c b9 58 ae bd b3 2c b2 bd e1 fc b1 bd
       0.018906644 -0.08513016 -0.08699932 -0.08690811
0002c0 17 ef ad 3c 20 85 18 3c 53 0e 23 bb 65 0d fd ba
       0.021232171 0.009309083 -0.0024880364 -0.001930636
0002d0 00 00 00 00 00 00 00 00 00 00 00 00 00 00 00 00
       0.0 0.0 0.0 0.0
0002e0 00 00 00 00 00 00 00 00 00 00 00 00 00 00 00 00
       0.0 0.0 0.0 0.0
0002f0 00 00 00 00 00 00 00 00 00 00 00 00 00 00 00 00
       0.0 0.0 0.0 0.0
000300 00 00 00 00 00 00 00 00 00 00 00 00 00 00 00 00
       0.0 0.0 0.0 0.0
000310 00 00 00 00 00 00 00 00 00 00 00 00 00 00 00 00
       0.0 0.0 0.0 0.0
000320 89 60 9f be 37 4d fa bc e1 78 42 ba 32 94 4a bb
       -0.31128338 -0.030554397 -0.0007418525 -0.0030911085
000330 ef 2e 75 bb 00 00 00 00 00 00 00 00 a1 bc 7d bb
       -0.0037412008 0.0 0.0 -0.0038717168
000340 37 4d fa bc 00 00 00 00 26 a2 fb b7 7e 2b 86 bc
       -0.030554397 0.0 -2.9997038e-05 -0.01637816
000350 ae 74 5d bc cb 7e 6c bc dc 8d 69 bc d2 b9 5d bc
       -0.013516588 -0.014434527 -0.014255013 -0.013533073
000360 99 8c 6f bc 6f 9a 0b bc 2c 0b ca b8 04 a7 ee ba
       -0.014620923 -0.008520707 -9.6341915e-05 -0.0018207734
000370 54 15 86 bc d1 6d 63 bb 66 1d c4 b9 2d 3e 0b bb
       -0.016367592 -0.0034702907 -0.00037405937 -0.0021246776
000380 74 e0 01 bb 00 00 00 00 00 00 00 00 4c c2 22 bb
       -0.0019817622 0.0 0.0 -0.0024835048
000390 d1 6d 63 bb 00 00 00 00 b8 a6 11 36 00 5e 2a ba
       -0.0034702907 0.0 2.1703727e-06 -0.00064989924
0003a0 8f 63 b7 ba b6 21 fb bf f9 25 fb bf 90 29 fb bf
       -0.0013991463 -1.9619663 -1.9620963 -1.9622059
0003b0 97 5f 6d ba 14 f5 ae ba cc 7c 06 bb e8 bd ec ba
       -0.00090550765 -0.0013348185 -0.0020521162 -0.0018061968
0003c0 c7 71 e5 be f4 7c 71 bd 8e d0 df ba 46 ef 15 3b
       -0.44813368 -0.058957055 -0.0017075704 0.0022878214
0003d0 20 e3 3c 3b 00 00 00 00 00 00 00 00 c5 90 c6 3a
       0.00288219 0.0 0.0 0.0015149346
0003e0 f4 7c 71 bd 00 00 00 00 53 bd 1b 3b 60 b1 eb bc
       -0.058957055 0.0 0.002376397 -0.028771102
0003f0 c1 cf bd bc 85 fc fd bc f0 d6 cd bc 3c 6e da bc
       -0.023170354 -0.0310042 -0.025126904 -0.026663892
