flaskProject/modules/Contrastive_Clustering/save/save5/model_checkpoint.tar (torch, 183226 bytes, 24 tensors)

instance_projector.0.weight f4 [128, 20]
00000000: d1a6 a9bd d7c1 9c3e 7884 9b3e 99a0 0fbe
00000010: 2a2a b7be 2ee6 0cbd 35af f6bc ffd3 dc3d
00000020: 78a9 583d 9604 99bd 4f92 473e 518d 2cc0
00000030: cd72 29c0 ad80 aa3d 7ec4 a6bd bb7f f0bc
00000040: 9eff 31c0 e268 0fbf a287 9fbf dab4 a8bf
00000050: 09e7 cbbc c776 ca3d 9347 833e 2f37 7fbc
00000060: a271 8abe 0367 f33e 6f0d aebd 3baa ccbe
00000070: 6041 3abc 9edf 90bd d5fc 323e ec63 18c0
00000080: 677e 16c0 e71d 8abc b0a8 053e 9d8e 13be
00000090: 0ebe 2cc0 3834 58bf 47d7 f7be 3e84 94bf
000000a0: 0ee2 d83e c11b 0240 2d29 c4bf 7e5a 19c1
000000b0: 9344 05c1 76d9 e1c0 5232 4e40 cc5f 77c0
000000c0: 8b20 4140 3479 1ebe 291a a7c0 ca39 a9c0
000000d0: 4ebc a5c0 d05c 1dbe 81e5 5d3d f73c cb3d
000000e0: 9b5f a2c0 0c10 083e 7c61 9f40 ed3e 8dbf
000000f0: 9756 04bf 95a3 3a3e b1aa 903f 0242 9e3e
00000100: 4ede 01bf a913 ef3f a5c8 1cc1 a5f1 58bf
00000110: 5965 3ac0 60e1 7d3d 05fe b8be b3a7 053f
00000120: 98e5 09be a7fa 40be 1a93 82ba 72f4 733d
00000130: 2f7b 043e 76b9 bb3f 1ecb cb3f 4dcc 14c0
00000140: 5247 0ebf 990f 013f 99a9 63c1 bcfc 41c0
00000150: 752e b3c0 f378 ec3f 8598 04c1 f647 b1be
00000160: 1861 883f 2a35 0d3e 2c1c 953e 7cae 1cc1
00000170: 751d 1fc1 9abf 81bc cf86 043e ca18 bcbd
00000180: 027e 1cc1 d45b 82bf 61f2 82c0 a600 95bf
00000190: ffcc 2dbe 2575 babc 4197 55c0 62c9 bfc0
000001a0: 705e 07c0 9dc3 5240 f645 68bf 13c0 563f
000001b0: 978f f83f f66f 45be 5187 dfbe a2c9 39c0
000001c0: ca49 1fc0 1719 c9be 5dce 60bc e2bc a6bd
000001d0: d136 32c0 af5c 513e 2fad 56bf a01b e5bf
000001e0: 3d20 87bd 6a0e 5ebe 796f 4dbf c90f d83e
000001f0: 37d0 5e3f 8e80 213f 9c9d da3d 948d 96bf
00000200: 9c60 58be 64e9 b0bd ddbd acbe 839f ff3e
00000210: 118f 143f 461d 2a3d 721b a03d 7392 22be
00000220: 3707 5d3f 0612 c5be 0c80 3b3d eadb 04bf
00000230: 7981 9abe a6fd dc3e 0572 fe3f 29c4 77bf
00000240: 8505 05c0 d0fc 383d fb8c 22bf 2c1b 243f
00000250: e9b4 903e f00b 16bd e17f 7b3f 36f8 86c1
00000260: 1232 88c1 f793 c0bd 02d5 a5bd 6f49 3e3e
00000270: 1b51 89c1 61be 35c0 329f d1c0 6e64 13c1
00000280: 3e30 9ebd 3177 0840 68ea efbf a29d d1c0
00000290: 318b 92c0 d5e5 2ec0 3197 5cc0 ae13 07c0
000002a0: 3dfd 943f 68d6 2e3d 6c1d c9c0 b966 cb40
000002b0: c4b0 b240 aef3 57be 312a 023e 0953 ab3d
000002c0: 58b8 c640 0ef2 ed3f ff2d 82c0 61fc 0ebf
000002d0: 3b70 a63e 9cb4 05bf ad00 09c0 49ff 09c1
000002e0: 387a 1bc0 f8aa e940 0c5a 2c3f d090 0d3e
000002f0: c265 97c0 f078 28bd 46bc 49bf 8717 2640
00000300: e138 0640 5dea 95bc ed77 5d3d 22d4 0fbd
00000310: 00fc 0c40 8792 02c0 3737 88c1 7d22 1ec1
00000320: 1437 8bbd 4cf5 56be 4ea3 a93c 977c cbbf
00000330: 1216 373f 045a 30bf d4a8 eebe 7f4a a83e
00000340: 8bf5 6e3f 3c60 3abd 6e3a a83e b38d 94be
00000350: cbee 703e 2d48 10be d29b ae3d a2b3 0a3d
00000360: e868 bd3d f31c 2ebd 0e49 953f 5202 aabf
00000370: ad06 9dbf 8be3 6cbf 0c82 b23f fa32 d140
00000380: 14bd 8b40 b167 bcbf 32f2 d3bf bd11 20bf
00000390: 7bc0 19be 4dcd 47be 39b4 93be 08b8 d43f
000003a0: b2d7 d03f 5bd2 28bd 7b92 1e3e fc16 e9bd
000003b0: bfa8 da3f 677a 35c0 0c52 69c0 bb75 14c0
000003c0: 495a ed3c 4bb8 b63e 58ec c0bd 9561 94bf
000003d0: 1106 7dbf 4827 b5bf fa40 093f b73a ab3c
000003e0: ad18 adbf d2f7 62be b637 37be a0a4 0cbf
000003f0: 43eb fdbe b709 283c 60df 5a3d b0d9 b6bd
-0.08283771 0.30616638 0.30374503 -0.14026107 -0.35774356 -0.034399204 -0.030112842 0.107826225
0.052895993 -0.07471578 0.19489406 -2.6961253 -2.647632 0.08325324 -0.08142947 -0.029357782
-2.7812266 -0.56019413 -1.2463267 -1.3180192 -0.02489044 0.09885936 0.25640544 -0.015577122
-0.2703982 0.4753953 -0.08498656 -0.39973626 -0.011368126 -0.070739016 0.1747926 -2.3810987
-2.351465 -0.016859962 0.1305263 -0.14409871 -2.6991 -0.8445468 -0.4840643 -1.1602857
0.42359966 2.032944 -1.5325066 -9.584593 -8.329242 -7.0577955 3.2218213 -3.865222
3.0176113 -0.15475923 -5.2219434 -5.2883043 -5.1792364 -0.15367436 0.05417395 0.099237375
-5.0741706 0.13287371 4.98065 -1.1034828 -0.51694626 0.18226464 1.1302091 0.30909735
-0.50729835 1.8677875 -9.7989855 -0.8474372 -2.9124358 0.061982512 -0.36131302 0.52209014
-0.1346649 -0.18845616 -0.0009962053 0.059559293 0.12937616 1.4665973 1.5921361 -2.3249695
-0.55577576 0.50414425 -14.228906 -3.0310507 -5.599421 1.8474411 -8.287236 -0.34625214
1.0654631 0.13789812 0.29123056 -9.792599 -9.944692 -0.015838433 0.1294205 -0.09184416
-9.780764 -1.0184274 -4.0920873 -1.1640823 -0.16972731 -0.022760937 -3.3373568 -5.993333
-2.115139 3.2931893 -0.9073175 0.8388683 1.941882 -0.19280991 -0.43657926 -2.9029317
-2.4888787 -0.39276955 -0.013721076 -0.08141495 -2.7845957 0.20445512 -0.8385801 -1.7899055
-0.06597946 -0.21685186 -0.8024822 0.42199543 0.8703646 0.63086784 0.10674593 -1.1761956
-0.21130604 -0.08638266 -0.33738604 0.49926385 0.580308 0.041531824 0.07817735 -0.15876178
0.86339134 -0.38490313 0.045776412 -0.5189806 -0.30176905 0.43162268 1.9878546 -0.9678369
-2.078462 0.045162976 -0.6349637 0.6410396 0.28263023 -0.03663248 0.98242 -16.871197
-17.024448 -0.09403222 -0.08097269 0.185827 -17.164602 -2.8397448 -6.550683 -9.212019
-0.07724045 2.1322749 -1.874341 -6.5504923 -4.579491 -2.7327778 -3.446728 -2.1105762
1.1639782 0.042684942 -6.2848415 6.3562894 5.584078 -0.2108905 0.12711407 0.08365447
6.210003 1.8589494 -4.0681148 -0.5585385 0.325075 -0.52228713 -2.1406662 -8.6248255
-2.4293346 7.30212 0.673249 0.13824773 -4.7311716 -0.04113096 -0.7880291 2.595186
2.0972216 -0.01830023 0.05406945 -0.035114415 2.2028809 -2.0401933 -17.02696 -9.88342
-0.06797615 -0.20992011 0.020707753 -1.5897397 0.7151805 -0.6888735 -0.4661318 0.32869336
0.9334342 -0.045501933 0.32857078 -0.29014358 0.23528592 -0.14090033 0.08525814 0.033862717
0.09248525 -0.042508077 1.166292 -1.3281958 -1.2267662 -0.92534703 1.3945937 6.5374727
4.366831 -1.4719144 -1.6558287 -0.62527066 -0.15014832 -0.1951191 -0.28848436 1.6618662
1.6315825 -0.041216236 0.15485565 -0.11381337 1.7082747 -2.8355958 -3.6456327 -2.3196857
0.028973715 0.3568748 -0.09420079 -1.159228 -0.9883738 -1.4152613 0.5361477 0.02090202
-1.3523155 -0.22164848 -0.17892346 -0.549387 -0.49593553 0.010256222 0.053435683 -0.08928239

instance_projector.0.bias f4 [128]
00000000: 4d74 443f 5dbd 123f b218 f73f 5389 123d
00000010: 2209 e6bb 74bf adbd b25c 52be 7013 18be
00000020: bad9 a03f 4aad 46bf f91a d9be 2716 8abf
00000030: cc64 053f 5eb3 ab3e 7cb5 1dbe 1215 463f
00000040: b54c 9d3f 8351 e2be 321c 173f 49f3 5f3d
00000050: 4120 cabd 8b30 21bf c46c 693f aa32 603f
00000060: 6860 6f3d 27a9 f3be 9219 0b3e 40b6 143e
00000070: 3c7c 013f eb2d 29be 048e 8cbf 2e7a 3c3e
00000080: 2d93 c13d d55a a23e 05bd 123e f06a b13e
00000090: d545 42be 4875 853f dd84 dabe e83f 8f3d
000000a0: 436c 743f 894d 3a3f 281b ce3c 18d9 c63d
000000b0: d097 f43d 0f5b 20bc 5a02 333f 7584 503f
000000c0: c416 04c0 845f 073f bf44 c0be fc83 90be
000000d0: ef81 b83f d243 233f 6b19 38be 505c 253c
000000e0: 33cf 033f a06a d6be 2987 8d3f 2123 66be
000000f0: 5777 13bf 14af 43be 868d 2ebf d474 04bf
00000100: 0eef 383e 95bb 8cbe 551a 003f 29f6 e2bc
00000110: af66 59be 0782 bbbe d4be 0dbe 9e28 a33f
00000120: 7b96 043f c891 43be ab2c c73f 13c5 d5bf
00000130: 2b27 483e c0d5 07c0 89b1 81bd 61c2 f7be
00000140: e78c 013f d605 083e 0e0d e23d 9e36 22bd
00000150: 169b 52bf a674 0f3f 5959 86be 3860 333f
00000160: eb08 f9be d8f6 8a3e 276c bebf 33f8 413f
00000170: f838 423f 325a 5ebc d161 5dbe 2fed cdbe
00000180: 0a24 883f f1ed fa3e 139b f13e a7b6 293f
00000190: d435 1dbf 9690 ac3f acf5 193f 90d0 293e
000001a0: 553b 58bf ea72 553f 87bc 32bf 23bc 803f
000001b0: 0dd5 35bd c83e 33c0 c10f 32bf 529b c53f
000001c0: f637 febe bdf5 f5bd 3e4a 233f e54a 343e
000001d0: dd22 b3bf 059f 643f 1ee8 e13f c7ce 2ebf
000001e0: e960 1abf a41e f4bf 2027 9fbe d244 c83e
000001f0: 04e8 d03f 6fff 92bf 7bb3 1fbf 82aa 9fbd
0.7673996 0.57320195 1.9304411 0.035775494 -0.0070201317 -0.084837824 -0.20543173 -0.14851165
1.2566445 -0.7760817 -0.4240339 -1.078801 0.5210693 0.33535284 -0.15401262 0.773759
1.2289034 -0.44202814 0.590274 0.054675374 -0.09869433 -0.62964696 0.9118159 0.8757731
0.05844155 -0.4758999 0.13583973 0.14522648 0.5058019 -0.16521423 -1.098084 0.18405983
0.094519 0.31709924 0.14329918 0.346519 -0.18971951 1.0426416 -0.42679492 0.06994611
0.95477694 0.7277456 0.025159433 0.09709376 0.119430184 -0.009787335 0.69925463 0.81452113
-2.0638895 0.5288012 -0.3755245 -0.28225696 1.4414653 0.6377536 -0.17978446 0.01009281
0.51488036 -0.41878223 1.1056873 -0.22474338 -0.57603973 -0.19109756 -0.681847 -0.51740766
0.18059942 -0.27486864 0.5004018 -0.027705269 -0.21230577 -0.3662264 -0.13842326 1.274677
0.51792115 -0.1909858 1.5560507 -1.6700767 0.19546191 -2.1224213 -0.0633269 -0.48390487
0.50605625 0.13283476 0.11037646 -0.03960287 -0.8226789 0.56037366 -0.26240042 0.70068693
-0.48639616 0.27141452 -1.4876755 0.75769347 0.7586818 -0.013571309 -0.21619345 -0.4022002
1.0635998 0.4900966 0.47188625 0.6629433 -0.6141026 1.3481624 0.6014049 0.16583467
-0.84465533 0.8337847 -0.6981892 1.0057415 -0.044392634 -2.8007069 -0.6955529 1.5438025
-0.4965207 -0.120097615 0.6378516 0.17606695 -1.3995014 0.89305145 1.7648962 -0.6828427
-0.60304123 -1.9071851 -0.31084538 0.39115006 1.6320806 -1.1484202 -0.6238324 -0.07796194

instance_projector.2.weight f4 [20, 128]
00000000: cf9f 58bf 27df 85be 7b6b 573f a0e3 d7bd
00000010: cd4b d6bd 2bfc 42bd 5159 7a3d e3f0 30be
00000020: 26c7 e1be b2f6 82be 9515 d5bd e885 a03e
00000030: 5a95 193f a818 e7be 48dc c1bf 035c 063e
00000040: 7536 c23e 8f24 5ebc fa4e f23e 2c63 363f
00000050: d41e 1e3e eaf6 433e f6aa 92be 9a7a 823e
00000060: 4a87 72bd f5b5 cbbd b65c 2c3d baf2 a7be
00000070: 2387 6cbd a1a0 933d c3d4 333c e13a c83d
00000080: 75d6 94bc 07e2 63bf 817a b53d eb0b 113f
00000090: 482d c8be 4ca3 2bbf ea8e 41be e818 ae3d
000000a0: e28a a43e 4918 723e 3460 81bd 4d6a c33d
000000b0: d078 293e 9506 89bd e899 d5be 5057 5b3e
000000c0: 9d05 36be 435e 8f3f 5e08 0cbe bc11 2d3e
000000d0: 9f46 e1be 14c5 edbe 1216 413d e9b5 8940
000000e0: 7a34 e5bd 35d1 ba3d ad80 09bd 1309 43be
000000f0: 0e07 e53d 8848 763c c6d1 a2ba ea88 2bbe
00000100: 4c8b 133e f180 0dbc 2f57 8a3e 1ac2 1a3d
00000110: 5c23 043d 6962 9e3e 88be 5b3d 213a 4cbf
00000120: e1b4 e8be ec46 b53e 5f93 52bf f2bd 88bd
00000130: f427 2b3f 5a14 883f 9f2e 71be b126 6a3d
00000140: a8aa 0dbf 9d83 84bd f236 c9be ec4e 54bd
00000150: 4818 923d 2bf6 8ebf 8bca b43e 7c4f 043e
00000160: 25a7 693d ee81 e03c 4fd9 08bf 8330 1cbf
00000170: 0ba1 703e eebb 803c f854 d3bd cbc3 35be
00000180: 23ec 0cbc 2418 66bd e8c6 d1be e820 a0bd
00000190: d0f0 023f 7cf1 a3bf 9029 dabe 2085 cfbb
000001a0: 70b8 aebe a525 d0be ff1d 99bd 533b a3be
000001b0: 1197 3dbf fe9e 25bf 564e a73e 667c d33d
000001c0: 3e18 013c bf33 c53d 68d1 423e 6455 a23d
000001d0: c987 9c3c d48d 77bd cb6e 00bf b61c b3be
000001e0: f17a 2dbd cd88 aabd f62a d53d 6379 1e3e
000001f0: 62e2 84bf 6bb1 283e eeae 693c c01e 003c
00000200: 3a1c 41be 767b 65be c541 073f 6c66 0b3d
00000210: 9556 c13d d415 973d 4178 163d 92da 69bd
00000220: cd9b 80bd 8aff ea3c 0c57 bfbe 94ab 1a3d
00000230: 73a8 86bf dbe0 813e 971f 993f a4a6 6b3d
00000240: b35c a3bc 0d09 5cbe ca78 98bf 6139 9fbb
00000250: c6f5 b3bd b59c fdbe fe6e 553e 3439 15be
00000260: 00ba 86bc e021 e53d c031 afbb a681 e93d
00000270: 9fc5 943c a6be a9bd 9f5b c03c 28fe f83d
00000280: 1b10 353d ef39 10bf bbff 95bd bf13 b5bf
00000290: 6c81 eabe 1022 5d3f 49b5 26be 6ee1 8cbb
000002a0: 569a 84bf 2691 e73d 4c05 e5bc e086 86bd
000002b0: 292c 8e3d de7c 14be 8b4d 833e 709b d73e
000002c0: 8a39 a1bd 6574 253f 1480 de3c 9067 98be
000002d0: e683 bdbe 660c 4cbf 8641 9c3c 6392 85bf
000002e0: 0c30 34bd b44a d6bd 84ed 6a3e 8d01 1c3f
000002f0: f562 8dbe 5c0f 833e 2cbe 0fbe a7bd a6bb
00000300: 6641 a33d 4bfe 803e 0b51 72bd 0dd7 483f
00000310: b3bc a93d ae3d b23d c99a e33d ff70 863f
00000320: ed77 143f 2c8f 48bf dac2 f8bd 8f11 a83e
00000330: 0975 f73e 8f47 823d 65af 703e d234 dd3d
00000340: 7034 df3e ee5b 5c3d 00f7 97be 714a 37be
00000350: b2e4 dcbd 0e5b 27be 58b7 ecbe a8eb 55bf
00000360: 179c 633e 6f44 b83c 0c5b 4fbe 6bfd f83e
00000370: 73ad 123f d2e0 2d3e 4844 d23c c28d b03e
00000380: a34d 503e 578c 15bf cb2b 29bf 12a9 01c0
00000390: 23a3 3fbf 04e0 d43e a27f 11bf 0d40 933d
000003a0: f02c 033f 0c9f 513f 541c 10be a2b6 abbe
000003b0: a753 3fbf 7b2f 653c 9fb0 e43e 61a0 6b3d
000003c0: 3023 a03c 7c0c da3c 8796 8d3e 26fe bb3c
000003d0: 3c5a 30bd 57d3 c03e a96d 943f f9cf dfbe
000003e0: 7559 053c 89e7 61bd f35d 56be 4fcd 8c3e
000003f0: 71cd d13d 2960 eebd e032 8e3c 706b b9bc
-0.8461885 -0.26146814 0.8414838 -0.10541463 -0.104636766 -0.047603767 0.061120335 -0.17279391
-0.4409725 -0.2557884 -0.10404507 0.31352162 0.5999352 -0.45136 -1.514535 0.13121037
0.37932172 -0.013558521 0.4732588 0.71245074 0.15441447 0.19137159 -0.28646058 0.25484163
-0.059211053 -0.09946815 0.042080604 -0.32802373 -0.057746064 0.07208372 0.010976019 0.09776855
-0.018168667 -0.89016765 0.088612564 0.5665881 -0.39097047 -0.67046046 -0.18902174 0.08500844
0.3213721 0.23642077 -0.063171774 0.0954176 0.16549993 -0.066907085 -0.41718984 0.21420026
-0.17775579 1.1200641 -0.13675067 0.16901296 -0.43999192 -0.4643942 0.04714019 4.303456
-0.1119165 0.09121934 -0.03356998 -0.1904643 0.11182986 0.015031941 -0.0012422136 -0.16751447
0.14408606 -0.008636699 0.2701964 0.037782766 0.032260284 0.30934456 0.0536485 -0.797762
-0.454505 0.35405672 -0.8225612 -0.06676854 0.6685784 1.0631211 -0.23552941 0.057165805
-0.55338526 -0.06470416 -0.39299732 -0.05183308 0.071335375 -1.1168875 0.35310778 0.12920946
0.057044167 0.027405705 -0.53456587 -0.61011523 0.23498933 0.015714612 -0.10318941 -0.1775047
-0.008601221 -0.056175366 -0.40972066 -0.07818776 0.511487 -1.280807 -0.42609835 -0.0063330084
-0.3412509 -0.4065372 -0.074764244 -0.31881198 -0.74058634 -0.6469573 0.32676953 0.103264615
0.007879315 0.096290104 0.19025195 0.07926443 0.019107716 -0.060437992 -0.50169057 -0.34982842
-0.042353574 -0.08326874 0.10408585 0.15475993 -1.0381587 0.1647393 0.014262898 0.007819831
-0.18858424 -0.22410378 0.5283473 0.034033224 0.09440342 0.0737721 0.036735777 -0.05709321
-0.06279717 0.028686304 -0.373711 0.037761286 -1.0520157 0.25366864 1.1962765 0.057531968
-0.019941663 -0.21487828 -1.1911862 -0.004859135 -0.08787112 -0.4953362 0.20843121 -0.14572603
-0.016446114 0.11188102 -0.005346507 0.114016816 0.01816064 -0.082883164 0.023481188 0.121578515
0.044204812 -0.563384 -0.07324167 -1.4146651 -0.45801866 0.863801 -0.16280092 -0.0042993343
-1.03596 0.11306982 -0.027956627 -0.06568694 0.06942017 -0.14500758 0.25645098 0.42110777
-0.07872303 0.6463073 0.027160682 -0.29766512 -0.37014693 -0.7970642 0.019074213 -1.0435299
-0.043991134 -0.10463467 0.22942168 0.60939866 -0.2761456 0.25597656 -0.14037389 -0.0050885263
0.07971458 0.2519401 -0.05915932 0.7845314 0.08287945 0.08703171 0.11113507 1.0503234
0.5799549 -0.7834346 -0.1214654 0.32825896 0.48331478 0.06361305 0.23504408 0.1080109
0.43594694 0.05379861 -0.29680634 -0.17899491 -0.10785808 -0.16343328 -0.4623363 -0.8356271
0.22227512 0.02249357 -0.20249575 0.48630843 0.5729591 0.16980293 0.025667325 0.34483153
0.20342116 -0.58417267 -0.6608245 -2.0259442 -0.748583 0.4157716 -0.5683538 0.07189951
0.51240444 0.8188331 -0.14073306 -0.33537775 -0.7473702 0.013988371 0.44666 0.057525996
0.019548029 0.026617281 0.27653906 0.022948336 -0.043054804 0.3766124 1.1595966 -0.43713358
0.008139004 -0.05515245 -0.20934276 0.27500388 0.10244263 -0.11639435 0.017358243 -0.022634238

instance_projector.2.bias f4 [20]
00000000: dae0 8e3e bbb0 a43e 2e7c 21be 998e ea3e
00000010: 4ba6 f9be 9152 ac3e 8b61 42bf 8097 463f
00000020: 8b2a 5b3e bae8 db3e f592 83be 044b f2be
00000030: 5b1e 0b3f 7c76 973f 49db bdbe 442e adbe
00000040: eb32 b4bd 847b dd3e c8b4 9a3c 8184 03bf
0.27905923 0.32166085 -0.15770027 0.45811918 -0.48759684 0.33656743 -0.7593009 0.7757492
0.21402948 0.42950994 -0.25698057 -0.47322857 0.54343194 1.1833034 -0.37081364 -0.3382436
-0.08798774 0.43258297 0.018885031 -0.5137406

cluster_projector.0.weight f4 [128, 20]
00000000: 4718 26be 5849 75bd 8658 203e 7032 9e3c
00000010: 1468 ea3d 4809 c73c 34ed 5cbe 40f2 6c3d
00000020: 6294 c4bd df70 18be 4712 dcbd e4ba 893d
00000030: d4a3 173e 50b2 4d3d 2ef7 dbbd b2b4 2cbe
00000040: 761d 99bd 0326 fcbd f0f1 383d 7e2e 2c3e
00000050: e884 acbc 30fc be3d ae01 62bd bd89 06bf
00000060: be30 d6be 049d 52bf 7501 d63e 7f77 febe
00000070: dcec 343f c411 53bd da7d 1f3e 99ca 76bd
00000080: f136 d2be 6cf9 e43c bbb7 f93d d735 31be
00000090: 4e35 14bf 6fb2 bfbe 5981 8cbe f4b3 333e
000000a0: fc23 c6bd 9c3a 29be 68d5 0bbe a06f f8bb
000000b0: 6a05 06be f8f2 523d a00c 7fbd 085a 62bd
000000c0: 4da2 58be 8069 69bb f4cc 5ebd 74a0 12be
000000d0: 5c96 0fbd 9b15 37be eb62 28be 680b e53d
000000e0: 986e 31bd a416 66bd 5890 b1bd b84c 543d
000000f0: ecd2 7c3c c8d2 2b3f 40b1 6dbf 16c5 f2be
00000100: 89a0 8cbe 036f 61bf bbe2 78bd 470a 49be
00000110: bc61 a33d 4844 003d c222 4ebd d5e1 cfbe
00000120: 9356 02bf 1e9c c9bd 006a 01bd ece9 fd3d
00000130: 38d6 1cbf a06e 78be 34cf 7cbf 0283 08bf
00000140: c2fc 9abd 3fae 75bd dc39 b8bf 500c 4abf
00000150: f436 5fbf 0fe5 e0be 8365 133f f5cb 96be
00000160: 4140 8ebe a0aa 51bd b178 07bf df0a d0bb
00000170: 8beb d5be ab94 e2bc 69ba 8a3d 5828 abbd
00000180: 5a91 95be 3b16 663b 0993 793f 0761 15be
00000190: e465 05be 32fa 253e fe4f 85bf 13f3 fbbd
000001a0: d707 bcbe 191c 82be 9d2f f4bd 415a 60be
000001b0: 987f 4a3f a441 ef3d dceb 033e 00ee 3dbd
000001c0: f6af 6c3e 2b0c efbd 5abd 1c3e f981 d4bd
000001d0: 8def c2bd 3a6d 6abe c08a 2bbd 25cc 353e
000001e0: 6847 ddbd f3ad b1bd 2aca 9e3e f339 79be
000001f0: 62f5 523f 5be4 e03e 301f 0cbe f5cb 8bbe
00000200: 2125 b5bf e2b9 233e ffb5 62bf e066 d63e
00000210: c1d2 37bd 2370 6abd 4b32 9fbd 32e3 e53d
00000220: 2974 0e3e 638e 4c3c 3c23 803e 592c cf3e
00000230: d34f 8abd 3f2d 99be 9adb af3e 6a97 a63e
00000240: 6a40 ac3e 1fa6 1abe ad5a 033f b9d7 20be
00000250: 3600 393e 8887 88bd ee92 6a3d 6b8f d8be
00000260: ba22 a13d f867 b63d 38b2 89bd 43e2 47bd
00000270: d9e0 afbe 56d5 953c d072 a93e e212 c03d
00000280: 8141 8fbb a5fa b63e fa4e 82be 0428 89bf
00000290: e4e0 8dbe c627 71be c075 81bd d69c fa3d
000002a0: 38b2 873e b094 7b3c f7f7 4fbf 0560 81be
000002b0: e754 e6be 69af 93bd 3e90 d83b 82da 233d
000002c0: cf6f 02bf a8cf fabc a5d9 a83e 3c51 ddbd
000002d0: 9080 a5be fa03 153f 46d7 b3bf 2143 ba3d
000002e0: d52d f63e f2dd cebf 0e59 3dbf 3e35 3e3e
000002f0: 22fd b53e 3283 c3bd e92d 893e 369b 2e3d
00000300: af7c e4bd 240f 2bbe 3866 92bc 2232 223e
00000310: 0465 b23c 96eb acbd 9d28 b1be 741b 613d
00000320: a40c 42be bbf3 fb3d 5dd4 b03e 0fb1 4cbc
00000330: 9ab6 b03e 2242 393f 766c 72bd d076 68be
00000340: 90cb b33e 50bc 40be 4227 d5bf 4d95 e0bf
00000350: a555 e7bf 90b3 a3be 428f dabf 92b5 26c0
00000360: 69f8 cabf 4468 c4bf 3adf b6bf 3967 cbbf
00000370: b5af 0fbe d3ad b3bd 612e b2be 0f38 86bd
00000380: 27aa 313f d8dd 82be 4ae0 863f fcec 25bf
00000390: 7d1d 7ebe ee63 3abe ca03 bebf 0356 b9be
000003a0: 813d 8abf 5a45 a23d d230 433d d36c 1cbe
000003b0: 2ed5 11bf aca5 14bf d0a2 acbf 4687 acbf
000003c0: f659 353a bae4 2ebd f468 92bf 5d36 58bf
000003d0: 5b7a 193f 232b dfbe e785 d53e e00b 4ebe
000003e0: 1c7a a3bf f367 46be 3c02 6c3c 8732 963e
000003f0: 450d 8dbe a3a8 01be 1a3d 5cbd 4814 1c3e
-0.16220199 -0.0598844 0.15658769 0.01931116 0.114456326 0.024296418 -0.21574861 0.057848215
-0.09598614 -0.14886807 -0.107456736 0.067251 0.14808589 0.05021888 -0.10740505 -0.16865805
-0.07476322 -0.12311938 0.045152605 0.1681461 -0.021059468 0.09325445 -0.055177383 -0.5255392
-0.41834062 -0.82270837 0.41797987 -0.49700543 0.7067392 -0.051530614 0.15575352 -0.060251806
-0.41057542 0.027950965 0.12193247 -0.17305695 -0.57893836 -0.37440822 -0.27442434 0.17549115
-0.09674832 -0.16526264 -0.13655627 -0.007581666 -0.13088003 0.051501244 -0.0622679 -0.05526164
-0.21155663 -0.0035615861 -0.054394677 -0.1431902 -0.035055503 -0.17879336 -0.16443984 0.11183816
-0.04331836 -0.056173936 -0.086701095 0.051830977 0.015431147 0.671185 -0.9284859 -0.4741599
-0.2746623 -0.88060015 -0.060763102 -0.19632827 0.07977626 0.031315118 -0.050326116 -0.40601984
-0.5091335 -0.0984423 -0.03159523 0.12398133 -0.6126437 -0.2426095 -0.98753667 -0.533249
-0.07567741 -0.059980627 -1.4392657 -0.7892504 -0.87193227 -0.43924758 0.5757677 -0.29452482
-0.27783397 -0.05118811 -0.52918535 -0.006348952 -0.41781268 -0.027658781 0.06773836 -0.08357304
-0.29212457 0.0035108465 0.9748998 -0.14587794 -0.1302715 0.16208723 -1.0415037 -0.12302222
-0.3672473 -0.25412062 -0.11923144 -0.21909429 0.7910094 0.11682442 0.12882942 -0.046369553
0.23113999 -0.11672243 0.15306607 -0.10376353 -0.09518347 -0.22893229 -0.04188037 0.17753656
-0.10804635 -0.08675756 0.31013614 -0.24338512 0.82405674 0.4392422 -0.13683772 -0.27304044
-1.4151956 0.15988877 -0.88558954 0.41875362 -0.044878725 -0.05723585 -0.077732645 0.11224975
0.13911499 0.0124851195 0.25026882 0.40463522 -0.067535065 -0.29917333 0.3434723 0.32537395
0.33642894 -0.15102433 0.51310235 -0.15707292 0.18066487 -0.066664755 0.05726903 -0.4229692
0.07867952 0.08906549 -0.06723446 -0.048799764 -0.34351233 0.018290203 0.33095407 0.093786016
-0.0043718223 0.35738102 -0.2545088 -1.0715337 -0.2771064 -0.23550329 -0.06321287 0.12236945
0.26503158 0.015355274 -0.8123774 -0.2526857 -0.4498665 -0.07211191 0.006608992 0.040003307
-0.50951856 -0.030616596 0.3297855 -0.1080651 -0.32324648 0.5820919 -1.4050071 0.09094835
0.48081842 -1.6161482 -0.7396401 0.18574998 0.35544688 -0.09546508 0.2679284 0.04262849
-0.11156594 -0.16704994 -0.017871007 0.15839437 0.021776684 -0.08443372 -0.34601298 0.054957822
-0.18950135 0.12302347 0.3453702 -0.012493386 0.34514314 0.72366536 -0.059185468 -0.22701573
0.35116243 -0.18821836 -1.6652606 -1.7545563 -1.8073012 -0.31972933 -1.7074969 -2.6048322
-1.5857059 -1.5344319 -1.4286873 -1.5890876 -0.1403187 -0.08773389 -0.3480101 -0.06553661
0.69400257 -0.25559878 1.0537198 -0.64814734 -0.24815936 -0.18202183 -1.4844906 -0.36198434
-1.080002 0.07923384 0.04765398 -0.15275888 -0.5696591 -0.58065295 -1.3487186 -1.3478782
0.0006918007 -0.0426986 -1.1438279 -0.8445795 0.59952325 -0.43587598 0.41703722 -0.20121717
-1.277164 -0.19375591 0.01440483 0.29335424 -0.27549186 -0.12661986 -0.05376921 0.15242112

cluster_projector.0.bias f4 [128]
00000000: c869 cb3d 0456 743e dc18 31bd 3022 493f
00000010: 5c02 8a3e d1fb d53b 7223 87be a9d0 1ebe
00000020: e594 4a3f 1a29 873e 332a 37be 7a75 173e
00000030: e413 ebbe 43c1 03be fbc2 853f 0cbf f43e
00000040: 40b1 0c3e 73e5 a53e 6936 c13d 534a 79bd
00000050: b439 a33d 681f d6bc 516c 61be c81b 98bd
00000060: ffc8 4c3d b706 023e 9ef8 d23b b1b5 2b3f
00000070: d0b2 0cbf 0dbc 8fbd 8b22 6f3f 0802 e93e
00000080: 2315 3bbe 2433 733f c2f8 92be 77b7 3e3f
00000090: 8ed3 fb3e a76c 5a3e 071f 173d 795a 8b3c
000000a0: b669 0abe 7e5a 0c3f 60f4 37be 60f1 09bf
000000b0: fade e2bd 63a1 493f d852 d3be ac17 e2bd
000000c0: 3b0d 42be 02d9 eebd 28ff 483d 2cd7 543e
000000d0: 6ba3 0dbf ebe2 67bd 90a2 cf3e adc3 3f3e
000000e0: 43bd 0e3f f0c9 c2bc 5af2 55bd f099 ce3c
000000f0: 5280 a3be 8b46 6a3e c0fb 333c c805 aebe
00000100: ec79 80bf 18dc 053f b320 5d40 d7fe 283e
00000110: 4a2c f9bd 6b93 a4bd 30ef e1bc ee93 1d3f
00000120: 7b51 37be 4471 52be d701 1e3e 4870 873c
00000130: 0945 3cbf 9708 51be c86e cf3d 9400 0c40
00000140: 8119 0f3f 8a7b 81be 1f2f c83d e763 473e
00000150: 09d6 62be 8621 de3b 5202 a0bd 8acc 09be
00000160: a201 403f 50b5 1c3e 2583 833d 2ead abbd
00000170: 9328 aa3e e6bf 313f 5305 a7be 5d52 1dbf
00000180: 42a7 ed3e 0c7f 51be 87be 98be b541 9ebd
00000190: 8005 8ebe f73c cdbd 4062 3e3b ff4e 30be
000001a0: 0586 a93e 94cd 0e3e 24e3 453f 26d9 08be
000001b0: 9569 62be 7f46 4a3e 5283 05be 1000 c6be
000001c0: d454 183e 27f6 51be 8d49 c53e 8dff 96be
000001d0: bbc8 5d3e fb03 5a3f d862 823d 4647 ec3e
000001e0: bc26 37bc 8201 5dbe 73ce 0cbf 1bd2 2abe
000001f0: d638 c6be 1cd9 99be 6b0c 33be 1463 eebe
0.099322855 0.23860937 -0.0432366 0.7856779 0.26954925 0.006530263 -0.2639423 -0.15509285
0.79133445 0.26398546 -0.17887191 0.14790908 -0.45913613 -0.12866692 1.0450128 0.47802007
0.1373949 0.32401618 0.09434206 -0.060861897 0.079699904 -0.026138023 -0.22013976 -0.07427174
0.049996372 0.12697874 0.006438329 0.67074114 -0.54960346 -0.0701829 0.93412083 0.45509362
-0.18269782 0.9499991 -0.28705412 0.74498695 0.4918484 0.2133051 0.036894824 0.017010914
-0.13516888 0.5482558 -0.17964315 -0.53883934 -0.11077686 0.7876188 -0.41274142 -0.11039671
-0.1895036 -0.11662485 0.04907146 0.20785207 -0.5532748 -0.05661289 0.40553713 0.18726988
0.5575754 -0.023777932 -0.052233078 0.025219887 -0.31933838 0.22878473 0.010985315 -0.33988786
-1.0037208 0.5228896 3.4551208 0.16503464 -0.121666506 -0.0803593 -0.027579874 0.6155385
-0.17902176 -0.2055102 0.1543039 0.016533032 -0.7354284 -0.20413433 0.10128552 2.1875353
0.5589829 -0.25289565 0.09774613 0.19471703 -0.2215196 0.0067788986 -0.078129426 -0.13456932
0.7500249 0.1530354 0.06421498 -0.08382641 0.3323408 0.6943344 -0.3262125 -0.614538
0.4641667 -0.20458621 -0.2983286 -0.07727376 -0.2773857 -0.10021394 0.002905026 -0.17217635
0.3311006 0.1394561 0.77299714 -0.13364086 -0.22110589 0.19753455 -0.13038376 -0.38671923
0.1487611 -0.20504056 0.38532677 -0.29491845 0.21658604 0.85162324 0.06366509 0.46148127
-0.011178669 -0.21582606 -0.55002517 -0.16681711 -0.38715237 -0.30048454 -0.17485206 -0.46559966

cluster_projector.2.weight f4 [50, 128]
00000000: a006 e13c 6914 07bf e64e 69bd 71ae 793e
00000010: 2b39 67bf 0d5e b43c e97d a53d d277 48bc
00000020: 0497 f53d 940b 743e eaca bebe dc11 223d
00000030: c893 27bf 9ab2 94bc d86e 053f 38eb 95be
00000040: 6fc2 993d f04b 9e3d 722d 3abd 4c10 58be
00000050: 2a56 1cbd 5f13 243e 9d63 803e 55e0 013f
00000060: 9640 4f3e d3f0 363e 60f1 32bf d9d7 b63e
00000070: 7ca0 833e 08d5 08c0 8436 993e 80d9 e43e
00000080: 4c90 3bbd 9d00 013f 53f7 ecbd c200 253f
00000090: 18a5 b43e bfe2 dd3d c33c 923e fd72 30bd
000000a0: f287 abbd 6fee 6b3e 7057 cfbc d799 cfbf
000000b0: d1f6 e3be 2531 213f b29e c8be 3b8c 83bf
000000c0: e2cc 84bf 473f 133f 08e0 02bc 785d 533e
000000d0: 4884 8abe 9d77 383e 00e9 1b3e 8e06 113f
000000e0: 6904 123e 0022 1fbc 9d51 3d3f 7cd4 b83c
000000f0: ac1d a43c 8192 a93d aaab 293d 80bf a0bd
00000100: f891 713e a8f3 a83d 34ef 4d3e 3855 b23e
00000110: e3ce 70be 35b7 033e ee5d 8fbd cba1 873e
00000120: 2393 5b3d 802c 143e d9c7 64bc b86c 3c3e
00000130: 96ba 99bd 8d16 473e ab5d 863d 48f8 2fc0
00000140: d062 673e 3759 d33e 86cc 273e f932 28c0
00000150: 48e0 acbc c026 18c0 82d6 ff3d 0822 733e
00000160: 4889 f23e 42ef 293e 934e ce3e ad54 10be
00000170: 3dbd 803e 1492 03bf 4ab4 03be 4fa8 b03e
00000180: 90c1 473e 4272 a0bd 8ad2 233e 23f5 473e
00000190: dd64 b5bd f2cc 72bd 0067 5eba aba5 a43e
000001a0: 65d7 2bbf 4d3a 3c3e 4933 293e 2c0e 433e
000001b0: 1e51 4dbe 327f 9dbe 317e 033d 2d8a 5f3e
000001c0: d475 323e 5a57 c8bf a010 393e 7405 353f
000001d0: 8382 213e 0872 f63e d5da 39bd 30a3 023f
000001e0: 3e72 9b3d be1a 2abf 737e 11bf 147d fc3e
000001f0: c125 03be d692 3e3d 010d 0abf e738 103e
00000200: 2864 9a3c a345 393e a271 323d c003 393e
00000210: a1ae c4bf 8975 aabe 0bc2 d9c0 f76d 5d3e
00000220: c007 97be 39bf dd3d c428 08c0 65da c0be
00000230: ed0e e6c0 61b0 90bf e7b1 32bf b6ed 6bc0
00000240: 5d67 4bc0 1d61 dfbd df5c aec0 3139 d8bf
00000250: 5e98 603d e0e2 073e 57f3 98c0 cb6d 333c
00000260: 7bc2 b53c 11b5 67bf 344a f4bf 10de ce3d
00000270: 7aa9 d93e 4c90 34c0 0347 4cbf 0a4f 373f
00000280: d2ff 52bd b5b1 393d 9f86 b43f a64a eebe
00000290: 1a91 973e c17d 2e3e 95df 50c0 33a6 61bf
000002a0: 8c75 8e3c 8893 8bbe 4e0c a8bd b583 5ec0
000002b0: 6839 fec0 e498 43be b95a 8dbd b23e f0bf
000002c0: 34e7 dfc0 327d 73be 70e9 ff3c 35a4 85be
000002d0: ba86 a1bf 4639 10bd 4068 11be 0509 6cbe
000002e0: 1f0b 123e ff18 38bd ad08 ab3e 16a8 91bd
000002f0: 2187 b2be 20a6 903c c071 9eba 2d2a 8dbf
00000300: e5e8 0cbe 5027 aabd bff0 d93e 1b64 89be
00000310: 1832 483f 9a01 ac3e 7f72 48bd 4985 183e
00000320: d129 6f3e 3412 bdc0 f080 3e3c 2543 383e
00000330: 183d 05bf 7f4f 313e 6ac5 2a3d 3190 713e
00000340: 9604 35be 7847 233f 29ce 45bf 5ea0 b23e
00000350: 79f2 15bd bc10 173e dea2 2bbf 3638 9ebe
00000360: 43c5 bb3d f86d 55bd f384 153f 0758 a0c0
00000370: 15d0 a4bd 6684 4b3e 5e67 303e 8d85 24bf
00000380: 0664 a9bb 6bbd 803d 8627 72c0 ecc7 b6be
00000390: b883 a83e 147b 7ac0 62ef 6dbd 1b5b 423e
000003a0: 86a8 b4bf cd85 9a3f 9e49 d8bf b023 a53d
000003b0: a17c e9bf 4d01 a0bf beb7 afbd 3e0c 3a3e
000003c0: 127f 303e 4523 ccbe 19ce 43c0 f19a 62bf
000003d0: 8c7a 25bd bfaf a0bd 7858 cabc 874d 98bc
000003e0: 872f 3340 42c1 a3c0 2e89 b53d aa8a ebbe
000003f0: 43bc c73d ede0 c3be 6691 463e 9189 953e
0.02746898 -0.5276552 -0.05696001 0.2438295 -0.90321606 0.022017503 0.08080656 -0.012235599
0.119916946 0.23832542 -0.37264186 0.039567813 -0.6545987 -0.01815157 0.5212226 -0.2928102
0.075077884 0.07729328 -0.045453496 -0.21099967 -0.03816811 0.16023014 0.25076 0.5073293
0.20239481 0.17865305 -0.6989956 0.35711554 0.25708377 -2.1380024 0.29924405 0.4469719
-0.04579191 0.5039156 -0.11570611 0.6445428 0.35282207 0.10834264 0.28561983 -0.04307841
-0.08375539 0.23040174 -0.025310248 -1.6218823 -0.44524243 0.62965614 -0.39183575 -1.027717
-1.0375025 0.5751843 -0.0079879835 0.20641124 -0.27054048 0.18014379 0.15225601 0.56650627
0.14259495 -0.009712696 0.73952657 0.022562258 0.02003368 0.082798965 0.041423477 -0.07849026
0.23590839 0.08249599 0.2011078 0.34830642 -0.23516421 0.12862857 -0.070003375 0.26490626
0.053607117 0.144701 -0.013963663 0.18400848 -0.075062916 0.19442196 0.065608345 -2.749529
0.22596288 0.41279003 0.16386613 -2.6281111 -0.02110304 -2.377365 0.12492086 0.2374345
0.47370362 0.16595176 0.40294322 -0.14094801 0.25144377 -0.5139477 -0.12861744 0.3450341
0.19507432 -0.07834293 0.15998283 0.19527106 -0.08857129 -0.059277482 -0.0008483976 0.32157645
-0.6712554 0.18381615 0.1652347 0.19048375 -0.20050475 -0.30761105 0.032102767 0.21830054
0.1742776 -1.5651658 0.18072748 0.70711446 0.15772443 0.48133874 -0.04537471 0.51030254
0.07590149 -0.66447055 -0.5683357 0.49314177 -0.1280737 0.046526752 -0.5392609 0.14084207
0.018846586 0.1809297 0.0435654 0.18067837 -1.5365793 -0.33292797 -6.804937 0.2162398
-0.294981 0.108274885 -2.1274881 -0.37666622 -7.189322 -1.1303827 -0.6980271 -3.6863837
-3.1781838 -0.10907195 -5.448837 -1.6892453 0.05483281 0.1327014 -4.7797046 0.01095147
0.022187462 -0.9051066 -1.9085145 0.10100949 0.42512113 -2.8213072 -0.79795855 0.7160498
-0.0515135 0.04533549 1.4103583 -0.46541327 0.2960289 0.17040159 -3.2636464 -0.88144225
0.017390035 -0.27260995 -0.08205472 -3.4767888 -7.9445076 -0.19101292 -0.069020696 -1.8769133
-6.996973 -0.23778227 0.031239241 -0.26101843 -1.261924 -0.03521087 -0.14199924 -0.23050316
0.14262055 -0.044945713 0.33405057 -0.07112138 -0.3486872 0.01765734 -0.0012088344 -1.1028496
-0.13760717 -0.083082795 0.42566487 -0.26834187 0.78201437 0.33594972 -0.048937317 0.14894594
0.23355795 -5.908472 0.011627421 0.17994364 -0.52046347 0.17315482 0.041692175 0.23590161
-0.1767753 0.6378093 -0.772677 0.34887975 -0.036608193 0.14752477 -0.6704539 -0.3090226
0.09168484 -0.052106827 0.5840599 -5.0107455 -0.08047501 0.19874725 0.17226931 -0.6426628
-0.0051693944 0.062861286 -3.7836623 -0.35699403 0.32912993 -3.913762 -0.05808962 0.18980066
-1.4113929 1.2072083 -1.6897466 0.080634475 -1.8241159 -1.2500397 -0.08579968 0.18168733
0.17235973 -0.3987066 -3.0594542 -0.8851767 -0.040400073 -0.07846021 -0.024700388 -0.018591655
2.7997758 -5.117341 0.088640556 -0.4600423 0.09752705 -0.38257542 0.19391403 0.29206517

cluster_projector.2.bias f4 [50]
00000000: 58c8 203f 5134 29be da63 463e e0ce d83e
00000010: 942f 5d3e 1d69 07bf 31e9 853d 9b79 80be
00000020: 2930 8f3e 8bd6 e63e c152 cd3e c8d0 01be
00000030: 4798 fb3e a2b7 bdbe 34bb 9ebe 3b02 99bd
00000040: 5624 34be c329 193f 7a68 0a3f 2905 9ebd
00000050: 1a91 67be 0809 0e3f b530 fd3d 87b7 513d
00000060: 9ade 37be 1726 193f b35b b0bc c007 993d
00000070: 8055 b43d a8ee 2a3e 36e5 41be 98e9 40bd
00000080: 4343 c23e 589b 3f3f 65fd f43e c37c 0e3e
00000090: ef7d fc3e 490a ec3e 025a 163d d95b 5fbd
000000a0: 65d7 2abe 5c20 423e 9c49 bc3e 1729 b5bc
000000b0: b117 d2be 0950 d73d 96bd 5abe 26b9 85be
000000c0: c7c9 883f f957 963d
0.628057 -0.16523863 0.19374028 0.42345333 0.21600181 -0.52894765 0.06538618 -0.25092778
0.2796643 0.45085558 0.401022 -0.126773 0.49139616 -0.37054163 -0.310022 -0.074711286
-0.17591986 0.5982935 0.5406567 -0.07715828 -0.22613946 0.5548253 0.12362806 0.051200416
-0.1795601 0.59823745 -0.0215281 0.07472181 0.0880537 0.16692603 -0.18935093 -0.047097772
0.37941942 0.7484641 0.47849575 0.1391478 0.4931483 0.46101597 0.036706932 -0.054530952
-0.16683729 0.18957657 0.3677491 -0.02211432 -0.410337 0.10513312 -0.21361384 -0.2611782
1.0686578 0.07340998

exp_avg f4 [128, 20]
00000000: 1df3 d4bd c3df 19bd 586b 423a d254 efbc
00000010: 0f46 ffbc 4ac4 8cbc 0c2d c1bb 2360 bdbc
00000020: 6cbf c5bc 0000 0000 4cab 2bbb 51de 48ba
00000030: 9c8c 5cba bf33 afbc 0945 a6bc 4981 a7bc
00000040: b5d6 55ba 0fb8 fcba aa5b 04bb f23e 21b9
00000050: c952 84bb c941 deba 1083 4a3b 2776 9bba
00000060: 947a f9ba 41ed 69b7 1c0e 4ab9 46a9 d1ba
00000070: 4403 eeba 0000 0000 2bda d6b8 4659 2c39
00000080: dc9b 2339 c0cd b6ba b904 b3ba 4f70 b2ba
00000090: a4eb 2439 63a3 eeb8 e1ca 66b7 28d1 e137
000000a0: 8f97 c03e fd63 8b3d bda0 ae3b fff3 02bb
000000b0: 52b7 5c3a ec67 023d fe1f 353d 9b07 d83c
000000c0: 18ce 0a3c 0000 0000 077a d93b 0f60 9f3b
000000d0: 8bd7 863b a345 ffbf ee72 ffbf d054 ffbf
000000e0: 808e 8c3b 69f1 2a3a 1128 23bb e841 ceba
000000f0: cac1 333b b012 b33a ce67 a13a e1bf 883a
00000100: 89d0 293a a9e0 b23a 7eb1 9a38 a9e0 b23a
00000110: cd1c c835 0000 0000 e244 5d39 0de4 f038
00000120: 7eec fc38 af7c 4c3a 6ca9 463a 6455 473a
00000130: a2ea f638 53d9 7439 10ce 7c39 959d 3938
00000140: 620a 203b f6b1 82bb 0fd2 8c38 4071 8aba
00000150: 59ce d5b9 bf7b fcbb 6d1f a7b9 f678 0abc
00000160: 2739 bb3b 0000 0000 18a3 bbba 0fec 0aba
00000170: 8e8c 0aba 8f33 02c0 0831 02c0 3a32 02c0
00000180: fecf 07ba 2393 11ba 9502 2dba fb59 beb8
00000190: fa46 da3a 108c 8539 0400 0080 0400 0080
000001a0: 0400 0080 fbe3 01ba 6332 8039 b61d 4838
000001b0: e745 e837 0000 0000 5b40 0837 3798 1338
000001c0: df2b 1438 bd1a 6339 ef97 5f39 bac5 6539
000001d0: db14 1438 1a86 ce38 cd88 c136 3eb0 7036
000001e0: 9f0c 293d 24b4 153c 9524 653a 1f14 003c
000001f0: c3eb ed3b 1af0 23bb e16c 86b9 9ffc 24bb
00000200: 99d6 3e3c 0000 0000 fdd6 8cb9 1240 173a
00000210: 17fc 1c3a 4962 9a3b 2593 903b 3bcc 923b
00000220: 2204 193a 4fe7 7cb8 79ca 1b39 16ae f5b7
00000230: c27c c33b 80a8 933b a777 2e3b b932 893b
00000240: 5f24 613b e690 023a f509 5abb f9ea 103a
00000250: 0539 8f3b 0000 0000 dc13 9739 bc69 9539
00000260: 3231 9f39 42a9 f73f 05a3 f73f 1ea6 f73f
00000270: 4f22 9c39 e117 3339 1818 f939 c236 9a38
00000280: 5f1a 72be 5b69 f7bc 5f96 b5bb 91eb 7ebb
00000290: 108e 09bc 4d7d d237 5805 3038 b89f 0ebc
000002a0: 1d74 41bc 0000 0000 0b95 19bc ea81 4cbc
000002b0: 866e 50bc ca41 a43f bc39 a43f ad3d a43f
000002c0: 48f7 4dbc 2260 feba af8e 2bbb 6faa caba
000002d0: edad 433c 2676 043b 2e8b c739 812c 2f39
000002e0: 5c04 0d3a efe7 a33a a0e4 d6b8 b39c be3a
000002f0: 8441 ab39 0000 0000 93a1 163a ba22 ab3a
00000300: b551 a33a 6f4e 97c0 be4d 97c0 0e4d 97c0
00000310: 602d a83a 2d26 09b8 bb68 d037 0f4c 1c37
00000320: b74a 66bd 2233 24bc b8b1 5fbb ff87 4fbb
00000330: 8bc8 f1bb 0af2 8738 3a0b 5438 d7c9 42bb
00000340: 93a5 2abc 0000 0000 f04f b6b9 8e32 a9ba
00000350: f029 8bba fbc5 0ebb 16f8 04bb e279 14bb
00000360: 38c5 9dba 8909 03ba deed 81b8 0c08 0fb8
00000370: b01a 473f fd9d 753e eda6 7f3d bd63 3c3e
00000380: c5d3 3d3e 24c4 8e3d 3997 793c 19aa a93d
00000390: d503 363e 0000 0000 224d 4b3c 25e0 a53c
000003a0: f892 ab3c 4840 86c1 454a 86c1 5b47 86c1
000003b0: 10af a83c 3a94 253c 0bb5 4b3c b95a f83a
000003c0: 467f 83be 438e 1cbd 0400 0080 0400 0080
000003d0: 1698 c0b7 991a e2bc 675d 26bd fe85 bfbc
000003e0: d176 e339 0000 0000 5242 46ba f13e 4cbb
000003f0: 451e 41bb 95c5 cfbc 0462 d4bc 24f7 d4bc
-0.10397933 -0.03756691 0.0007416508 -0.02921525 -0.031161336 -0.017183442 -0.0058952626 -0.02311713
-0.024139129 0.0 -0.002619463 -0.0007662522 -0.00084132864 -0.02138698 -0.02029659 -0.02044739
-0.0008157299 -0.0019280928 -0.0020196238 -0.00015377605 -0.004038189 -0.0016956861 0.0030900873 -0.0011860774
-0.0019033724 -1.3943122e-05 -0.00019269477 -0.0015995882 -0.0018158932 0.0 -0.00010244952 0.00016436455
0.00015602953 -0.0013946816 -0.0013658024 -0.0013613793 0.00015728042 -0.000113791575 -1.3756305e-05 2.6919486e-05
0.3761563 0.068061806 0.00532922 -0.0019981859 0.0008419651 0.03183739 0.044219963 0.026370814
0.008471988 0.0 0.0066368612 0.004863746 0.00411505 -1.9943126 -1.9956949 -1.9947758
0.0042894483 0.0006520958 -0.0024895708 -0.0015736194 0.002742874 0.0013662186 0.0012314261 0.0010433161
0.00064779125 0.0013647276 7.376353e-05 0.0013647276 1.4909543e-06 0.0 0.00021101863 0.000114865696
0.000120603465 0.0007800562 0.00075783464 0.0007603972 0.00011773898 0.00023350613 0.00024109357 4.4254197e-05
0.002442025 -0.0039884998 6.714847e-05 -0.0010562316 -0.00040780267 -0.0077051814 -0.00031876136 -0.008451691
0.0057136 0.0 -0.0014315573 -0.00052994577 -0.00052852265 -2.034397 -2.0342426 -2.0343156
-0.00051808346 -0.0005553236 -0.0006599811 -9.076666e-05 0.0016653233 0.00025472092 -6e-45 -6e-45
-6e-45 -0.0004954931 0.00024451604 4.7711386e-05 2.7689106e-05 0.0 8.121216e-06 3.5189292e-05
3.5326808e-05 0.00021658368 0.00021323537 0.00021912801 3.5305373e-05 9.847824e-05 5.767774e-06 3.5865373e-06
0.041271802 0.009137187 0.0008741108 0.007817297 0.007260771 -0.0025014938 -0.00025639593 -0.0025174988
0.011647844 0.0 -0.0002686306 0.000576974 0.0005988492 0.0047114235 0.0044120722 0.0044799126
0.00058371027 -6.0296905e-05 0.00014857379 -2.9287341e-05 0.0059658 0.0045061707 0.0026621611 0.004186955
0.0034353954 0.0004980698 -0.0033270095 0.0005528178 0.004370811 0.0 0.0002881576 0.00028498273
0.00030363497 1.9348528 1.9346625 1.934757 0.000297802 0.00017079666 0.00047510932 7.353492e-05
-0.23642872 -0.030201605 -0.0055416073 -0.0038897733 -0.008395687 2.5092299e-05 4.1966647e-05 -0.008705072
-0.011807469 0.0 -0.0093739135 -0.012482146 -0.012721663 1.2832577 1.2830119 1.2831322
-0.0125711635 -0.0019407312 -0.0026177575 -0.001546217 0.011943323 0.0020212024 0.00038059935 0.0001670588
0.0005379373 0.0012505035 -0.000102469 0.001454255 0.00032664475 0.0 0.00057461223 0.0013056614
0.0012460264 -4.7283244 -4.72824 -4.728156 0.0012830906 -3.26989e-05 2.4844301e-05 9.316033e-06
-0.056223597 -0.010021957 -0.0034133028 -0.0031666753 -0.007378643 6.482385e-05 5.0555194e-05 -0.0029722357
-0.0104154525 0.0 -0.00034773303 -0.0012908743 -0.0010617357 -0.0021785486 -0.0020289472 -0.0022655656
-0.0012036925 -0.0004998674 -6.1955056e-05 -3.410135e-05 0.77775097 0.23986049 0.062415052 0.18397422
0.18537815 0.069710046 0.015233808 0.08284397 0.177749 0.0 0.012408527 0.020248482
0.020944104 -16.781387 -16.786264 -16.784842 0.020591289 0.010106141 0.012433301 0.0018947936
-0.2568304 -0.03822161 -6e-45 -6e-45 -2.2959004e-05 -0.027600573 -0.04061642 -0.023379322
0.0004338534 0.0 -0.0007562983 -0.0031165446 -0.0029467505 -0.02536277 -0.025925644 -0.025996752

exp_avg_sq f4 [128, 20]
00000000: 8b2c 1c3f b2ed 313d 1893 b43b c4f2 883c
00000010: 3625 643c de54 303c 5dd1 c93b c541 4d3c
00000020: 138a 513c 0000 0000 3c59 6e39 1717 0439
00000030: f62e 0639 af99 5343 d59a 5343 769a 5343
00000040: 1592 0339 1809 cd38 3de2 d838 cfc2 c135
00000050: ff60 5b3d 1e91 713b 434a 493a f46d fb3a
00000060: 030f d23a ec17 6a3a c287 dd39 e51b 773a
00000070: 53a1 cc3a 0000 0000 cd40 a137 e52d 1337
00000080: 9184 1437 5eb5 213b 0427 1b3b 5ea0 1c3b
00000090: fb29 1137 63b8 e636 f703 2637 eae6 2a34
000000a0: 110c 6341 3f25 1f3e 13c0 673a ea23 1d3b
000000b0: 2ffb 6c3b feb7 153d 621d c13d d7bb 593d
000000c0: 1536 f53b 0000 0000 ba22 d739 76fe d53a
000000d0: ebf3 e83a 79c8 2a47 11ca 2a47 33c8 2a47
000000e0: 4780 e73a b70c fa3a 5ce5 053a c156 9139
000000f0: 5f31 1b39 bf42 1a38 be53 a137 69c7 8a37
00000100: ea8f 6437 8eff 1938 2358 e633 8eff 1938
00000110: 3c0a 672f 0000 0000 601c 6c35 2ac5 7d34
00000120: d259 8834 9327 5a37 9b2d 4e37 9cb5 5037
00000130: 7891 8334 707e 9735 f050 4635 04fe 0233
00000140: 6b24 ee3d ea0b 273c 17cc 8837 85e7 a63b
00000150: 1c87 9e3b ee63 d43a 12b0 0037 6e7b dd3a
00000160: 826f 933b 0000 0000 41e9 5b38 a66e 5c38
00000170: 6241 6238 aee2 2045 bddf 2045 bde1 2045
00000180: 4e82 5e38 a5c5 a637 b92a 0838 1d4a e434
00000190: baa8 9b3c 8d48 0a3a f401 0000 f401 0000
000001a0: f401 0000 0af9 c139 26a7 093a 412f 8a39
000001b0: 5b1f a634 0000 0000 d14d 4b35 dcd8 a336
000001c0: 5c0e a336 6749 e338 13f8 f838 fa04 f338
000001d0: b572 a336 34fc 5236 476e d631 6e10 b130
000001e0: 0a9b da3c 4028 e53a 5b0f c737 e2f2 903a
000001f0: 0a6f 9c3a 3a58 3638 6264 6d37 6013 2338
00000200: c026 bd3a 0000 0000 9c02 0236 3dcb 9537
00000210: 9935 9237 7a12 583a 8429 4d3a 2812 513a
00000220: 2457 9437 ce72 9b35 6221 1a36 0d64 c033
00000230: 317e 2d3d a813 3f3b 7159 c939 4d62 8f3a
00000240: 870c 6d3a eaff 3a3a 56ce dd39 1943 573a
00000250: 2ee6 513a 0000 0000 9921 7037 4993 1537
00000260: 2b67 1737 ab92 4344 288f 4344 d691 4344
00000270: 8ab2 1437 37ea ec36 1267 da36 c2b1 be33
00000280: c426 7a40 8443 313d 559e 433b fe4e 343b
00000290: 73f8 c03b 7460 8535 b01a fe35 8190 083c
000002a0: 39a8 0d3c 0000 0000 e6c8 6b3b 4c21 293c
000002b0: 492d 293c eaf3 9f45 aaf8 9f45 cbf5 9f45
000002c0: 769c 2a3c 1592 8b3a 5381 023a cb29 c339
000002d0: a506 673e 10a4 c03b 3c2f 0936 a383 0236
000002e0: 3d9d 1937 6e25 273b aff7 873b 67dd 403b
000002f0: 5564 8237 0000 0000 3569 ee38 2f78 3439
00000300: e2ef 2a39 8c6a 9c44 286c 9c44 226a 9c44
00000310: b8f8 2d39 1dbd cf37 621c 8834 ddd3 bd32
00000320: 2a49 de3d 865d c93b e085 af3a ce7e 4e3a
00000330: 21a2 c03b 6ec9 1b35 046d 2335 d20f ad38
00000340: fe51 bd3b 0000 0000 dbf5 f037 0a0d d738
00000350: bf67 db38 af9a 453d a495 453d fd97 453d
00000360: 4563 da38 4d16 0a37 eaad b337 6a5a 1036
00000370: 75fa 5040 fc97 943e d69a 0a3d 659b 1f3e
00000380: 4b8d 393e 4f6b f33c 724c 873a caf6 0b3d
00000390: e1bd 2a3e 0000 0000 cb68 953a d54f 313b
000003a0: 8060 3b3b 8789 2f47 ef86 2f47 b888 2f47
000003b0: bd79 363b 494a ff39 a071 423a fc7a 2938
000003c0: 0990 9840 7b3f 0c3e 862b af2c 3544 3d2c
000003d0: 6529 1037 6fd1 9f3d 5a32 003e fc66 833d
000003e0: 9313 aa36 0000 0000 9e9c dd39 cc49 b13a
000003f0: 8c70 ae3a 2c73 483f a7ff 483f b5ed 483f
0.6100547 0.043439575 0.005510699 0.016717322 0.013924887 0.010762421 0.0061589913 0.012527888
0.012789267 0.0 0.00022730691 0.00012597103 0.0001279673 211.60033 211.60481 211.60336
0.00012547553 9.7768556e-05 0.00010341823 1.4436317e-06 0.0535593 0.0036860178 0.00076786074 0.0019182549
0.0016026202 0.0008929956 0.00042253552 0.0009426459 0.0015612043 0.0 1.922287e-05 8.772568e-06
8.852353e-06 0.0024674754 0.0023674378 0.0023899297 8.652448e-06 6.8759996e-06 9.895294e-06 1.591649e-07
14.190446 0.15541552 0.0008840572 0.0023977705 0.003616046 0.03655242 0.094294325 0.053157654
0.0074832537 0.0 0.0004103387 0.0016326446 0.0017772889 43720.473 43722.066 43720.2
0.0017662131 0.0019077276 0.00051077246 0.00027721192 0.00014800344 3.6778623e-05 1.9231691e-05 1.654374e-05
1.3623367e-05 3.6716046e-05 1.07262416e-07 3.6716046e-05 2.1012964e-10 0.0 8.795814e-07 2.3634189e-07
2.5397327e-07 1.3003027e-05 1.2289175e-05 1.244005e-05 2.4506494e-07 1.1287175e-06 7.387853e-07 3.049901e-08
0.1162804 0.010195712 1.63075e-05 0.0050935172 0.0048378836 0.0016204098 7.670389e-06 0.0016897747
0.0044993768 0.0 5.2430903e-05 5.2555137e-05 5.394349e-05 2574.1675 2573.9836 2574.1086
5.305028e-05 1.9880777e-05 3.2464715e-05 4.2522234e-07 0.019001354 0.0005275093 7e-43 7e-43
7e-43 0.00036997377 0.00052510423 0.00026356618 3.0942724e-07 0.0 7.573663e-07 4.8830243e-06
4.85945e-06 0.00010837876 0.00011871769 0.0001158807 4.871132e-06 3.143924e-06 6.240757e-09 1.2883115e-09
0.026685257 0.0017483309 2.3729799e-05 0.0011058713 0.0011934948 4.347435e-05 1.4149673e-05 3.8880273e-05
0.0014431104 0.0 1.9373028e-06 1.7856824e-05 1.7429515e-05 0.00082424993 0.00078263157 0.0007975423
1.7683553e-05 1.1581812e-06 2.296722e-06 8.958896e-08 0.042356674 0.0029156003 0.00038404347 0.001093933
0.0009042699 0.0007133471 0.00042306137 0.00082115975 0.0008007017 0.0 1.4312937e-05 8.915385e-06
9.024322e-06 782.2917 782.2368 782.2787 8.863057e-06 7.0606143e-06 6.5089052e-06 8.8798984e-08
3.908616 0.04327728 0.0029849012 0.0027512903 0.0058889925 9.937344e-07 1.8932242e-06 0.008335234
0.008646064 0.0 0.00359779 0.01032288 0.010325738 5118.4893 5119.083 5118.724
0.01041328 0.0010648394 0.0004978377 0.00037224437 0.22561128 0.005878933 2.0442085e-06 1.9448132e-06
9.1561205e-06 0.0025504488 0.004149399 0.002942884 1.5543928e-05 0.0 0.00011368321 0.0001721091
0.00016301827 1251.3296 1251.3799 1251.3167 0.0001659122 2.4764386e-05 2.5352625e-07 2.209884e-08
0.10853799 0.006145182 0.0013391338 0.0007877172 0.0058787023 5.803512e-07 6.088087e-07 8.2522296e-05
0.0057775965 0.0 2.8724715e-05 0.000102544276 0.00010462058 0.04824322 0.04823841 0.04824065
0.000104135404 8.230633e-06 2.1419448e-05 2.15103e-06 3.2652867 0.29022205 0.03383907 0.15586622
0.18120305 0.029714255 0.0010322465 0.034170903 0.16673996 0.0 0.0011399029 0.002705564
0.0028591454 44937.527 44934.934 44936.72 0.0027843558 0.00048692737 0.0007417444 4.0407278e-05
4.7675824 0.13696091 4.9786312e-12 2.6896378e-12 8.592707e-06 0.07803618 0.12519208 0.06416127
5.0686735e-06 0.0 0.00042269094 0.0013526022 0.0013308688 0.7830074 0.78515095 0.7848771

exp_avg f4 [128]
00000000: c552 16bd 3564 aeba fffc 893d b012 b33a
00000010: 67ce 82bb 58b0 8539 50ee 163c b3bd 803b
00000020: e7cf edbc f975 043b 89f0 2abc c10b 763e
00000030: 358e 1cbd 9bdb 6abc 498e 40bd 25fe 4b3b
00000040: 6b62 63bd 27fc e73a ee40 7dbc 4f6a 773b
00000050: 80e1 bfbb 8e3b 4cb9 fe4c c9bd feaf adbc
00000060: 0000 0000 7e21 ae3b 0000 0000 7fe4 dd3a
00000070: 9fe4 b439 0000 0000 497c 6d3a 2b78 14bb
00000080: 9b71 dabb fc2a cdbd f6d5 2439 4cce 5cbd
00000090: 12a4 edb7 420c e03c 448c 303a b178 c8bb
000000a0: d6a6 343c eabf cabc 0000 0000 43c0 ae3a
000000b0: 3b5b 75b9 9b31 22bb af0b 4e3c f585 0eba
000000c0: d5cf 433a f24a 283d 2563 9a3b 4b0d 913d
000000d0: ecde bcbb 5b78 49bc dea1 1439 af57 bc3b
000000e0: 9b93 9a3b 2ae2 98bb 9cdb a4b7 f6d1 b9bd
000000f0: 5f4d 74bd 6acc 5bbd 2f57 86b9 3c6d dbb8
00000100: 3f0e e1b7 194b ba3a da59 543c 9963 8a3d
00000110: 0000 0000 5e3b 99bb 9bef 7c39 f707 8f3c
00000120: 68d7 35bd 452b 0c3d 4832 18bb 11b0 bcbc
00000130: 5bef 19bb 080e 3ab8 e9eb 49bb fbea 1f3a
00000140: f089 13bb 0000 0000 542b 3d38 0e11 0a3b
00000150: 21c6 093c 3334 b23c 0afe d8b9 2958 da3b
00000160: 0d49 b637 08c5 463b 0903 d33b f0ca e03c
00000170: e4e6 bb3a 4c3c d73c f191 03ba 70f4 6fbc
00000180: 4b5e 303d b73b 75bd cc5f 14bd e7fc 383d
00000190: c295 0b3d bf3b 6d3b a620 7ebc 0000 0000
000001a0: b03f f33b 20aa 7c3c 66d7 373c 58d2 16bd
000001b0: 2ed0 10bc c55d c737 9eb2 c23a 7d03 353d
000001c0: 119e 04bc 918c f0b8 1bdd 86bc 1eb2 6b3d
000001d0: 667d 1fba 8562 bfbc e720 49bc 7984 d9bb
000001e0: 09b8 2c3c a2af ccbb 88b3 a238 371e 9f3a
000001f0: 2f85 c33c 36fd 5fb8 e81b d3b9 0000 0000
-0.03670003 -0.001330501 0.06737708 0.0013662186 -0.0039918902 0.00025499123 0.009212092 0.003928864
-0.0290298 0.0020211919 -0.010433325 0.24027921 -0.038221557 -0.014334585 -0.047010694 0.0031126824
-0.05551378 0.0017699049 -0.015457375 0.0037752574 -0.005855739 -0.00019477142 -0.09829138 -0.021202084
0.0 0.005314051 0.0 0.0016929059 0.0003450261 0.0 0.00090593525 -0.0022654634
-0.006666375 -0.10017964 0.00015719965 -0.053907678 -2.8329003e-05 0.027349595 0.00067347684 -0.006117903
0.011026105 -0.024749715 0.0 0.0013332445 -0.00023399007 -0.0024748805 0.012576028 -0.0005436831
0.0007469629 0.0410871 0.004711526 0.070826136 -0.005763879 -0.012296761 0.0001417468 0.0057477574
0.004717303 -0.0046656327 -1.9652587e-05 -0.0907325 -0.0596441 -0.05366174 -0.00025623429 -0.0001046308
-2.6828724e-05 0.0014213055 0.012960875 0.06757278 0.0 -0.0046762666 0.00024121853 0.017459853
-0.04439488 0.034220953 -0.002322333 -0.023033174 -0.0023488614 -4.4358923e-05 -0.003081078 0.00061003835
-0.0022512637 0.0 4.5101464e-05 0.0021067294 0.008409054 0.021753406 -0.00041388004 0.0066633415
2.1730108e-05 0.0030329842 0.006439571 0.027440518 0.0014335779 0.026273869 -0.00050190004 -0.014645681
0.043058675 -0.0598714 -0.03622417 0.04516306 0.034078367 0.0036198942 -0.015510714 0.0
0.0074233636 0.01542142 0.011220789 -0.036821693 -0.008838696 2.3766313e-05 0.0014854257 0.04419278
-0.008094327 -0.00011470274 -0.016462853 0.057542913 -0.00060840545 -0.023362407 -0.012275911 -0.0066381064
0.010541924 -0.006246523 7.758202e-05 0.0012139742 0.023867218 -5.3403164e-05 -0.00040265848 0.0
