flaskProject/modules/Contrastive_Clustering/save/save_5_300epochs/model_checkpoint.tar (torch, 183298 bytes, 24 tensors)

instance_projector.0.weight f4 [128, 20]
000000 ff 93 89 bd 62 e6 c6 3e f3 c4 f8 3c f7 c0 a0 bc
       -0.06717681 0.38847643 0.03036735 -0.019623263
000010 b6 67 d6 be 01 41 81 be ad 21 b8 be 00 40 8e 3e
       -0.41876 -0.25244907 -0.35963193 0.27783203
000020 e5 c1 c6 3c 96 04 99 bd 75 98 a3 3e 2d 41 56 bf
       0.024262378 -0.07471578 0.31952253 -0.836932
000030 70 73 49 bf 89 e3 bc 3d b8 3c a0 bd 62 48 24 bd
       -0.7869177 0.092230864 -0.07824081 -0.040108092
000040 3f 99 62 bf 35 43 22 bf 63 bb 79 bf 45 c6 45 bf
       -0.88515085 -0.633838 -0.97551554 -0.7725566
000050 cd d3 3b bc bc d2 a4 3d fc 20 03 be e4 1a ee 3e
       -0.011464071 0.08048007 -0.12805551 0.4650489
000060 32 c8 2d 3e 04 58 ec 3e 49 da 72 be 13 6d a0 be
       0.169709 0.461609 -0.23716082 -0.31333217
000070 a2 c5 4d be 9e df 90 bd ef 22 eb 3e 7c 81 3a bf
       -0.20094922 -0.070739016 0.4592509 -0.7285383
000080 f5 28 38 bf f2 85 be 3b 78 aa ea 3d 40 96 22 be
       -0.71937495 0.0058143074 0.114582956 -0.15877628
000090 0e 4e 85 bf f2 29 c7 be bd d4 0a be 72 f5 2b bf
       -1.0414445 -0.3889919 -0.13557716 -0.67171395
0000a0 0b 81 ec 3e 02 bc 0d 3f 8a 1b 0a c0 c8 7b 85 c0
       0.46192202 0.55365 -2.1579309 -4.17136
0000b0 66 90 88 c0 cc a4 0e c0 00 10 81 3f e1 d3 a1 bf
       -4.267627 -2.2288084 1.0083008 -1.2642785
0000c0 ec f1 17 3f 34 79 1e be 81 99 da bf 40 8d 0a c0
       0.5935352 -0.15475923 -1.7078096 -2.1648712
0000d0 48 94 0f c0 a5 61 1c be a8 5b 62 3d 8d 43 cd 3d
       -2.2434254 -0.15271623 0.05526319 0.1002265
0000e0 e9 b3 fd bf 9d e3 8a 3f b5 ff 36 40 9a b3 8d 3f
       -1.9820529 1.0850712 2.859357 1.1070435
0000f0 97 84 ca bc 28 d9 f3 3e 47 a3 88 3f 6b 18 93 3e
       -0.024721427 0.47626615 1.0674828 0.28729567
000100 36 be 69 3e 98 54 b9 3f d3 17 f6 c0 ef e2 52 bf
       0.22826466 1.4478941 -7.690408 -0.82377523
000110 d0 fe 84 bf 60 e1 7d 3d 2a 6c ec 3e 82 e3 76 bd
       -1.0390263 0.061982512 0.46176273 -0.060275562
000120 75 50 0c bf cb a0 23 be 7f 0d 8d 3d 45 5e ce 3d
       -0.5481027 -0.15979306 0.0688734 0.10076574
000130 6e f7 bf be 8a e6 37 40 1e 0a b8 3f 7e 3b c6 3f
       -0.3749346 2.873446 1.4378088 1.5486906
000140 bd fb 44 bf 04 4a ba 3e 99 7a 91 c0 66 35 73 bf
       -0.7694662 0.36384594 -4.5462155 -0.95003355
000150 34 02 d2 bf 78 d4 71 3f 36 62 0e c0 97 53 40 3f
       -1.6406922 0.94464827 -2.2247443 0.7512755
000160 0a 91 9a 3e 2a 35 0d 3e 9d 20 a9 bf 95 93 1d c0
       0.3018878 0.13789812 -1.3213078 -2.4621327
000170 b6 74 20 c0 e7 ba a3 bc f2 7d 00 3e 0b 80 c4 bd
       -2.5071235 -0.019986583 0.12548044 -0.09594735
000180 68 db 18 c0 a2 76 a5 3e 2b c0 d8 bf 51 98 16 40
       -2.3883915 0.32317072 -1.6933645 2.3530467
000190 29 05 76 bd ba 78 7b 3e 4e bd 83 bf 42 61 5e c0
       -0.060063515 0.24557772 -1.0292146 -3.4746861
0001a0 1f 28 c3 bf dd d4 16 40 62 12 2e 3d 0d 84 6e 3f
       -1.5246619 2.3567421 0.042498 0.93170244
0001b0 fa 32 94 be f6 6f 45 be 34 4e 2f bf 74 0d c8 bf
       -0.28945142 -0.19280991 -0.68478703 -1.5629106
0001c0 f2 4b 91 bf d4 dd 5b be fd 57 10 3e cd 46 a7 3d
       -1.1351302 -0.2147134 0.14096065 0.08167801
0001d0 79 66 b1 bf fa af 80 3f 96 d9 4d 3f a9 44 e6 3f
       -1.3859397 1.0053704 0.80410135 1.7989703
0001e0 8c 2f 6b bd fe 4f 26 3c 0f 2a db be 78 b8 1d 3f
       -0.05741839 0.010150908 -0.42805526 0.616096
0001f0 db a2 6c 3f cd 6e 52 3f 3b 27 21 be b0 7f 8e bf
       0.92436 0.8220032 -0.15737621 -1.1132717
000200 cc 20 be 3d 64 e9 b0 bd dc 23 41 be dd f5 8a 3f
       0.09283599 -0.08638266 -0.18861336 1.0856282
000210 65 1a 7d 3f d6 9e 6c 3d ec 4b 97 3d 0f 83 14 be
       0.988684 0.057768665 0.07387528 -0.1450312
000220 e2 59 af 3f f4 69 d1 be 88 35 84 bc 9c d0 52 bf
       1.3699305 -0.40901148 -0.016138807 -0.8234956
000230 36 84 9a be e3 10 e1 bc 5e 32 a9 3f c5 22 c6 be
       -0.30178994 -0.027473873 1.3218496 -0.38698402
000240 1b ac cb be ff e6 61 be cd 99 37 3f 9a 2b a2 3e
       -0.39779744 -0.22060774 0.71719056 0.3167389
000250 38 ad 89 3c f0 0b 16 bd e3 ab 31 bf 42 3a b4 c0
       0.01680623 -0.03663248 -0.69402903 -5.6321115
000260 65 34 be c0 f7 41 c2 bd 31 32 a7 bd ea 69 3d 3e
       -5.943896 -0.09485238 -0.0816387 0.18497434
000270 96 dc c0 c0 ef a9 2a c0 c7 c4 8f c0 f0 d2 ca c0
       -6.026927 -2.666622 -4.4927707 -6.338249
000280 13 40 1a be 73 8d 08 3f 59 f7 07 3f ed 06 35 c0
       -0.15063505 0.53340834 0.531118 -2.8285477
000290 99 99 42 c0 10 9a 8d bf 3f fa 38 c0 7d 22 cd 3d
       -3.0406249 -1.1062641 -2.8902738 0.10016344
0002a0 63 0c af 3f 68 d6 2e 3d 12 d8 f7 bf 41 c0 50 40
       1.3675655 0.042684942 -1.9362814 3.2617342
0002b0 b8 f7 4c 40 ff e9 57 be 50 72 02 3e 1d d0 ab 3d
       3.2026196 -0.21085356 0.1273892 0.08389304
0002c0 86 2f 5b 40 d5 59 02 3f aa 9f 78 3f e5 73 7e 3f
       3.4247756 0.5091832 0.9711863 0.9939559
0002d0 4c 47 a2 3e 21 08 27 be b9 33 28 3e 3d 60 cf bf
       0.3169502 -0.16311695 0.1642598 -1.6201245
0002e0 de ff ae be 7c f2 c7 3f b0 7b e3 3d 0d dd f1 3d
       -0.34179586 1.5620875 0.11107576 0.1180974
0002f0 16 5f 0e c0 f0 78 28 bd a0 5d 1b 3f 80 50 c5 3f
       -2.2245536 -0.04113096 0.60689735 1.5415192
000300 22 6f 92 3f f1 a8 98 bc 9d f7 5b 3d f8 0a 11 bd
       1.1440165 -0.018635245 0.05370294 -0.03541085
000310 7b 1c 92 3f 59 4b 15 c0 ea 22 0a c1 e6 5b aa c0
       1.1414942 -2.3327239 -8.633524 -5.323718
000320 bc e6 a4 3d e9 01 38 be 75 00 da 3e 20 9c e5 be
       0.080518216 -0.17969479 0.42578474 -0.44845676
000330 2a d2 ec 3e fd 46 07 bf e6 35 3a 3e 48 af cc 3e
       0.46254092 -0.52842695 0.18184623 0.3997748
000340 72 9b 81 3e 3c 60 3a bd 1e 93 15 3f df 0c 7f be
       0.25313908 -0.045501933 0.5842761 -0.24907254
000350 f8 e5 04 be fb 11 1a bd 1d c1 f2 bd 69 47 64 3d
       -0.12978351 -0.037614804 -0.1185324 0.055732165
000360 9b de 21 bd 53 e6 eb 3e f6 9b 16 3f fe 78 0b 3f
       -0.039518934 0.4607416 0.5883173 0.54481494
000370 79 32 33 bf 22 95 99 be 4b bb c2 3f 62 8f 22 40
       -0.6999889 -0.29996592 1.5213407 2.5400014
000380 ac ba 08 40 e5 fc 2d bf 4f 24 9a bf 77 c5 d6 bc
       2.1363935 -0.6796401 -1.204233 -0.026217205
000390 72 be 61 3e 4d cd 47 be aa 5c ff 3e c7 3e cf 3f
       0.22045305 -0.1951191 0.49875385 1.6191033
0003a0 b8 e5 ce 3f 6b 9f 28 bd 63 6f 1e 3e a2 06 e9 bd
       1.6163855 -0.041167658 0.15472178 -0.11378218
0003b0 8e 45 d5 3f bf cd 35 bf 2a 35 44 bf b4 c1 22 3f
       1.6661851 -0.7101707 -0.7664362 0.6357682
0003c0 96 f0 a0 3d d1 ee f2 3d eb 28 c7 bd 79 53 64 be
       0.07858388 0.11861957 -0.09724601 -0.22297467
0003d0 47 4d 14 bf c4 07 4e bf a0 65 8a 3e dd 71 f1 3c
       -0.57930416 -0.804806 0.2703066 0.02947324
0003e0 49 85 3a bb d2 f7 62 be 17 e8 84 3e 83 1a 17 bf
       -0.0028460792 -0.22164848 0.2595832 -0.5902483
0003f0 26 1c 06 bf 32 55 bc ba 00 ce a8 3d 71 77 b4 bd
       -0.523867 -0.0014368652 0.082424164 -0.08811844

instance_projector.0.bias f4 [128]
000000 6f a1 04 3f 12 ec 77 3e 4f 93 15 3f be d3 ab 3e
       0.5180883 0.24211147 0.584279 0.33559984
000010 bb 4d 13 3b 00 a8 22 3e be 39 b2 39 7e 5a 25 be
       0.002247675 0.158844 0.00033993827 -0.16147801
000020 7a 8c 97 3c a3 39 bb be be 5c de be c8 fa 7c be
       0.018499602 -0.3656741 -0.43430132 -0.2470504
000030 bc 74 6d 3e ed bf 90 3e 9a a3 6f 3e ab e7 06 3e
       0.23189062 0.28271428 0.23402253 0.13174312
000040 c6 10 13 3f 7e c7 b7 be 8a 30 85 3e 41 8b 6a be
       0.5744747 -0.35894388 0.26013595 -0.22904684
000050 4c 98 5d 3d cb 2c 14 3f c6 f8 07 3f 71 1e 91 3e
       0.05410032 0.5788085 0.53113973 0.28343537
000060 68 60 6f 3d 89 f8 bd be 92 19 0b 3e 0a 25 df 3d
       0.05844155 -0.3710368 0.13583973 0.108957365
000070 95 c0 a6 3e eb 2d 29 be da b6 61 3d d0 ff 4d 3e
       0.32568803 -0.16521423 0.05510602 0.20117116
000080 66 70 2b 3e c9 2a 85 3e e8 48 af 3d 84 65 9d 3d
       0.16742095 0.26009205 0.08558828 0.07685378
000090 42 7c ba bd 7d 16 89 3e 1d 6e 85 3d 37 e7 bc 3d
       -0.091057315 0.2677497 0.06515143 0.09223788
0000a0 27 59 1d 3f 6a 9f c1 3e 28 1b ce 3c 01 96 c3 3e
       0.6146416 0.37816936 0.025159433 0.3820038
0000b0 7a d4 5b 3d c2 f6 5c 3e 1a d5 86 3e 5d a2 02 3f
       0.05366943 0.21578506 0.2633446 0.51028997
0000c0 f6 c7 0c bf 2d 1f 2b 3e dc 92 07 3c ef c9 a9 bd
       -0.54992616 0.16711111 0.00827476 -0.08290469
0000d0 39 1f 3b 3f 65 b7 b9 3d 8e 39 09 bc e9 e8 07 bc
       0.73094517 0.09068183 -0.0083755385 -0.008295276
0000e0 78 96 81 3e e0 5e 09 be da 3e 0f 3e c6 c0 ed bd
       0.2531011 -0.13415098 0.1398882 -0.11609034
0000f0 96 de c3 be 05 76 9e 3c 1f f6 7c bf bc 40 66 be
       -0.38255757 0.019343385 -0.9881305 -0.22485632
000100 45 61 80 3e 3c 3d 59 be c9 76 79 3c 49 56 70 bf
       0.2507421 -0.21214765 0.0152260745 -0.9388166
000110 af 66 59 be a8 57 f1 bd aa dc c0 3c 69 d8 8e 3e
       -0.21230577 -0.11784297 0.02354272 0.27899483
000120 c6 a0 f8 3c be 5f 34 be 81 58 0f 3f fe 28 1b bf
       0.0303501 -0.17614648 0.5599442 -0.60609424
000130 b0 12 8a bc b8 93 d7 bf 3c b3 a8 3e 31 47 a5 be
       -0.016854614 -1.6841955 0.32949245 -0.32280877
000140 57 ab 89 3e d6 05 08 3e 87 ba 8f 3d 64 10 45 3e
       0.26888534 0.13283476 0.07017999 0.19244534
000150 86 b7 86 be 28 b6 7a be 89 8a 2a 3e 0e 91 e6 3e
       -0.26311892 -0.2448355 0.1665441 0.45032543
000160 2a a8 c8 be f1 01 8b 3e d6 d1 6a bf ff ae b0 3e
       -0.391908 0.2714992 -0.91726434 0.3450851
000170 56 f7 df 3e b4 81 9d bc 0c 4b ab 3d 51 9b 1c bc
       0.4374339 -0.019226886 0.083639234 -0.009558515
000180 48 d4 e9 3e 65 95 b0 3e f0 8d 6e 3e 5c 19 b0 bd
       0.4566977 0.3448898 0.23296332 -0.08598587
000190 36 45 82 be c5 62 16 3f ab 61 b4 3e 90 d0 29 3e
       -0.2544343 0.5874446 0.35230765 0.16583467
0001a0 a4 e6 4b be 97 42 33 bd 46 9d 29 be 8d 30 09 3f
       -0.19912201 -0.043764677 -0.16563901 0.5358971
0001b0 6e 3e 6e be db 6b 83 be e7 b4 19 bf 5f 09 bf 3e
       -0.23266003 -0.25668225 -0.6004166 0.37311837
0001c0 e5 b7 03 bf 7c 06 4b be 5b 84 7b 3e 61 ed 48 3d
       -0.51452476 -0.19826692 0.24562208 0.049054507
0001d0 60 69 25 bf af 1a 0b 3d 01 44 27 3f e8 da 42 be
       -0.64613914 0.033960994 0.6533814 -0.19028819
0001e0 80 06 e5 be aa f4 84 bc 63 45 80 be 6d 1b 90 3e
       -0.44731522 -0.016229946 -0.25052938 0.28145924
0001f0 e5 a2 2d 3f 9d 7a a1 bd 5e d5 d9 be 82 aa 9f bd
       0.6782668 -0.07884715 -0.425456 -0.07796194

instance_projector.2.weight f4 [20, 128]
000000 73 1c d8 be 62 35 23 be 6a 5d fe 3e 7b 7b 9b 3d
       -0.42209205 -0.15938333 0.49680644 0.075919114
000010 5f 7f 4e be 8b 8b 0f be ef 26 80 3e 9d e4 84 be
       -0.20165776 -0.14018075 0.25029704 -0.25955668
000020 36 29 cb be 5e 97 d2 bd c8 27 0a 3e d9 3b 0f 3f
       -0.3967988 -0.10282777 0.13491738 0.55950695
000030 5f a3 2b 3f 5e 44 da be 5b 84 75 be 02 56 9f bd
       0.6704616 -0.42630285 -0.23976271 -0.077800766
000040 cb b9 2c be 95 59 c8 be e6 12 a7 3e 45 14 8b 3e
       -0.1686775 -0.39130846 0.32631606 0.27163902
000050 ce 9d 7f 3e 16 db 46 3d 73 a0 37 be 3d ea 9e 3e
       0.24962541 0.04854878 -0.179323 0.31038085
000060 4a 87 72 bd 91 5a b4 be b6 5c 2c 3d 16 a4 79 bd
       -0.059211053 -0.35225347 0.042080604 -0.0609475
000070 4c 86 fa be a1 a0 93 3d e4 31 a7 bd 21 84 8f 3e
       -0.48930585 0.07208372 -0.08163813 0.28030494
000080 e2 3f 43 3e ad 87 1d bf 0e 17 2a 3d 62 37 c6 3e
       0.19067338 -0.6153515 0.041525893 0.3871413
000090 52 0d 02 3f fb 5d b0 3e 1e 1e d6 be ca cb b4 bd
       0.50801575 0.344467 -0.41819853 -0.08827932
0000a0 91 bc 47 3e 1e 48 88 3d 34 60 81 bd 9c bb a5 be
       0.19505526 0.0665438 -0.063171774 -0.32369697
0000b0 8d 41 40 be 01 27 ac bc 18 c1 93 3d 5d bf f3 3d
       -0.18775006 -0.021014692 0.07214564 0.11901734
0000c0 d7 15 93 3d 2b dd a8 3f 9f 8e 44 3d 6f 6c 8a 3d
       0.071819 1.3192495 0.047987577 0.06758963
0000d0 4f 42 cd 3d fd d2 0e 3e 58 32 fb bc 65 1c 32 3a
       0.10022413 0.13947673 -0.030663654 0.0006794392
0000e0 8e 52 b0 be 01 d1 04 ba 25 63 c5 bd d1 5f 33 be
       -0.34437984 -0.00050665444 -0.09638051 -0.1751702
0000f0 0e 60 a7 bc 12 56 10 be c0 fc 2e bf 32 5f 7f 3e
       -0.020431545 -0.14095333 -0.68354416 0.24938658
000100 1f 60 7c 3e 2b a9 7d be 7f 2c ba 3e 1b b2 df 3e
       0.24646042 -0.24771564 0.36362073 0.4369057
000110 5c 23 04 3d 1c 0d 8a 3e 34 c0 fc bc ec bb dd 3d
       0.032260284 0.26963127 -0.030853368 0.10826859
000120 03 78 41 3e 9e c7 69 3f 94 fc e8 be d1 65 ef bd
       0.18893437 0.91320217 -0.45505202 -0.11689342
000130 87 41 0f be ee 2a fd 3f c3 f2 10 bc ed e0 cf bc
       -0.1398984 1.9778726 -0.008846941 -0.025375808
000140 1a 5b 91 be 9d 83 84 bd e2 fb 98 3d 68 7a e9 be
       -0.28389817 -0.06470416 0.07469918 -0.456012
000150 2d 47 8a be 10 d8 70 be 4d 03 12 3e f6 b7 1d 3e
       -0.27007428 -0.23519921 0.14259072 0.15402207
000160 4a 02 31 3e f5 66 8f 3d 55 ec 92 bf 2c bf 63 3d
       0.1728603 0.07002059 -1.1478373 0.055602238
000170 6d 6a e6 3c 33 03 12 be 5a 6d 1a 3d 92 5d b7 bd
       0.02812692 -0.14259033 0.037701942 -0.08953394
000180 17 51 99 be a0 ca 02 3e 64 f6 bb be f2 08 9f bb
       -0.2994468 0.12772608 -0.3671142 -0.0048533613
000190 97 19 3c be 8e 83 97 bf 6d 81 93 be 20 85 cf bb
       -0.18369137 -1.1837022 -0.28809682 -0.0063330084
0001a0 93 5c 3a be 3d c2 cc 3d 18 4c d0 bc 3c f3 5c be
       -0.18199377 0.099979855 -0.02542691 -0.21577162
0001b0 3e 1d ec bd f7 9f b6 3b 60 4e cc bd 2e 70 4e be
       -0.11529015 0.0055732685 -0.09975886 -0.2015998
0001c0 5a 55 fc 3c 18 b6 af 3e 32 db 0b be ca f7 0f 3d
       0.030802418 0.34318614 -0.13657835 0.03514842
0001d0 f3 31 cb bb 26 6f 6d 3e 34 4f 12 bf a0 b7 f0 bd
       -0.006201023 0.23186931 -0.57152104 -0.11753774
0001e0 34 03 1a bf e7 bc a1 3d c8 15 46 3b 0b cf 04 bd
       -0.6016114 0.078973584 0.0030225385 -0.032424014
0001f0 7e ef 5d be dd b9 32 3e 43 c7 aa 3d c0 1e 00 3c
       -0.2167339 0.17453714 0.083387874 0.007819831
000200 dd 5a 1d 3e 2e be 3f be af 8d 01 be 3b 80 8e 3d
       0.15366693 -0.18724892 -0.12651704 0.06958052
000210 57 a1 ae 3c 21 2e 35 ba 76 5d 61 bc 5f d6 6e bd
       0.021317167 -0.0006911476 -0.013755193 -0.05830991
000220 13 cb fc 3d 3a 14 a9 3c f0 c1 b2 bd 23 9a 8d 3d
       0.12343421 0.020639528 -0.08728397 0.06914165
000230 e6 9f a0 be be e9 00 be d4 54 9f 3b 70 5f 05 3e
       -0.31371993 -0.12589166 0.004862407 0.13024688
000240 19 12 ea be 68 48 94 be b1 77 3e be bb 48 90 be
       -0.45716932 -0.28961492 -0.18600346 -0.2818049
000250 72 be 4b 3d a7 d3 bc 3c 64 d3 5f 3e 10 2d 53 be
       0.04974217 0.023050142 0.21857983 -0.20622659
000260 00 ba 86 bc cd 8e a5 be c0 31 af bb dc 99 65 3d
       -0.016446114 -0.3233551 -0.005346507 0.056054935
000270 e1 3b d9 3d a6 be a9 bd d7 98 cf 3c b4 69 55 3e
       0.10607124 -0.082883164 0.025341434 0.20841104
000280 04 49 ab bd 64 36 17 bf fb c9 d8 3d ab 91 b6 be
       -0.08363536 -0.5906737 0.105854 -0.3565801
000290 56 27 97 3e cc 8a 9d be c4 59 2c be ee 6b 40 bd
       0.29522198 -0.30769956 -0.16831118 -0.04697793
0002a0 c1 18 1c be 29 09 f8 3c 4c 05 e5 bc a3 c1 42 bd
       -0.15243818 0.030277805 -0.027956627 -0.047547948
0002b0 9c fe 44 3a 96 a5 fa bc 3f 87 2a be 27 8d 4f 3e
       0.00075147464 -0.030596536 -0.16653155 0.20268689
0002c0 29 64 14 bd 73 47 90 3c 71 36 86 be bc 0f 98 bd
       -0.036228333 0.017612195 -0.2621341 -0.07424876
0002d0 a4 21 08 3d 29 5e 2d bf e9 6f f3 bd 49 4e 9d 3d
       0.033235207 -0.677218 -0.118865795 0.07680947
0002e0 46 ed 2b 3e ed 48 e5 3d 18 6f d2 3c 29 d7 2f 3e
       0.16789731 0.1119555 0.02568774 0.17171921
0002f0 a1 ea e9 bd 18 a6 e7 3c 0d c5 83 be ee 46 84 3c
       -0.11421705 0.028277442 -0.25736275 0.016147103
000300 3e 69 49 3d 12 fa 92 3e c6 37 ed bd cc 66 48 3e
       0.049172632 0.28706414 -0.115829036 0.19570464
000310 b3 bc a9 3d 06 db b7 3c c7 b5 0c 3e 4b bf 1c 3e
       0.08287945 0.022443306 0.13741218 0.15307347
000320 c2 3e dc 3d 12 09 f1 be 08 b8 bb be da 74 12 3e
       0.107541576 -0.47077233 -0.36663842 0.14302388
000330 7d 2a 78 3e d0 5f 45 3d 54 aa d6 bc 0f 6e 31 bd
       0.24234958 0.048187077 -0.026204266 -0.04331785
000340 91 d7 23 bd ee 5b 5c 3d f5 d0 5c 3e 2c a7 9c 3e
       -0.040000502 0.05379861 0.21564086 0.30596292
000350 2e 91 03 be 50 2d b4 3e 19 18 d6 bd 33 49 f1 be
       -0.1284835 0.3519082 -0.10453815 -0.4712616
000360 30 de f3 3d 0a 69 3b 3c 0a 8e 00 bf 62 de 9d 3e
       0.11907613 0.0114386175 -0.50216734 0.30833727
000370 41 ef 93 3d fa 5e 4b 3e 2f 98 18 bd 6a 2b 67 3e
       0.072233684 0.1986045 -0.03725451 0.22575155
000380 4a c8 8a 3e f6 cb bd be d0 48 c2 be 71 f3 0d be
       0.27105933 -0.37069672 -0.37946177 -0.13862397
000390 47 4f b2 be e4 d9 13 3f f3 ac ac 3e 0d 40 93 3d
       -0.3482611 0.5775435 0.337257 0.07189951
0003a0 5d 2d d0 bb 2a c4 93 3d 28 40 76 be 54 0c 60 be
       -0.006353064 0.0721515 -0.24047911 -0.21879703
0003b0 f0 90 97 bc 0b c6 fa 3c 0f 7c e5 3d 86 3a ff 3d
       -0.018501729 0.030612012 0.11205303 0.12462334
0003c0 22 68 ae bb 4e 7a c9 3a d3 4e c7 3e df 51 02 be
       -0.005322472 0.0015371533 0.38927326 -0.12726544
0003d0 66 29 ac bc 6d 8c a1 bd e6 58 9d 3e 1e 68 1e 3e
       -0.021015834 -0.07888112 0.30731887 0.15469405
0003e0 e5 c1 f1 bd eb 96 9f 3e 19 7d e9 3c a6 42 a9 3e
       -0.118045606 0.3116983 0.028502034 0.3305866
0003f0 e0 e2 be be d0 17 34 be 81 9d cc ba 70 6b b9 bc
       -0.37282467 -0.17587209 -0.0015610905 -0.022634238

instance_projector.2.bias f4 [20]
000000 8e f2 5b 3e d9 ff 4e 3e df 1e dc bc be bd 8a 3d
       0.21479246 0.20214786 -0.02687019 0.06774472
000010 d3 87 a3 be 46 6c 96 3d 7f 93 05 be 46 f8 e8 3e
       -0.31939563 0.0734487 -0.13044547 0.45501918
000020 69 30 89 bd fe f0 25 3e 11 73 b4 bd e7 14 ad be
       -0.06698687 0.16205212 -0.0881101 -0.3380501
000030 3e b8 2c 3e 5d bb d4 3e 39 69 16 3e da 9b 03 be
       0.16867158 0.41549197 0.14688577 -0.12852421
000040 34 30 3e be 18 24 18 3e 82 b4 66 3d cc 1b 32 be
       -0.18573076 0.14857519 0.05632449 -0.17393416

cluster_projector.0.weight f4 [128, 20]
000000 47 18 26 be 58 49 75 bd 86 58 20 3e 70 32 9e 3c
       -0.16220199 -0.0598844 0.15658769 0.01931116
000010 14 68 ea 3d 48 09 c7 3c 34 ed 5c be 40 f2 6c 3d
       0.114456326 0.024296418 -0.21574861 0.057848215
000020 62 94 c4 bd df 70 18 be 47 12 dc bd e4 ba 89 3d
       -0.09598614 -0.14886807 -0.107456736 0.067251
000030 d4 a3 17 3e 50 b2 4d 3d 2e f7 db bd b2 b4 2c be
       0.14808589 0.05021888 -0.10740505 -0.16865805
000040 76 1d 99 bd 03 26 fc bd f0 f1 38 3d 7e 2e 2c 3e
       -0.07476322 -0.12311938 0.045152605 0.1681461
000050 58 c5 b0 bc 44 90 9f 3d ac f7 2d 3e 92 a7 d3 be
       -0.021578476 0.07791188 0.1698901 -0.41338784
000060 1d e8 b0 be a7 42 03 bf 00 eb fb 3e fb 41 36 bf
       -0.34552088 -0.5127358 0.49202728 -0.7119443
000070 6f 34 31 3f c4 11 53 bd 84 59 92 be 22 36 59 be
       0.6922063 -0.051530614 -0.2858392 -0.21212056
000080 4a 99 39 be 3d 31 31 3c 3e 4b 14 3e 35 8c 38 be
       -0.18124881 0.010814962 0.14481828 -0.18022235
000090 ed 67 0d bf 7f c3 87 be bb 04 b9 be 59 8f 89 bd
       -0.55236703 -0.2651634 -0.36136422 -0.067167945
0000a0 fc 23 c6 bd 9c 3a 29 be 68 d5 0b be a0 6f f8 bb
       -0.09674832 -0.16526264 -0.13655627 -0.007581666
0000b0 6a 05 06 be f8 f2 52 3d a0 0c 7f bd 08 5a 62 bd
       -0.13088003 0.051501244 -0.0622679 -0.05526164
0000c0 4d a2 58 be 80 69 69 bb f4 cc 5e bd 74 a0 12 be
       -0.21155663 -0.0035615861 -0.054394677 -0.1431902
0000d0 5c 96 0f bd 9b 15 37 be eb 62 28 be 68 0b e5 3d
       -0.035055503 -0.17879336 -0.16443984 0.11183816
0000e0 98 6e 31 bd a4 16 66 bd 58 90 b1 bd b8 4c 54 3d
       -0.04331836 -0.056173936 -0.086701095 0.051830977
0000f0 27 12 3c 3e 8b c2 05 3f f7 9c 32 bf 8c 94 66 be
       0.183663 0.52249974 -0.6977076 -0.22517604
000100 cc 7a a7 be 94 66 45 bf 4e da be be 96 1e 2e be
       -0.32710874 -0.77109647 -0.37275928 -0.17003855
000110 18 d8 72 3e 48 44 00 3d ff 9c 90 be ca 8f c9 be
       0.23715246 0.031315118 -0.2824478 -0.39367515
000120 c5 aa ea be b3 7b 02 be 9f 2b 86 bc 12 d7 f3 3d
       -0.45833412 -0.127425 -0.016378222 0.11906256
000130 8e 30 02 bf 16 e7 3c be 95 6f de 3d ca 56 09 bf
       -0.5085534 -0.18447527 0.10861126 -0.53648055
000140 c5 81 04 be e8 04 2c bd b9 03 b7 bf ed 9b 47 bf
       -0.12940128 -0.041996866 -1.4298011 -0.779723
000150 3d 80 3f bf b7 59 8d be cd f7 2e 3f 70 4d f8 be
       -0.7480505 -0.2760751 0.68346864 -0.4849658
000160 84 09 99 3d a0 aa 51 bd cb 08 1c bf af 04 15 bf
       0.07472518 -0.05118811 -0.60950917 -0.5821027
000170 7c 30 04 bf c5 fa b2 bd b3 55 12 3e 48 a2 9d bd
       -0.5163648 -0.08739237 0.14290504 -0.07696968
000180 11 47 1f bf 2b b0 51 3c ca 4a c3 3e ab 1e f5 3e
       -0.62217814 0.012798349 0.38142997 0.4787496
000190 14 1c 77 bd 53 be 6f 3e e0 36 63 bf 39 cd 1b be
       -0.06032951 0.23412447 -0.8875561 -0.15215005
0001a0 ac 63 89 be 9f 30 9a be 18 e2 2e 3d 6e 1c 31 3e
       -0.26833856 -0.3011522 0.04269609 0.17296001
0001b0 29 41 f4 3e a4 41 ef 3d 78 f9 f7 3e 9e be 3a 3e
       0.47705963 0.11682442 0.48432517 0.18236777
0001c0 15 22 f0 3d 6f a0 0a be 4e 6a 60 3e 01 2c c0 bd
       0.11725251 -0.13537763 0.21915552 -0.09383393
0001d0 d6 4c f1 bb 92 5f 41 be 54 78 36 3e c9 ca 8c 3e
       -0.007363896 -0.18884113 0.17819339 0.27498463
0001e0 18 98 16 bd 7c ca 4a be 59 66 f3 3e 5b 2e 61 be
       -0.03676614 -0.19803804 0.47539023 -0.2199034
0001f0 83 ca 03 3f 99 8d e3 3e 5e c8 91 be 3a 82 b4 be
       0.51480883 0.44443968 -0.2847318 -0.35255605
000200 f6 da 8f bf e2 b9 23 3e e5 64 33 bf 44 03 ab 3e
       -1.1238697 0.15988877 -0.7007583 0.3340093
000210 cd 06 57 3d 80 66 0c bd b8 e7 ca bd 31 ad d2 3d
       0.05249672 -0.03427744 -0.09907478 0.1028694
000220 9c 60 10 3e 75 4e 1d 3d c2 0d 20 3f 0e 18 99 3e
       0.14099354 0.0384049 0.6252099 0.29901165
000230 0c 12 c6 3d ef d7 8f be d6 d3 3f 3f 9d e4 9f 3e
       0.09671411 -0.28094432 0.7493261 0.31229106
000240 68 19 9a 3e 8c e6 ad be a6 c8 59 3d 9f c7 9f be
       0.30097508 -0.33964956 0.05316987 -0.31206986
000250 b8 d3 0b 3f 88 87 88 bd 4c 87 0b bf 59 87 fe be
       0.5461993 -0.066664755 -0.5450332 -0.49712637
000260 66 6f 03 be 4a db 79 3d 9a 78 31 bd 8a ac 59 bd
       -0.12835464 0.061000146 -0.043327905 -0.05314306
000270 91 7c f1 be 7b bb 3c be ef b9 a0 be 3e e0 90 bd
       -0.4716535 -0.18430893 -0.31391856 -0.07074021
000280 fd 74 a6 3c 9d 2d 97 3e 6e 29 c0 be 1e e3 e5 be
       0.020319456 0.29526988 -0.37531608 -0.4489984
000290 cc e4 69 be 90 a3 1c 3e c7 1d d5 be df 00 50 3e
       -0.22841185 0.15296769 -0.4162428 0.20312832
0002a0 74 ac 8c be b0 94 7b 3c bf c3 7b bd 40 70 9e 3a
       -0.2747532 0.015355274 -0.061465975 0.0012087896
0002b0 a5 c3 7f bd ee f2 4b bd 44 27 50 bc 49 6e 1e 3d
       -0.06244244 -0.049792223 -0.012704674 0.038679395
0002c0 3b 05 02 be a4 a0 4d bd b3 7b 0b 3e e8 c7 3e be
       -0.12697308 -0.050202027 0.13621406 -0.18630946
0002d0 06 47 8c be f7 29 e4 3e b1 ff 76 bf 7c 5a 88 be
       -0.27397937 0.44563267 -0.96483904 -0.26631534
0002e0 d8 ec e9 3e b7 a2 b4 bf 39 56 0d bf 5c f4 05 3e
       0.4568851 -1.4112157 -0.5520969 0.13081497
0002f0 6d c9 d4 3e 32 83 c3 bd 36 b1 5e 3d e5 b3 31 3e
       0.41559926 -0.09546508 0.05436822 0.1735378
000300 fe 94 4e 3e b2 1a e2 bd b7 d3 3b bd 1c ce 09 3e
       0.20174024 -0.11040248 -0.045856204 0.1345753
000310 19 e4 1e 3e e3 4f 19 3c e6 e5 fc 3d de a9 c9 be
       0.155167 0.009357425 0.12348537 -0.3938741
000320 ea f1 1d be f9 07 e6 3d 69 61 1b 3e c7 fe c0 3e
       -0.15424314 0.112319894 0.15173878 0.3769438
000330 4a 9d ad 3e fd 1f f0 3e ce 97 12 3e 34 65 6a be
       0.33909065 0.46899405 0.14315721 -0.22890168
000340 53 e0 6c 3e 50 bc 40 be 4d 4f 5f bf 90 03 6e bf
       0.23132448 -0.18821836 -0.8723038 -0.92974186
000350 44 97 87 bf a5 73 ef be 09 3e 4d bf 2c db 1f bf
       -1.0593038 -0.46767917 -0.80172783 -0.62443805
000360 ce 0d 52 bf ce 3e 47 bf 3c 6a 30 bf 0d 90 50 bf
       -0.82052314 -0.7783021 -0.689121 -0.81469804
000370 6b 63 b6 bd d3 78 0f bc 90 94 c4 be 7e d5 63 3e
       -0.08905681 -0.008756834 -0.38394594 0.2224941
000380 2c 2b 2a 3f 02 d9 37 be b0 66 45 3f 8b 9c 12 bf
       0.66472125 -0.17953876 0.77109814 -0.57270116
000390 78 63 e9 3e ee 63 3a be e4 7e 71 bf 76 c4 70 be
       0.455837 -0.18202183 -0.94334245 -0.23512444
0003a0 aa 29 1d bf 01 01 d1 3d d8 c6 78 3c 84 12 0a be
       -0.613917 0.102052696 0.015184127 -0.13483626
0003b0 34 48 64 be 58 32 8e bf 11 29 e3 be 61 01 75 bf
       -0.22293168 -1.1109114 -0.4436727 -0.9570523
0003c0 22 e5 03 3e 12 6c 32 be 1e 7c 04 bf 74 46 ce be
       0.12880376 -0.17424038 -0.5175189 -0.40288126
0003d0 ef 8b ab 3e 39 16 b5 be 02 03 0c 3e 78 fa 2f be
       0.33505198 -0.35368517 0.13673022 -0.1718539
0003e0 55 f0 b4 be f3 67 46 be 6d 20 21 3e a9 f0 4a 3e
       -0.3533961 -0.19375591 0.15735026 0.19818367
0003f0 de a0 40 be 5c e4 00 be f3 b6 37 bd bc 4d 10 3e
       -0.18811366 -0.12587112 -0.04485221 0.14092153

cluster_projector.0.bias f4 [128]
000000 c8 69 cb 3d 90 d0 83 3e dc 18 31 bd 58 c9 85 3e
       0.099322855 0.25745058 -0.0432366 0.26130176
000010 cb f7 99 3e e3 2c 0c 3e 9b 48 04 3d 38 c1 39 be
       0.30071864 0.13688998 0.032295804 -0.18140113
000020 05 da 0b 3f cc c1 e5 3e 1a a2 3f be b8 3d b4 3d
       0.54629546 0.44874418 -0.1871418 0.088008344
000030 d5 23 b3 be ab 92 9d 3a db 13 02 3f 7f f2 f8 3e
       -0.34988275 0.001202186 0.5081155 0.4862251
000040 f5 a1 2e 3e 1c 40 9c 3e 86 da 7a 3d 4d 38 67 bd
       0.17053969 0.30517662 0.061243556 -0.056450177
000050 b4 39 a3 3d 7a 6e 43 be d7 26 85 bd 1b 54 1c 3d
       0.079699904 -0.19085112 -0.06501549 0.038166147
000060 cd d8 b0 3b 47 c6 87 3e 6c 6d 5f bd c3 a3 fb 3e
       0.0053969384 0.2651846 -0.054547712 0.49148378
000070 81 68 24 3e 17 4e a1 bb 7f ab 5a 3f c1 b1 ae 3e
       0.1605549 -0.004922639 0.8541793 0.3411999
000080 23 15 3b be 6d 9d f9 3e 31 05 2a be 7b 93 9d 3e
       -0.18269782 0.4875292 -0.16603543 0.3077658
000090 6f d1 e0 3e 04 d3 2c 3e 84 74 53 3e 81 63 1f bd
       0.43909785 0.16877371 0.20649916 -0.038913254
0000a0 b6 69 0a be 41 b0 a2 3e 60 f4 37 be 61 9b a1 be
       -0.13516888 0.31775096 -0.17964315 -0.31563857
0000b0 8d 18 81 bd a6 b8 ec 3e 4e 9d 47 be 69 26 2b be
       -0.06303511 0.46234626 -0.194936 -0.16713871
0000c0 2b 84 33 be f9 32 9e bd 28 ff 48 3d e0 5e e2 3d
       -0.17530887 -0.07724566 0.04907146 0.11053252
0000d0 ed ce a2 be eb e2 67 bd 7a c1 b0 3e df 32 ad 3d
       -0.31798497 -0.05661289 0.3452261 0.084569685
0000e0 2c 59 a3 3e f0 c9 c2 bc 13 72 be bd f0 99 ce 3c
       0.3190397 -0.023777932 -0.09299102 0.025219887
0000f0 30 79 24 be 7d 11 b6 3e c0 fb 33 3c 6c 10 1b be
       -0.16061854 0.35560217 0.010985315 -0.15142983
000100 12 2d eb be 79 b5 d8 3e 2f 44 1b 3f 28 c7 7e 3e
       -0.45932823 0.42325953 0.60650915 0.2488066
000110 bd ab 28 be 9c 8f e6 3e 30 ef e1 bc b0 28 aa 3e
       -0.16471763 0.4503144 -0.027579874 0.33234167
000120 60 04 72 bd 39 ba ab bd d7 19 08 3e 03 22 07 be
       -0.059086204 -0.083851285 0.13291107 -0.13196568
000130 7d e0 05 bf 56 9c ee 3e c8 6e cf 3d 08 df 75 3f
       -0.52295667 0.4660365 0.10128552 0.96043444
000140 66 3e fc 3e 8a 7b 81 be d8 9d a8 3e f2 08 5e bb
       0.49266356 -0.25289565 0.32932925 -0.0033879844
000150 09 d6 62 be 9e a5 03 3e f0 19 e4 bc 8a 94 62 3d
       -0.2215196 0.12856147 -0.0278444 0.05531744
000160 44 63 03 3f 18 29 0a 3e bb 06 5f 3d c7 df 49 3d
       0.5132334 0.13492239 0.054449778 0.049285676
000170 98 25 e9 3e 75 3d 17 3f 98 f0 53 be 97 2e e3 be
       0.45536494 0.5907815 -0.20697248 -0.44371483
000180 68 a0 14 3f 0c 7f 51 be 3a c0 53 be 17 f2 97 3e
       0.5805726 -0.20458621 -0.20678797 0.29676887
000190 5f cd af be 21 3e 9f 3b 40 62 3e 3b 10 73 74 bd
       -0.34336373 0.0048597013 0.002905026 -0.059680045
0001a0 07 05 2e 3d 94 57 ab bc 53 18 19 3f 58 17 1e be
       0.042485263 -0.020915784 0.5980274 -0.15438592
0001b0 0f 87 30 3e a3 a9 27 3e 52 83 05 be 67 1c 82 3e
       0.17239021 0.16373305 -0.13038376 0.25412294
0001c0 3e f8 99 3c 8d 4e 98 bd 25 2b 81 3e a0 fd 84 be
       0.018795129 -0.07436857 0.2522823 -0.2597475
0001d0 86 05 5a 3e 02 84 47 3f d8 62 82 3d 95 2f 09 3f
       0.2129117 0.779358 0.06366509 0.5358823
0001e0 84 a7 3b bd e2 e8 00 be bc bf c5 be 1b d2 2a be
       -0.045814052 -0.12588838 -0.38622844 -0.16681711
0001f0 da fc d7 be 1c d9 99 be 8d 55 6a be 50 9d 31 3e
       -0.42185098 -0.30048454 -0.22884198 0.17345166

cluster_projector.2.weight f4 [50, 128]
000000 a0 06 e1 3c 88 82 1d bf e6 4e 69 bd 10 75 3d be
       0.02746898 -0.615273 -0.05696001 -0.18501687
000010 88 28 bd 3e c3 f3 7d 3e ca a3 8d 3e 99 cb 9f bf
       0.36944985 0.24800019 0.27664024 -1.2484008
000020 19 d5 85 3d 3e 22 21 3e 6b cc 0e bf 3e 77 1b be
       0.06534786 0.15735719 -0.5578067 -0.15182206
000030 59 80 cd bc 19 c3 a5 bd 67 18 cf ba ac b2 41 3e
       -0.025085615 -0.080938525 -0.0015800119 0.18915814
000040 b6 b8 28 bd a5 8a 95 3d 3a 28 08 bf 39 35 72 3c
       -0.04119178 0.07301835 -0.5318638 0.014783197
000050 2a 56 1c bd 64 f6 5d be b0 0c e7 bd 89 bd a7 bd
       -0.03816811 -0.21676022 -0.11281717 -0.08190448
000060 a1 34 e5 bc 9a 84 6b 3e 79 8d 61 3d e6 f6 a8 3d
       -0.027979197 0.22999802 0.05506656 0.08250217
000070 68 82 96 3e ec 31 6d bf a7 a5 da 3d 1b b3 95 bd
       0.29396367 -0.926543 0.10676127 -0.07309552
000080 4c 90 3b bd 67 bd 27 3e fa 19 43 be 09 f2 f5 bd
       -0.04579191 0.16380845 -0.19052878 -0.12009055
000090 f8 86 87 3e 38 e4 1a 3e 84 be 48 3e ad 1e 05 bf
       0.2647016 0.15126121 0.19603926 -0.5199993
0000a0 f2 87 ab bd 53 26 c9 bc 70 57 cf bc 85 72 ae bc
       -0.08375539 -0.024554407 -0.025310248 -0.021294842
0000b0 48 ff ea bc 28 97 37 3e 88 b1 84 be 7b d7 53 be
       -0.02868618 0.17928755 -0.25916696 -0.20687668
0000c0 5c 96 b0 bf 3c 77 29 3e 08 e0 02 bc d7 bf 81 3d
       -1.3795886 0.1654939 -0.0079879835 0.06335419
0000d0 9d 81 8a 3d 9d 77 38 3e 55 8a 43 3e 0a 5a 70 3e
       0.06763003 0.18014379 0.19095738 0.23471847
0000e0 da 4c 87 be 00 22 1f bc 87 42 09 bd 7c d4 b8 3c
       -0.2642582 -0.009712696 -0.03351071 0.022562258
0000f0 54 ad 9e bb 6e e3 4c 3d aa ab 29 3d 13 89 31 3e
       -0.0048424397 0.05002158 0.041423477 0.17337446
000100 3d 35 22 3e 45 cf 06 be 84 9d 73 3e 6a 4e c1 3c
       0.15840621 -0.13165005 0.23790556 0.023596961
000110 ae 88 71 3d 6f 34 14 3e ee 5d 8f bd 80 23 f8 bb
       0.05896824 0.14473127 -0.070003375 -0.0075725913
000120 95 30 f1 bf ff 07 40 3e 6a de 81 bd 8e 07 f6 bd
       -1.8842951 0.1875305 -0.0634125 -0.1201316
000130 e0 a9 a6 bd 73 41 26 be ab 5d 86 3d 27 1c c2 bf
       -0.0813787 -0.16235904 0.065608345 -1.5164841
000140 a8 f4 4a 3e 37 59 d3 3e e9 1f ef 3d a3 a9 0a c0
       0.19819891 0.41279003 0.11676008 -2.1666038
000150 48 e0 ac bc 29 f9 28 c0 8c 89 16 3e 49 1c 0c be
       -0.02110304 -2.6402075 0.14700907 -0.13682665
000160 a8 bb 7c 3e 35 09 75 be 08 b9 2c 3c 09 32 e8 3b
       0.2468096 -0.23929293 0.010542162 0.007086043
000170 af 49 b9 3e b2 07 bf bc 5a ac d6 bd 3a 16 f4 be
       0.3618903 -0.0233191 -0.10482092 -0.47673208
000180 ec 43 3b 3e 42 72 a0 bd 80 ef 17 3f 52 e1 90 3e
       0.18287629 -0.07834293 0.59349823 0.28296906
000190 26 74 b6 ba 5c 4b 07 3e 00 67 5e ba 79 02 4c 3e
       -0.0013920113 0.13212341 -0.0008483976 0.19922818
0001a0 e6 bb d6 be cd 6e 8d 3e 0a 13 c9 3e c7 78 70 bf
       -0.4194023 0.27623597 0.39272338 -0.9393429
0001b0 2e 61 60 3d 91 0f d9 bc 31 7e 03 3d 70 3e 94 3d
       0.054780178 -0.02649668 0.032102767 0.072384715
0001c0 34 98 3b 3a da e8 d8 bf d4 5a 4e bd 5c 5f 5f 3f
       0.0007156164 -1.6946061 -0.05037959 0.8725488
0001d0 ea 97 3c 3e dc 74 71 3e d5 da 39 bd ac b7 56 3e
       0.18417326 0.23579735 -0.04537471 0.20968503
0001e0 cd e7 30 bd a5 b1 ca be fe c9 f9 bf 14 7d fc 3e
       -0.043189812 -0.39588657 -1.9514768 0.49314177
0001f0 f4 02 c2 bd d6 92 3e 3d e8 f4 78 be a3 af 76 3e
       -0.094732195 0.046526752 -0.24312174 0.24090438
000200 28 64 9a 3c ad b7 d7 3b a2 71 32 3d ba ad 46 bd
       0.018846586 0.006583175 0.0435654 -0.048505522
000210 6b 3f 94 be 57 7b 11 be a6 22 0d 3f 4d 50 33 3e
       -0.28954634 -0.14207207 0.55130994 0.17511101
000220 4c 16 c3 bf f2 c1 bc 3d 8e 3b 84 bb 1d 8c c3 3d
       -1.524118 0.0921668 -0.00403542 0.09548209
000230 47 4d b9 bf 01 6f 83 bf c5 74 ae 3d 9a 3a 16 c0
       -1.4476708 -1.0268251 0.08518366 -2.3473268
000240 3a 90 3e c0 02 9d b2 bf 17 fd dc be 52 0f c7 be
       -2.977553 -1.3954165 -0.43161842 -0.38878876
000250 5e 98 60 3d 8d ac 67 bd c1 29 80 3e 33 da bd 3d
       0.05483281 -0.05656104 0.25031856 0.09270134
000260 89 95 f6 3c d5 79 4a be 45 71 4d bf 61 f2 e3 3d
       0.0301006 -0.19773038 -0.8025096 0.111302145
000270 25 bc 2f 3e df 05 52 3e db 0a 5b bf 9d 2b f2 be
       0.17161615 0.20510052 -0.8556344 -0.472989
000280 d2 ff 52 bd a5 6d 9c be 34 f1 99 3e 2c 41 f1 3c
       -0.0515135 -0.30552402 0.30066836 0.029450022
000290 c2 69 41 3e 8f 6a a6 3e 14 1a 9c be 27 e5 cd 3d
       0.18888 0.32503173 -0.30488646 0.10053473
0002a0 8c 75 8e 3c fc f0 19 bd 4e 0c a8 bd b5 83 5e c0
       0.017390035 -0.037583336 -0.08205472 -3.4767888
0002b0 7f 4d 52 3e 77 e2 03 3e 0f 60 49 3e ab 5c ec bf
       0.20537375 0.12879358 0.1966555 -1.846578
0002c0 97 5e 44 bf 93 d8 85 be 70 e9 ff 3c 63 63 5c bf
       -0.7670683 -0.26141796 0.031239241 -0.8608915
0002d0 13 03 f4 3e 46 39 10 bd 8a 17 17 3d cb c3 95 be
       0.47658595 -0.03521087 0.036887683 -0.2925094
0002e0 f4 a0 ef bd ff 18 38 bd 7b d6 26 3d 16 a8 91 bd
       -0.11700621 -0.044945713 0.04073189 -0.07112138
0002f0 53 17 3b 3c 47 aa 37 bf c0 71 9e ba 00 48 60 bf
       0.011419135 -0.717442 -0.0012088344 -0.87609863
000300 a5 60 13 bd 79 1b 3a 3d d7 0e 1f 3f 88 fc d4 3e
       -0.03598084 0.045436356 0.6213202 0.41598916
000310 9a 03 02 bf 0b 72 16 3e 7f 72 48 bd ca 17 b5 3d
       -0.50786746 0.14691941 -0.048937317 0.08842428
000320 28 6e 39 3e 00 c1 4a 3e d9 cb 91 bd b6 d9 b3 3e
       0.18108428 0.19800186 -0.07118959 0.35127038
000330 97 3c 05 bf a8 0e b8 bd 6a c5 2a 3d a2 13 72 3e
       -0.5204558 -0.089871705 0.041692175 0.23640302
000340 dd 3f 7f be 78 47 23 3f d7 9b 35 bb 05 e9 ba 3e
       -0.24926706 0.6378093 -0.0027711296 0.36505905
000350 79 f2 15 bd 6f b4 5e 3e be 5d 37 bd c8 bd 93 bd
       -0.036608193 0.21748517 -0.044767134 -0.07213932
000360 fe 42 b6 bd ec 51 ec 3c 89 1e 5f 3c ec 0a 11 c0
       -0.088994965 0.028847657 0.01361812 -2.2662916
000370 c5 c2 3b bf e3 0a 55 be 8d 87 ea 3d 92 ee 4f 3e
       -0.7334407 -0.20804934 0.114516355 0.20305851
000380 f5 f1 67 3e 6b bd 80 3d 81 7f a5 bc 8d ea c8 bd
       0.22650893 0.062861286 -0.0202024 -0.09810362
000390 f9 d6 9d 3e 54 16 f7 bf 62 ef 6d bd 6a 21 95 3d
       0.30828074 -1.9303689 -0.05808962 0.07281764
0003a0 b9 e2 ce be 53 01 c6 be a6 8f 49 bf 0d 5d 5f 3d
       -0.4040735 -0.38672885 -0.78734815 0.0545321
0003b0 67 f9 c7 bf c1 95 29 be be b7 af bd 23 1c 74 3e
       -1.5622987 -0.16561033 -0.08579968 0.23838858
0003c0 6d 10 61 bf 74 96 0c bf 0d 68 db bf c8 83 cf 3e
       -0.8791569 -0.54917073 -1.7141129 0.4053023
0003d0 27 9d 22 3e 82 be 3f be 78 58 ca bc 18 a6 4d bd
       0.15880261 -0.18725017 -0.024700388 -0.050207227
0003e0 c4 79 20 3d 4e 56 10 3f e2 7c 0b 3e aa 8a eb be
       0.039178625 0.5638169 0.13621858 -0.4600423
0003f0 14 ca bc 3d ed e0 c3 be 05 43 6f 3e 15 69 8f 3e
       0.09218231 -0.38257542 0.2336541 0.2800986

cluster_projector.2.bias f4 [50]
000000 92 4e 40 3e 0d ba d6 bd bc fe 50 3d 11 e9 2a 3e
       0.18779972 -0.10484705 0.051024184 0.1669047
000010 a1 aa 79 3e 5b 18 36 be 77 d1 58 3c 98 3c 13 be
       0.24381496 -0.17782728 0.013233534 -0.14378583
000020 97 4d a8 3d 76 36 1a 3e ff 96 68 3c 57 c8 a0 bd
       0.08217924 0.15059838 0.0141961565 -0.07850712
000030 6c a6 94 3c 8c 72 d0 bd bc a0 a1 be e8 fa 88 3e
       0.018145762 -0.10178098 -0.31567943 0.26753926
000040 64 62 91 3c ce 8a c7 3c 60 22 48 3e 11 28 cf bd
       0.017747112 0.02435818 0.19544363 -0.10115064
000050 11 90 2b be 0f eb 0f 3e 16 ba a6 bd 44 ec 8d 3e
       -0.16754176 0.14054511 -0.08140962 0.2771932
000060 31 6a 5a be 8a fb 7c 3e 72 40 f5 bd 71 25 8e 3c
       -0.21329571 0.2470533 -0.119751826 0.017351838
000070 58 2b b7 3d 96 6d 18 3e b0 e7 f3 bb 68 8d 84 be
       0.08943814 0.14885554 -0.007443391 -0.25889134
000080 64 cb 20 3e d7 21 6f 3e 09 14 85 3e 37 8b 19 3e
       0.15702587 0.23352753 0.25991848 0.14994512
000090 5d 61 f7 3d e9 99 4a 3e 2a 79 55 3d 78 d9 a7 be
       0.120791174 0.19785275 0.052117504 -0.32783103
0000a0 80 09 bb bd 97 bd fb 3d 42 84 bf 3c cf 67 3e 3c
       -0.09132671 0.12292021 0.023378495 0.01162143
0000b0 6b 9a ff 3c 59 36 1e 3e 6d 37 b1 bd b4 17 1b be
       0.031201562 0.1545042 -0.0865315 -0.15145761
0000c0 b2 e7 c8 3e 5e 31 38 3d
       0.3923927 0.044968955

exp_avg f4 [128, 20]
000000 ee d1 b0 3e 2d 70 f9 3d ee 36 fb 3c 18 63 6b 3d
       0.34535164 0.12179599 0.030665841 0.05746755
000010 aa 68 88 3d 09 e2 15 3d b7 9d 66 3c b4 a8 59 3d
       0.06660588 0.036592517 0.014075688 0.053139403
000020 c5 b4 7b 3d 00 00 00 00 1d 5c e5 3b 61 26 33 3c
       0.061451692 0.0 0.006999506 0.010934443
000030 57 9c 37 3c 66 da 79 3d 12 43 6a 3d b2 0e 6f 3d
       0.011206708 0.060999297 0.05719287 0.058363624
000040 64 59 34 3c ca 63 91 3b 46 8b 0b 3c 00 b9 be 39
       0.0110076405 0.0044369446 0.008517092 0.0003637746
000050 5c d5 9f be a4 2f c4 bd 4b fe f8 bc 0f 99 66 bd
       -0.31217468 -0.09579399 -0.030394694 -0.05629831
000060 1a 03 7e bd 5f 99 f3 bc c4 91 5b bb 35 47 ed bc
       -0.062014677 -0.029736219 -0.003350363 -0.028964618
000070 e9 48 68 bd 00 00 00 00 37 a7 c2 bb ca 63 f3 bb
       -0.056710158 0.0 -0.0059403437 -0.0074276673
000080 ec f6 f7 bb e4 1a 52 bd 24 3b 49 bd 20 e0 4b bd
       -0.007567277 -0.051295176 -0.049128667 -0.04977429
000090 c1 21 f4 bb a8 92 45 bb 66 ff ba bb b6 8d 0f ba
       -0.007450313 -0.0030147228 -0.0057067154 -0.00054761337
0000a0 01 dd 5a 3f 38 42 89 3d ad f4 09 3c 1d 4a 8a 3c
       0.85493475 0.06702083 0.008420152 0.016881043
0000b0 9e 86 84 3c ef 69 2e 3d 7f 96 67 3d d0 cf 37 3d
       0.016177472 0.042581495 0.05654001 0.04487592
0000c0 69 d9 cf 3c 00 00 00 00 37 18 78 3a 7d 95 03 3c
       0.025372224 0.0 0.00094640575 0.008031246
0000d0 b9 33 25 3c 2d c5 c8 bf cd 52 c8 bf 67 80 c8 bf
       0.010083132 -1.5685173 -1.5650269 -1.5664185
0000e0 04 6a 16 3c 1e b2 45 3c 58 17 ea 3b f1 f2 b4 3b
       0.0091805495 0.012066392 0.007143896 0.005522125
0000f0 ac f3 53 3d bf 0f 81 3b ba 4d 9d 3a bb 13 01 bb
       0.051746055 0.0039386447 0.0012001314 -0.0019695598
000100 25 5d c4 ba 29 7d 53 bb ed 1f c9 3a 51 f9 37 3b
       -0.0014981373 -0.0032270646 0.0015344598 0.0028072188
000110 ad 63 8f 3b 00 00 00 00 d3 93 18 3b f0 87 4d 3b
       0.004375896 0.0 0.002328147 0.0031361543
000120 b2 b4 55 3b 66 33 52 41 6f 32 52 41 ea 33 52 41
       0.0032608924 13.137548 13.137313 13.137674
000130 e1 46 51 3b 5d 9a 64 3a 91 fa 05 39 c6 1c 0b 3a
       0.0031933116 0.00087205117 0.00012777212 0.0005306717
000140 34 03 8b 3d 4b d1 bb 3c 7f f8 b8 3a ee ec 1c 3c
       0.0678772 0.022926947 0.0014112144 0.009577973
000150 94 c0 3b 3c 99 51 21 3c c7 57 c3 3b 08 52 5a 3c
       0.011459488 0.009846115 0.0059613916 0.013325222
000160 c9 43 b5 3b 00 00 00 00 70 a1 8e 3a 60 8c 2b 3b
       0.0055317623 0.0 0.0010881852 0.00261762
000170 07 70 2a 3b d0 58 39 41 01 57 39 41 12 58 39 41
       0.0026006715 11.584183 11.583741 11.584002
000180 da 6b 2b 3b 18 e3 d4 3a ff 88 06 3b 70 01 a9 39
       0.0026156814 0.0016241996 0.0020528433 0.00032235263
000190 4d 28 64 3c 74 30 7b 3b a3 46 87 3a 50 89 2c 3b
       0.013925624 0.003832844 0.0010320734 0.0026326962
0001a0 00 89 2d 3b aa e4 0d bb a3 11 86 ba 57 d2 a5 38
       0.0026479363 -0.0021651187 -0.0010228645 7.906992e-05
0001b0 c8 04 9a ba 00 00 00 00 06 3a 1e 3a aa 46 de 39
       -0.0011750693 0.0 0.0006035868 0.00042395788
0001c0 92 24 9f 39 5c 6b d8 40 5e 68 d8 40 0c 69 d8 40
       0.0003035409 6.7631054 6.76274 6.762823
0001d0 48 61 c2 39 6c 45 bf b9 a8 d7 13 39 9a e1 9d 39
       0.00037075044 -0.00036482082 0.0001409935 0.0003011346
0001e0 ac 31 3d 3e 89 62 5c 3d db d9 32 3c 7f 94 13 3d
       0.1847598 0.053804908 0.010916199 0.03603029
0001f0 93 fa 1c 3d f2 f0 c1 3c 4e 42 ec 3a 88 d6 d9 3c
       0.038324904 0.023674462 0.0018025131 0.026591554
000200 86 16 00 3d 00 00 00 00 38 15 89 3b be e2 da 3b
       0.03127148 0.0 0.0041834377 0.006679862
000210 6d 29 da 3b d7 0b 07 3d ae eb 02 3d e4 25 05 3d
       0.0066577704 0.032970276 0.031963043 0.03250684
000220 bf e0 db 3b 8b 09 2f 3b 87 5d 7d 3b dd e9 5e 3a
       0.0067101414 0.002670857 0.0038660483 0.0008503476
000230 db 61 bb 3e 3c 5a ac 3d c8 5c d5 3c ea d1 d3 3c
       0.36598095 0.08415648 0.026045218 0.02585693
000240 c2 a2 17 3d c7 57 1f 3d 04 c3 36 3d 84 fe 42 3d
       0.037020452 0.03890207 0.044619575 0.047606006
000250 8a 1a 04 3d 00 00 00 00 49 43 67 3b 0b 04 1e 3c
       0.032251872 0.0 0.0035287908 0.009644519
000260 c7 c5 20 3c 14 1d 2a 42 81 1d 2a 42 80 1d 2a 42
       0.009812779 42.528397 42.528812 42.52881
000270 d1 19 1f 3c 9e ef 8f 3b 28 26 77 3b 41 46 41 39
       0.009710745 0.0043925783 0.0037711952 0.00018432086
000280 07 bf 2c 3e 84 44 75 3c c3 39 93 3b ea 7a 29 3b
       0.16869746 0.014969949 0.0044929697 0.0025860616
000290 82 e5 c4 3b 7e 1e 44 ba d5 7e 6f ba ca 96 93 3b
       0.006008805 -0.00074813503 -0.0009136026 0.0045040594
0002a0 1c 68 14 3c 00 00 00 00 d6 6e 9c 3b 69 1c ca 3b
       0.009058025 0.0 0.004773955 0.0061679375
0002b0 af 5f f3 3b 07 97 59 41 1d 9b 59 41 23 99 59 41
       0.007427178 13.599372 13.600369 13.599887
0002c0 7f 6e ed 3b b2 12 e8 3b 48 7f 93 3b 54 ba ab 3b
       0.007245838 0.007082307 0.004501257 0.005240718
0002d0 91 58 8a be e2 de e0 bc 8d 7e 5e bb 28 13 81 bb
       -0.27020696 -0.027450029 -0.0033949942 -0.003939051
0002e0 f7 08 a3 bb 71 bb 83 bc 95 aa 98 bc bd 7c 9c bc
       -0.004975434 -0.01608059 -0.018636027 -0.019102449
0002f0 ef 97 b2 bb 00 00 00 00 ea 26 65 bb 19 8a 98 bb
       -0.005450241 0.0 -0.0034965822 -0.0046551344
000300 27 f0 92 bb a3 9f b1 c0 4d a3 b1 c0 96 a1 b1 c0
       -0.004484195 -5.550737 -5.551184 -5.550975
000310 fa 9f 95 bb f3 e8 e5 ba 97 43 ae b9 29 ce cf b8
       -0.00456619 -0.0017540738 -0.00033238225 -9.9089295e-05
000320 81 04 c9 3d 6f 48 3c bc 9f e4 7b 3b cd c7 08 bc
       0.09815312 -0.011491879 0.003843583 -0.0083484175
000330 f4 29 2d bc e3 72 79 b9 6e 3e 28 3a de ab f4 bb
       -0.010569084 -0.00023789289 0.0006417994 -0.007466777
000340 9e 61 24 bc 00 00 00 00 9e a1 37 bb c0 02 84 ba
       -0.010033039 0.0 -0.0028019915 -0.001007162
000350 38 05 a3 ba d4 af 1f bb 0f be 16 bb a4 6f 16 bb
       -0.0012437468 -0.0024366276 -0.0023001467 -0.0022954727
000360 79 96 8b ba ad fa ec b8 f5 81 29 38 c6 5a b0 38
       -0.0010649703 -0.00011300049 4.041377e-05 8.409242e-05
000370 3d ba 70 be 4b e3 90 bd c1 22 94 3c 42 8f e7 bd
       -0.23508544 -0.07074603 0.018082978 -0.11306621
000380 4c 64 ae bd 17 86 12 bd 3a 68 88 bc bd ab 50 bd
       -0.08515224 -0.03577241 -0.016651262 -0.050945032
000390 d2 db 13 bd 00 00 00 00 be 3e fd bb 88 ff 63 bc
       -0.03609831 0.0 -0.0077284267 -0.013915904
0003a0 cd 6f 4b bc d9 f5 d7 c1 21 f3 d7 c1 91 f4 d7 c1
       -0.012416792 -26.995043 -26.993715 -26.994417
0003b0 fa 39 5a bc dd 60 7f 3a 6e 76 3f bb 13 3a a9 3b
       -0.013319487 0.0009741912 -0.0029214877 0.0051643937
0003c0 1c bd 36 3f 9b 01 90 3d fd 6e 1d 3c f9 a2 fd 3b
       0.7138231 0.07031556 0.009608981 0.007740375
0003d0 60 af 2c 3c 03 be 40 3d f4 1f 70 3d 5a 00 2b 3d
       0.0105398595 0.04705621 0.058624223 0.041748382
0003e0 df 67 91 3c 00 00 00 00 f6 51 85 3b 6b 0c c0 3b
       0.017749725 0.0 0.0040686084 0.0058608553
0003f0 c5 48 c7 3b df 37 72 3c bb dd 8f 3c 72 97 85 3c
       0.006081673 0.0147838285 0.017561784 0.016307566
