flaskProject/modules/Contrastive_Clustering/save/save_3/model_checkpoint.tar (torch, 183226 bytes, 24 tensors)

instance_projector.0.weight f4 [128, 20]
0.096799515 0.01972703 -0.29280093 -0.22096732 -0.16216876 0.03597624 0.076139055 -0.20367043
0.041545093 0.20552117 -0.09840118 -0.041535065 -0.25356978 0.027225336 0.14442733 -0.028936978
-0.22591649 -0.022260502 0.07426086 -0.256659 -0.0647311 0.04436277 -0.20199351 0.19565359
-0.26219392 0.17717746 -0.061333816 -0.00080329506 -0.15426436 -0.05347614 -0.2414204 0.1219562
-0.047965057 -0.13076708 0.06389653 0.060437094 0.18072513 -0.09105325 0.101109624 0.15044466
-0.3184191 0.20197983 -0.1642675 0.17469078 0.16474223 -0.017042814 0.18325387 -0.27530545
0.3526401 -0.14434114 0.16425617 -0.1304565 0.042759646 0.048626322 0.013291809 -0.06791372
-0.035281017 0.2591469 0.27498627 -0.22805254 -0.020748157 -0.24736503 -0.0106167 -0.34858692
-0.20134719 -0.012691097 -0.25046283 -0.2978185 -0.29713613 -0.1415206 -0.04149694 0.117886
0.15827212 -0.1491865 -0.00064003305 0.15293856 -0.05494297 -0.31337005 0.18586203 -0.04549462
-0.10442767 0.21216485 0.098831385 0.1444687 -0.093657725 -0.008261629 -0.0504689 -0.017270701
0.1168574 0.15695739 -0.15118524 -0.19965921 -0.17104395 -0.14529659 0.0028845111 -0.026671851
0.16852073 -0.10225106 -0.07558105 0.082197495 -0.052650325 0.1738315 0.014739786 0.29050285
0.15039247 0.010147433 -0.20340648 0.113043256 0.13741653 0.1545811 -0.06957532 -0.040283266
0.09999085 -0.027658038 0.16953915 -0.0547364 -0.015896257 -0.050473694 -0.23895569 -0.013625478
-0.5320597 -0.01888011 -0.0057952423 0.30293995 -0.13045831 -0.062546566 -0.2279043 0.19201258
-0.11297645 -0.15959099 0.12024674 -0.16829674 -0.13702714 0.18431643 0.15232016 -0.13518713
-0.03717653 -0.2523392 0.0021778345 0.17738196 -0.015636902 0.41318092 0.03814489 0.08335375
0.22427042 -0.32070807 0.2745437 0.13316967 0.31368107 -0.13887528 0.23677322 0.077612504
-0.096960604 -0.12812628 -0.10690621 0.10121155 0.040550627 -0.051564988 -0.0024717466 -0.23217462
0.06652184 -0.0010413604 -0.24741091 0.14790374 -0.10834622 0.051482387 0.009417066 0.27206567
-0.11111102 -0.072886005 0.16106787 0.033675045 0.101268366 0.01810255 0.1287072 -0.1790155
0.014680297 0.041177113 -0.33225983 0.009717925 0.0610932 -0.027582001 -0.16283289 0.16003336
-0.11203113 -0.20498872 0.031181267 0.08734362 -0.023642557 -0.05541365 0.115569934 -0.0111632515
-0.038185682 -0.058218624 0.1573116 0.18617018 -0.07321733 0.05279534 -0.13043682 0.13592315
-0.5592514 0.05008748 -0.20914601 0.11220542 0.25880212 0.08650907 -0.12370068 0.04966283
0.27595833 -0.1679211 0.059905548 0.1773918 -0.12730622 0.1037822 -0.0428276 -0.06197886
-0.1798805 -0.04041191 0.10581485 -0.0922864 -0.081750676 -0.1056636 -0.15284456 0.14475743
-0.09555821 -0.100756474 -0.22340772 -0.07047858 -0.052230965 -0.0020615011 -0.16268118 0.082854725
0.16256604 0.009142771 0.10462164 0.15994973 0.018449964 -0.01121691 -0.07096347 -0.10386077
0.107016616 0.11344539 -0.13372412 0.13111345 -0.01746547 -0.08872289 -0.1290162 -0.03689652
0.13440916 -0.13652846 0.042698283 0.0501307 -0.056324653 -0.08959299 -0.008883559 -0.07715352
00000000: d33e c63d 959a a13c 01ea 95be 4245 62be
00000010: 910f 26be d25b 133d cbee 9b3d fb8e 50be
00000020: 302b 2a3d 2474 523e 8f86 c9bd ac20 2abd
00000030: e6d3 81be ab07 df3c c2e4 133e 3e0d edbc
00000040: a756 67be a85b b6bc 1416 983d cf68 83be
00000050: bd91 84bd bcb5 353d 63d7 4ebe 6a59 483e
00000060: 483e 86be 026e 353e 2b39 7bbd 3894 52ba
00000070: 7af7 1dbe cc09 5bbd e936 77be 2cc4 f93d
00000080: 0277 44bd cee7 05be 2fdc 823d e38c 773d
00000090: 0210 393e 207a babd 9012 cf3d 2a0e 1a3e
000000a0: d407 a3be cdd3 4e3e bd35 28be 24e2 323e
000000b0: 30b2 283e 5f9d 8bbc e7a6 3b3e d6f4 8cbe
000000c0: 3e8d b43e 2ace 13be c532 283e 6496 05be
000000d0: bd24 2f3d 652c 473d e3c5 593c 5916 8bbd
000000e0: d482 10bd e7ae 843e 00cb 8c3e 9b86 69be
000000f0: 0af8 a9bc 424d 7dbe abf1 2dbc fc79 b2be
00000100: f52d 4ebe 52ee 4fbc aa3c 80be ab7b 98be
00000110: 3a22 98be c7ea 10be b2f8 29bd 376e f13d
00000120: 1612 223e 59c4 18be e4c7 27ba ed9b 1c3e
00000130: e10b 61bd 0a72 a0be 9e52 3e3e 9158 3abd
00000140: 2dde d5bd be41 593e 1c68 ca3d 9aef 133e
00000150: 9fcf bfbd c95b 07bc 7ab8 4ebd 497b 8dbc
00000160: ef52 ef3d 70b9 203e 4ed0 1abe 7773 4cbe
00000170: 2526 2fbe a1c8 14be 110a 3d3b ed7e dabc
00000180: b390 2c3e 0169 d1bd 3dca 9abd 2957 a83d
00000190: dea7 57bd e200 323e 257f 713c cabc 943e
000001a0: 7c00 1a3e 6b41 263c ca49 50be 3983 e73d
000001b0: ebb6 0c3e 824a 1e3e 817d 8ebd 1100 25bd
000001c0: 01c8 cc3d 1c93 e2bc ac9b 2d3e 4633 60bd
000001d0: de38 82bc 81bd 4ebd cdb0 74be 663d 5fbc
000001e0: 1135 08bf 76aa 9abc 04e6 bdbb f21a 9b3e
000001f0: dd96 05be 6a18 80bd bf5f 69be f29e 443e
00000200: 3260 e7bd d26b 23be ec43 f63d fb55 2cbe
00000210: d850 0cbe 72bd 3c3e d1f9 1b3e 7f6e 0abe
00000220: 6b46 18bd 9b32 81be 00ba 0e3b 9ea3 353e
00000230: f618 80bc 738c d33e d13d 1c3d 5fb5 aa3d
00000240: 25a7 653e d933 a4be fe90 8c3e a15d 083e
00000250: ce9a a03e 5235 0ebe ae74 723e 4ef3 9e3d
00000260: 4893 c6bd 8933 03be a5f1 dabd 0048 cf3d
00000270: 6a18 263d cf35 53bd 07fd 21bb 2fbf 6dbe
00000280: 9a3c 883d 427e 88ba 4959 7dbe 1474 173e
00000290: 9fe4 ddbd 32df 523d 0a4a 1a3c 314c 8b3e
000002a0: 2d8e e3bd 4245 95bd faee 243e d8ee 093d
000002b0: ca65 cf3d cd4b 943c d2cb 033e d74f 37be
000002c0: a185 703c 55a9 283d f61d aabe ef37 1f3c
000002d0: dd3c 7a3d a6f3 e1bc aabd 26be c9df 233e
000002e0: 9470 e5bd 90e8 51be db6f ff3c 36e1 b23d
000002f0: 09ae c1bc 6cf9 62bd eeaf ec3d 12e6 36bc
00000300: 9768 1cbd a776 6ebd 4b16 213e 65a3 3e3e
00000310: f8f2 95bd ed3f 583d 3b91 05be 702f 0b3e
00000320: 1a2b 0fbf 8828 4d3d 5f2a 56be f5cb e53d
00000330: b681 843e ab2b b13d c856 fdbd 406b 4b3d
00000340: 694a 8d3e 82f3 2bbe 855f 753d 32a6 353e
00000350: 905c 02be c38b d43d fe6b 2fbd 8cdd 7dbd
00000360: 9832 38be f586 25bd 75b5 d83d a700 bdbd
00000370: e66c a7bd 2866 d8bd 4983 1cbe 4b3b 143e
00000380: 06b4 c3bd 6959 cebd fec4 64be 1357 90bd
00000390: 23f0 55bd 401a 07bb e595 26be bdaf a93d
000003a0: b677 263e 90cb 153c df43 d63d ddc9 233e
000003b0: 6124 973c 21c7 37bc 4c55 91bd f5b4 d4bd
000003c0: 872b db3d 0e56 e83d faee 08be 9b42 063e
000003d0: bf13 8fbc 59b4 b5bd d31c 04be ce20 17bd
000003e0: 8ea2 093e 1ece 0bbe 65e4 2e3d d955 4d3d
000003f0: aeb4 66bd 887c b7bd 598c 11bc aa02 9ebd

instance_projector.0.bias f4 [128]
0.29090464 0.1030171 0.27397534 0.10846782 -0.10999698 0.11121234 0.016276807 0.48605007
0.16298726 -0.06445583 -0.044054605 -0.27855012 0.46584973 0.13141449 0.12838387 -0.014392358
0.19265242 0.10166155 -0.056606807 0.23431341 0.0820234 0.31225783 -0.14654514 0.3992302
0.11025473 0.08216821 -0.24408734 0.3274381 0.2686254 0.102949165 0.27363807 0.19965757
-0.0571416 -0.031824663 0.06266105 -0.10109673 0.21550123 0.0109943915 -0.14812694 0.24068251
0.17220818 -0.23954567 -0.052114405 -0.19386086 0.1595917 -0.11170845 -0.21533543 0.17602667
-0.19128284 -0.38148004 0.25364152 -0.02991796 0.09051831 -0.034485426 0.12141504 0.211919
-0.21282285 0.085329644 0.045808684 -0.09178412 0.053603914 -0.18160337 0.11261049 -0.1384592
0.14887641 -0.15297733 -0.042657267 -0.40341148 0.14354014 -0.007997448 -0.25137982 0.08294422
0.34165803 -0.020318981 0.03555812 -0.1701238 0.057501424 -0.0057368916 -0.09186239 -0.027186168
-0.08513636 0.04284206 -0.15215692 -0.10152302 -0.04345246 -0.0070988634 -0.14126495 0.2165837
-0.088968955 -0.07546849 0.28756443 -0.101885945 0.080205105 0.10962897 0.10683707 -0.013233687
-0.085095234 -0.20751067 -0.24818017 0.008752307 0.1300414 0.052670136 0.15636589 0.43480617
-0.04339265 0.04000579 0.018280873 0.10017842 0.27811414 -0.2742906 0.6372581 -0.1765832
-0.1390746 -0.07419016 0.21674417 -0.05923551 -0.07655785 -0.06552836 0.40780777 -0.18822114
0.007835947 0.2436151 -0.07923175 -0.118375435 -0.21725178 0.04280312 0.3825754 0.4400801
00000000: 74f1 943e a1fa d23d 7f46 8c3e 6024 de3d
00000010: 1946 e1bd 4cc3 e33d f056 853c 8edb f83e
00000020: 22e6 263e 6b01 84bd 9a72 34bd 1f9e 8ebe
00000030: db83 ee3e 8591 063e 1077 033e edcd 6bbc
00000040: ad46 453e ee33 d03d 8adc 67bd dbef 6f3e
00000050: e2fb a73d 42e0 9f3e ee0f 16be e767 cc3e
00000060: 3bcd e13d ce47 a83d 08f2 79be f7a5 a73e
00000070: 4589 893e 03d7 d23d 4a1a 8c3e 0973 4c3e
00000080: 4f0d 6abd 945a 02bd 7054 803d cd0b cfbd
00000090: 5bac 5c3e d221 343c 97ae 17be 7a75 763e
000000a0: 5757 303e 764b 75be ea75 55bd 7683 46be
000000b0: 026c 233e 66c7 e4bd e480 5cbe 5640 343e
000000c0: a6df 43be 5a51 c3be 4ddd 813e 8216 f5bc
000000d0: aa61 b93d 9740 0dbd 73a8 f83d 4b01 593e
000000e0: 3cee 59be 4fc1 ae3d e3a1 3b3d 50f9 bbbd
000000f0: c78f 5b3d 3cf6 39be 54a0 e63d 40c8 0dbe
00000100: 0f73 183e 17a6 1cbe 63b9 2ebd f38b cebe
00000110: 30fc 123e ba07 03bc dbb4 80be a9de a93d
00000120: cded ae3e fe73 a6bc 64a5 113d ef34 2ebe
00000130: 9d86 6b3d 89fc bbbb 5922 bcbd 87b5 debc
00000140: f95b aebd 287b 2f3d 06cf 1bbe 4deb cfbd
00000150: 35fb 31bd 959d e8bb c2a7 10be 1ec8 5d3e
00000160: 5b35 b6bd 398f 9abd a53b 933e 94a9 d0bd
00000170: 9342 a43d 2785 e03d 65cd da3d 1bd2 58bc
00000180: 6946 aebd ad7d 54be f122 7ebe d665 0f3c
00000190: 9329 053e a4bc 573d 611e 203e ea9e de3e
000001a0: 7ebc 31bd 1cdd 233d c5c1 953c 582a cd3d
000001b0: fa64 8e3e d16f 8cbe 5923 233f 3ad2 34be
000001c0: 9269 0ebe 03f1 97bd 2ff2 5d3e efa0 72bd
000001d0: 5dca 9cbd bc33 86bd 2ecc d03e 0bbd 40be
000001e0: 5862 003c 3d76 793e 4144 a2bd d26e f2bd
000001f0: 4077 5ebe 5352 2f3d ece0 c33e 2e52 e13e

instance_projector.2.weight f4 [20, 128]
-0.0028942737 -0.023303306 0.0478802 -0.039031327 -0.06436382 0.009627302 -0.07293369 0.05257851
0.04788983 0.008277801 -0.00022905685 0.020096852 0.051795904 0.13065474 0.020999914 0.02239117
-0.067664005 0.00062808214 -0.06284495 -0.019061103 -0.07137955 0.050353896 0.036480997 0.009211168
0.035226993 0.10561049 0.01935454 0.0647475 0.028544702 0.032635156 0.032904297 0.064909816
-0.037099395 -0.014188015 -0.024636818 0.112464376 -0.18070206 0.07498222 -0.010961709 -0.034150537
-0.09830818 -0.08385287 -0.11780168 -0.064864025 -0.070435196 -0.0531603 -0.014485551 -0.13481635
-0.07322256 0.025917524 -0.007213721 -0.06115937 -0.07526103 -0.011250155 -0.0707142 0.007305559
0.08614583 0.11518967 -0.19345096 0.06059387 0.09702324 -0.06575698 -0.025823714 -0.06335503
0.06352684 -0.04065751 0.05854249 -0.004037276 -0.05434591 -0.03973345 -0.063672945 0.007678729
-0.115552776 0.03207292 0.11286699 0.022202337 -0.040909015 -0.059416827 0.0070701977 0.011981724
0.036529683 0.119672656 0.029025462 0.03451579 -0.070080966 0.062154617 -0.0047983057 0.044727627
0.021517199 0.051013917 -0.104979075 0.04402754 -0.02668213 0.11817058 -0.11377363 -0.025913643
-0.06154697 0.044404864 -0.0021229554 -0.010294526 -0.07739139 0.046364427 0.08997993 0.059823453
-0.05096249 0.054619946 -0.05823108 0.05231918 -0.13946453 0.030114146 -0.112469904 0.09652259
-0.046463475 -0.036345884 0.07249925 -0.15612476 0.05034654 0.07212324 0.017245939 0.03386432
-0.05887639 -0.085763045 0.07518068 -0.10290388 0.01805957 -0.020821422 0.024739023 -0.10115185
-0.12768972 0.061022166 0.04783684 -0.040129106 0.001230601 -0.034991905 -0.07903344 0.03864957
-0.08088569 0.07592823 -0.043873116 -0.017261479 -0.0247245 -0.056329187 0.07719611 -0.072576374
-0.06286833 0.081736654 -0.10872367 -0.14159998 -0.071488276 -0.19788028 0.0068713375 0.035272364
-0.016988328 -0.049348343 -0.029759148 -0.19475739 0.021819467 0.02361026 -0.026408859 0.122274555
-0.06806715 -0.07369522 0.034967605 0.07768555 -0.11874886 0.047510576 -0.060547777 -0.09457809
-0.057764865 -0.07384609 0.088942505 0.026673732 -0.03280726 0.07494916 -0.041145846 -0.018895697
0.04805039 -0.1436979 0.090366766 -0.02288448 0.07934279 0.03372801 -0.050207086 0.07989213
-0.07599237 0.07369541 -0.09357125 -0.096955255 0.05393506 -0.049893513 -0.089940585 0.0769777
-0.032176338 0.07294477 -0.06050927 -0.05168058 0.040196072 0.06995653 -0.013926219 -0.065868266
-0.22553253 -0.045187138 0.08547468 -0.007162761 -0.09823234 0.045667186 -0.10641861 -0.0059210327
-0.09058954 0.060762055 -0.056135423 0.07210585 -0.06545722 0.04410627 0.05130506 -0.005840495
-0.028934304 0.0037261143 -0.05180678 0.06280523 0.08433263 -0.094854616 0.04694699 0.20237096
-0.09933965 0.074606374 -0.049092997 0.023113072 -0.19281945 -0.052807003 0.14043306 0.003423574
-0.02047533 0.04752977 0.056829914 -0.053025935 -0.19488265 -0.023779493 -0.015110498 0.07355915
-0.027819213 -0.04706196 0.060025945 0.029477088 0.03196318 -0.010173699 -0.04904905 -0.0029352116
0.015889833 0.008306898 -0.12626004 0.0899554 -0.029703509 -0.013525114 0.03600203 -0.0944249
00000000: dbad 3dbb 93e6 bebc 071e 443d 50df 1fbd
00000010: 2ed1 83bd d5bb 1d3c 425e 95bd 905c 573d
00000020: 2028 443d 9d9f 073c fb2e 70b9 27a2 a43c
00000030: f127 543d 5bca 053e 0308 ac3c b06d b73c
00000040: 6d93 8abd e1a5 243a dab4 80bd 0826 9cbc
00000050: 712f 92bd e33f 4e3d 196d 153d 70ea 163c
00000060: 2e4a 103d 504a d83d 6a8d 9e3c 569a 843d
00000070: 94d6 e93c 71ac 053d a8c6 063d 70ef 843d
00000080: 89f5 17bd d974 68bc 27d3 c9bc b953 e63d
00000090: f609 39be 4790 993d bd98 33bc 6fe1 0bbd
000000a0: cd55 c9bd 0ebb abbd 0242 f1bd 6ed7 84bd
000000b0: 5440 90bd 9dbe 59bd ce54 6dbc 4c0d 0abe
000000c0: b6f5 95bd fd50 d43c 1461 ecbb 3f82 7abd
000000d0: 7422 9abd 9252 38bc 9bd2 90bd 7863 ef3b
000000e0: 3a6d b03d 90e8 eb3d 0218 46be 4731 783d
000000f0: 1fb4 c63d 98ab 86bd 418c d3bc 48c0 81bd
00000100: 5c1a 823d 7d88 26bd 40ca 6f3d 204b 84bb
00000110: d199 5ebd 8bbf 22bd f666 82bd d99d fb3b
00000120: efa6 ecbd e55e 033d cf26 e73d ade1 b53c
00000130: 3690 27bd 0f5f 73bd 1ead e73b fe4e 443c
00000140: 26a0 153d f016 f53d cec6 ed3c 6e60 0d3d
00000150: 9c86 8fbd d795 7e3d 1b3b 9dbb 5134 373d
00000160: d644 b03c f8f3 503d 45ff d6bd 3956 343d
00000170: 7b94 dabc 6b03 f23d 2602 e9bd d948 d4bc
00000180: ad18 7cbd e0e1 353d 4821 0bbb 5faa 28bc
00000190: 617f 9ebd a0e8 3d3d 6647 b83d 7009 753d
000001a0: 0bbe 50bd 2ab9 5f3d b783 6ebd a34c 563d
000001b0: cacf 0ebe f1b1 f63c 9f56 e6bd a3ad c53d
000001c0: 7c50 3ebd 6cdf 14bd 7d7a 943d 2bdf 1fbe
000001d0: 2c38 4e3d 59b5 933d 5b47 8d3c 50b5 0a3d
000001e0: 5f28 71bd 89a4 afbd 54f8 993d 45bf d2bd
000001f0: aaf1 933c b091 aabc 7ea9 ca3c b328 cfbd
00000200: 18c1 02be 61f2 793d 90f0 433d 6b5e 24bd
00000210: 1e4c a13a ac53 0fbd 49dc a1bd 034f 1e3d
00000220: 66a7 a5bd 4380 9b3d 4cb4 33bd f267 8dbc
00000230: 098b cabc 6fb9 66bd fe18 9e3d eca2 94bd
00000240: 1cc1 80bd 8c65 a73d 84aa debd 96ff 10be
00000250: 7268 92bd 21a1 4abe f528 e13b c179 103d
00000260: 1b2b 8bbc 7d21 4abd 75c9 f3bc 7b6e 47be
00000270: bdbe b23c 4e6a c13c 6457 d8bc 156b fa3d
00000280: ca66 8bbd 85ed 96bd 313a 0f3d 9a19 9f3d
00000290: 9a32 f3bd 739a 423d f200 78bd 28b2 c1bd
000002a0: da9a 6cbd 9e3c 97bd 7d27 b63d df82 da3c
000002b0: e860 06bd f27e 993d 8c88 28bd 26cb 9abc
000002c0: 7cd0 443d 8b25 13be 3612 b93d 3c78 bbbc
000002d0: 797e a23d 6226 0a3d f2a5 4dbd 7c9e a33d
000002e0: e3a1 9bbd 9eed 963d 49a2 bfbd 7a90 c6bd
000002f0: 02eb 5c3d 245d 4cbd c532 b8bd 7ca6 9d3d
00000300: 56cb 03bd 1164 953d 91d8 77bd 04af 53bd
00000310: a3a4 243d 5f45 8f3d cc2a 64bc f1e5 86bd
00000320: 00f2 66be 2616 39bd 590d af3d 98b5 eabb
00000330: 092e c9bd 840d 3b3d 00f2 d9bd 3905 c2bb
00000340: 0287 b9bd a2e1 783d 42ee 65bd 3bac 933d
00000350: 6f0e 86bd c7a8 343d 4125 523d a061 bfbb
00000360: a207 edbc d331 743b 5933 54bd 07a0 803d
00000370: 96b6 ac3d 2343 c2bd 7d4b 403d 553a 4f3e
00000380: 9672 cbbd 3acb 983d bd15 49bd a057 bd3c
00000390: 7672 45be 284c 58bd afcd 0f3e 0a5e 603b
000003a0: e1bb a7bc 93ae 423d 7cc6 683d b931 59bd
000003b0: 518f 47be 36cd c2bc 0692 77bc 2ea6 963d
000003c0: 1ee5 e3bc 0bc4 40bd c4dd 753d ef79 f13c
000003d0: d3eb 023d 96af 26bc a8e7 48bd ae5c 40bb
000003e0: 652b 823c a819 083c 504a 01be 893a b83d
000003f0: c654 f3bc 7198 5dbc dd76 133d d861 c1bd

instance_projector.2.bias f4 [20]
0.12123071 0.092263885 -0.17900442 -0.14394408 -0.07685695 0.23950651 -0.031258807 0.058802903
0.09648512 0.00010838076 0.096176766 0.15827948 0.02209592 -0.02242452 0.08308491 -0.09567262
0.05841824 -0.055725362 0.048363168 -0.007415265
00000000: ce47 f83d d9f4 bc3d ef4c 37be 1466 13be
00000010: 2d67 9dbd 3241 753e 3c09 00bd 50db 703d
00000020: fe99 c53d 7a4a e338 53f8 c43d 0414 223e
00000030: 8102 b53c a1b3 b7bc 6c28 aa3d 02f0 c3bd
00000040: f747 6f3d 4740 64bd 7518 463d c0fb f2bb

cluster_projector.0.weight f4 [128, 20]
0.38373008 0.64625186 -0.15725814 -0.033890113 -0.16448326 0.0025985895 0.020269424 -0.18615752
0.6368437 0.09003991 0.106106706 -0.16004212 -0.090514444 -0.2606899 0.21185592 -0.11864195
-0.055995297 0.23277824 0.40020382 -0.093498595 -0.04804322 0.06603254 0.25157896 -0.13319723
-0.24705088 -0.085836895 -0.14124289 -0.13837731 0.013896631 -0.13653274 0.0676214 0.083202004
0.11289809 -0.09875882 0.047747057 0.103444144 -0.15447979 -0.14937155 -0.11328863 0.18606131
0.103683904 0.14354073 -0.10810361 -0.07470111 -0.008447575 0.09650488 -0.10750332 -0.109696224
0.2855131 0.16990179 -0.013070715 -0.031854153 -0.16246785 -0.16566925 0.10023282 0.13239579
0.07735636 0.035104834 -0.16429049 -0.044326786 -0.045713462 0.018839652 0.1969141 -0.018821554
-0.061232913 0.0037019958 -0.10289845 -0.12565643 -0.15964279 -0.1447784 -0.06133364 0.16290723
0.22928903 0.1172486 -0.061221626 0.0059593194 -0.08128261 0.115094714 -0.11448543 -0.0027678614
0.028575255 -0.015818516 -0.044556815 0.23179998 0.033040214 -0.20936672 -0.23790081 -0.1354003
0.06155846 0.081409216 -0.20887423 0.0026358964 0.009818898 -0.012646448 -0.04365581 -0.17365053
-0.07834791 0.152259 0.08187298 -0.13510919 -0.113726325 -0.20203634 0.014352512 -0.041023243
0.15886651 0.20336156 -0.2082205 -0.18073212 -0.19545317 -0.15231484 -0.07155658 -0.2435787
0.07744267 0.062538125 0.02802887 -0.081981525 0.028542714 0.13166831 0.02204812 0.122111715
0.00067169603 0.15287355 -0.112062566 0.047748674 -0.097273104 0.100934155 -0.08475501 -0.011790162
0.1020119 -0.1265693 -0.085135005 -0.13688193 0.1440904 0.00971107 0.12445913 0.09357111
-0.11019566 0.14058502 -0.22156234 0.18437335 -0.027130019 -0.051337123 -0.18742983 -0.20254311
-0.16358452 0.11989092 0.011888108 -0.0141958175 0.07790329 0.041812927 0.097997464 0.13430934
0.003472669 -0.06518383 -0.16793291 -0.09003619 0.16279408 0.1523968 -0.27602598 0.15340646
-0.13092864 -0.025054613 -0.19373062 0.06904534 0.119032554 0.08607606 0.12162939 -0.1251774
-0.06106605 0.1530945 -0.10635465 0.21033597 0.07167827 0.14847036 -0.052030817 0.08982887
-0.1863841 0.10426386 -0.18542682 0.010117219 0.007183212 -0.13731055 0.19617504 -0.122798614
-0.030044202 0.0037964804 0.12652871 0.12715298 0.1841686 -0.08118601 -0.17620946 -0.0137996385
-0.2335803 0.12834208 -0.11783698 -0.12158786 -0.14793107 -0.068587184 -0.21826892 -0.2229049
-0.10696453 -0.1421917 -0.025034484 0.04278767 -0.2197705 0.16127779 -0.09379773 0.012288188
0.050464798 -0.20251422 0.16049789 0.20382275 -0.1669397 -0.13908282 -0.08613908 -0.029950175
-0.0113370465 0.19009528 0.12327318 -0.28526178 -0.10021889 0.07212234 -0.17360666 0.07925981
0.012987085 0.08527078 -0.25656137 -0.18550594 -0.17536871 -0.17720272 0.12244233 -0.19988574
0.015169165 -0.21612905 0.13241547 0.08496505 -0.27380046 -0.13355303 0.13237986 0.12882483
0.12653978 0.17655648 -0.041866794 0.116172925 0.14247859 -0.07775725 -0.10580068 -0.1780474
-0.021295985 0.07516214 -0.013042345 -0.113679044 0.16754808 -0.020705994 -0.13304079 0.10681517
00000000: 4578 c43e c370 253f 4708 21be 5cd0 0abd
00000010: 4d6e 28be 194d 2a3b 100c a63c 14a0 3ebe
00000020: 3008 233f d866 b83d 794e d93d 15e2 23be
00000030: a35f b9bd 2679 85be c2f0 583e 8dfa f2bd
00000040: 535b 65bd 6b5d 6e3e 84e7 cc3e 317c bfbd
00000050: f8c8 44bd 113c 873d f5ce 803e db64 08be
00000060: e8fa 7cbe 41cb afbd faa1 10be c8b2 0dbe
00000070: b2ae 633c 3dcf 0bbe 177d 8a3d d065 aa3d
00000080: 1d37 e73d 1042 cabd 6b92 433d 86da d33d
00000090: f32f 1ebe dbf4 18be df03 e8bd db86 3e3e
000000a0: 3a58 d43d 57fc 123e 6d65 ddbd e5fc 98bd
000000b0: b367 0abc 5aa4 c53d b32a dcbd 6aa8 e0bd
000000c0: c62e 923e bcfa 2d3e 8d26 56bc 8079 02bd
000000d0: f95d 26be 33a5 29be dd46 cd3d c392 073e
000000e0: 036d 9e3d 16ca 0f3d c43b 28be 0190 35bd
000000f0: 0a3e 3bbd 9d55 9a3c daa3 493e a92f 9abc
00000100: 5dcf 7abd 2f9d 723b 6cbc d2bd 14ac 00be
00000110: 6679 23be ca40 14be fc38 7bbd 27d1 263e
00000120: beca 6a3e 0920 f03d 87c3 7abd 6546 c33b
00000130: 7f77 a6bd c7b6 eb3d 5677 eabd 0265 35bb
00000140: a716 ea3c d595 81bc 3581 36bd f95c 6d3e
00000150: 2d55 073d 3b64 56be 459c 73be 60a6 0abe
00000160: b924 7c3d e0b9 a63d 20e3 55be 01bf 2c3b
00000170: 71df 203c 0c33 4fbc 6fd0 32bd 72d1 31be
00000180: de74 a0bd c9e9 1b3e 05ad a73d 105a 0abe
00000190: 59e9 e8bd 9de2 4ebe cc26 6b3c fd07 28bd
000001a0: e7ad 223e 033e 503e c137 55be d711 39be
000001b0: e024 48be 6cf8 1bbe 428c 92bd b26c 79be
000001c0: 439a 9e3d fd13 803d cd9c e53c eee5 a7bd
000001d0: 69d2 e93c 0fd4 063e 429e b43c b515 fa3d
000001e0: c214 303a e28a 1c3e 0f81 e5bd 1d94 433d
000001f0: 1f37 c7bd 91b6 ce3d 0994 adbd 862b 41bc
00000200: 9deb d03d 629b 01be 435b aebd c72a 0cbe
00000210: 6f8c 133e 2e1b 1f3c 6ee4 fe3d 36a2 bf3d
00000220: 43ae e1bd 85f5 0f3e 3de1 62be 5ecc 3c3e
00000230: c63f debc e046 52bd 9bed 3fbe 7667 4fbe
00000240: b382 27be 5f89 f53d 57c6 423c 9395 68bc
00000250: c38b 9f3d 0844 2b3d e5b2 c83d 6388 093e
00000260: b895 633b 1a7f 85bd 9bf6 2bbe e564 b8bd
00000270: 7eb3 263e e80d 1c3e 4753 8dbe 9516 1d3e
00000280: 2812 06be 553f cdbc 5261 46be a567 8d3d
00000290: 57c7 f33d a548 b03d d418 f93d 812e 00be
000002a0: 6520 7abd cec4 1c3e 77d0 d9bd 5062 573e
000002b0: 0fcc 923d 9d08 183e 441e 55bd 33f8 b73d
000002c0: 79db 3ebe 4a88 d53d 87e0 3dbe b1c2 253c
000002d0: 2661 eb3b 239b 0cbe 1ce2 483e d77d fbbd
000002e0: 421f f6bc 5fce 783b be90 013e 6434 023e
000002f0: b296 3c3e da44 a6bd 4170 34be e117 62bc
00000300: ad2f 6fbe 1b6c 033e 8454 f1bd 0e03 f9bd
00000310: 3e7b 17be 7077 8cbd e381 5fbe 2f41 64be
00000320: 3810 dbbd b39a 11be 1e15 cdbc 2042 2f3d
00000330: 850b 61be 0126 253e 0619 c0bd 6554 493c
00000340: 2db4 4e3d e35f 4fbe 8f59 243e e9b6 503e
00000350: 3ef2 2abe ba6b 0ebe b069 b0bd 125a f5bc
00000360: 05bf 39bc 56a8 423e a676 fc3d d50d 92be
00000370: 903f cdbd e1b4 933d f2c5 31be f852 a23d
00000380: c8c7 543c 72a2 ae3d 035c 83be 45f5 3dbe
00000390: db93 33be a174 35be 0bc3 fa3d d9ae 4cbe
000003a0: 1788 783c ef50 5dbe ec97 073e 2802 ae3d
000003b0: 932f 8cbe 20c2 08be 968e 073e a8ea 033e
000003c0: a593 013e 39cb 343e 847c 2bbd 12ec ed3d
000003d0: e8e5 113e 313f 9fbd 07ae d8bd 0f52 36be
000003e0: eb74 aebc 9cee 993d 8faf 55bc 8fd0 e8bd
000003f0: b991 2b3e 9e9f a9bc d83b 08be e9c1 da3d

cluster_projector.0.bias f4 [128]
0.42123827 -0.03755786 -0.04093668 0.016796362 0.11483277 -0.051572707 0.10815771 0.023510108
-0.10979524 -0.17102489 0.18137741 -0.26239023 -0.035894945 0.080682546 -0.20364471 0.048814062
0.44122183 0.078125075 -0.14390668 0.115930766 -0.25250757 0.2633507 0.14488184 -0.14558472
0.12628065 -0.07411232 -0.027629994 0.18561044 -0.2147037 -0.25096545 -0.057666834 0.2094176
-0.0893336 0.074843295 -0.091965914 -0.06697152 -0.110869095 -0.03244047 -0.27422914 0.17682949
-0.18310212 -0.1328888 -0.03995513 -0.23633072 -0.22309092 -0.21055199 -0.0030233306 -0.123729765
-0.12265316 -0.22520928 0.07173801 -0.06258617 -0.15956616 -0.022561308 -0.14663316 0.24411272
0.11873907 -0.08958231 -0.14663333 0.024811868 0.12555158 0.16736062 -0.14218792 -0.016759336
0.10171575 0.030244706 0.20694609 -0.02606091 -0.06221401 -0.09310467 -0.21700473 0.11735021
-0.035743006 -0.13182531 0.09154409 0.06593583 0.044254098 -0.11813718 -0.12063534 0.33005893
0.25552493 0.26455176 -0.017114399 0.1580319 -0.040074747 -0.19035904 -0.033244766 0.24221632
-0.024626937 -0.08559129 -0.057827212 -0.116522774 0.28074932 -0.17505145 -0.0133129135 0.1907604
-0.16397564 -0.25878486 -0.14625037 -0.07391612 0.0063470085 0.024964012 -0.012648075 -0.12922181
0.09027048 -0.04299661 -0.2582779 -0.070085146 -0.18315235 -0.15361786 0.19329646 0.15799765
-0.204487 -0.021756204 0.07527921 -0.10247048 0.07842499 0.17308585 0.0057004835 -0.025356224
0.03525912 -0.020962793 0.34094644 -0.13335852 -0.1501032 -0.054925 -0.0882905 0.17405525
00000000: 8bac d73e 45d6 19bd 38ad 27bd 8698 893c
00000010: 712d eb3d e73d 53bd ca81 dd3d 4598 c03c
00000020: 54dc e0bd 2621 2fbe 00bb 393e 0358 86be
00000030: 9406 13bd e43c a53d 3d88 50be 41f1 473d
00000040: d4e7 e13e 0a00 a03d 465c 13be 1c6d ed3d
00000050: ac48 81be e7d5 863e e85b 143e 2914 15be
00000060: b74f 013e 33c8 97bd 4c58 e2bc aa10 3e3e
00000070: 49db 5bbe 8b7e 80be 0f34 6cbd 9171 563e
00000080: 89f4 b6bd 7147 993d a058 bcbd 5d28 89bd
00000090: 560f e3bd 4ce0 04bd c367 8cbe ca12 353e
000000a0: 1f7f 3bbe 0014 08be fea7 23bd ae00 72be
000000b0: f271 64be f19a 57be 1223 46bb 0866 fdbd
000000c0: 9431 fbbd 439d 66be 61eb 923d 2e2d 80bd
000000d0: 5065 23be 7ed2 b8bc 0127 16be aff8 793e
000000e0: 782d f33d ee76 b7bd 0c27 16be 4242 cb3c
000000f0: 9890 003e 9560 2b3e b699 11be e04a 89bc
00000100: 5950 d03d bfc3 f73c ade9 533e b17d d5bc
00000110: 1ed4 7ebd a9ad bebd 7d36 5ebe 4f55 f03d
00000120: 4267 12bd 37fd 06be 787b bb3d 5d09 873d
00000130: c943 353d e8f1 f1bd a90f f7bd 7cfd a83e
00000140: 2ad4 823e 5473 873e 7f33 8cbc 1dd3 213e
00000150: 6b25 24bd 7bed 42be aa2b 08bd 8e07 783e
00000160: 6ebe c9bc 7c4a afbd 3adc 6cbd 7ea3 eebd
00000170: 60be 8f3e b040 33be 681e 5abc b256 433e
00000180: 3be9 27be 737f 84be a8c2 15be 5661 97bd
00000190: 91fa cf3b 5481 cc3c df39 4fbc b952 04be
000001a0: bbdf b83d 371d 30bd 003d 84be cd88 8fbd
000001b0: 4a8c 3bbe 004e 1dbe 82ef 453e 23ca 213e
000001c0: 0a65 51be 113a b2bc fd2b 9a3d 0bdc d1bd
000001d0: 489d a03d 6b3d 313e 1fcb ba3b dbb7 cfbc
000001e0: de6b 103d 2aba abbc 8890 ae3e 238f 08be
000001f0: a7b4 19be 09f9 60bd a6d1 b4bd 8a3b 323e

cluster_projector.2.weight f4 [50, 128]
-0.1528849 0.11675446 -0.05191656 0.048348892 -0.021408249 0.045753367 0.010545377 0.081876725
-0.03393785 -0.09443011 0.027152676 0.03707081 0.078220874 0.0034129436 0.02306489 -0.102515906
0.013003295 -0.05185909 -0.12271856 0.061257172 0.009275131 -0.1697329 0.010050232 -0.05955914
0.016359614 0.100404225 -0.09239623 -0.021693153 0.057902288 0.058119755 -0.021347415 0.07070428
0.07963337 0.008673065 -0.105406575 -0.052334767 -0.052048963 -0.019258207 0.005465329 -0.041933883
0.041900214 -0.09191627 0.057586715 0.018207325 -0.0728616 0.08203761 0.07937568 0.0659703
0.004501571 -0.07467443 0.061550613 -0.008279474 -0.06712568 0.06522932 0.092210494 -0.078521505
-0.05226595 -0.069933675 0.057776753 0.06465024 -0.07315916 -0.04114722 -0.05022806 -0.016385969
-0.022982446 -0.06102533 0.011434894 -0.05636871 0.03732189 0.101519234 0.08701945 -0.066389866
0.027236752 -0.060855996 -0.0066928393 -0.045372646 0.00028520785 0.07284575 0.0014581932 0.07724387
-0.21198641 -0.004170549 -0.06827988 0.0647676 0.07788325 -0.013064545 0.06555384 -0.008809216
-0.12742065 0.10958232 -0.056539085 -0.08911231 0.059678845 0.052345343 -0.061229907 -0.04930044
0.07290851 0.011277976 0.097229674 -0.07498127 -0.013125903 0.044494014 -0.04426568 0.0046614385
-0.0035886387 -0.061140638 -0.058901902 -0.04490428 -0.034112617 0.030077904 -0.053084124 0.059025895
-0.088915676 0.033028785 0.008912878 -0.058085762 -0.019183956 0.043767918 -0.027048826 -0.042732667
-0.04428041 0.05683105 0.00045457028 0.050500613 -0.03177716 0.007977417 -0.0823605 0.064250536
-0.1323984 -0.03994499 0.09366426 -0.08373821 -0.118382126 -0.049529552 0.07927506 -0.08698783
-0.048323635 0.069348656 0.033624995 -0.02804899 0.056937687 0.013001397 0.05907448 -0.01972159
0.051978245 0.043196354 0.12017652 -0.12448531 -0.08116725 0.047531966 -0.069489844 -0.043936428
0.08780581 0.0023296187 0.089079596 -0.0789263 -0.03060619 0.06931139 -0.016824575 0.05579912
0.053178843 -0.043252375 -0.079423875 -0.029544935 -0.015826123 0.05957984 0.109819174 -0.072449915
0.06095217 -0.018081509 0.08246006 -0.005376156 -0.066169985 -0.048314705 0.011860917 0.07250116
0.015794279 0.026939774 0.0002288363 0.0025537903 0.088565506 0.074281655 -0.030212164 -0.032655235
-0.024986284 -0.019896686 0.009369329 0.12005019 -0.013161065 -0.07660961 0.07264269 0.0214453
-0.03948744 0.012101233 0.06157664 -0.02066729 -0.080792196 -0.028056126 0.06638741 -0.0039560823
-0.0020758852 0.040117722 0.0872543 0.0048723766 0.06921178 0.078375414 0.05473139 0.012588317
0.07978901 -0.038706727 -0.023292746 0.04026591 -0.06189027 -0.061600905 0.111587256 -0.038161848
0.00974959 0.072736904 -0.055791475 -0.044846486 -0.043321803 0.03027672 -0.030902483 0.004222163
-0.023605295 0.0832137 -0.082352564 0.045766238 0.0007874041 0.012229119 -0.0680831 -0.041502222
0.08693964 0.033858094 -0.15412582 0.029132575 0.10061233 0.026128698 0.020788176 0.028320622
-0.06426355 -0.01274026 0.115124226 -0.043008197 0.05655305 -0.011286974 0.035081238 0.10592051
-0.020639036 0.00079889444 0.06799759 0.053084217 0.045170367 0.020910718 0.03789855 0.0015704341
00000000: dc8d 1cbe f61c ef3d 75a6 54bd 7d09 463d
00000010: 5a60 afbc e267 3b3d 84c6 2c3c fcae a73d
00000020: 6a02 0bbd 9364 c1bd 4a6f de3c 90d7 173d
00000030: 4432 a03d b1ab 5f3b 95f2 bc3c dcf3 d1bd
00000040: c60b 553c 326a 54bd de53 fbbd cde8 7a3d
00000050: b8f6 173c 76ce 2dbe baa9 243c 49f4 73bd
00000060: 9904 863c bba0 cd3d 3c3a bdbd d7b5 b1bc
00000070: f32a 6d3d fb0e 6e3d c6e0 aebc 68cd 903d
00000080: d216 a33d 7919 0e3c 67df d7bd fb5c 56bd
00000090: 4b31 55bd 63c3 9dbc 8116 b33b ddc2 2bbd
000000a0: 8f9f 2b3d 993e bcbd 0ce0 6b3d 8727 953c
000000b0: 7638 95bd 5603 a83d b78f a23d 701b 873d
000000c0: ea81 933b e8ee 98bd 7f1c 7c3d a2a6 07bc
000000d0: 3079 89bd f396 853d dbd8 bc3d e2cf a0bd
000000e0: d214 56bd 6339 8fbd 51a7 6c3d 5867 843d
000000f0: 78d4 95bd fd89 28bd f0bb 4dbd de3b 86bc
00000100: af45 bcbc b2f5 79bd 6c59 3b3c e0e2 66bd
00000110: d7de 183d 51e9 cf3d 4137 b23d 69f7 87bd
00000120: 9c1f df3c 2344 79bd 9b4f dbbb abd8 39bd
00000130: f387 9539 2730 953d d820 bf3a 0932 9e3d
00000140: f712 59be 1aa9 88bb 52d6 8bbd e0a4 843d
00000150: 4181 9f3d ac0c 56bc 1741 863d 8854 10bc
00000160: 8f7a 02be b26c e03d 8795 67bd 8480 b6bd
00000170: ce71 743d 1268 563d 36cc 7abd 42ef 49bd
00000180: 0f51 953d 43c7 383c 5a20 c73d c88f 99bd
00000190: 070e 57bc 5b3f 363d ee4f 35bd fbbe 983b
000001a0: 5e2f 6bbb 9b6e 7abd 1f43 71bd 8ded 37bd
000001b0: acb9 0bbd f065 f63c bd6e 59bd 23c5 713d
000001c0: 6c19 b6bd 3149 073d 5207 123c 56eb 6dbd
000001d0: ac27 9dbc fd45 333d 8095 ddbc 7308 2fbd
000001e0: 605f 35bd adc7 683d 6453 ee39 bbd9 4e3d
000001f0: c428 02bd b6b3 023c 9fac a8bd c995 833d
00000200: 7293 07be 5c9d 23bd 0cd3 bf3d f07e abbd
00000210: 5472 f2bd 80df 4abd f65a a23d ad26 b2bd
00000220: 01ef 45bd ab06 8e3d 5dba 093d ffc6 e5bc
00000230: 7e37 693d d003 553c 15f8 713d 2c8f a1bc
00000240: 24e7 543d a9ee 303d 1b1f f63d 27f2 febd
00000250: 043b a6bd e1b0 423d b150 8ebd aff6 33bd
00000260: 88d3 b33d 84ac 183b 5d6f b63d 1da4 a1bd
00000270: d5b9 fabc 21f3 8d3d b1d3 89bc 9e8d 643d
00000280: 0fd2 593d 6729 31bd fca8 a2bd 3808 f2bc
00000290: c9a5 81bc fe09 743d e0e8 e03d 9f60 94bd
000002a0: fca8 793d ac1f 94bc d2e0 a83d 772a b0bb
000002b0: 2184 87bd a4e5 45bd 4b54 423c 7d7b 943d
000002c0: 0163 813c cdb0 dc3c c7f3 6f39 7e5d 273b
000002d0: d561 b53d fb20 983d 807f f7bc 7fc1 05bd
000002e0: 09b0 ccbc 60fe a2bc d081 193c e0dc f53d
000002f0: 82a1 57bc 80e5 9cbd b1c5 943d 0eae af3c
00000300: 95bd 21bd 4044 463c c937 7c3d 734e a9bc
00000310: 6176 a5bd f6d5 e5bc 1ff6 873d 06a2 81bb
00000320: 930b 08bb 7b52 243d 62b2 b23d 75a8 9f3b
00000330: e8be 8d3d 4a83 a03d 062e 603d 3a3f 4e3c
00000340: 6c68 a33d f28a 1ebd 6ed0 bebc deed 243d
00000350: a780 7dbd 3b51 7cbd dc87 e43d 994f 1cbd
00000360: bfbc 1f3c 16f7 943d 9a85 64bd f3b0 37bd
00000370: 3472 31bd e206 f83c 3427 fdbc 125a 8a3b
00000380: e45f c1bc f26b aa3d 76a8 a8bd 6175 3b3d
00000390: cb69 4e3a a55c 483c 276f 8bbd 3cfe 29bd
000003a0: 690d b23d c9ae 0a3d 29d3 1dbe 70a7 ee3c
000003b0: d60d ce3d da0b d63c f74b aa3c a600 e83c
000003c0: 9c9c 83bd 86bc 50bc 40c6 eb3d 5d29 30bd
000003d0: 2ca4 673d 00ed 38bc 58b1 0f3d daec d83d
000003e0: 3213 a9bc e66c 513a 5242 8b3d d66e 593d
000003f0: 9004 393d f44c ab3c 833b 1b3d 06d7 cd3a

cluster_projector.2.bias f4 [50]
-0.038921684 -0.026870491 0.45746094 0.47704557 0.09212286 -0.06755571 -0.07739618 -0.083042786
0.38446388 -0.019448288 0.05073413 -0.0024981159 0.11514783 -0.05598223 0.15405661 0.05171947
0.506195 0.03161284 0.07359532 -3.4456523e-05 0.10507983 -0.060709424 0.39429474 0.080790825
0.033494372 0.32732803 0.13347004 0.044531584 0.13853386 0.49171087 0.22987993 0.40184382
-0.15080157 0.37765536 -0.019860229 -0.07696565 -0.046493914 0.23698638 0.07388309 0.3238001
-0.046433557 0.322276 0.112403944 -0.043123856 0.021543387 0.076411255 0.329388 0.54326516
0.015201349 0.44272572
00000000: 586c 1fbd 811f dcbc 5238 ea3e 513f f43e
00000010: e9aa bc3d a65a 8abd e381 9ebd 5612 aabd
00000020: 73d8 c43e 0452 9fbc 97ce 4f3d 6eb7 23bb
00000030: a0d2 eb3d 9f4d 65bd 04c1 1d3e ccd7 533d
00000040: ff95 013f 777c 013d 25b9 963d 6985 10b8
00000050: 1834 d73d 72aa 78bd 00e1 c93e a975 a53d
00000060: 6531 093d 8a97 a73e 5fac 083e c066 363d
00000070: d2db 0d3e 87c1 fb3e a565 6b3e 79be cd3e
00000080: ba6b 1abe 0b5c c13e ebb1 a2bc 2ba0 9dbd
00000090: 6770 3ebd 8fac 723e 0450 973d 20c9 a53e
000000a0: 1d31 3ebd 5c01 a53e 0a34 e63d a4a2 30bd
000000b0: c27b b03c 817d 9c3d 8ba5 a83e 6d13 0b3f
000000c0: 140f 793c f2ac e23e

exp_avg f4 [128, 20]
0.010560617 0.00052423234 -0.00360695 0.06678363 0.057578914 -0.0056372895 0.0062254486 0.035606183
0.0005121108 0.0 0.0044253496 0.034334973 0.035570875 0.40372396 0.4048724 0.40429816
0.034952927 0.0011484445 0.0012359116 0.0070573445 0.0007097399 0.00015188813 0.023576986 0.029942794
0.025595032 0.018834066 -0.031982575 0.011866995 0.0001441079 0.0 0.13895933 0.2490734
0.2573316 -0.41690868 -0.42351183 -0.42021015 0.25320262 -0.006603269 0.0082581965 0.31520313
0.00010088618 -0.0026653763 -0.053981736 -0.16927174 -0.14281738 -0.10506025 -0.064154275 -0.07957901
-0.0024977494 0.0 -0.13193472 -0.12907185 -0.13755733 -0.25625113 -0.26115155 -0.25870168
-0.13331448 -0.004900581 -0.008485704 -0.029063834 -0.04704221 -0.0095496215 -0.44241133 -0.12284838
-0.21895015 -0.3471933 -0.60719943 -0.46088445 -0.009180976 0.0 -0.19969697 -3.733989
-3.7551894 -2.9753053 -3.2457378 -3.1105218 -3.7445884 -0.27043268 -0.02120072 -0.15674682
-0.006529943 -0.00010869559 -0.018026907 -0.0008320646 -0.0037373449 -0.009108437 0.0055592773 0.00482014
-4.7633126e-05 0.0 -0.0031508312 -0.014080637 -0.00062176224 0.072996534 0.077603385 0.075299956
-0.0073512117 0.0046068253 0.013458873 1.0215212 0.016270608 -0.00029521977 0.03454535 0.0018465419
0.017714508 0.0093475515 0.008155692 0.0075450907 -0.00020676544 0.0 0.0052828104 0.0077628135
0.021684902 -0.109969765 -0.14235534 -0.12616204 0.014723617 -0.0323855 0.013922054 0.022659851
0.019813549 -0.0010802809 -0.014235561 -0.022565862 -0.016528945 -0.054705735 0.0011537044 -0.035724375
-0.00095177756 0.0 -0.064109586 -0.14391746 -0.15769131 -0.02750646 -0.03935273 -0.033429794
-0.15080476 -0.011846076 -0.013774026 -0.16354126 0.034734715 0.0029753412 0.11718072 0.17751871
0.17805745 0.18128102 0.23747088 0.17016399 0.0020791574 0.0 0.13368571 1.4238132
1.4209962 -0.31214327 -0.19471262 -0.2534286 1.422404 0.11743167 -0.0028168256 0.04549787
-0.0040614163 -0.00041255017 0.012508469 -0.059158996 -0.028746884 0.018619055 0.034664087 -0.009435177
-0.00029790725 0.0 -0.06728649 -0.1779194 -0.17434767 0.045438297 0.03637152 0.040905222
-0.17613359 -0.009066634 0.0035716638 0.32205528 0.0038027181 0.0015458632 0.020746617 0.0514258
0.034980834 0.053870484 0.06753263 0.042456955 0.0019030841 0.0 0.0852142 0.23622008
0.24056885 0.39623168 0.42933264 0.4127824 0.23839484 0.033101235 0.004348884 -0.02064853
0.028977765 -0.0009771001 -0.034678873 -0.08842259 -0.078436606 -0.081077814 -0.027426744 -0.0476964
-0.00089052145 0.0 -0.063974135 -0.07873495 -0.08076403 -0.15993819 -0.16157772 -0.16075797
-0.07974933 -0.0016395908 -0.002029363 -0.010119093 -0.017507263 -0.0022543028 -0.0884165 -0.075488
-0.086958714 -0.09677985 -0.14762858 -0.1589714 -0.0020865651 0.0 -0.012583698 -0.3623515
-0.36031005 -1.2990137 -1.3408034 -1.3199078 -0.36133078 -0.04178966 0.0020416246 -0.03746802
-0.0016497159 -0.00054847816 -0.004333989 -0.012829695 -0.009592148 -0.028505147 -0.0060334606 -0.03481242
-0.0007499351 0.0 -0.09897067 -0.15956867 -0.16306135 -0.29230568 -0.30699396 -0.29964998
00000000: 7006 2d3c a36c 093a 9462 6cbb dbc5 883d
00000010: ded7 6b3d 03b9 b8bb d9fe cb3b cad7 113d
00000020: 2d3f 063a 0000 0000 8602 913b d4a2 0c3d
00000030: c4b2 113d e8b4 ce3e 6f4b cf3e 2b00 cf3e
00000040: cd2a 0f3d 6787 963a 50fe a13a 4c41 e73b
00000050: d70d 3a3a 2944 1f39 8624 c13c 974a f53c
00000060: acac d13c e649 9a3c 2900 03bd c96d 423c
00000070: ab1b 1739 0000 0000 5b4b 0e3e 190d 7f3e
00000080: f8c0 833e 0e75 d5be 8bd6 d8be c925 d7be
00000090: c6a3 813e 3c60 d8bb 634d 073c 4e62 a13e
000000a0: db92 d338 98ad 2ebb f41b 5dbd 9255 2dbe
000000b0: b83e 12be d429 d7bd 5163 83bd 52fa a2bd
000000c0: 48b1 23bb 0000 0000 e519 07be 692b 04be
000000d0: d4db 0cbe 5933 83be a8b5 85be 8c74 84be
000000e0: 9783 08be 0e95 a0bb 9f07 0bbc 4717 eebc
000000f0: 55af 40bd 0476 1cbc bd83 e2be ee97 fbbd
00000100: 7834 60be 52c3 b1be 6c71 1bbf 0cf9 ebbe
00000110: ce6b 16bc 0000 0000 5d7d 4cbe adf9 6ec0
00000120: 0655 70c0 676b 3ec0 2bba 4fc0 ca12 47c0
00000130: 56a7 6fc0 2776 8abe 22ad adbc 3d82 20be
00000140: 22f9 d5bb 80f3 e3b8 2aad 93bc e91e 5aba
00000150: 3eee 74bb 8e3b 15bc 992a b63b 44f2 9d3b
00000160: aec9 47b8 0000 0000 2d7e 4ebb 79b2 66bc
00000170: c2fd 22ba 357f 953d 86ee 9e3d dd36 9a3d
00000180: 6fe2 f0bb daf4 963b 9b82 5c3c 35c1 823f
00000190: f049 853c bac7 9ab9 6d7f 0d3d aa07 f23a
000001a0: 041e 913c 7926 193c 749f 053c cf3c f73b
000001b0: 2dcf 58b9 0000 0000 6d1b ad3b 335f fe3b
000001c0: 89a4 b13c d437 e1bd 99c5 11be 9f30 01be
000001d0: 533b 713c a8a6 04bd 5419 643c 27a1 b93c
000001e0: 0650 a23c 3698 8dba 453c 69bc 0bdc b8bc
000001f0: b667 87bc 1f13 60bd e537 973a b953 12bd
00000200: b680 79ba 0000 0000 e34b 83bd 195f 13be
00000210: d579 21be 3a55 e1bc 5430 21bd aeed 08bd
00000220: 906c 1abe 0b16 42bc 74ac 61bc 5c77 27be
00000230: fd45 0e3d f1fd 423b 72fc ef3d 77c7 353e
00000240: b154 363e bba1 393e 912b 733e 783f 2e3e
00000250: 7942 083b 0000 0000 e8e4 083e 833f b63f
00000260: 34e3 b53f 3ed1 9fbe bf62 47be 65c1 81be
00000270: 5611 b63f 0480 f03d 7e9a 38bb f95b 3a3d
00000280: a115 85bb 8c4b d8b9 52f0 4c3c b450 72bd
00000290: 967e ebbc fd86 983c eefb 0d3d 0096 1abc
000002a0: 6f30 9cb9 0000 0000 80cd 89bd 8130 36be
000002b0: 3288 32be 821d 3a3d 4efa 143d 3c8c 273d
000002c0: 5d5c 34be 388c 14bc 9312 6a3b 6ee4 a43e
000002d0: 0637 793b 909e ca3a cff4 a93c dca3 523d
000002e0: 1048 0f3d 4ca7 5c3d 8c4e 8a3d 58e7 2d3d
000002f0: e870 f93a 0000 0000 c884 ae3d ade3 713e
00000300: ae57 763e e1de ca3e 7dd1 db3e 3758 d33e
00000310: c71d 743e 2995 073d 1581 8e3b 1b27 a9bc
00000320: c762 ed3c 0a12 80ba 6f0b 0ebd e716 b5bd
00000330: 5fa3 a0bd 200c a6bd 0dae e0bc 4d5d 43bd
00000340: e271 69ba 0000 0000 df04 83bd ca3f a1bd
00000350: 9d67 a5bd d6c6 23be a174 25be bd9d 24be
00000360: 9e53 a3bd 8ae7 d6ba 10ff 04bb 8dca 25bc
00000370: 646b 8fbc edbc 13bb b613 b5bd 7499 9abd
00000380: 6917 b2bd 8434 c6bd f22b 17be 66c9 22be
00000390: c1be 08bb 0000 0000 db2b 4ebc 2386 b9be
000003a0: 8f7a b8be 1546 a6bf 729f abbf bdf2 a8bf
000003b0: 5900 b9be a22b 2bbd c7cc 053b 1178 19bd
000003c0: 483b d8ba bfc7 0fba 2304 8ebb a433 52bc
000003d0: 6228 1dbc a083 e9bc 56b4 c5bb 7897 0ebd
000003e0: 4b97 44ba 0000 0000 22b1 cabd f865 23be
000003f0: 8ef9 26be 17a9 95be 502e 9dbe b96b 99be

exp_avg_sq f4 [128, 20]
0.006283991 2.4157607e-05 0.0813874 0.118628934 0.10356335 0.086361825 0.033980254 0.05342814
2.8923432e-05 0.0 0.0062193037 0.0124688875 0.013194585 5.427263 5.4514065 5.4391894
0.0128080845 0.00057589315 9.4669456e-05 0.0004691726 0.004821769 0.0002101339 0.5542822 0.2955259
0.3206765 0.5258549 0.31576756 0.39297616 0.00021753255 0.0 0.8279412 24.606276
25.828274 19.117783 21.694597 20.38053 25.212889 0.10280472 0.01752586 21.224756
0.0059443275 7.436791e-05 0.05076329 0.26691726 0.20095298 0.23703612 0.03919755 0.08245275
8.4450214e-05 0.0 0.35812005 0.3139455 0.3398015 3.3499935 3.3959754 3.372577
0.3264559 0.0016310073 0.0016703942 0.015103765 0.025432635 0.0010869346 3.274325 1.1845628
1.4092207 1.1255512 1.8229054 1.920615 0.0011204813 0.0 1.8568646 142.64641
147.25786 100.46612 112.31642 106.27758 144.94041 0.45475 0.04630328 6.0177274
0.0010558254 8.990824e-06 0.056847434 0.046109814 0.041673657 0.0420257 0.01141093 0.017650288
9.713747e-06 0.0 0.009012325 0.093396805 0.12250821 0.10171968 0.09472445 0.09748889
0.10706578 0.0029322759 0.003547082 18.813145 0.022309866 0.00042956928 1.537318 0.89093834
0.904626 1.2820415 0.6142074 0.87789875 0.0004291046 0.0 1.3153192 33.83929
34.987362 43.73001 47.77074 45.72081 34.410538 0.118151195 0.011108706 1.9983912
0.0073872856 9.557684e-05 0.43233356 0.41093993 0.35913047 0.520543 0.054371696 0.19157706
9.264263e-05 0.0 0.6026338 2.6278622 2.9481053 21.797747 22.679626 22.235775
2.7848985 0.011686728 0.012339268 26.884026 0.010312439 0.00024243146 0.96033466 0.6006386
0.5946025 0.59892184 0.4015436 0.34744936 0.00024875178 0.0 0.90487593 18.291368
18.722918 1.2115663 1.2702584 1.2262229 18.50616 0.05875112 0.003907682 0.10622856
0.009957829 0.00023915347 0.3688752 0.41411728 0.39224803 0.72736126 0.38631815 0.5467281
0.00024179147 0.0 1.0422606 21.425585 22.529394 18.67575 21.07687 19.851124
21.973427 0.10075053 0.016267201 22.121628 0.009118108 0.0002009813 0.5187545 0.33362967
0.32651708 0.5034535 0.3503281 0.44188368 0.00021221628 0.0 0.6177457 15.068722
15.950231 37.148132 40.467575 38.787056 15.505631 0.0833059 0.015348871 22.82028
0.009761967 7.021822e-05 0.13512088 0.4455239 0.3778155 0.93941903 0.05261309 0.20728777
5.1725277e-05 0.0 1.0640053 1.0244566 1.0851465 6.21532 6.3268833 6.270843
1.0545592 0.0010273457 0.000968845 0.105791785 0.008123604 0.00020661762 0.63448244 0.31857568
0.35062203 0.37714526 0.35531622 0.40797752 0.00021362126 0.0 0.42820248 19.59482
20.222061 29.437551 31.996685 30.6989 19.90691 0.07294708 0.0060457517 0.7731636
0.0023070835 9.253317e-05 0.2350876 0.108502634 0.11999936 0.19916025 0.13708737 0.19056822
9.9667086e-05 0.0 0.40426493 10.5693 11.235063 0.8147185 1.1100167 0.949855
00000000: f0e9 cd3b 11a6 ca37 70ae a63d baf3 f23d
00000010: 0619 d43d 78de b03d e12e 0b3d 77d7 5a3d
00000020: 99a0 f237 0000 0000 4dcb cb3b 4e4a 4c3c
00000030: 1a2e 583c 23ac ad40 ec71 ae40 d70d ae40
00000040: 00d9 513c 89f7 163a 4789 c638 48fb f539
00000050: eeff 9d3b 6457 5c39 70e5 0d3f 2c4f 973e
00000060: b62f a43e 6d9e 063f 49ac a13e 2c34 c93e
00000070: 7319 6439 0000 0000 f4f3 533f a7d9 c441
00000080: 4ea0 ce41 38f1 9841 898e ad41 530b a341
00000090: ffb3 c941 488b d23d 6492 8f3c 4dcc a941
000000a0: a2c8 c23b f8f5 9b38 2bed 4f3d 61a9 883e
000000b0: 9ec6 4d3e 99b9 723e 9c8d 203d fddc a83d
000000c0: dd1a b138 0000 0000 835b b73e 77bd a03e
000000d0: 76fa ad3e 4b66 5640 a957 5940 4dd8 5740
000000e0: 3a25 a73e 86c7 d53a 21f1 da3a c875 773c
000000f0: 1a58 d03c 7977 8e3a 8a8e 5140 c19f 973f
00000100: 5861 b43f 1012 903f f754 e93f b6d6 f53f
00000110: 1ddd 923a 0000 0000 bdad ed3f 7ba5 0e43
00000120: 0342 1343 a7ee c842 02a2 e042 1f8e d442
00000130: bff0 1043 fed4 e83e 82a8 3d3d 3991 c040
00000140: 9f63 8a3a 4cd7 1637 dbd8 683d a5dd 3c3d
00000150: ffb1 2a3d 2423 2c3d e9f4 3a3c 5697 903c
00000160: 3af8 2237 0000 0000 6ea8 133c d346 bf3d
00000170: 96e5 fa3d 6852 d03d e4fe c13d 41a8 c73d
00000180: 4e45 db3d 6d2b 403b 2976 683b 5281 9641
00000190: 2ec3 b63c d037 e139 d6c6 c43f 8914 643f
000001a0: 9295 673f f019 a43f b23c 1d3f f9bd 603f
000001b0: 72f9 e039 0000 0000 615c a83f 6f5b 0742
000001c0: 0ff3 0b42 88eb 2e42 3d15 3f42 1ce2 3642
000001d0: 64a4 0942 41f9 f13d 4a01 363c 48cb ff3f
000001e0: 0b11 f23b 6d70 c838 d35a dd3e b866 d23e
000001f0: f3df b73e 4e42 053f dbb4 5e3d c72c 443e
00000200: 2249 c238 0000 0000 3546 1a3f e52e 2840
00000210: c2ad 3c40 c961 ae41 e06f b541 dee2 b141
00000220: c73b 3240 b179 3f3c a42a 4a3c 7c12 d741
00000230: 81f5 283c 3335 7e39 7ed8 753f 74c3 193f
00000240: df37 183f f152 193f 1f97 cd3e e2e4 b13e
00000250: e66a 8239 0000 0000 f3a5 673f b954 9241
00000260: 89c8 9541 9b14 9b3f d497 a23f dff4 9c3f
00000270: 9e0c 9441 04a5 703d 030c 803b 5c8e d93d
00000280: 2926 233c 45c5 7a39 36dd bc3e 2e07 d43e
00000290: bcd4 c83e 5934 3a3f 7ecb c53e 5ff6 0b3f
000002a0: 6789 7d39 0000 0000 cc68 853f 9967 ab41
000002b0: 333c b441 f067 9541 6e9d a841 1acf 9e41
000002c0: 94c9 af41 4b56 ce3d cb42 853c 18f9 b041
000002d0: 1e64 153c 82be 5239 18cd 043f 82d1 aa3e
000002e0: 3f2d a73e 54e2 003f 345e b33e 943e e23e
000002f0: 6086 5e39 0000 0000 9524 1e3f 7c19 7141
00000300: 2534 7f41 b097 1442 ccde 2142 f225 1b42
00000310: 1117 7841 499c aa3d d579 7b3c ef8f b641
00000320: a8f0 1f3c 1f42 9338 215d 0a3e b51b e43e
00000330: 0971 c13e c47d 703f d380 573d 3f43 543e
00000340: 98f3 5838 0000 0000 5331 883f 6521 833f
00000350: 15e6 8a3f e7e3 c640 d475 ca40 bfaa c840
00000360: ccfb 863f 00a8 863a 16fa 7d3a 5da9 d83d
00000370: dd18 053c 7fa7 5839 716d 223f 5a1c a33e
00000380: bb84 b33e 2f19 c13e 02ec b53e 6ee2 d03e
00000390: 85ff 5f39 0000 0000 5b3d db3e 31c2 9c41
000003a0: c8c6 a141 1b80 eb41 36f9 ff41 5997 f541
000003b0: 5a41 9f41 4765 953d 711b c63b 0dee 453f
000003c0: 7032 173b 5e0e c238 ceba 703e a136 de3d
000003d0: 39c2 f53d aaf0 4b3e a260 0c3e 5124 433e
000003e0: 5c04 d138 0000 0000 d0fb ce3e da1b 2941
000003f0: d1c2 3341 6491 503f 0715 8e3f b329 733f

exp_avg f4 [128]
0.0005242325 0.00045559922 -0.0026623323 -0.0095602395 -7.5242715e-05 -0.0002804942 -0.0010879164 0.0030828256
-0.0005531853 0.0015190536 -0.00097593066 -0.0021517584 -0.0005725885 -0.0027673477 0.005100947 -0.0032354193
-0.0009884309 0.007283853 -0.000366073 -0.0058697057 0.00012466672 -0.0024114 0.0018936819 0.003651667
-0.0017285276 -0.0017236574 -0.0041691363 0.0007375371 0.00025837438 0.0020435313 -0.0007353523 0.0040771537
-0.0023159473 -0.0058169006 -0.0017262194 0.007942147 -0.0007669682 0.0016789123 -0.0043825004 -0.0013339542
-0.0019080236 -0.0019140448 0.000203079 0.00015414992 0.0035541838 0.001445741 -0.0023564221 0.00066022424
0.00014065801 -0.0029625623 0.008536613 -0.00067105563 0.0008420906 0.005439721 -0.0021612213 0.0031220645
-0.0022878277 0.0006766317 1.3160168e-05 -0.004010729 -0.0010752358 -0.0024831379 0.0040931143 6.685954e-05
0.00011263151 0.007956202 -0.0071468065 -0.0036371206 -0.002805086 0.0007389971 -0.0012640739 -0.00018970274
-0.0031035917 0.0005184676 0.0018111446 -0.0031063666 -0.0011443527 -0.0023838952 -0.002516112 -0.0001117029
-0.0020270168 0.0029150422 -0.0008156146 0.0010878408 -0.0015103149 -5.7565053e-06 2.9388008e-05 0.0011736904
-0.0021722557 0.00031505758 -0.00077019783 0.002222613 0.008285281 -0.0050330656 -0.00043035884 0.0054256804
-0.0022983165 0.0037570659 -0.0017172935 -0.004609423 -0.0024532208 -0.0014085759 0.006419139 0.004079885
0.0018933485 6e-45 0.0052347854 -0.002756658 -0.0019848153 0.0026876177 -0.002093553 -8.682643e-05
-0.0022280854 0.0009908607 0.00051819155 0.0019359341 0.003158162 9.841513e-06 -0.00046948026 -0.0013158579
0.00071560155 -0.00082943385 -0.0028457828 0.009026125 -0.0017672363 -0.0022753177 0.0028773153 -0.0011555349
00000000: a66c 093a 7edd ee39 867a 2ebb 8da2 1cbc
00000010: a0cb 9db8 4b0f 93b9 6b98 8eba 3b09 4a3b
00000020: a303 11ba fb1a c73a 99d5 7fba 8404 0dbb
00000030: c419 16ba 645c 35bb d825 a73b 5409 54bb
00000040: 3d8e 81ba 63ad ee3b 7ded bfb9 a956 c0bb
00000050: f8b8 0239 9408 1ebb 6c35 f83a ce50 6f3b
00000060: c38f e2ba 58ec e1ba 409d 88bb 4757 413a
00000070: 6c76 8739 c4ec 053b a8c4 40ba a599 853b
00000080: 26c7 17bb b39b bebb 5042 e2ba c71f 023c
00000090: 5d0e 49ba f30e dc3a 149b 8fbb 13d8 aeba
000000a0: a616 faba b0e0 faba 9bf1 5439 4ea3 2139
000000b0: 4fed 683b 057f bd3a 346e 1abb e612 2d3a
000000c0: 997d 1339 8c27 42bb 26dd 0b3c c8e9 2fba
000000d0: bebf 5c3a b03f b23b 47a3 0dbb 8d9b 4c3b
000000e0: 61ef 15bb fc5f 313a 7eca 5c37 6f6c 83bb
000000f0: edee 8cba 24bc 22bb 881f 863b f136 8c38
00000100: 9534 ec38 bb5a 023c c22f eabb c25c 6ebb
00000110: 89d5 37bb 42b9 413a 48af a5ba f1ea 46b9
00000120: a165 4bbb c6e9 073a ee63 ed3a 2f94 4bbb
00000130: 1bfe 95ba 203b 1cbb 5be5 24bb 0a42 eab8
00000140: b3d7 04bb 4b0a 3f3b f8ce 55ba e195 8e3a
00000150: c2f5 c5ba 0128 c1b6 4486 f637 84d6 993a
00000160: 675c 0ebb 502e a539 1ae7 49ba 42a9 113b
00000170: fdbe 073c 6aec a4bb c9a1 e1b9 e8c9 b13b
00000180: 5a9f 16bb 1b39 763b cf16 e1ba a50a 97bb
00000190: 37c6 20bb f79f b8ba a457 d23b 8eb0 853b
000001a0: 3c2a f83a 0400 0000 9088 ab3b 0ca9 34bb
000001b0: ad13 02bb be22 303b fe33 09bb 9616 b6b8
000001c0: 1205 12bb c5df 813a 3fd7 073a 2bbf fd3a
000001d0: 2bf9 4e3b fa1c 2537 9324 f6b9 dd78 acba
000001e0: 3597 3b3a 5d6e 59ba 5080 3abb 50e2 133c
000001f0: 9ca2 e7ba 7f1d 15bb 5791 3c3b 5175 97ba
