flaskProject/modules/Contrastive_Clustering/save/save_5/model_checkpoint_tar.tar (torch, 183370 bytes, 24 tensors)

instance_projector.0.weight f4 [128, 20]
0.19441849 -0.0989204 -0.19265065 0.090837464 0.2067072 -0.10470314 -0.045179084 -0.03593637
0.16207536 0.1404419 0.061668124 0.13683395 -0.0454755 -0.21039128 -0.15606669 0.2192011
-0.033192728 -0.123877905 0.013621151 -0.20171875 0.029521793 -0.013205297 -0.15443912 0.15514886
-0.20557982 -0.21091406 0.09905782 0.013256252 0.21689066 0.034258276 -0.020479852 -0.08004377
0.14168872 -0.18314894 -0.20564911 0.004894531 -0.0516578 0.13231598 -0.18902546 -0.13866335
-0.09255143 0.08566815 0.076273635 0.0037846812 -0.05943033 0.047197163 -0.07914968 0.1834768
0.10198259 0.14508826 0.19656429 0.17589854 -0.007710593 0.16244274 0.099379666 0.013317285
-0.18167743 -0.043540154 0.21925473 0.17156005 -0.067634135 -0.044589236 -0.25781447 0.14485317
0.12661946 0.21247506 0.085674375 0.12451351 -0.20132618 -0.064157486 -0.20265512 -0.15797046
-0.1550792 0.20909867 -0.17383777 -0.036402296 0.00529495 -0.024462165 -0.091402516 0.16978459
-0.11062642 0.14745642 -0.016790673 0.2112686 0.24747169 -0.21946418 0.02785945 -0.18285584
-0.13155551 -0.06695786 -0.11303808 0.003388681 0.18244061 0.090616025 -0.13936187 -0.03591848
0.14340617 0.077185616 -0.031196745 -0.06691886 0.018985622 0.13875985 -0.0995229 0.06290456
-0.00734834 -0.09350218 0.15044576 0.06794542 0.16146153 0.16111264 0.18500216 -0.14723428
0.13577186 -0.21682854 0.010602182 0.20143707 -0.110482484 0.05076701 0.20632386 -0.014024678
0.12423837 -0.13988443 -0.09745064 -0.16318694 -0.056998927 0.09521338 0.08850449 -0.20948151
0.1451049 0.14059255 0.18561403 0.053276487 0.13020685 -0.056218997 -0.10242139 0.12685195
0.009487009 -0.04144505 0.036490995 0.14790663 0.07372212 0.031972285 -0.21895868 0.13826796
-0.0033478886 0.19961938 -0.16077834 0.18773928 0.08757882 0.116677284 0.04995687 -0.22966611
0.062931955 0.048555277 -0.13085696 -0.12127806 0.0925109 0.12693657 -0.06878537 -0.20633875
-0.1829567 0.05442373 -0.13493127 -0.11576203 0.02195919 0.010184094 0.14065912 0.16574717
0.15774433 0.008695662 -0.1387656 -0.07345057 -0.10424521 0.16340104 -0.04482904 0.16248173
-0.22510262 -0.07091881 0.09955821 -0.115386866 -0.016102627 -0.1276082 -0.25907874 -0.20478709
-0.019851033 0.06725985 0.15745157 0.0063231587 -0.20795956 0.03807053 0.053830463 -0.012775433
0.017306857 -0.14781967 0.09079289 -0.014931611 -0.21728742 0.19893888 -0.03543751 0.13283688
0.0049527925 0.17445283 -0.10590881 0.110448495 -0.12957166 -0.11146159 -0.16649078 -0.07596922
0.029685762 -0.016750842 -0.095141724 -0.007901953 -0.14185067 -0.06990284 -0.08629717 0.17723504
0.06710133 0.21720341 -0.012550845 0.1044851 0.21366759 -0.1518656 -0.20560461 0.13101009
0.1257314 0.16157025 -0.037145868 0.10378769 0.17484346 0.21931142 -0.2184632 -0.016838301
-0.09737492 0.12239782 0.045310985 0.03125547 -0.16479285 0.015734522 0.07490412 -0.21274358
0.0027219916 -0.11801341 0.14260799 -0.265784 -0.19379386 -0.16883913 0.02583082 -0.029590294
-0.13164046 -0.14388123 -0.048392247 0.19227216 0.09224849 -0.19574925 -0.1254198 -0.0059947106
00000000: a415 473e c796 cabd 3646 45be fe08 ba3d
00000010: 0dab 533e 9a6e d6bd b40d 39bd 0432 13bd
00000020: 15f7 253e 00d0 0f3e b797 7c3d 331e 0c3e
00000030: 8544 3abd d070 57be f2cf 1fbe 4176 603e
00000040: 19f5 07bd b3b3 fdbd 402b 5f3c 5c8f 4ebe
00000050: b0d7 f13c 085b 58bc 4a25 1ebe 58df 1e3e
00000060: 8483 52be dbf9 57be d4de ca3d c030 593c
00000070: 9618 5e3e 6852 0c3d 5dc5 a7bc fded a3bd
00000080: d916 113e 658b 3bbe ae95 52be 4d62 a03b
00000090: 2197 53bd d77d 073e e48f 41be c4fd 0dbe
000000a0: 9b8b bdbd c872 af3d 5a35 9c3d 6a08 783b
000000b0: 386d 73bd d051 413d 3a19 a2bd 58e1 3b3e
000000c0: 40dc d03d 0492 143e 2648 493e bf1e 343e
000000d0: 24a9 fcbb 6457 263e 9187 cb3d be30 5a3c
000000e0: a609 3abe 2957 32bd 5084 603e 70ad 2f3e
000000f0: c483 8abd 34a3 36bd 4200 84be 6454 143e
00000100: 88a8 013e 1093 593e 0c76 af3d f000 ff3d
00000110: 7328 4ebe 0065 83bd d384 4fbe 02c3 21be
00000120: 15cd 1ebe f61d 563e 8702 32be 931a 15bd
00000130: 4381 ad3b e164 c8bc 3e31 bbbd 03dc 2d3e
00000140: 1b90 e2bd d1fe 163e 988c 89bc cc56 583e
00000150: 3869 7d3e 38bb 60be 8039 e43c 903e 3bbe
00000160: 7db6 06be 3421 89bd 8280 e7bd a214 5e3b
00000170: b6d1 3a3e e594 b93d e1b4 0ebe 421f 13bd
00000180: 11d9 123e 7e13 9e3d 5190 ffbc c10c 89bd
00000190: bc87 9b3c 1017 0e3e aad2 cbbd 1bd4 803d
000001a0: 58ca f0bb 127e bfbd 740e 1a3e f826 8b3d
000001b0: 2c56 253e b6fa 243e 3571 3d3e 95c4 16be
000001c0: c707 0b3e 4d08 5ebe c6b4 2d3c 8545 4e3e
000001d0: a444 e2bd 11f1 4f3d 9046 533e c3c7 65bc
000001e0: b070 fe3d dd3d 0fbe 3394 c7bd 7a1a 27be
000001f0: b577 69bd 3cff c23d d841 b53d 5282 56be
00000200: 6196 143e 7ef7 0f3e 9b11 3e3e 7238 5a3d
00000210: f254 053e e445 66bd 4ec2 d1bd 7ae5 013e
00000220: 666f 1b3c 49c2 29bd 9577 153d d674 173e
00000230: 9ffb 963d 5ff5 023d b436 60be 1e96 0d3e
00000240: 4068 5bbb 0669 4c3e 14a3 24be ba3e 403e
00000250: 865c b33d 80f4 ee3d 939f 4c3d 982d 6bbe
00000260: 78e2 803d e6e1 463d 5eff 05be a260 f8bd
00000270: 5b76 bd3d a9fb 013e 58df 8cbd 774a 53be
00000280: 0059 3bbe 6beb 5e3d 6c2b 0abe a514 edbd
00000290: c2e3 b33c 30db 263c f208 103e a0b9 293e
000002a0: bb87 213e 4078 0e3c 9218 0ebe 416d 96bd
000002b0: 837e d5bd 9a52 273e a89e 37bd 9c61 263e
000002c0: 4d81 66be e23d 91bd 2de5 cb3d f34f ecbd
000002d0: a8e9 83bc b9ab 02be f8a5 84be b5b3 51be
000002e0: a29e a2bc 88bf 893d fc3a 213e 8032 cf3b
000002f0: 5af3 54be d8ef 1b3d 557d 5c3d 0d50 51bc
00000300: 1cc7 8d3c 0a5e 17be 9ff1 b93d b7a3 74bc
00000310: 9880 5ebe a2b6 4b3e ec26 11bd 6406 083e
00000320: 094b a23b c3a3 323e b8e6 d8bd d232 e23d
00000330: 6fae 04be f945 e4bd 8f7c 2abe c095 9bbd
00000340: 8e2f f33c 1039 89bc aad9 c2bd 3177 01bc
00000350: 4d41 11be 3829 8fbd 92bc b0bd 1a7d 353e
00000360: 6c6c 893d 926a 5e3e 0fa2 4dbc 49fc d53d
00000370: adcb 5a3e a882 1bbe 048a 52be 8227 063e
00000380: bbbf 003e ac72 253e 4426 18bd a48e d43d
00000390: 2a0a 333e 2c93 603e d1b4 5fbe 7af0 89bc
000003a0: 816c c7bd b5ab fa3d 0398 393d bc05 003d
000003b0: 75bf 28be afe5 803c 5567 993d 74d9 59be
000003c0: 7163 323b 04b1 f1bd d407 123e d714 88be
000003d0: e671 46be 2ae4 2cbe 289b d33c 5867 f2bc
000003e0: c2cc 06be 9a55 13be f336 46bd fee2 443e
000003f0: c7ec bc3d 7e72 48be 0c6e 00be 476f c4bb

instance_projector.0.bias f4 [128]
-0.15936036 -0.004497107 0.18133962 -0.07764362 0.20274113 0.006358744 -0.0058131306 0.13643308
-0.06486728 0.18997702 0.193211 -0.17788045 0.18406218 -0.03899521 -0.0069070724 0.14225945
0.0612874 -0.24329406 0.23957519 -0.22777049 0.008005314 -0.19022614 -0.19047596 0.18081199
0.120693855 0.18941356 0.103896126 0.13993001 0.19952357 -0.030470634 0.16029026 0.07377736
-0.18080564 0.006535977 -0.22232656 -0.18908396 -0.09052086 -0.16468425 -0.12120329 0.022043
-0.13471395 0.14047422 0.15553297 -0.09341815 0.017537229 -0.15958339 -0.21092775 -0.13008443
0.1540102 -0.24411581 0.09213173 -0.11338005 0.14318004 -0.05941547 -0.1408471 0.15709448
-0.035409503 -0.1509323 0.06437975 0.00014457483 -0.14280389 0.2221865 0.048461404 0.043663576
-0.018606745 0.029740093 0.18910797 0.025832254 0.06595103 -0.16182938 -0.08845775 0.19449855
0.073662974 0.0019555495 0.13493799 -0.056150038 -0.20241056 0.010315459 0.03111032 -0.1256858
0.006744786 -0.038204398 0.029120566 -0.002999144 -0.09959648 -0.16265032 0.09103075 0.20867467
-0.0789344 -0.061213907 0.14421135 0.09408204 -0.09819826 -0.046214588 0.107999444 0.122164056
-0.12654407 -0.113373704 0.11025216 0.018115705 -0.058245163 0.14260703 0.15218481 0.1584033
-0.09467035 -0.1653775 -0.1215085 -0.06295722 0.20240796 -0.04315289 0.053959124 0.22055697
0.10779176 -0.033651784 0.13499437 -0.007092134 -0.21779288 0.09665116 0.2003287 0.13477397
0.16083336 -0.18906207 0.046816602 0.16715121 0.08356257 0.18186471 -0.04605992 0.14670855
00000000: 5d2f 23be 785c 93bb 18b1 393e 9e03 9fbd
00000010: 5f9b 4f3e 035d d03b 137c bebb 1db5 0b3e
00000020: 23d9 84bd 5689 423e 1bd9 453e 4b26 36be
00000030: cc7a 3c3e 71b9 1fbd b954 e2bb 76ac 113e
00000040: 7f08 7b3d 1422 79be 3353 753e ab3c 69be
00000050: b828 033c a4ca 42be 210c 43be c726 393e
00000060: 572e f73d a1f5 413e 7ec7 d43d d049 0f3e
00000070: e84f 4c3e 8d9d f9bc 2123 243e 9618 973d
00000080: 1d25 39be c02b d63b 93a9 63be 3a9f 41be
00000090: 0063 b9bd fda2 28be 6e39 f8bd 8693 b43c
000000a0: 74f2 09be 79d8 0f3e 0944 1f3e 0452 bfbd
000000b0: 3caa 8f3c d469 23be 72fd 57be da34 05be
000000c0: dab4 1d3e 7ff9 79be 8faf bc3d cd33 e8bd
000000d0: ca9d 123e a35d 73bd 393a 10be 60dd 203e
000000e0: 8e09 11bd ff8d 1abe 88d9 833d 0399 1739
000000f0: 2f3b 12be dc84 633e 777f 463d 94d8 323d
00000100: 2c6d 98bc 7fa1 f33c 85a5 413e 2a9e d33c
00000110: 5511 873d 9ab6 25be 5629 b5bd a12a 473e
00000120: 9ddc 963d ad28 003b 2f2d 0a3e 95fd 65bd
00000130: b744 4fbe 2c02 293c 12db fe3c c7b3 00be
00000140: 5e03 dd3b 377c 1cbd 418e ee3c 498d 44bb
00000150: 3df9 cbbd ce8d 26be 546e ba3d d0ae 553e
00000160: 5ca8 a1bd 6fbb 7abd 24ac 133e 16ae c03d
00000170: 2b1c c9bd 824b 3dbd d02e dd3d 2631 fa3d
00000180: c594 01be 7930 e8bd e2cb e13d 6367 943c
00000190: 7b92 6ebd 9407 123e 56d6 1b3e 7a34 223e
000001a0: 87e2 c1bd b858 29be 73d9 f8bd b7ef 80bd
000001b0: 0844 4f3e 16c1 30bd 3e04 5d3d b0d9 613e
000001c0: edc1 dc3d 74d6 09bd f73b 0a3e 2265 e8bb
000001d0: 1905 5fbe 0bf1 c53d f722 4d3e 3002 0a3e
000001e0: 80b1 243e 7d99 41be c4c2 3f3d b029 2b3e
000001f0: da22 ab3d be3a 3a3e 54a9 3cbd c43a 163e

instance_projector.2.weight f4 [20, 128]
-0.047112346 -0.036918003 -0.040830445 -0.049636632 0.054047555 -0.049988937 0.004430854 -0.0926205
-0.006242598 -0.062220395 -0.091850445 0.033938568 -0.04815358 -0.06873968 0.034471683 -0.077781335
-0.02709227 0.09196044 0.030268766 0.055454716 -0.056755867 0.08843706 0.0730623 0.050262183
-0.024027236 -0.07079203 -0.01608742 -0.091145374 -0.0010729344 -0.08589577 0.03723494 0.07281124
0.007273768 -0.011386498 -0.019597678 -0.067757316 0.05525298 -0.10207429 -0.046501607 -0.043874644
-0.0022088157 0.02957592 -0.07002039 -0.02048593 -0.0521435 0.060882162 0.064575404 0.031006796
-0.01866885 -0.007034917 -0.0654331 -0.04440276 0.032307684 0.041428074 -0.024651585 -0.08808428
0.025351543 -0.010142447 0.090452775 0.04381836 -0.06724561 -0.059999075 0.043198407 -0.08767236
0.07953535 -0.089415796 0.04998848 -0.021161415 -0.002180273 -0.075913206 -0.058740973 0.07703962
0.0028978537 0.024344869 0.049983528 0.0004690371 -0.033041503 -0.037220858 0.08724257 0.0018023071
0.057320133 0.02415339 -0.024171172 -0.055001944 0.03911243 -0.09150048 -0.020795723 -0.008342598
0.012472029 -0.017677581 -0.07683546 0.070238814 -0.017680014 -0.022796186 0.10016611 -0.057583258
0.012063374 -0.059408512 -0.06846054 -0.0113151325 0.035376582 0.06921347 0.064343154 0.03655385
0.02385259 0.04307582 0.08338165 -0.05942131 -0.06506146 0.015550096 0.021291547 0.052278258
-0.034998126 -0.042862426 -0.03792846 0.012573068 0.08329552 -0.05001714 0.09480907 -0.07566594
0.055348463 -0.073651865 -0.04076734 -0.09470692 -0.060436845 0.05448568 -0.071233794 -0.080785654
-0.07535252 0.023235144 0.034765866 0.056325153 0.0015568865 0.016594661 -0.0273644 0.039344113
0.048582494 -0.09002346 0.03492094 -0.037853144 0.027869893 0.04369575 -0.039286032 -0.039609104
-0.059774604 0.0061796336 0.0036415276 -0.053275023 0.056794792 -0.03766102 -0.033954613 -0.07565508
0.047529235 0.053421486 0.03634441 -0.056176778 -0.09089077 -0.022899732 -0.008588798 -0.004427275
0.021994026 -0.010355109 -0.06471271 -0.015482229 -0.0011102905 0.05523583 -0.047152016 -0.024633924
0.013817016 -0.053767532 0.03618899 0.003234805 -0.040234696 0.058609005 0.02452109 0.057704467
0.0072170654 0.03980717 -0.030444266 0.08947406 -0.032216348 -0.026495047 -0.060881894 -0.04100487
0.021922361 -0.0072294115 0.058160797 0.035715345 0.019494053 0.04499154 0.050251674 -0.08800033
-0.054357655 0.019772556 0.040728923 0.107561275 0.03951626 0.0883453 -0.070311785 -0.009865047
-0.038960863 0.036890406 0.0634094 0.01752602 -0.06767617 0.036031708 -0.087257594 0.072535805
-0.025002541 0.08212408 -0.0027725608 -0.08112482 -0.10451304 -0.02744327 0.07383168 -0.0041294405
-0.01063964 -0.015223628 -0.0063689803 0.042363383 0.05763019 0.023631375 0.023026781 -0.016689267
0.061203513 0.057923753 0.06029283 -0.048596747 -0.021037847 0.086251296 0.05337572 -0.034389373
0.066262744 -0.04843775 0.018463464 -0.06994963 -0.0662826 0.0830794 -0.037697658 -0.013118084
-0.048026018 0.01848703 0.06269251 -0.09170625 -0.035393376 0.0040153535 -0.10133372 -0.04719449
-0.07909106 -0.04079858 0.086163975 0.00903471 -0.004662432 -0.06050022 -0.03795424 0.026621707
00000000: e0f8 40bd 5537 17bd d33d 27bd c84f 4bbd
00000010: f860 5d3d 33c1 4cbd b330 913b d1af bdbd
00000020: b58e ccbb d0da 7ebd 161c bcbd 2b03 0b3d
00000030: b03c 45bd 64c7 8cbd 2e32 0d3d d24b 9fbd
00000040: 9cf0 ddbc c155 bc3d 34f6 f73c 7c24 633d
00000050: d778 68bd 7d1e b53d b0a1 953d b8df 4d3d
00000060: c4d4 c4bc 69fb 90bd c4c9 83bc 6daa babd
00000070: b4a1 8cba 1fea afbd aa83 183d 0f1e 953d
00000080: ca58 ee3b 6f8e 3abc 4f8b a0bc 59c4 8abd
00000090: f350 623d 530c d1bd 7878 3ebd e6b5 33bd
000000a0: c7c1 10bb 3349 f23c da66 8fbd 1cd2 a7bc
000000b0: 6c94 55bd 935f 793d 1c40 843d f701 fe3c
000000c0: 6bef 98bc 2985 e6bb ca01 86bd abdf 35bd
000000d0: 1055 043d 7cb0 293d 1ff2 c9bc 8865 b4bd
000000e0: 0aae cf3c 822c 26bc 4e3f b93d e17a 333d
000000f0: 11b8 89bd 97c1 75bd d0f0 303d 918d b3bd
00000100: 6ee3 a23d a11f b7bd b8c0 4c3d b45a adbc
00000110: e9e2 0ebb 6278 9bbd 609a 70bd f3c6 9d3d
00000120: ebe9 3d3b e46e c73c 87bb 4c3d 18e9 f539
00000130: 8756 07bd e674 18bd 3cac b23d 643b ec3a
00000140: 84c8 6a3d 55dd c53c 9f02 c6bc b849 61bd
00000150: 5b34 203d 9b64 bbbd cb5b aabc 64af 08bc
00000160: 7b57 4c3c 93d0 90bc e95b 9dbd 5ed9 8f3d
00000170: add5 90bc 11bf babc e423 cd3d 6cdc 6bbd
00000180: 75a5 453c 5756 73bd 0a35 8cbd 1b63 39bc
00000190: 09e7 103d cbbf 8d3d 58c6 833d 7db9 153d
000001a0: 8266 c33c 4570 303d 00c4 aa3d c263 73bd
000001b0: f13e 85bd d4c5 7e3c 9c6b ae3c ba21 563d
000001c0: 325a 0fbd 8390 2fbd df5a 1bbd 45ff 4d3c
000001d0: d796 aa3d c6de 4cbd 422b c23d bff6 9abd
000001e0: 12b5 623d cad6 96bd a8fb 26bd b4f5 c1bd
000001f0: a08c 77bd 602c 5f3d 06e3 91bd f372 a5bd
00000200: 6c52 9abd a157 be3c a766 0e3d 34b5 663d
00000210: 7110 cc3a 87f1 873c 4e2b e0bc 4b27 213d
00000220: 70fe 463d 385e b8bd 4209 0f3d e60b 1bbd
00000230: 674f e43c 51fa 323d 64ea 20bd 283d 22bd
00000240: 37d6 74bd 867e ca3b b2a6 6e3b e936 5abd
00000250: a8a1 683d 7142 1abd fe13 0bbd 0df1 9abd
00000260: 04ae 423d 7dd0 5a3d e0dd 143d 9f19 66bd
00000270: f124 babd 3898 bbbc 08b8 0cbc ad12 91bb
00000280: d12c b43c 7aa8 29bc 1988 84bd 2da9 7dbc
00000290: 2b87 91ba f73e 623d 7922 41bd 15cd c9bc
000002a0: c460 623c 583b 5cbd e83a 143d 06ff 533b
000002b0: 23cd 24bd ff0f 703d 74e0 c83c 855b 6c3d
000002c0: 227d ec3b d80c 233d 4166 f9bc 2d3e b73d
000002d0: 4af5 03bd 240c d9bc 4b5f 79bd b9f4 27bd
000002e0: 8696 b33c b3e4 ecbb 043a 6e3d 414a 123d
000002f0: feb1 9f3c 0d49 383d b3d4 4d3d 8439 b4bd
00000300: 22a6 5ebd 0efa a13c 5fd3 263d 1649 dc3d
00000310: cddb 213d 61ee b43d a0ff 8fbd 02a1 21bc
00000320: 6d95 1fbd 651a 173d cadc 813d ba92 8f3c
00000330: ce99 8abd fc95 133d 1cb4 b2bd a78d 943d
00000340: 21d2 ccbc ab30 a83d dab3 35bb c524 a6bd
00000350: ef0a d6bd b5d0 e0bc 1035 973d 4250 87bb
00000360: e251 2ebc 866c 79bc e1b2 d0bb 3a85 2d3d
00000370: a20d 6c3d 9696 c13c a9a2 bc3c eeb7 88bc
00000380: 89b0 7a3d 7541 6d3d 9df5 763d 620d 47bd
00000390: 9057 acbc 85a4 b03d 80a0 5a3d dfdb 0cbd
000003a0: c3b4 873d aa66 46bd b140 973c c041 8fbd
000003b0: 2cbf 87bd 8825 aa3d dc68 1abd 3bed 56bc
000003c0: eeb6 44bd 1d72 973c ee64 803d 7dd0 bbbd
000003d0: a5f8 10bd 3a93 833b 0e88 cfbd 024f 41bd
000003e0: 7efa a1bd 691c 27bd bd76 b03d 5206 143c
000003f0: 50c7 98bb 14cf 77bd e875 1bbd c415 da3c

instance_projector.2.bias f4 [20]
-0.012616616 0.068909734 0.06670989 0.05458689 -0.041940663 0.09378604 -0.044615887 -0.09313773
-0.104641825 -0.06937297 0.050835904 -0.0692211 0.06446212 0.04189478 -0.0551187 0.10942745
0.0020992989 0.04679882 0.048900023 0.046310242
00000000: ecb5 4ebc 8c20 8d3d 329f 883d 8196 5f3d
00000010: f9c9 2bbd e512 c03d 26bf 36bd ffbe bebd
00000020: 744e d6bd 6a13 8ebd 4f39 503d cbc3 8dbd
00000030: b704 843d dc99 2b3d 25c4 61bd 801b e03d
00000040: 6494 093b 1fb0 3f3d 644b 483d cfaf 3d3d

cluster_projector.0.weight f4 [128, 20]
0.025145346 -0.16551219 -0.042836487 -0.17328192 -0.20979531 -0.10469909 -0.076627806 0.04203388
-0.11217712 -0.010238469 0.1226292 0.019061625 -0.037814282 -0.09124052 -0.007072582 0.15984109
-0.13867125 -0.16719553 0.05227109 0.0626629 0.12249518 -0.012571281 -0.08745544 -0.05790137
0.1279161 0.1799306 0.21005058 0.022473037 0.15702009 0.19608656 0.06948741 0.21661247
-0.031124208 0.21526371 -0.15799043 -0.18122508 -0.039825723 0.12260241 -0.15642841 -0.076211914
-0.1842724 -0.12683831 -0.15877992 -0.00061383843 -0.04774642 0.0631479 -0.21221359 -0.01676631
-0.06768748 -0.0393344 -0.09066367 -0.03614972 0.06495903 -0.2038823 -0.08047034 0.10178694
-0.08972674 -0.04251706 -0.108312584 -0.04995437 0.1647218 -0.09445899 0.05608532 -0.2171321
0.12680256 -0.19745523 0.114392996 -0.21429409 0.17300221 0.01065968 -0.08979138 -0.0026506337
-0.04775746 0.10881908 -0.21994321 -0.008260867 -0.19589095 0.015989766 0.09855778 -0.0895738
0.13445161 -0.057048377 -0.17190483 -0.071771756 -0.14729305 0.007232234 0.030746132 0.20541012
0.11298824 0.029754639 -0.022899747 0.0044058138 -0.036894094 -0.19155845 0.16046727 -0.16755134
0.092481755 0.11582037 -0.19669904 -0.1067439 -0.21920285 -0.05609631 0.13462195 -0.18503174
0.06580123 -0.03584148 0.012931019 -0.016747043 -0.03978094 0.19273365 -0.19216193 0.050913624
-0.14251384 0.090523705 0.21035756 0.18472753 0.05977844 -0.059322383 -0.02345759 0.010562966
0.18167871 -0.035218287 0.091837265 -0.12311713 0.0074982787 -0.13319026 0.10439244 0.19727632
0.09559596 -0.16150576 0.00023602451 -0.13329029 0.10312376 0.22457936 -0.16278535 0.13688491
0.15603206 0.12387392 0.19919206 0.011848706 -0.0066241506 0.10246088 0.14947988 -0.16539274
0.039218172 -0.026863769 0.049657017 -0.046926722 0.084860705 -0.15721405 0.14669546 0.18458614
0.1046231 -0.026456257 0.11941592 0.110275805 0.014373119 -0.10066267 -0.09982603 0.038364857
-0.12951091 0.19698058 0.033558916 -0.042420525 -0.10460977 -0.093827575 -0.1574727 -0.20213309
-0.08336652 0.13314551 0.15233886 0.039349344 0.0825648 0.045002073 -0.027241517 -0.1534112
-0.02359345 0.042759333 0.18989517 -0.20667365 0.024552789 -0.025361897 0.1622368 -0.15876658
-0.14495999 0.124004245 -0.2000516 -0.0075209886 0.16038004 0.21452329 0.10453075 0.15108256
-0.20796014 -0.12664118 -0.15726835 0.18067527 0.14111672 -0.10632394 -0.13673568 -0.1791852
0.209214 0.1007145 0.088546835 -0.058841996 -0.05964276 0.060409695 -0.07336426 0.064694196
0.14539006 -0.21248645 0.095322825 -0.17995346 0.0521842 -0.16700755 0.12536259 -0.18722114
-0.17877968 0.054385148 -0.085366905 0.117533505 0.059511304 -0.0818596 0.21876985 -0.007658646
0.047544174 -0.18688393 0.08381581 0.20037568 0.080477536 -0.14153036 0.012619264 -0.17896794
-0.07292691 -0.07217961 -0.16802683 -0.10044877 -0.0012202655 0.19907983 0.04309873 -0.086225405
0.13946287 -0.18214893 0.15549895 -0.11608919 0.12704572 0.11576834 0.059623778 0.055152148
0.117600605 -0.04701008 -0.07366645 0.18923816 -0.13426897 0.20141019 -0.047124155 0.22109692
00000000: 9dfd cd3c 077c 29be 5075 2fbd d170 31be
00000010: 95d4 56be 7a6c d6bd 0aef 9cbd b82b 2c3d
00000020: 1ebd e5bd 40bf 27bc 0525 fb3d 2027 9c3c
00000030: 26e3 1abd 4fdc babd 1ec1 e7bb 62ad 233e
00000040: d6ff 0dbe 4e35 2bbe 361a 563d 6855 803d
00000050: c1de fa3d c6f7 4dbc d61b b3bd fd29 6dbd
00000060: 70fc 023e ba3f 383e 8017 573e 6019 b83c
00000070: e0c9 203e eaca 483e 6a4f 8e3d a9cf 5d3e
00000080: 32f8 febc 176e 5c3e 3ec8 21be 1193 39be
00000090: 4c20 23bd f916 fb3d c52e 20be fe14 9cbd
000000a0: e7b1 3cbe e7e1 01be 3497 22be 00ea 20ba
000000b0: c091 43bd b053 813d 854e 59be 8059 89bc
000000c0: bc9f 8abd 1c1d 21bd e0ad b9bd bb11 14bd
000000d0: 3d09 853d 86c6 50be a2cd a4bd ac75 d03d
000000e0: a7c2 b7bd 5e26 2ebd fdd2 ddbd f49c 4cbd
000000f0: d5ac 283e b773 c1bd b8b9 653d e157 5ebe
00000100: 88d8 013e b431 4abe e046 ea3d e96f 5bbe
00000110: 7e27 313e f0a5 2e3c 8be4 b7bd 41b6 2dbb
00000120: 549d 43bd 8adc de3d cb38 61be 9658 07bc
00000130: a397 48be f8fc 823c a9d8 c93d 7872 b7bd
00000140: afad 093e 8fab 69bd d207 30be 12fd 92bd
00000150: fdd3 16be 60fc ec3b 50df fb3c 0857 523e
00000160: 6166 e73d 00c0 f33c 4098 bbbc a55e 903b
00000170: 431e 17bd e627 44be 8851 243e 9492 2bbe
00000180: 1367 bd3d 3b33 ed3d 796b 49be 8c9c dabd
00000190: b676 60be 3fc5 65bd 56da 093e f678 3dbe
000001a0: ccc2 863d 84ce 12bd a0dc 533c 1831 89bc
000001b0: 57f1 22bd f85b 453e 19c6 44be ce8a 503d
000001c0: 26ef 11be 7e64 b93d f967 573e 3729 3d3e
000001d0: 3dda 743d 07fc 72bd 222a c0bc 4a10 2d3c
000001e0: fc09 3a3e 0d41 10bd 2d15 bc3d d524 fcbd
000001f0: 1fb4 f53b 0763 08be b4cb d53d ce02 4a3e
00000200: d1c7 c33d c461 25be 597d 7739 407d 08be
00000210: 8d32 d33d 22f8 653e 34b1 26be 8f2b 0c3e
00000220: dec6 1f3e 9cb1 fd3d 01f9 4b3e 1321 423c
00000230: 670f d9bb 03d7 d13d 4111 193e b75c 29be
00000240: 3ca3 203d 6811 dcbc 2865 4b3d 3c36 40bd
00000250: 73cb ad3d b8fc 20be 5637 163e 2604 3d3e
00000260: a344 d63d cbba d8bc 5590 f43d 48d8 e13d
00000270: 3b7d 6b3c 3b28 cebd 9771 ccbd 7824 1d3d
00000280: 829e 04be 47b5 493e 1375 093d 25c1 2dbd
00000290: a63d d6bd ac28 c0bd 8640 21be fafb 4ebe
000002a0: 11bc aabd 4c57 083e b8fe 1b3e c72c 213d
000002b0: bc17 a93d 1854 383d 9a29 dfbc d317 1dbe
000002c0: 0d47 c1bc 6924 2f3d e173 423e 42a2 53be
000002d0: ee22 c93c c1c3 cfbc 6721 263e b593 22be
000002e0: 6470 14be f0f5 fd3d 54da 4cbe a072 f6bb
000002f0: aa3a 243e feab 5b3e 3814 d63d 63b5 1a3e
00000300: 81f3 54be 3aae 01be f40a 21be f002 393e
00000310: e780 103e 5ec0 d9bd 7004 0cbe 537c 37be
00000320: 323c 563e 6743 ce3d 0b58 b53d 4e04 71bd
00000330: f74b 74bd 2870 773d 0040 96bd 647e 843d
00000340: 22e1 143e 0c96 59be 9d38 c33d b845 38be
00000350: 1abf 553d 0704 2bbe 0d5f 003e e6b6 3fbe
00000360: 0512 37be f6c2 5e3d d8d4 aebd 68b5 f03d
00000370: 20c2 733d 02a6 a7bd 3405 603e 61f5 fabb
00000380: aebd 423d 805e 3fbe a0a7 ab3d 482f 4d3e
00000390: 68d1 a43d 56ed 10be 08c1 4e3c 5f43 37be
000003a0: b45a 95bd e7d2 93bd 3a0f 2cbe 16b8 cdbd
000003b0: 51f1 9fba 95db 4b3e 4b88 303d f296 b0bd
000003c0: 5bcf 0e3e 4085 3abe 1e3b 1f3e 2bc0 edbd
000003d0: 4618 023e f417 ed3d 1038 743d 38e7 613d
000003e0: 96d8 f03d a48d 40bd 70de 96bd a6c7 413e
000003f0: ce7d 09be 793e 4e3e 4205 41bd 3b67 623e

cluster_projector.0.bias f4 [128]
-0.071604274 -0.029713228 -0.0062957266 -0.11490905 0.07795892 -0.040162828 0.1963615 -0.17420156
-0.06727653 -0.19454978 0.14461675 -0.022267466 -0.056330983 0.05914394 -0.22115166 -0.06320677
-0.07465033 0.043670375 -0.1581995 0.11157192 0.13185306 0.033134468 -0.1872056 -0.091488674
-0.22373568 0.13486594 -0.21924128 -0.105001636 0.10898691 -0.03924858 0.044568248 0.065946534
-0.024939748 0.1904048 -0.2083237 0.19217716 -0.14285456 -0.05790927 0.029817464 -0.088280916
-0.07525035 0.01201668 0.1090782 0.21844119 0.1525606 -0.06815629 -0.10321093 0.10941933
-0.13991204 -0.02227989 -0.025511885 -0.06664161 -0.13649422 0.15122117 -0.06821008 0.07331778
-0.17408739 0.10069204 -0.1541121 0.13026167 -0.0029021497 0.14193009 0.20866956 0.1946214
0.09066252 0.17910628 0.19783509 0.0878234 -0.005831071 0.15831693 0.10212779 -0.09277789
0.08784991 -0.0055020996 0.097864926 -0.03671224 -0.1474304 0.029333804 -0.06480272 -0.01118391
-0.16568197 0.19609055 -0.16201825 0.05534456 0.11909877 0.13600157 -0.06470188 -0.033142883
-0.08056535 -0.11986819 -0.034932308 0.17978674 0.118385226 -0.124248385 -0.21579611 0.17367429
-0.16129217 -0.01674831 -0.021932423 -0.044237133 -0.23016337 -0.14448251 0.18556474 -0.14550501
0.18396038 -0.21742055 0.17584895 0.081446 -0.16131118 0.003665486 0.18791476 0.20471883
-0.10587943 0.059525482 -0.15267064 0.07831969 -0.0004348371 0.21427593 0.03268805 0.03483268
0.09325038 0.20899485 -0.16165665 0.11488984 0.04686065 0.15061808 -0.09275369 -0.13212621
00000000: 43a5 92bd 2869 f3bc 624c cebb 7055 ebbd
00000010: eda8 9f3d c781 24bd fd12 493e e561 32be
00000020: 47c8 89bd 0f38 47be 6a16 143e 436a b6bc
00000030: 51bb 66bd eb40 723d 9575 62be 8d72 81bd
00000040: 46e2 98bd b5df 323d 0dff 21be d27f e43d
00000050: 7d04 073e 02b8 073d d3b2 3fbe 6a5e bbbd
00000060: f71a 65be 4c1a 0a3e c980 60be 190b d7bd
00000070: 8734 df3d 1ec3 20bd 328d 363d fa0e 873d
00000080: 714e ccbc 7af9 423e cf52 55be 17ca 443e
00000090: 7748 12be 4532 6dbd c143 f43c a0cc b4bd
000000a0: db1c 9abd 9ce1 443c 6464 df3d 0caf 5f3e
000000b0: d938 1c3e 8695 8bbd 4160 d3bd 3e17 e03d
000000c0: 1a45 0fbe 5184 b6bc 4dfe d0bc 657b 88bd
000000d0: 24c5 0bbe b9d9 1a3e bab1 8bbd a227 963d
000000e0: f743 32be a137 ce3d 90cf 1dbe 5163 053e
000000f0: fe31 3ebb 1f56 113e 79ad 553e d54a 473e
00000100: 45ad b93d a367 373e 4895 4a3e c1dc b33d
00000110: 9212 bfbb d51d 223e 6028 d13d 5602 bebd
00000120: a7ea b33d f54a b4bb 686d c83d 935f 16bd
00000130: fff7 16be 724d f03c 4ab7 84bd b83c 37bc
00000140: 89a8 29be f6cb 483e 1de8 25be fab0 623d
00000150: 0eea f33d ff43 0b3e 6b82 84bd d5c0 07bd
00000160: 72ff a4bd 747d f5bd 2e15 0fbd 041a 383e
00000170: f473 f23d f075 febd a8f9 5cbe acd7 313e
00000180: c629 25be c033 89bc a0ab b3bc ff31 35bd
00000190: f2af 6bbe 39f3 13be af04 3e3e 44ff 14be
000001a0: 1c60 3c3e 7ea3 5ebe bf11 343e 29cd a63d
000001b0: c22e 25be a638 703b ba6c 403e d0a1 513e
000001c0: 51d7 d8bd fed0 733d b155 1cbe 1366 a03d
000001d0: d9fa e3b9 266b 5b3e e8e3 053d b6ac 0e3d
000001e0: 0efa be3d bf02 563e 5289 25be 5d4b eb3d
000001f0: f4f0 3f3d a03b 1a3e a6f5 bdbd 184c 07be

cluster_projector.2.weight f4 [50, 128]
0.07096968 0.029196015 0.05229847 0.0899907 0.07566341 -0.057979383 -0.07202485 0.029367985
-0.02845515 0.05661069 -0.06765903 0.07120943 -0.011529605 0.050056774 -0.0008315715 -0.020380534
0.0932515 0.025735866 -0.02914677 0.0071658767 0.03540525 -0.02093586 0.030614415 -0.07343168
-0.07832584 0.0103984075 0.054489516 0.059180014 -0.014750869 0.016955717 0.01336343 0.064591885
0.09608206 0.0137624815 -0.050228655 0.06400976 0.08824414 0.078052856 -0.0075191855 -0.03995808
0.07834444 0.0050254753 -0.07643771 -0.04730228 0.002500405 -0.035496354 -0.021233432 -0.025164254
-0.029689275 -0.06673087 0.09006063 0.07198209 -0.016547142 -0.033142433 -0.02173872 0.07735582
-0.024829268 0.047304317 -0.0305511 -0.068418704 0.066299714 -0.07194364 -0.06320508 -0.07108439
0.015620317 -0.008068509 0.01852838 0.08437237 0.0070734425 -0.06212452 -0.07374542 0.080478154
0.07495772 0.08000752 -0.009118605 0.014251422 -0.053119898 0.031754408 -0.021538297 0.0029501764
-0.03962769 -0.08170804 0.043570157 0.05656775 0.0721515 -0.038253773 0.043899905 0.049636725
-0.06531892 -0.06198675 -0.029138647 0.0018243178 -0.060128953 0.0808214 0.016737085 -0.0062163016
-0.01876861 0.08247723 0.05297949 0.0051546767 -0.051527236 -0.03831768 0.00853369 0.08199343
0.0015434446 0.07202508 0.079211384 0.03976826 -0.050497416 0.07006277 -0.04214743 -0.0640481
-0.038655538 -0.04539828 0.07882766 0.08111847 -0.04383841 -0.07406971 -0.018923327 -0.06753006
-0.0020116197 -0.024257235 -0.08240047 -0.014393177 -0.02829003 0.01629454 0.023301007 0.052473452
-0.080727465 -0.036394052 0.04544779 0.024780165 0.06087781 0.034413565 -0.019928152 0.010639054
-0.020651136 0.04632014 -0.0018077763 -0.021058245 -0.034576297 0.034905028 0.08713461 0.0507267
-0.054014977 0.09865192 0.05765174 -0.048686884 0.07996292 -0.086374335 0.0063081114 0.0855632
0.027788548 0.07001943 -0.039844185 0.040383384 0.029273583 -0.074979275 -0.029596796 0.06271587
-0.06479775 -0.0815587 -0.06125198 0.07850564 -0.060026117 0.061676584 -0.035247695 -0.028191853
-0.015022147 -0.06299244 0.020984387 -0.07545138 -0.081042424 0.10261762 -0.040442064 -0.04658003
0.068922415 0.062754855 -0.06725749 0.01649586 0.08994079 -0.018701479 -0.011810304 0.009331114
0.06543518 0.04392768 -0.027315509 -0.017391287 -0.0254704 0.07956065 0.019180713 -0.009890197
-0.08671082 -0.042466983 -0.035966486 0.07273482 -0.057982188 -0.05429817 0.024394816 0.028352361
-0.082954995 0.07727697 -0.05441498 0.08751085 -0.06487411 0.04686618 0.059287537 0.0026206851
-0.062706105 0.0079801 -0.0066584307 -0.018933566 -0.030783601 0.07212343 0.007164851 -0.023703147
0.0047110426 -0.06911447 0.027865717 0.0063155172 0.018483985 -0.049348224 -0.07460604 0.055675376
0.06472629 -0.034550197 -0.022047611 0.038110793 0.08582178 -0.012346286 -0.060537335 -0.0032370267
0.040724102 0.06476333 -0.0477947 -0.030179404 0.0373 0.08435417 0.04373528 0.089213975
-0.04417811 0.08684506 -0.06813051 -0.04915056 0.017180618 0.018331409 -0.0060540414 0.06287462
-0.0003942465 -0.089034416 0.053525813 -0.07947908 0.027122863 -0.0045286766 0.071102 -0.07639398
00000000: 8d58 913d 7b2c ef3c ec36 563d 0b4d b83d
00000010: 6bf5 9a3d ca7b 6dbd c481 93bd 2195 f03c
00000020: c61a e9bc 9ce0 673d d190 8abd 40d6 913d
00000030: abe6 3cbc 5508 4d3d d2fd 59ba 14f5 a6bc
00000040: a4fa be3d 06d4 d23c 35c5 eebc bbcf ea3b
00000050: 1805 113d ae81 abbc 15cb fa3c 5963 96bd
00000060: 4c69 a0bd 155e 2a3c 6630 5f3d be66 723d
00000070: a1ad 71bc b7e6 8a3c 4af2 5a3c c048 843d
00000080: acc6 c43d 087c 613c 90bc 4dbd 8d17 833d
00000090: 58b9 b43d 2dda 9f3d 8063 f6bb 15ab 23bd
000000a0: 0d73 a03d beac a43b 608b 9cbd 09c0 41bd
000000b0: d6dd 233b a064 11bd bcf1 adbc 4425 cebc
000000c0: ec36 f3bc 32aa 88bd b571 b83d 596b 933d
000000d0: df8d 87bc 5cc0 07bd 6615 b2bc ba6c 9e3d
000000e0: c066 cbbc 2cc2 413d 4d46 fabc 1b1f 8cbd
000000f0: 25c8 873d 3057 93bd aa71 81bd b194 91bd
00000100: 5cec 7f3c c831 04bc d4c8 973c 6ccb ac3d
00000110: 56c8 e73b 4876 7ebd d707 97bd bbd1 a43d
00000120: 6f83 993d fcda a33d 3466 15bc cc7e 693c
00000130: 4094 59bd e910 023d 1571 b0bc bf57 413b
00000140: a550 22bd 8b56 a7bd 9f76 323d 96b3 673d
00000150: 2ac4 933d fdaf 1cbd 63d0 333d e14f 4b3d
00000160: edc5 85bd d2e5 7dbd 2cb4 eebc f31d ef3a
00000170: c749 76bd b185 a53d 361c 893c 1eb2 cbbb
00000180: a1c0 99bc d2e9 a83d 0601 593d 90e8 a83b
00000190: 390e 53bd 00f3 1cbd e4d0 0b3c 2cec a73d
000001a0: 684d ca3a e381 933d 9439 a23d 0be4 223d
000001b0: 61d6 4ebd 127d 8f3d c9a2 2cbd a62b 83bd
000001c0: 4555 1ebd 8cf3 39bd 6570 a13d 7121 a63d
000001d0: e88f 33bd dcb1 97bd 1805 9bbc 334d 8abd
000001e0: 61d5 03bb 1cb7 c6bc 94c1 a8bd 5cd1 6bbc
000001f0: 7ec0 e7bc 217c 853c c1e1 be3c 67ee 563d
00000200: 7154 a5bd ee11 15bd 7627 3a3d c6ff ca3c
00000210: 035b 793d 3df5 0c3d 5d40 a3bc 6d4f 2e3c
00000220: 922c a9bc 30ba 3d3d e8f2 ecba 5782 acbc
00000230: e09f 0dbd 93f8 0e3d a173 b23d cdc6 4f3d
00000240: cf3e 5dbd 050a ca3d 3b24 6c3d e66b 47bd
00000250: 99c3 a33d 07e5 b0bd 46b4 ce3b c23b af3d
00000260: cfa4 e33c 5966 8f3d a833 23bd 0c69 253d
00000270: 27cf ef3c bc8e 99bd fb74 f2bc 2e71 803d
00000280: afb4 84bd 3f08 a7bd 5be3 7abd 91c7 a03d
00000290: f2dd 75bd 96a0 7c3d e35f 10bd 9af2 e6bc
000002a0: 741f 76bc 2e02 81bd 73e7 ab3c 4186 9abd
000002b0: 92f9 a5bd 3029 d23d 94a6 25bd b4ca 3ebd
000002c0: 3227 8d3d 9e85 803d 4bbe 89bd 5322 873c
000002d0: e032 b83d d833 99bc 0180 41bc 87e1 183c
000002e0: e102 863d 83ed 333d c6c4 dfbc 2c78 8ebc
000002f0: 4da7 d0bc b2f0 a23d df20 9d3c 7e0a 22bc
00000300: 7195 b1bd dcf1 2dbd 9851 13bd fef5 943d
00000310: bb7e 6dbd c267 5ebd a3d7 c73c 3643 e83c
00000320: 4fe4 a9bd 6343 9e3d 3ee2 5ebd e338 b33d
00000330: b8dc 84bd c0f6 3f3d 7dd7 723d cdbf 2b3b
00000340: 0f6c 80bd f7be 023c f72e dabb 911a 9bbc
00000350: e42d fcbc 73b5 933d 20c7 ea3b 1a2d c2bc
00000360: 175f 9a3b e38b 8dbd a546 e43c 66f2 ce3b
00000370: ba6b 973c 5d21 4abd 0dcb 98bd dd0b 643d
00000380: 388f 843d 8284 0dbd 319d b4bc 101a 1c3d
00000390: 54c3 af3d 1448 4abc fff5 77bd 4c24 54bb
000003a0: 51ce 263d a3a2 843d 60c4 43bd cc3a f7bc
000003b0: e3c7 183d e1c1 ac3d c423 333d d1b5 b63d
000003c0: 1bf4 34bd d3db b13d 0288 8bbd 1952 49bd
000003d0: 5ebe 8c3c c02b 963c fb60 c6bb 69c4 803d
000003e0: dfb2 ceb9 ad57 b6bd e23d 5b3d eec5 a2bd
000003f0: c430 de3c 4b65 94bb ed9d 913d 7274 9cbd

cluster_projector.2.bias f4 [50]
-0.07095107 0.031442992 0.01921215 -0.022621261 0.07762598 -0.00061914406 0.07352971 -0.03856198
-0.011062462 0.056089405 0.09753808 0.049681205 0.020009613 -0.028391508 0.047599852 0.06750466
0.048569594 -0.04565003 0.0689462 -0.05842339 0.036826003 0.04523063 -0.0077218856 0.044223174
-0.024094103 0.015215208 -0.06289561 0.030079305 0.06710874 -0.0470371 0.060073767 -0.043058984
-0.041691516 -0.039050717 -0.0019312339 0.041489314 0.055990793 0.050778285 0.028908184 0.06420329
0.0173174 -0.026846714 -0.071377344 0.069622576 0.032392535 -0.056733966 -0.04729405 0.08514869
0.040553074 0.0034252396
00000000: cb4e 91bd 5eca 003d cc62 9d3c 3950 b9bc
00000010: 5ffa 9e3d 0e4e 22ba bf96 963d 2bf3 1dbd
00000020: 543f 35bc 01be 653d 0bc2 c73d 857e 4b3d
00000030: 33eb a33c 4f95 e8bc 10f8 423d e23f 8a3d
00000040: e9f0 463d 87fb 3abd aa33 8d3d 5d4d 6fbd
00000050: ddd6 163d c143 393d df07 fdbb 5c23 353d
00000060: ff60 c5bc 3549 793c 6acf 80bd e068 f63c
00000070: 4f70 893d f9a9 40bd e90f 763d 9e5e 30bd
00000080: b9c4 2abd a5f3 1fbd 7521 fdba b3f0 293d
00000090: 9a56 653d e4fc 4f3d dbd0 ec3c 047d 833d
000000a0: 38dd 8d3c a4ed dbbc 492e 92bd 4896 8e3d
000000b0: 09ae 043d e061 68bd 68b7 41bd 7062 ae3d
000000c0: fb1a 263d fc79 603b

exp_avg f4 [128, 20]
-0.10023584 -0.0043648686 -0.0053538927 -0.0015347995 -0.0012367013 0.0 0.0 0.0
-0.0043648686 0.0 -0.0018732701 -0.0018946959 -0.004512215 -0.025236957 -0.024988504 -0.025112733
-0.003203458 0.0002484532 -0.002617521 0.0 -0.06392634 -0.0036489803 0.0 0.0
0.0 0.0 0.0 0.0 -0.0036489803 0.0 -0.03830629 -0.04619504
-0.052048743 -0.085147485 -0.06891255 -0.07703002 -0.049121894 0.01623494 -0.005853691 0.16234939
0.07797507 0.001370831 -0.070292 -0.06399205 -0.030342355 0.0 0.0 0.0
0.001370831 0.0 0.93588924 0.25966144 0.22729963 0.6223285 0.77428615 0.6983072
0.24348047 0.15195787 -0.032361828 2.734785 -0.033137064 -0.0024070826 0.17913766 -0.17492543
-0.15628298 0.0 0.0 0.0 -0.0024070826 0.0 -0.2887626 -0.35309574
-0.4072548 -1.0053862 -1.1510248 -1.0782056 -0.3801753 -0.14563867 -0.054159053 -3.647024
-0.008474943 -0.0016426475 -0.044750024 -0.015002395 -0.012120904 0.0 0.0 0.0
-0.0016426475 0.0 -0.008638157 -0.33485883 -0.34281084 -0.38764414 -0.40858263 -0.3981134
-0.33883482 -0.020938497 -0.007952025 -0.20018832 0.028987678 8.518404e-05 0.15815254 -0.00049701834
0.01647182 0.0 0.0 0.0 8.518404e-05 0.0 -0.3994597 -0.07480224
-0.07611335 -0.5938194 -0.5493191 -0.57156926 -0.075457804 0.04450026 -0.0013111178 1.5695047
-0.021700747 -0.003214801 0.1407372 -0.12691063 -0.08767113 0.0 0.0 0.0
-0.003214801 0.0 -0.38173437 -0.2407567 -0.29554966 -0.9414067 -1.0417397 -0.9915732
-0.26815322 -0.10033294 -0.054793008 -1.8942212 0.018748567 0.00011521974 0.0 0.0
0.0 0.0 0.0 0.0 0.00011521974 0.0 -0.0713 -0.035692744
-0.035339925 0.059821248 0.059821248 0.059821248 -0.035516337 6.1278424e-25 0.00035282117 6.127843e-24
0.009429465 0.00074190716 -0.053067468 -0.012392287 -0.008130846 0.0 0.0 0.0
0.00074190716 0.0 -0.10744398 0.034784608 0.031598706 0.123998575 0.16526163 0.1446301
0.033191662 0.041263066 -0.0031858943 0.37430763 0.04582223 -7.754488e-05 0.34913233 -0.01585097
0.00710099 0.0 0.0 0.0 -7.754488e-05 0.0 0.3545856 0.015700605
0.029503597 -0.44850782 -0.42105496 -0.4347814 0.022602066 0.027452882 0.013802955 1.293321
-0.124639235 -0.0034039144 -0.1490301 -0.19153658 -0.23132429 0.0 0.0 0.0
-0.0034039144 0.0 -1.5582553 -0.7697137 -0.8652933 -1.6595951 -2.0087006 -1.8341479
-0.81750363 -0.34910524 -0.09557961 -9.678236 -0.091584414 -0.0038962201 0.035062287 0.009765971
0.007885716 0.0 0.0 0.0 -0.0038962201 0.0 0.06494395 -0.01391876
-0.057549745 -0.1329266 -0.16810903 -0.15051787 -0.03573426 -0.035182443 -0.04363098 -0.38299215
-0.024244262 0.0016264846 -0.049850777 0.19431582 0.0729799 0.0 0.0 0.0
0.0016264846 0.0 -0.4806245 -0.3032485 -0.27673244 -0.51256645 -0.68646413 -0.59951526
00000000: 7348 cdbd 2c07 8fbb b56f afbb 532b c9ba
00000010: cf18 a2ba 0000 0000 0000 0000 0000 0000
00000020: 2c07 8fbb 0000 0000 8488 f5ba 7257 f8ba
00000030: 34db 93bb bcbd cebc b1b4 ccbc 38b9 cdbc
00000040: 1bf1 51bb d342 8239 b78a 2bbb 0000 0000
00000050: d0eb 82bd bb23 6fbb 0000 0000 0000 0000
00000060: 0000 0000 0000 0000 0000 0000 0000 0000
00000070: bb23 6fbb 0000 0000 0ee7 1cbd 0337 3dbd
00000080: 1031 55bd ce61 aebd 0622 8dbd eac1 9dbd
00000090: 0a34 49bd 23ff 843c 52d0 bfbb eb3e 263e
000000a0: 65b1 9f3d 75ad b33a 41f5 8fbd 440e 83bd
000000b0: 8890 f8bc 0000 0000 0000 0000 0000 0000
000000c0: 75ad b33a 0000 0000 7096 6f3f 58f2 843e
000000d0: 3cc1 683e ec50 1f3f 9e37 463f 43c4 323f
000000e0: f252 793e d89a 1b3e d68d 04bd b806 2f40
000000f0: bbba 07bd 25c0 1dbb dd6f 373e a71f 33be
00000100: a508 20be 0000 0000 0000 0000 0000 0000
00000110: 25c0 1dbb 0000 0000 b1d8 93be f7c8 b4be
00000120: b383 d0be 7fb0 80bf c854 93bf a402 8abf
00000130: 56a6 c2be 4e22 15be e2d5 5dbd d768 69c0
00000140: 7dda 0abc 1b4e d7ba cd4b 37bd 9bcc 75bc
00000150: c296 46bc 0000 0000 0000 0000 0000 0000
00000160: 1b4e d7ba 0000 0000 0e87 0dbc 9e72 abbe
00000170: e784 afbe 4b79 c6be be31 d1be 85d5 cbbe
00000180: c27b adbe 3687 abbc 3649 02bc 2bfe 4cbe
00000190: 9177 ed3c d5a4 b238 bdf2 213e 564a 02ba
000001a0: e9ef 863c 0000 0000 0000 0000 0000 0000
000001b0: d5a4 b238 0000 0000 fb85 ccbe eb31 99bd
000001c0: 51e1 9bbd 8c04 18bf 2da0 0cbf 5d52 12bf
000001d0: 9f89 9abd e845 363d d0d9 abba 88e5 c83f
000001e0: c4c5 b1bc 69af 52bb 6a1d 103e dcf4 01be
000001f0: ec8c b3bd 0000 0000 0000 0000 0000 0000
00000200: 69af 52bb 0000 0000 b072 c3be ed88 76be
00000210: 4952 97be 0800 71bf ba57 85bf bed7 7dbf
00000220: 614b 89be 5b7b cdbd a26e 60bd d775 f2bf
00000230: 9896 993c 20a2 f138 0000 0000 0000 0000
00000240: 0000 0000 0000 0000 0000 0000 0000 0000
00000250: 20a2 f138 0000 0000 bc05 92bd 8e32 12bd
00000260: 99c0 10bd 2007 753d 2007 753d 2007 753d
00000270: 9479 11bd c5a5 3d17 dbfa b839 380f ed18
00000280: 0b7e 1a3c 8c7c 423a 465d 59bd 0509 4bbc
00000290: 3d37 05bc 0000 0000 0000 0000 0000 0000
000002a0: 8c7c 423a 0000 0000 970b dcbd 4e7a 0e3d
000002b0: a56d 013d f7f2 fd3d 583a 293e ea19 143e
000002c0: fbf3 073d 7603 293d 70ca 50bb 40a5 bf3e
000002d0: 17b0 3b3d 979f a2b8 79c1 b23e e5d9 81bc
000002e0: 6caf e83b 0000 0000 0000 0000 0000 0000
000002f0: 979f a2b8 0000 0000 3e8c b53e 8e9e 803c
00000300: 87b1 f13c d1a2 e5be 8494 d7be ab9b debe
00000310: f827 b93c dee4 e03c ca25 623c 8b8b a53f
00000320: db42 ffbd 3514 5fbb 599b 18be 2a22 44be
00000330: 46e0 6cbe 0000 0000 0000 0000 0000 0000
00000340: 3514 5fbb 0000 0000 e974 c7bf f50b 45bf
00000350: dd83 5dbf 9d6d d4bf 8d8e 00c0 5cc5 eabf
00000360: eb47 51bf ecbd b2be 3ebf c3bd 0eda 1ac1
00000370: 9c90 bbbd ba57 7fbb 799d 0f3d 7401 203c
00000380: 1733 013c 0000 0000 0000 0000 0000 0000
00000390: ba57 7fbb 0000 0000 5501 853d 830b 64bc
000003a0: 48b9 6bbd e91d 08be c624 2cbe 5b21 1abe
000003b0: 165e 12bd 771b 10bd 66b6 32bd 8c17 c4be
000003c0: e79b c6bc c42f d53a 5430 4cbd bafa 463e
000003d0: 7c76 953d 0000 0000 0000 0000 0000 0000
000003e0: c42f d53a 0000 0000 6a14 f6be 6343 9bbe
000003f0: e0af 8dbe 8e37 03bf 1dbc 2fbf d579 19bf

exp_avg_sq f4 [128, 20]
0.040424146 7.694694e-05 0.00019268185 1.5834528e-05 1.0280894e-05 0.0 0.0 0.0
7.694694e-05 0.0 0.0049652443 0.005098555 0.0064925826 0.007696783 0.00768238 0.007689495
0.0057706675 3.5587507e-07 9.9588804e-05 0.0 0.0463282 0.00010259961 0.0 0.0
0.0 0.0 0.0 0.0 0.00010259961 0.0 0.009204743 0.0185347
0.024768684 0.07579318 0.05816686 0.0665375 0.021537367 0.0017705108 0.00045725328 0.17705113
0.01753307 9.196235e-05 0.627485 0.21044748 0.1654102 0.0 0.0 0.0
9.196235e-05 0.0 2.2019804 1.8123357 2.3883324 6.731269 9.423141 7.9903755
2.0880544 0.34731114 0.049119283 243.93796 0.010685383 4.3856802e-05 0.36728814 0.12982258
0.11353963 0.0 0.0 0.0 4.3856802e-05 0.0 0.9491938 0.85570276
1.1695644 3.665123 5.5029593 4.510664 1.0062798 0.29350427 0.02541945 221.43309
0.00039065952 4.4845756e-06 0.046918437 0.0023977535 0.001597725 0.0 0.0 0.0
4.4845756e-06 0.0 0.02060648 0.103082135 0.11526401 0.13017672 0.12723653 0.12842245
0.10854524 0.0011366453 0.0025116063 0.18419296 0.025158064 6.87476e-05 0.20176065 0.04983911
0.04243344 0.0 0.0 0.0 6.87476e-05 0.0 1.3078619 0.3389928
0.48714522 1.4364915 1.9600295 1.6731995 0.408967 0.100250565 0.016407274 64.72007
0.0075345053 3.8286056e-05 0.2510415 0.053514984 0.047159623 0.0 0.0 0.0
3.8286056e-05 0.0 0.5772645 0.49888226 0.66826797 2.1143997 3.0008643 2.5291748
0.57979286 0.11382677 0.015129439 77.91091 0.015346977 3.4509743e-05 0.0 0.0
0.0 0.0 0.0 0.0 3.4509743e-05 0.0 0.0070821447 0.006616925
0.013523782 0.02364372 0.023443164 0.023542034 0.009387088 5.507385e-06 0.0027329982 0.0005507379
0.00059977925 7.926887e-06 0.015979655 0.00086673285 0.00066716695 0.0 0.0 0.0
7.926887e-06 0.0 0.052241173 0.02827566 0.037924215 2.251595 2.4713845 2.3596861
0.032832153 0.0072231665 0.0010712581 0.74617267 0.01686356 6.652071e-05 0.41627508 0.167481
0.14928155 0.0 0.0 0.0 6.652071e-05 0.0 1.6623385 1.2103931
1.6479677 3.2055907 5.2097344 4.1085773 1.4204388 0.39635506 0.034963533 297.01794
0.06339129 0.00025378066 1.0249125 0.43443352 0.3640351 0.0 0.0 0.0
0.00025378066 0.0 4.2575965 3.2774224 4.404946 15.880654 23.178942 19.277739
3.8184817 1.0082012 0.0908192 708.9343 0.062388368 0.000107867934 0.005120363 0.00033171207
0.00021892815 0.0 0.0 0.0 0.000107867934 0.0 0.026819047 0.02730939
0.037242945 1.2975614 1.4121908 1.3539785 0.031162389 0.0035909978 0.0044550127 0.34916216
0.017725212 6.585166e-05 0.42300814 0.19852072 0.14200988 0.0 0.0 0.0
6.585166e-05 0.0 0.9337884 0.8331229 1.1282754 1.5783803 2.747828 2.1048193
00000000: ca93 253d 935e a138 a40a 4a39 64d4 8437
00000010: 1a7c 2c37 0000 0000 0000 0000 0000 0000
00000020: 935e a138 0000 0000 7db3 a23b c711 a73b
00000030: bbbf d43b 4c35 fc3b 79bc fb3b 29f8 fb3b
00000040: de17 bd3b 190f bf34 55da d038 0000 0000
00000050: a3c2 3d3d bf2a d738 0000 0000 0000 0000
00000060: 0000 0000 0000 0000 0000 0000 0000 0000
00000070: bf2a d738 0000 0000 7ecf 163c 15d6 973c
00000080: b2e7 ca3c 7439 9b3d 6040 6e3d d044 883d
00000090: 226f b03c 7c10 e83a 7fbb ef39 e44c 353e
000000a0: 83a1 8f3c e9db c038 dba2 203f 8b7f 573e
000000b0: 4b61 293e 0000 0000 0000 0000 0000 0000
000000c0: e9db c038 0000 0000 3fed 0c40 9efa e73f
000000d0: 70da 1840 8e66 d740 2fc5 1641 28b1 ff40
000000e0: afa2 0540 c4d2 b13e 4d31 493d 1ef0 7343
000000f0: bf11 2f3c e2f2 3738 310d bc3e 36f0 043e
00000100: 7787 e83d 0000 0000 0000 0000 0000 0000
00000110: e2f2 3738 0000 0000 5dfe 723f 560f 5b3f
00000120: 49b4 953f 6091 6a40 3e18 b040 5c57 9040
00000130: c7cd 803f 3146 963e 733c d03c df6e 5d43
00000140: 6fd1 cc39 367a 9636 8c2d 403d a123 1d3b
00000150: c16a d13a 0000 0000 0000 0000 0000 0000
00000160: 367a 9636 0000 0000 ecce a83c ba1c d33d
00000170: 8a0f ec3d 0c4d 053e 4b4a 023e 2d81 033e
00000180: f74c de3d 7dfb 943a c399 243b 149d 3c3e
00000190: 4918 ce3c 962c 9038 589a 4e3e 1824 4c3d
000001a0: b0ce 2d3d 0000 0000 0000 0000 0000 0000
000001b0: 962c 9038 0000 0000 0568 a73f 7790 ad3e
000001c0: 196b f93e f4de b73f 3fe2 fa3f 672b d63f
000001d0: 1f64 d13e 2b50 cd3d 8c68 863c ad70 8142
000001e0: 03e4 f63b 5795 2038 8388 803e 8732 5b3d
000001f0: 732a 413d 0000 0000 0000 0000 0000 0000
00000200: 5795 2038 0000 0000 9bc7 133f 7f6d ff3e
00000210: 9c13 2b3f 5352 0740 290e 4040 00de 2140
00000220: 4e6d 143f 021e e93d 77e1 773c 63d2 9b42
00000230: e371 7b3c 8ebe 1038 0000 0000 0000 0000
00000240: 0000 0000 0000 0000 0000 0000 0000 0000
00000250: 8ebe 1038 0000 0000 5611 e83b cad2 d83b
00000260: da92 5d3c 7ab0 c13c e10b c03c 39db c03c
00000270: 4dcc 193c 14cc b836 1a1c 333b 655f 103a
00000280: 813a 1d3a b8fd 0437 c4e7 823c 7535 633a
00000290: d1e4 2e3a 0000 0000 0000 0000 0000 0000
000002a0: b8fd 0437 0000 0000 d7fa 553d 5ba2 e73c
000002b0: 6c56 1b3d 221a 1040 2a2b 1e40 1905 1740
000002c0: 027b 063d 50b0 ec3b 7569 8c3a 2c05 3f3f
000002d0: 7325 8a3c 0981 8b38 0222 d53e 2480 2b3e
000002e0: 43dd 183e 0000 0000 0000 0000 0000 0000
000002f0: 0981 8b38 0000 0000 82c7 d43f 29ee 9a3f
00000300: 9bf0 d23f 6628 4d40 25b6 a640 7779 8340
00000310: f0d0 b53f 0def ca3e ec35 0f3d 4c82 9443
00000320: 4bd3 813d dd0d 8539 5530 833f 126e de3e
00000330: cf62 ba3e 0000 0000 0000 0000 0000 0000
00000340: dd0d 8539 0000 0000 3b3e 8840 4ac1 5140
00000350: 51f5 8c40 2917 7e41 796e b941 cf38 9a41
00000360: 0162 7440 bd0c 813f 6bff b93d cc3b 3144
00000370: f28a 7f3d 2837 e238 b8c8 a73b a4e9 ad39
00000380: 1490 6539 0000 0000 0000 0000 0000 0000
00000390: 2837 e238 0000 0000 9eb3 db3c f1b7 df3c
000003a0: 0f8c 183d 7e16 a63f abc2 b43f 2b4f ad3f
000003b0: 4448 ff3c f256 6b3b 5bfb 913b 62c5 b23e
000003c0: 7734 913c d719 8a38 8694 d83e 0449 4b3e
000003d0: 0a6b 113e 0000 0000 0000 0000 0000 0000
000003e0: d719 8a38 0000 0000 c20c 6f3f 8b47 553f
000003f0: 546b 903f 5e08 ca3f 6adc 2f40 5cb5 0640

exp_avg f4 [128]
-0.0043648686 -0.0036489803 0.001370831 -0.002407083 -0.0016426474 8.518365e-05 -0.003214801 0.00011521971
0.00074190716 -7.754489e-05 -0.0034039149 -0.0038962206 0.0016264848 -0.007767836 -0.0020396025 -0.00087445363
0.00018062608 -0.0013565095 -0.0018130314 0.0007884402 -2.8522176e-05 -0.000609376 -0.00026422748 0.0023555586
-0.002734488 -0.002199507 0.0005359897 9.04129e-05 -9.0457244e-05 -0.0039930763 0.0019872463 0.0052777096
-0.0005370971 -1.5638316e-05 0.0005775147 -0.0012950824 0.0054984447 -0.0026114334 0.0 0.0019441112
-0.0004169396 0.0012910471 -0.0015260974 -0.0004350502 -0.00017567865 -0.0029981458 0.0017973757 -0.001743982
0.0015184354 0.00066072686 0.0033607213 -0.0013357023 0.0001568098 -0.00020967981 -0.00090201705 -0.0050852285
-0.002651038 -0.0034618187 0.0062229354 0.00016233888 2.9653496e-05 -0.00033784172 -0.0017453936 -0.0028026921
-0.0014847566 0.0023156686 -0.0018101459 -0.00023925275 0.0011729118 0.00093482644 -0.005642272 -0.001874839
0.0006332825 0.0035976614 -0.0023250722 -0.0010140716 0.004465942 -0.0036240122 -0.0019735084 -0.001288334
-0.00063348527 -0.0003205211 -0.0044272277 -0.0005184198 0.00134886 -0.00091000256 -0.0011649837 -0.0009032195
-0.0022228602 0.0026842188 0.00202767 -0.00085711206 0.0028634574 0.0029386876 0.00016795662 -0.0020624914
0.00050395785 0.000347615 -0.002769017 0.0019742188 0.0024709092 0.0011804502 -0.0010575039 -0.00016514315
-0.0023632667 0.0064398223 0.0041519436 -0.0016236348 -0.0003513985 0.0015479673 0.0016610377 0.0027628848
0.00062913954 -0.001896069 0.00014252448 -0.0006589303 0.0006622992 -0.00041716054 0.0011476371 0.00037233034
4.8520562e-30 -0.0014899439 -0.0021352672 -0.0009244484 0.0011789551 0.0040957606 0.00022041445 -0.0016998368
00000000: 2c07 8fbb bb23 6fbb 75ad b33a 27c0 1dbb
00000010: 1a4e d7ba a0a4 b238 69af 52bb 1ca2 f138
00000020: 8c7c 423a 999f a2b8 3714 5fbb bc57 7fbb
00000030: c62f d53a 5589 febb daaa 05bb 973b 65ba
00000040: 7266 3d39 e8cc b1ba 3da3 edba 53af 4e3a
00000050: e842 efb7 88be 1fba 0388 8ab9 b75f 1a3b
00000060: 1935 33bb 9b25 10bb a981 0c3a 0e9c bd38
00000070: ddb3 bdb8 5ad8 82bb 763c 023b a3f0 ac3b
00000080: facb 0cba 072f 83b7 5b64 173a c1bf a9ba
00000090: 4c2c b43b 9524 2bbb 0000 0000 8cd1 fe3a
000000a0: b098 dab9 5a38 a93a 5507 c8ba 7317 e4b9
000000b0: 6136 38b9 8a7c 44bb ec95 eb3a 5396 e4ba
000000c0: 3d06 c73a a134 2d3a 8c3f 5c3b bb12 afba
000000d0: 4f6d 2439 7fdd 5bb9 5775 6cba fda1 a6bb
000000e0: 0abd 2dbb aedf 62bb c4e9 cb3b 8339 2a39
000000f0: 66c0 f837 5920 b1b9 b1c5 e4ba 5fad 37bb
00000100: 2a9c c2ba 79c2 173b 6b42 edba ecdf 7ab9
00000110: 64bc 993a 240f 753a cfe2 b8bb 28bd f5ba
00000120: df02 263a bec6 6b3b 3d60 18bb 99ea 84ba
00000130: 0957 923b d680 6dbb fa55 01bb 51dd a8ba
00000140: 7a10 26ba 9d0b a8b9 4712 91bb 90e6 07ba
00000150: 3bcc b03a 3d8d 6eba 5eb2 98ba 09c6 6cba
00000160: 68ad 11bb b8e9 2f3b a8e2 043b d1af 60ba
00000170: d8a8 3b3b ff96 403b 831d 3039 dd2a 07bb
00000180: 0a1c 043a 1840 b639 6578 35bb e561 013b
00000190: faee 213b 56b9 9a3a f19b 8aba 472a 2db9
000001a0: 09e1 1abb 2505 d33b 070d 883b 25d0 d4ba
000001b0: e93b b8b9 2ae5 ca3a 2db7 d93a 8411 353b
000001c0: d7ec 243a 8585 f8ba a072 1539 10bc 2cba
000001d0: 269e 2d3a 57b6 dab9 506c 963a 5535 c339
000001e0: a2d2 c40e 394a c3ba d7ef 0bbb af56 72ba
000001f0: 2b87 9a3a bb35 863b 0e1f 6739 0fcd deba
