flaskProject/modules/Contrastive_Clustering/save/save_5_700epochs/model_checkpoint.tar (torch, 183226 bytes, 24 tensors)

instance_projector.0.weight f4 [128, 20]
0	0xbd891c48	-0.06694847
1	0x3eee0050	0.46484613
2	0x3cccf5b7	0.02501951
3	0x3c6b944f	0.014378621
4	0xbec5a9b0	-0.38606024
5	0xbda61ba3	-0.0811074
6	0xbe0c85d3	-0.13722925
7	0x3e06facb	0.13181607
8	0x3d09e649	0.033666883
9	0xbd990496	-0.07471578
10	0xbe075f0d	-0.13219853
11	0xbfd57c82	-1.6678622
12	0xbfcc6802	-1.5969241
13	0x3da8d3fb	0.08243557
14	0xbd97705c	-0.07394478
15	0xbd222f0e	-0.039595656
16	0xbfdbc742	-1.7170184
17	0xbef23e1d	-0.47313014
18	0xbfc770b6	-1.5581272
19	0xbf5df5d3	-0.86703223
20	0xbcc474ab	-0.023981413
21	0x3de20b08	0.1103726
22	0x3e143ce3	0.14476351
23	0x3e977ebd	0.2958888
24	0x3cda8f9f	0.026679812
25	0x3ede282f	0.43390033
26	0xbd303e0b	-0.04302792
27	0xbeea5ba9	-0.45773056
28	0xbddfad34	-0.10921708
29	0xbd90df9e	-0.070739016
30	0x3e8e96cd	0.27849427
31	0xbfd59577	-1.6686238
32	0xbfcf48c0	-1.6194077
33	0x388ba908	6.659521e-05
34	0x3e02d678	0.12777126
35	0xbe1a6b2c	-0.15079945
36	0xbffb63fc	-1.9639888
37	0xbf53459f	-0.8252811
38	0xbf1099ff	-0.5648498
39	0xbecbd6d3	-0.39812335
40	0x3f0113e8	0.50421
41	0x3f87603b	1.0576242
42	0xbfb4cd49	-1.4125148
43	0xc0d8c5d2	-6.774148
44	0xc0b06ca1	-5.5132604
45	0xc0719664	-3.774804
46	0x3f7a4335	0.977588
47	0xc02252b6	-2.5362983
48	0x3f982096	1.1884944
49	0xbe1e7934	-0.15475923
50	0xc01cf2f6	-2.4523292
51	0xc0121353	-2.2824295
52	0xc0151c9b	-2.329871
53	0xbe1d0a2f	-0.15335916
54	0x3d5fe2e1	0.054659728
55	0x3dcc0a47	0.09962898
56	0xc0083497	-2.1282098
57	0x3f9a9d50	1.2079258
58	0x406add6d	3.6697648
59	0x3f0532bc	0.5203054
60	0xbf003a4a	-0.5008894
61	0x3e51df7a	0.20495406
62	0x3fbc597c	1.4714808
63	0xbd509901	-0.050927166
64	0xbe417b41	-0.18894674
65	0x3ff5b83b	1.9196848
66	0xc11bf3b4	-9.746998
67	0xbf4b3927	-0.7938408
68	0xbfcb39d2	-1.587702
69	0x3d7de160	0.061982512
70	0xbe9f004d	-0.31054917
71	0xbe04329f	-0.12909935
72	0xbf30ba15	-0.6903394
73	0xbe1f5ad5	-0.15561993
74	0x3d157dea	0.036497034
75	0x3daffaec	0.085927814
76	0xbeed7f79	-0.46386316
77	0x404298b7	3.040571
78	0x4014bd51	2.324055
79	0x3ef6d8d2	0.48212296
80	0xbf0520da	-0.5200325
81	0x3ecada35	0.39619604
82	0xc1057d38	-8.343071
83	0xbfc33172	-1.5249465
84	0xc0508110	-3.2578773
85	0x3f8f4bcf	1.119501
86	0xc0983cd5	-4.757426
87	0xbcedb775	-0.029018143
88	0x3f6d3a90	0.92667484
89	0x3e0d352a	0.13789812
90	0xbf2b5ac7	-0.6693539
91	0xc0b2f814	-5.592783
92	0xc0b721d1	-5.722878
93	0xbc980324	-0.018556185
94	0x3e01da19	0.12680854
95	0xbdc1a4f1	-0.09455288
96	0xc0b1cd8a	-5.55634
97	0x3e45e32d	0.19324942
98	0xc060d51e	-3.5130076
99	0x3f201de7	0.6254563
100	0x3d9e2fb6	0.07723944
101	0x3e6d2bea	0.23161283
102	0xc0329cf3	-2.7908294
103	0xc0a63af0	-5.1946945
104	0xbff0b540	-1.8805313
105	0x4055c02c	3.3398542
106	0x3d579bd6	0.05263885
107	0x3f80e96a	1.0071232
108	0x3f67caec	0.9054401
109	0xbe456ff6	-0.19280991
110	0xbf83290f	-1.0246905
111	0xc03699ce	-2.8531375
112	0xc01c5e8d	-2.443271
113	0xbe5b171e	-0.21395537
114	0x3e1111ec	0.14166993
115	0x3da8cc9b	0.082421504
116	0xc02daea4	-2.7137842
117	0x3f805ecd	1.0028931
118	0x3f84bfa7	1.0370988
119	0xbe0d8fed	-0.13824435
120	0xbd76213e	-0.060090296
121	0xbc9c942f	-0.019113628
122	0xbe989ace	-0.29805607
123	0x3f1430d9	0.57887036
124	0x3f654cfa	0.8957058
125	0x3f439225	0.76394874
126	0x3e659136	0.22418675
127	0xbf89f1d8	-1.077693
128	0xbda8261b	-0.08210393
129	0xbdb0e964	-0.08638266
130	0xbf1e22ff	-0.6177215
131	0x3f8db888	1.107194
132	0x3f8740fa	1.0566704
133	0x3d3e8281	0.046511177
134	0x3d6ca83d	0.057777632
135	0xbe2146e4	-0.15749699
136	0x3fb5f4ac	1.4215293
137	0xbdf0d210	-0.11758816
138	0x3efa6eba	0.48912603
139	0xbebdd409	-0.37075832
140	0xbea6f71f	-0.32610413
141	0x3d88ff89	0.066893645
142	0x3e2d35bc	0.1691503
143	0xbf1ec5ab	-0.6202037
144	0xbf55a695	-0.8345731
145	0xbd4a927c	-0.049456105
146	0x3e9ed375	0.31020704
147	0x3ea58192	0.32325417
148	0x3dc44fa5	0.095855035
149	0xbd160bf0	-0.03663248
150	0xbee1ab76	-0.44076127
151	0xc1155bdf	-9.334929
152	0xc11a01ca	-9.625437
153	0xbdc07267	-0.093968205
154	0xbda57c1f	-0.08080315
155	0x3e3e4fee	0.18585178
156	0xc11b8915	-9.720967
157	0xc02c9ee6	-2.6971984
158	0xc0bbfff8	-5.874996
159	0xc0e1e350	-7.058998
160	0xbce8f00b	-0.028434774
161	0x3f53c9af	0.8272962
162	0xbf2cf132	-0.67555535
163	0xc08268bd	-4.0752854
164	0xc066003e	-3.5937648
165	0xbfc66658	-1.5499983
166	0xc0675ee7	-3.6151674
167	0xbf191b51	-0.59807307
168	0x3fc59f54	1.5439248
169	0x3d2ed668	0.042684942
170	0xc08ab072	-4.3340387
171	0x408cd80f	4.4013743
172	0x4083ac4f	4.114784
173	0xbe57bf2e	-0.21069023
174	0x3e0269e5	0.12735708
175	0x3dac0b87	0.08400636
176	0x408f1598	4.471386
177	0x3f264b2b	0.6495845
178	0xbe25df16	-0.16198382
179	0xbe36544e	-0.17805597
180	0x3e9716cb	0.29509577
181	0xbeb4db7c	-0.35323703
182	0x3de611d3	0.112338684
183	0xc094df9a	-4.652295
184	0xbfb51a0f	-1.4148577
185	0x40781312	3.876164
186	0x3e11215a	0.14172879
187	0xbdd08614	-0.101818234
188	0xc05745ed	-3.363643
189	0xbd2878f0	-0.04113096
190	0x3f5fb0ca	0.87379134
191	0x401247b7	2.2856271
192	0x3ff7aa04	1.934876
193	0xbc983f18	-0.018584773
194	0x3d5c96f5	0.0538549
195	0xbd10b57f	-0.03532934
196	0x3ff43dcd	1.908136
197	0xbfffeace	-1.9993532
198	0xc152c12a	-13.172159
199	0xc0b40f7f	-5.6268916
200	0x3c8a1f01	0.016860487
201	0xbe2b0a6b	-0.16703193
202	0xbcaaaade	-0.020833429
203	0xbf137c6b	-0.5761172
204	0x3ec57af7	0.38570377
205	0xbf33c9ea	-0.7022997
206	0x3d01e353	0.031710934
207	0x3e9e383f	0.30902287
208	0x3f00ad16	0.5026411
209	0xbd3a603c	-0.045501933
210	0x3eea93f0	0.45815992
211	0xbe1f7d37	-0.1557511
212	0x3d757a33	0.05993099
213	0xbce26e26	-0.027640413
214	0xbdab265b	-0.08356925
215	0x3d98d7c8	0.07463032
216	0x3dcfa3e5	0.10138682
217	0x3ecb3f62	0.39696795
218	0x3f506fab	0.8142039
219	0x3eaeb9da	0.34126168
220	0xbf664875	-0.8995431
221	0xbf07e0cc	-0.5307739
222	0x3f9ef87e	1.2419584
223	0x408115fb	4.033933
224	0x404237a4	3.034646
225	0xbf927e43	-1.1444782
226	0xbf933ee9	-1.1503574
227	0xbeb0d37b	-0.34536347
228	0x3d5eeb8d	0.054423857
229	0xbe47cd4d	-0.1951191
230	0x3e6540da	0.2238802
231	0x3fe83836	1.8142154
232	0x3fe5f700	1.7966003
233	0xbd285356	-0.0410951
234	0x3e1e9afa	0.15488806
235	0xbde8da6d	-0.113697864
236	0x3fed040d	1.8516861
237	0xbff6e32d	-1.9288079
238	0xc029ac89	-2.6511557
239	0xbf76adf1	-0.96359164
240	0x3d60acd1	0.05485231
241	0x3e45f626	0.1933218
242	0x3e83b487	0.2572367
243	0xbecfd98c	-0.40595663
244	0xbf339547	-0.70149654
245	0xbf8f9cdf	-1.1219748
246	0x3ec8b80d	0.3920292
247	0x3dabe400	0.08393097
248	0xbec24107	-0.37940237
249	0xbe62f7d2	-0.22164848
250	0xbe49d72d	-0.1971099
251	0xbef0162f	-0.46891925
252	0xbed004f4	-0.4062878
253	0xbba4f405	-0.005033972
254	0x3d9974f5	0.07493011
255	0xbdb818e6	-0.08989124

instance_projector.0.bias f4 [128]
0	0x3f1ecc1b	0.6203019
1	0x3eab1b82	0.33419424
2	0x3f866791	1.0500356
3	0x3d70b819	0.05876932
4	0x3b4a90e1	0.0030909108
5	0x3e2c8a06	0.16849527
6	0xbc8fb79c	-0.017543606
7	0xbe13ad4e	-0.14421579
8	0x3eb4aae1	0.3528662
9	0xbf1b62ab	-0.6069743
10	0xbeeab046	-0.4583761
11	0xbf12914f	-0.57252973
12	0x3ea84eb4	0.32872546
13	0x3f015458	0.50519323
14	0x3d6d07e5	0.057868857
15	0x3e51d86d	0.20492716
16	0x3f269a0d	0.6507881
17	0xbee725e2	-0.4514609
18	0x3ee80cfa	0.453224
19	0xbe02abff	-0.12760924
20	0x3d9b8872	0.07594384
21	0x3f40cc8d	0.7531212
22	0x3f3451d5	0.70437366
23	0x3f0beba4	0.54656434
24	0x3d6f6068	0.05844155
25	0xbedd39c9	-0.4320815
26	0x3e0b1992	0.13583973
27	0x3e11b27c	0.14228243
28	0x3ef32588	0.47489572
29	0xbe292deb	-0.16521423
30	0xbe59dcf3	-0.21275692
31	0x3e7acc97	0.24492107
32	0x3e21c730	0.1579864
33	0x3e954ea6	0.29161566
34	0x3ea57dd2	0.32322556
35	0x3e4075ff	0.18795012
36	0xbe84b3dc	-0.25918472
37	0x3ed952ca	0.42445976
38	0xbea11c11	-0.31466725
39	0x3dc1ca71	0.09462441
40	0x3f48b745	0.7840465
41	0x3ec80632	0.39067227
42	0x3cce1b28	0.025159433
43	0x3ecf10eb	0.40442595
44	0x3deb5d88	0.11492449
45	0x3ef69784	0.48162472
46	0x3e69b2b6	0.22822079
47	0x3f2590a0	0.64673805
48	0xbfbeeed5	-1.4916636
49	0x3e8f428c	0.2798046
50	0xbc1befda	-0.009517634
51	0xbe8b1f50	-0.27172327
52	0x3f3b2f96	0.73119485
53	0x3dacef17	0.0844404
54	0xbe031e24	-0.12804466
55	0x3e3d4df4	0.18486768
56	0x3e9d4c6e	0.30722374
57	0xbe9d94cb	-0.30777583
58	0x3e9e8f11	0.30968526
59	0xbdf23da3	-0.118281625
60	0xbeeece2f	-0.4664168
61	0xbe07c0cb	-0.13257138
62	0xbf30da0a	-0.690827
63	0xbe78e1a4	-0.24304825
64	0x3ed7f769	0.42180946
65	0xbbf43168	-0.0074521787
66	0x3e845569	0.25846413
67	0xbf14ed82	-0.5817491
68	0xbe5966af	-0.21230577
69	0xbe17fc8a	-0.1484243
70	0xbd15df6c	-0.036590025
71	0x3edc1323	0.4298335
72	0x3df9729a	0.12180062
73	0xbd453993	-0.04815061
74	0x3f54f3a3	0.8318426
75	0xbf77633d	-0.966358
76	0x3debeee8	0.11520177
77	0xbfed0430	-1.8516903
78	0x3d7d7085	0.061874885
79	0xbeec69c9	-0.46174458
80	0x3eeab182	0.45838553
81	0x3e0805d6	0.13283476
82	0x3daaf515	0.08347527
83	0x3edd83ee	0.43264717
84	0xbea55127	-0.32288477
85	0x3dd35218	0.103183925
86	0x3eb2bc69	0.3490937
87	0x3f09a339	0.53764683
88	0xbebe07f7	-0.37115452
89	0x3e7ce2fa	0.2469596
90	0xbf988a3c	-1.1917186
91	0x3f0e3df2	0.5556327
92	0x3f2728fc	0.6529691
93	0xbc0a36cb	-0.008435915
94	0xbd9bf5bd	-0.0761523
95	0xbdaa9bcc	-0.08330497
96	0x3f2062a7	0.6265053
97	0x3ed82122	0.42212778
98	0x3ecdb413	0.40176448
99	0x3da3a719	0.07990856
100	0xbea565a4	-0.32304108
101	0x3f485bc9	0.78265053
102	0x3ed3225c	0.41237152
103	0x3e29d090	0.16583467
104	0xbe8a499a	-0.2700928
105	0x3e1f7abc	0.15574163
106	0xbe1f512c	-0.15558308
107	0x3f4c18d2	0.7972537
108	0xbdf039b6	-0.117297575
109	0xc014a633	-2.322644
110	0xbf08a621	-0.5337849
111	0x3f59df42	0.8510629
112	0xbf20942d	-0.627261
113	0xbe2e8ac8	-0.17045128
114	0x3e9c6543	0.30546007
115	0x3e371e4f	0.17882656
116	0xbf42398a	-0.7586905
117	0x3ef807c5	0.48443428
118	0x3f941eba	1.1571877
119	0xbe86a7c6	-0.26299876
120	0xbf1f678f	-0.6226739
121	0x3b8b1c92	0.004245349
122	0xbe50de7b	-0.2039737
123	0x3e92fde9	0.28709343
124	0x3f832e03	1.0248417
125	0x3dcf7670	0.10130012
126	0xbef035e6	-0.4691612
127	0xbd9faa82	-0.07796194

instance_projector.2.weight f4 [20, 128]
0	0xbf5df510	-0.8670206
1	0xbf1794db	-0.5921151
2	0x3f0115e9	0.5042406
3	0xba3cfe68	-0.00072095403
4	0xbd9af205	-0.07565693
5	0xbdfa5b57	-0.12224453
6	0x3e7a719d	0.24457403
7	0xbec02093	-0.37524852
8	0xbe61d81f	-0.220551
9	0xbe53d5c4	-0.20687014
10	0xbd581875	-0.0527577
11	0x3f00ad45	0.5026439
12	0x3f2d4d6c	0.6769626
13	0xbe945937	-0.28974316
14	0xbf724cd1	-0.9464846
15	0x3e0c89e6	0.13724479
16	0xbbd12630	-0.006382726
17	0x3db43a95	0.08800236
18	0x3ed57c6e	0.41696495
19	0x3e0a7a55	0.13523228
20	0x3e891bf2	0.26779133
21	0x3c832e5b	0.016013315
22	0xbe377637	-0.17916189
23	0x3ebcc8b0	0.36871862
24	0xbd72874a	-0.059211053
25	0xbc9194cb	-0.017771145
26	0x3d2c5cb6	0.042080604
27	0xbdc83eb1	-0.097775824
28	0xbef01a8c	-0.46895254
29	0x3d93a0a1	0.07208372
30	0xbde51ddf	-0.11187338
31	0x3ea24536	0.3169343
32	0x3d665657	0.056234684
33	0xbf661243	-0.89871615
34	0x3d0c6c3a	0.0342829
35	0x3eeb1a01	0.45918277
36	0x3dc03ddf	0.09386801
37	0x3da4eac8	0.080525935
38	0xbe790eb3	-0.24322014
39	0xbd7c8455	-0.06164964
40	0x3eb1e51c	0.3474511
41	0x3d9d2bc5	0.07674364
42	0xbd816034	-0.063171774
43	0xbdb9e15f	-0.09076189
44	0xbdc0ee73	-0.094204806
45	0x3cd4a88b	0.025959274
46	0xbcd98e4c	-0.02655711
47	0x3ca8aebf	0.020591138
48	0xbe42b2c6	-0.19013509
49	0x3f89eaa1	1.0774728
50	0x3d3c3ae4	0.0459546
51	0x3d229377	0.039691415
52	0xbe3f567d	-0.18685336
53	0xbe88b65f	-0.26701638
54	0x3e10a298	0.14124525
55	0x3f54e953	0.83168525
56	0xbf00eabb	-0.5035817
57	0xbd896b95	-0.06709973
58	0x3e040c5f	0.12895344
59	0x3de7f70f	0.113264196
60	0x3eb8dedf	0.36107537
61	0xbda0ff26	-0.07861166
62	0xbecdc75f	-0.4019117
63	0x3d48256a	0.048863806
64	0x3d97341e	0.073829874
65	0xbe8a35c2	-0.2699414
66	0x3ee195d8	0.44059634
67	0x3ee126d9	0.4397495
68	0x3d04235c	0.032260284
69	0x3e36cd95	0.17851861
70	0xbc1135be	-0.008862911
71	0x3d31376a	0.043265738
72	0x3dce921e	0.100864634
73	0x3f259b45	0.6469005
74	0xbf03c96e	-0.5147923
75	0xbe1526f9	-0.14565648
76	0xbd85f35a	-0.06540556
77	0x3f82d5c2	1.0221484
78	0xbd89db6d	-0.06731305
79	0xbd996741	-0.07490397
80	0xbe467b3d	-0.19382949
81	0xbd84839d	-0.06470416
82	0xbcd50802	-0.026004795
83	0xbee51591	-0.44743016
84	0xbd9a61fb	-0.075382195
85	0xbf62e463	-0.8862974
86	0x3d902f92	0.07040323
87	0x3edd32f0	0.43202925
88	0x3d9d5189	0.07681567
89	0x3dad69c7	0.08467441
90	0xbf990a89	-1.195634
91	0xbedfd511	-0.43717244
92	0x3e0e801e	0.1391606
93	0xbe000186	-0.12500581
94	0x3da15446	0.07877402
95	0xbb4187e3	-0.0029530458
96	0xbdeaaf7a	-0.11459251
97	0x3e7e0397	0.24806057
98	0xbee8dee1	-0.45482543
99	0x3cd64484	0.026155718
100	0xbdec17a5	-0.11527947
101	0xbf78362d	-0.96957666
102	0xbe274093	-0.16333227
103	0xbbcf8520	-0.0063330084
104	0xbdc2f478	-0.09519285
105	0x3e0618ca	0.13095394
106	0xbdc01657	-0.09379261
107	0xbe86cc08	-0.26327538
108	0xbea10236	-0.31447
109	0xbf3ffe63	-0.7499754
110	0x3b530487	0.0032198743
111	0x3c81a320	0.015824854
112	0x3cb2cfc2	0.021827582
113	0x3e9af64d	0.30266038
114	0x3db1d433	0.08683052
115	0xbdea2dcf	-0.114345185
116	0xbc616315	-0.013756533
117	0x3ebac346	0.36477107
118	0xbf3c17a1	-0.73473555
119	0xbe32fc33	-0.17479019
120	0xbef5d1c1	-0.48011592
121	0x3c2dfa69	0.010618784
122	0xbd0af011	-0.03392035
123	0xbd5660c1	-0.052338365
124	0xbf0ccf37	-0.55003685
125	0x3e050fa3	0.12994246
126	0x3dff3a8c	0.12462339
127	0x3c001ec0	0.007819831
128	0xbdf1aadb	-0.11800166
129	0xbe804b74	-0.25057566
130	0xbe3df9ca	-0.18552318
131	0xbc818a0b	-0.015812894
132	0x3cf32d36	0.029684644
133	0x3bcf8c56	0.006333868
134	0x3decfd15	0.11571709
135	0xbdf6c525	-0.12049321
136	0x3e1c5fe3	0.15270953
137	0x3c1f3cb7	0.009719065
138	0xbd3075eb	-0.043081205
139	0xbcd4c918	-0.025974795
140	0xbebbf478	-0.36709952
141	0x3cc4870f	0.023990182
142	0x3e5b8ae4	0.21439701
143	0x3b9f27df	0.004857048
144	0xbea6cef7	-0.32579777
145	0xbede93c6	-0.43472117
146	0xbf042452	-0.5161792
147	0xbe46190e	-0.19345495
148	0xbdc82a0b	-0.09773644
149	0x3c892a39	0.016743766
150	0x3e28904e	0.16461298
151	0xbe21eba5	-0.15812548
152	0xbc86ba00	-0.016446114
153	0x3bf4d9df	0.0074722613
154	0xbbaf31c0	-0.005346507
155	0x3e0e64be	0.13905618
156	0x3d994394	0.07483593
157	0xbda9bea6	-0.082883164
158	0x3da21e13	0.079158925
159	0x3e8f4ec2	0.27989775
160	0xbe5f0dcd	-0.21782608
161	0xbf37d8a1	-0.71814924
162	0x3ddc1af8	0.107473314
163	0xbf252737	-0.6451296
164	0x3e100d9a	0.14067689
165	0x3d15023c	0.036379084
166	0x3c695eea	0.014243821
167	0xbcd12637	-0.025530918
168	0xbf165dfa	-0.58737147
169	0x3b94734d	0.0045303465
170	0xbce5054c	-0.027956627
171	0xbdab4a23	-0.0836375
172	0xbe09435f	-0.13404606
173	0x3d597c97	0.053097334
174	0xbe45753c	-0.19283003
175	0x3e859df0	0.2609706
176	0x3e2405d5	0.1601785
177	0x3ec1e14b	0.37867197
178	0xbd941b98	-0.072318256
179	0xbe25d64c	-0.16195029
180	0x3e148069	0.1450211
181	0xbf0da40b	-0.55328435
182	0xbcb371a5	-0.021904776
183	0x3e1cbe0f	0.15306877
184	0xbe460fbc	-0.1934194
185	0x3c2df634	0.010617781
186	0xbbe47ce6	-0.006972897
187	0x3e8b0c8e	0.27158016
188	0xbf6700df	-0.90235704
189	0x3b4205c8	0.0029605497
190	0xbdd24aaf	-0.10268151
191	0x3de4396f	0.11143767
192	0x3da59ea4	0.08086899
193	0x3ed755ac	0.4205755
194	0xbe70a4e4	-0.23500401
195	0x3f1054e6	0.56379545
196	0x3da9bcb3	0.08287945
197	0xbb94637f	-0.0045284624
198	0x3d97859b	0.0739853
199	0x3e857817	0.26068184
200	0x3de058c2	0.10954429
201	0xbf1cbe09	-0.6122747
202	0xbde28357	-0.11060207
203	0x3e0db22a	0.13837495
204	0xbd01e966	-0.031716727
205	0x3ed6edba	0.41978246
206	0x3dd8a910	0.10579121
207	0xbe02101f	-0.12701462
208	0x3eadec91	0.33969548
209	0x3d5c5bee	0.05379861
210	0x3c6e38c4	0.014539901
211	0x3e852fe5	0.26013103
212	0xbd79bff2	-0.06097407
213	0x3e0b91ea	0.1362988
214	0x3bf73086	0.0075436262
215	0xbf083383	-0.532036
216	0x3e116525	0.1419874
217	0xbd1b2ceb	-0.037884634
218	0xbedba5be	-0.4289989
219	0x3ea17880	0.31537247
220	0x3ea81995	0.32832018
221	0x3e081c57	0.13292061
222	0xbe0253e1	-0.1272731
223	0x3ed1660b	0.40898165
224	0x3ebde2c6	0.37087077
225	0xbf02bd78	-0.51070356
226	0xbf294b28	-0.66130304
227	0xbf2e88fd	-0.6817778
228	0xbe969596	-0.29411
229	0x3edbf96b	0.42963728
230	0xbd93cee2	-0.07217194
231	0x3d93400d	0.07189951
232	0x3dc4858b	0.09595784
233	0x3cdfff7b	0.027343502
234	0xbe515a36	-0.20444569
235	0xbe9eda38	-0.31025863
236	0x3d82bb1b	0.06383344
237	0x3eb9c644	0.36284077
238	0x3e767f8c	0.24072093
239	0x3dcd6322	0.10028674
240	0xbd330d04	-0.043713585
241	0x3dd0c476	0.10193722
242	0x3e6ae27f	0.22937964
243	0xb9ce5cf7	-0.00039360646
244	0xbcd53465	-0.02602596
245	0x3ed57a64	0.4169494
246	0x3f574eec	0.841048
247	0xbd1e5655	-0.03865655
248	0xbdda786b	-0.10667499
249	0x3cce62aa	0.025193531
250	0xbd8ac774	-0.06776324
251	0x3e808ad6	0.25105923
252	0xbe2f0009	-0.17089857
253	0xbd827590	-0.063700795
254	0xbb13996c	-0.0022521866
255	0xbcb96b70	-0.022634238

instance_projector.2.bias f4 [20]
0	0x3e827c90	0.2548566
1	0x3e7e6fac	0.24847287
2	0xbc95de52	-0.018294487
3	0x3e84261c	0.25810325
4	0xbe9fa968	-0.31183934
5	0x3e36c9a6	0.1785036
6	0xbec83010	-0.3909917
7	0x3f16fc14	0.5897839
8	0x3d75a38d	0.059970427
9	0x3e665a74	0.22495443
10	0xbe040e5b	-0.12896101
11	0xbee71fdb	-0.4514149
12	0x3ec6d340	0.38833046
13	0x3f3be159	0.7339073
14	0xbd5ecfc4	-0.05439736
15	0xbe6d24fb	-0.23158638
16	0xbe264de1	-0.16240646
17	0x3e86d6a1	0.26335624
18	0x3ca3ce79	0.019995915
19	0xbe645496	-0.22297892

cluster_projector.0.weight f4 [128, 20]
0	0xbe261847	-0.16220199
1	0xbd754958	-0.0598844
2	0x3e205886	0.15658769
3	0x3c9e3270	0.01931116
4	0x3dea6814	0.114456326
5	0x3cc70948	0.024296418
6	0xbe5ced34	-0.21574861
7	0x3d6cf240	0.057848215
8	0xbdc49462	-0.09598614
9	0xbe1870df	-0.14886807
10	0xbddc1247	-0.107456736
11	0x3d89bae4	0.067251
12	0x3e17a3d4	0.14808589
13	0x3d4db250	0.05021888
14	0xbddbf72e	-0.10740505
15	0xbe2cb4b2	-0.16865805
16	0xbd991d76	-0.07476322
17	0xbdfc2603	-0.12311938
18	0x3d38f1f0	0.045152605
19	0x3e2c2e7e	0.1681461
20	0xbc9fe8ec	-0.019520245
21	0x3da84080	0.082154274
22	0x3e1c4bef	0.15263341
23	0xbf01c6ce	-0.50693977
24	0xbed330ce	-0.41248173
25	0xbf3de783	-0.74181384
26	0x3f1307c3	0.5743372
27	0xbf23da69	-0.6400514
28	0x3f33842f	0.7012357
29	0xbd5311c4	-0.051530614
30	0x3e0b875c	0.13625854
31	0xbb1e7f9b	-0.0024184946
32	0xbe3d8f59	-0.18511714
33	0x3ca990d3	0.02069894
34	0x3e07a55b	0.13246672
35	0xbe38e5ac	-0.18056363
36	0xbee4e86a	-0.44708568
37	0xbea5a7cf	-0.3235459
38	0xbecf841e	-0.40530485
39	0x3e9eba88	0.31001687
40	0xbdc623fc	-0.09674832
41	0xbe293a9c	-0.16526264
42	0xbe0bd568	-0.13655627
43	0xbbf86fa0	-0.007581666
44	0xbe06056a	-0.13088003
45	0x3d52f2f8	0.051501244
46	0xbd7f0ca0	-0.0622679
47	0xbd625a08	-0.05526164
48	0xbe58a24d	-0.21155663
49	0xbb696980	-0.0035615861
50	0xbd5eccf4	-0.054394677
51	0xbe12a074	-0.1431902
52	0xbd0f965c	-0.035055503
53	0xbe37159b	-0.17879336
54	0xbe2862eb	-0.16443984
55	0x3de50b68	0.11183816
56	0xbd316e98	-0.04331836
57	0xbd6616a4	-0.056173936
58	0xbdb19058	-0.086701095
59	0x3d544cb8	0.051830977
60	0x3ddba914	0.107256085
61	0x3f1530d7	0.5827765
62	0xbf2908af	-0.66028875
63	0xbed23d2f	-0.41062304
64	0xbeb9a331	-0.36257318
65	0xbf4aeb5a	-0.7926537
66	0xbea1109f	-0.31457993
67	0xbe440772	-0.19143465
68	0x3e62a5bb	0.22133534
69	0x3d004448	0.031315118
70	0xbe19f9e0	-0.15036726
71	0xbeb90662	-0.36137682
72	0xbf014555	-0.5049642
73	0xbe082510	-0.13295388
74	0xbc6861cd	-0.014183474
75	0x3dea8134	0.11450425
76	0xbf06f9e8	-0.52725077
77	0xbd931ae7	-0.071828656
78	0x3c7f3459	0.0155764455
79	0xbf1b17ca	-0.60583174
80	0xbd861b41	-0.06548167
81	0x3b04cb88	0.0020262916
82	0xbfb703b9	-1.4298011
83	0xbf479bed	-0.779723
84	0xbf446147	-0.76710933
85	0xbe9ca1ce	-0.30592197
86	0x3eebea8c	0.46077383
87	0xbee34e1a	-0.44395524
88	0xbe7baa6a	-0.24576727
89	0xbd51aaa0	-0.05118811
90	0xbef4de0e	-0.47825664
91	0xbee42ae3	-0.4456397
92	0xbf0e40d9	-0.555677
93	0xbd03403b	-0.032043677
94	0x3d8d4f56	0.06899898
95	0xbdbf6319	-0.09345073
96	0xbf14e83f	-0.5816688
97	0xbd70bed9	-0.058775757
98	0x3f2b5df9	0.66940266
99	0x3e5bcd1c	0.21464962
100	0xbde74ae4	-0.11293581
101	0x3e63f9b6	0.22263226
102	0xbf5c4b04	-0.86051965
103	0xbd5ffdf2	-0.05468554
104	0xbe0e1805	-0.1387635
105	0xbe6fe308	-0.2342645
106	0xbcf457a3	-0.029826945
107	0x3c9dede5	0.019278476
108	0x3f10b33c	0.5652349
109	0x3def41a4	0.11682442
110	0x3e5f2820	0.2179265
111	0x3d10a882	0.03531695
112	0x3dba18fc	0.09086797
113	0xbe066c8a	-0.13127342
114	0x3e4cbbc7	0.19993506
115	0xbdcd363f	-0.10020112
116	0xbdd30093	-0.10302844
117	0xbe9e2f4d	-0.30895463
118	0x3da8fe83	0.08251669
119	0x3df2be20	0.1185267
120	0xbd25acb6	-0.040447913
121	0xbe8ba069	-0.2727082
122	0x3ebb69f7	0.36604282
123	0xbe28ba83	-0.16477399
124	0x3f1ff047	0.6247601
125	0x3ee5c6b6	0.44878167
126	0xbe1d28b7	-0.15347563
127	0xbe961266	-0.29310912
128	0xbfbe0b40	-1.4847183
129	0x3e23b9e2	0.15988877
130	0xbf49b64d	-0.78793794
131	0x3ee9330c	0.45546758
132	0x3dd01a1e	0.101612315
133	0xbd23d6ea	-0.03999988
134	0xbdd4ad83	-0.10384657
135	0x3de4a1ee	0.11163698
136	0x3e69957a	0.22810927
137	0x3c42c5be	0.011887966
138	0x3f0605db	0.52352685
139	0x3eb64999	0.35603026
140	0xbba39cb5	-0.004993046
141	0xbe82ebaa	-0.25570422
142	0x3f019b16	0.5062727
143	0x3ebaa00b	0.36450228
144	0x3eb9544d	0.3619713
145	0xbe74227d	-0.23841281
146	0x3e95aeeb	0.29235014
147	0xbe5fd949	-0.21860231
148	0x3ea2f916	0.31830662
149	0xbd888788	-0.066664755
150	0xbec2c6c4	-0.3804227
151	0xbeeefeb2	-0.46678692
152	0xbd81659c	-0.063182086
153	0x3d9cbc5e	0.07653116
154	0xbd421476	-0.047382794
155	0xbd36cbb1	-0.04462785
156	0xbedc9ce3	-0.43088445
157	0xbe2f9cea	-0.17149702
158	0xbdfdd91d	-0.12394927
159	0xbe108b03	-0.14115529
160	0x3b7738aa	0.0037722983
161	0x3ea2a753	0.31768283
162	0xbe811cef	-0.25217387
163	0xbf046732	-0.51719964
164	0xbe77d4a2	-0.24202207
165	0xbbc05692	-0.005869695
166	0xbeb7d489	-0.3590434
167	0xbd57cf66	-0.052688025
168	0xbe0fd9da	-0.14047948
169	0x3c7b94b0	0.015355274
170	0xbeb582ea	-0.35451442
171	0xbe10c19e	-0.14136359
172	0xbe7b183c	-0.24520963
173	0xbd5ce5b0	-0.053929985
174	0xbc308ca7	-0.010775722
175	0x3d260d47	0.040540006
176	0xbe9c8241	-0.30568126
177	0xbd514424	-0.051090375
178	0x3e19ece1	0.15031768
179	0x3d2cc1fb	0.04217718
180	0xbe9460a0	-0.2897997
181	0x3ef1edba	0.47251683
182	0xbf9ab9df	-1.2087973
183	0xbe595f28	-0.21227705
184	0x3f07ee77	0.53098243
185	0xbfc74be4	-1.5570035
186	0xbf1d6179	-0.61476856
187	0x3db162a1	0.0866139
188	0x3ea4ab33	0.32161865
189	0xbdc38332	-0.09546508
190	0xbd72027e	-0.059084408
191	0x3e0a7008	0.13519299
192	0x3dfa6181	0.12225629
193	0xbdfdbfab	-0.123900734
194	0xbd2dd36a	-0.04243795
195	0x3e0d321c	0.13788646
196	0x3df19780	0.117964745
197	0xbbae1cd7	-0.0053134966
198	0xbe2376fa	-0.15963355
199	0xbe832932	-0.25617367
200	0xbe3e48cb	-0.18582456
201	0x3db8a495	0.090157665
202	0x3e82e2af	0.2556357
203	0x3e3db1c9	0.18524851
204	0x3eb1c5dc	0.34721267
205	0x3f20b13c	0.6277044
206	0xbd1f7695	-0.038931448
207	0xbe656a15	-0.22403748
208	0x3e8116c6	0.25212687
209	0xbe40bc50	-0.18821836
210	0xbf6d7591	-0.9275752
211	0xbf9ee3e7	-1.24133
212	0xbfaa4144	-1.3301167
213	0xbedaa897	-0.4270675
214	0xbf76a85c	-0.96350646
215	0xbf9a0116	-1.2031581
216	0xbf8cc21f	-1.0996741
217	0xbf85c822	-1.0451701
218	0xbf77c96b	-0.96791714
219	0xbf884b1e	-1.0647924
220	0xbd9cb200	-0.07651138
221	0xbd9d35e9	-0.07676298
222	0xbeffc9a4	-0.49958527
223	0x3e05429e	0.13013694
224	0x3f020fd1	0.50805384
225	0xbe8b05e9	-0.27152947
226	0x3f6fc4af	0.9365949
227	0xbf1b56f0	-0.6067953
228	0x3e4f64e5	0.20253332
229	0xbe3a63ee	-0.18202183
230	0xbedc8206	-0.4306795
231	0xbdf3c2f7	-0.11902421
232	0xbf08945b	-0.5335137
233	0x3dd9edca	0.10641058
234	0x3a33482a	0.00068390614
235	0xbe0a7468	-0.13520968
236	0xbddfb0d1	-0.10922397
237	0xbf829042	-1.0200274
238	0xbec8cc11	-0.3921819
239	0xbf69e1d2	-0.913602
240	0x3cd973b9	0.026544439
241	0xbda54c0e	-0.08071147
242	0xbf64e50d	-0.89412004
243	0xbf038d47	-0.5138745
244	0x3ed8803f	0.42285344
245	0xbea6e1fa	-0.3259428
246	0x3ef931a3	0.48670682
247	0xbd152c84	-0.036419407
248	0xbf0c1113	-0.54713553
249	0xbe4667f3	-0.19375591
250	0x3de6ee29	0.11275894
251	0x3ea55dae	0.32298034
252	0xbe37941e	-0.17927596
253	0xbe016dbf	-0.12639521
254	0xbd3c8317	-0.046023455
255	0x3e1864ca	0.14882198

cluster_projector.0.bias f4 [128]
0	0x3dcb69c8	0.099322855
1	0x3e74de57	0.23912941
2	0xbd3118dc	-0.0432366
3	0x3efe019e	0.4961061
4	0x3eb69688	0.3566172
5	0x3e077210	0.13227105
6	0xbdf448c2	-0.1192794
7	0xbe00e427	-0.12587033
8	0x3f1aa753	0.60411566
9	0x3ed50dab	0.4161199
10	0xbe58d24a	-0.21173969
11	0x3ced1553	0.028940832
12	0xbed24f59	-0.41076162
13	0xbe03c143	-0.12866692
14	0x3f2b007e	0.66797626
15	0x3efea3d3	0.49734363
16	0x3e653727	0.2238432
17	0x3eb7ec10	0.3592229
18	0x3d29ef7b	0.041488152
19	0x3ce3a9c8	0.027790919
20	0x3da339b4	0.079699904
21	0xbdf6d39e	-0.120520815
22	0xbe00b1a2	-0.12567762
23	0xbc70c39d	-0.014695075
24	0xbcba79bf	-0.022763131
25	0x3e8ae660	0.27128887
26	0xbc82c739	-0.015964137
27	0x3f211a22	0.629305
28	0xbdc2b7ad	-0.095076896
29	0xbc72011d	-0.014770773
30	0x3f63f465	0.8904479
31	0x3eee9b34	0.46602786
32	0xbe3b1523	-0.18269782
33	0x3f3ad91a	0.7298752
34	0xbd54c0a0	-0.051941514
35	0x3ec02385	0.375271
36	0x3f116aa1	0.5680333
37	0x3e75e4f1	0.24013115
38	0x3dfe7857	0.12425297
39	0x3c83951a	0.016062308
40	0xbe0a69b6	-0.13516888
41	0x3ee36abf	0.44417378
42	0xbe37f460	-0.17964315
43	0xbedf8a4a	-0.43660194
44	0xbdeebfbd	-0.11657665
45	0x3efd3aa1	0.49458793
46	0xbe9aa179	-0.3020132
47	0xbe47d1e1	-0.19513656
48	0xbe2f2105	-0.1710244
49	0xbdb5c24d	-0.088749506
50	0x3d48ff28	0.04907146
51	0x3e34a8d8	0.17642534
52	0xbec8c7bd	-0.39214888
53	0xbd67e2eb	-0.05661289
54	0x3eea635b	0.45778927
55	0x3e0ed26c	0.13947457
56	0x3f0be93b	0.54652756
57	0xbcc2c9f0	-0.023777932
58	0x3c7354e5	0.014851783
59	0x3cce99f0	0.025219887
60	0xbea38052	-0.31933838
61	0x3ed53483	0.41641626
62	0x3c33fbc0	0.010985315
63	0xbe752198	-0.23938596
64	0xbf1b2085	-0.60596496
65	0x3ef96f67	0.48717806
66	0x3ff331ae	1.8999536
67	0x3e7ecc03	0.24882512
68	0xbde88c13	-0.11354842
69	0x3e8687b0	0.26275396
70	0xbce1ef30	-0.027579874
71	0x3f0604a3	0.52350825
72	0xbe0cd007	-0.13751231
73	0xbe3d669c	-0.18496174
74	0x3e19b697	0.15011059
75	0xbbb21e16	-0.0054357154
76	0xbf15ebe9	-0.58563095
77	0xbd7cc41c	-0.061710462
78	0x3dcf6ec8	0.10128552
79	0x3fad1d94	1.3524652
80	0x3f05a81a	0.5220963
81	0xbe817b8a	-0.25289565
82	0x3e992569	0.29911354
83	0x3dc0c275	0.0941209
84	0xbe62d609	-0.2215196
85	0x3d8fd711	0.070234425
86	0xbd67e5ad	-0.05661552
87	0x3c8af11c	0.016960673
88	0x3f1b2ce4	0.6061537
89	0x3e25e312	0.16199902
90	0x3ccad184	0.024758108
91	0x3dcdd65b	0.10050651
92	0x3ef222d5	0.472922
93	0x3f343c0b	0.7040412
94	0xbe838867	-0.25690004
95	0xbf07cec9	-0.53049904
96	0x3f15299f	0.58266634
97	0xbe517f0c	-0.20458621
98	0xbe3bdf03	-0.18346791
99	0x3e851f19	0.26000288
100	0xbe8051fa	-0.25062543
101	0xbc45d30e	-0.012074245
102	0x3b3e6240	0.002905026
103	0xbd115cac	-0.03548877
104	0x3e131593	0.14363699
105	0x3db3ce4b	0.08779582
106	0x3f27277a	0.6529461
107	0xbda0ed98	-0.078578174
108	0xbe0ecf84	-0.13946348
109	0x3e508d06	0.20366296
110	0xbe058352	-0.13038376
111	0x3c415fb6	0.011802604
112	0x3dd8814b	0.10571536
113	0xbde2a8e0	-0.110673666
114	0x3e9c8f9b	0.30578312
115	0xbe835960	-0.25654125
116	0x3e6b4f7d	0.22979541
117	0x3f502931	0.81312853
118	0x3d8262d8	0.06366509
119	0x3ededd10	0.43528032
120	0x3ccf675a	0.025317837
121	0xbe2a4d33	-0.16631012
122	0xbee5158c	-0.44743
123	0xbe2ad21b	-0.16681711
124	0xbec12c90	-0.3772931
125	0xbe99d91c	-0.30048454
126	0xbe408853	-0.18802004
127	0xbe1a657d	-0.15077777

cluster_projector.2.weight f4 [50, 128]
0	0x3ce106a0	0.02746898
1	0xbd3eb70a	-0.04656128
2	0xbd694ee6	-0.05696001
3	0xbddb621d	-0.10712073
4	0x3e8978d1	0.26849988
5	0x3e6db0ff	0.2321205
6	0x3cf195cc	0.029490374
7	0xbf09682f	-0.53674597
8	0x3e0bc922	0.13650945
9	0x3e3694aa	0.17830148
10	0xbe37550e	-0.1790354
11	0xbe6262fe	-0.22108075
12	0xbdcbdf9a	-0.09954758
13	0xbc94b29a	-0.01815157
14	0x3d7192b1	0.058977786
15	0x3e5c32c6	0.21503744
16	0x3dab1ba3	0.08354881
17	0x3e1bb7e0	0.15206861
18	0xbf08b073	-0.5339424
19	0xbb6b2acc	-0.0035883663
20	0xbd1c562a	-0.03816811
21	0xbea46fd8	-0.3211658
22	0xbd0e6384	-0.034762874
23	0x3dcd3c8c	0.10021314
24	0x3e99f5ff	0.30070493
25	0x3e21eb6f	0.15812467
26	0x3d9464cc	0.07245788
27	0x3e29f3ce	0.1659691
28	0x3e986f07	0.29772207
29	0xbf3a6337	-0.7280764
30	0x3e3faa03	0.18717198
31	0x3e5254af	0.20540117
32	0xbd3b904c	-0.04579191
33	0x3e945767	0.28972933
34	0xbda3ab41	-0.079916485
35	0x3d8c4ebe	0.068509564
36	0x3ea12502	0.31473547
37	0x3e44f54b	0.19234197
38	0x3e7759bb	0.24155323
39	0xbf082733	-0.53184813
40	0xbdab87f2	-0.08375539
41	0xbd90adc2	-0.07064392
42	0xbccf5770	-0.025310248
43	0xbfa0a9a2	-1.2551768
44	0xbe1b87c0	-0.15188503
45	0x3e5db930	0.21652675
46	0xbf44bb83	-0.7684862
47	0xbf5f6267	-0.87259525
48	0xbf8ca257	-1.0987042
49	0x3ebc8b04	0.3682481
50	0xbc02e008	-0.0079879835
51	0x3d9f9040	0.077911854
52	0xbd561c0b	-0.052272838
53	0x3e38779d	0.18014379
54	0x3e8ba6ef	0.27275798
55	0x3f8506ea	1.0392735
56	0xbcb99b3e	-0.022657033
57	0xbc1f2200	-0.009712696
58	0x3ee81460	0.45328045
59	0x3cb8d47c	0.022562258
60	0x3ca41dac	0.02003368
61	0x3d7be453	0.061497044
62	0x3d29abaa	0.041423477
63	0xbcdca479	-0.026933895
64	0xbb8b1c1d	-0.0042452947
65	0xbd8ea729	-0.06965477
66	0x3e002458	0.12513864
67	0x3e1e163e	0.15438172
68	0xbe889509	-0.26676205
69	0x3e0dad8c	0.13835734
70	0xbd8f5dee	-0.070003375
71	0x3d8d8860	0.06910777
72	0xbe4f36ce	-0.2023575
73	0x3e955285	0.2916452
74	0xbdcdf719	-0.10056896
75	0xbb8274b5	-0.0039811977
76	0xbdad3e0b	-0.084590994
77	0x3d0bac8b	0.034100097
78	0x3d865dab	0.065608345
79	0xc030100d	-2.7509797
80	0x3e850f17	0.25988075
81	0x3ed35937	0.41279003
82	0x3e2a09d6	0.16605315
83	0xc034656a	-2.8186898
84	0xbcace048	-0.02110304
85	0xc02fa232	-2.7442746
86	0x3e52f60d	0.20601673
87	0xbcfa9445	-0.030588279
88	0x3eaf492c	0.34235513
89	0xbe9eb3ad	-0.30996457
90	0xbd602acd	-0.054728318
91	0x3cf72023	0.030166691
92	0x3e8e9ffe	0.2785644
93	0xbd8c81d1	-0.06860698
94	0xbbce7485	-0.0063005113
95	0xbf10f6da	-0.56626666
96	0x3e49708a	0.19671836
97	0xbda07242	-0.07834293
98	0x3f092e19	0.53585964
99	0x3e7ffb67	0.24998246
100	0x3cc3b229	0.023888664
101	0x3d271ff9	0.040801976
102	0xba5e6700	-0.0008483976
103	0x3e98ca95	0.29842058
104	0xbf894ef1	-1.0727216
105	0x3e499790	0.19686723
106	0x3f1c9788	0.6116872
107	0xbed745e0	-0.42045498
108	0x3d19cc4b	0.037548345
109	0x3d8536a9	0.06504566
110	0x3d037e31	0.032102767
111	0x3e83864a	0.25688392
112	0x3c213857	0.009840093
113	0xbfa3874b	-1.2775663
114	0xbd150be1	-0.03638828
115	0x3f5a851e	0.8535937
116	0x3e4f87e5	0.20266683
117	0x3eaa7618	0.33293223
118	0xbd39dad5	-0.04537471
119	0x3eabfa9f	0.33589646
120	0x3d1df4b4	0.038563445
121	0xbed85f59	-0.42260244
122	0xbf134894	-0.5753262
123	0x3efc7d14	0.49314177
124	0xbd2c5281	-0.04207087
125	0x3d3e92d6	0.046526752
126	0xbe82cbbf	-0.2554607
127	0x3e54ea63	0.20792536
128	0x3c9a6428	0.018846586
129	0x3cd31b05	0.02576972
130	0x3d3271a2	0.0435654
131	0xbd5343da	-0.05157838
132	0xbe80a69c	-0.25127113
133	0x3cb7ea91	0.022450717
134	0xbf68ef03	-0.909897
135	0x3df8270a	0.12116821
136	0xbf2e8669	-0.68173844
137	0x3e148f05	0.14507683
138	0xbeb644d1	-0.35599378
139	0x3e3bd277	0.18342005
140	0xc03a1b54	-2.907918
141	0xbf90b061	-1.1303827
142	0x3e428fbc	0.19000143
143	0xc049d933	-3.1538818
144	0xc03296c1	-2.7904513
145	0xbf719a7e	-0.9437636
146	0xc01bae04	-2.432496
147	0xbeae76b5	-0.3407494
148	0x3d60985e	0.05483281
149	0xbdd22c96	-0.1026241
150	0xc0377448	-2.8664722
151	0xbdae51a1	-0.08511663
152	0x3e0a79e0	0.13523054
153	0xbe374562	-0.17897561
154	0xbfa2772c	-1.2692618
155	0x3d946caf	0.07247292
156	0x3ea0c0ba	0.3139704
157	0x3d1a68b7	0.03769752
158	0xbf56f10e	-0.8396157
159	0x3f277778	0.6541667
160	0xbd52ffd2	-0.0515135
161	0xbe5e1dd9	-0.21691073
162	0xbf3160cd	-0.6928833
163	0x3d16d973	0.03682847
164	0x3dedb695	0.116070904
165	0x3ea1f84b	0.31634745
166	0xbf7d8780	-0.9903488
167	0x3e0b3025	0.13592584
168	0x3c8e758c	0.017390035
169	0xbd857b2f	-0.06517636
170	0xbda80c4e	-0.08205472
171	0xc05e83b5	-3.4767888
172	0xbf49db9e	-0.78850734
173	0x3dc8bd94	0.09801784
174	0x3edff497	0.43741295
175	0xbfec8f8e	-1.848131
176	0xc080cc58	-4.0249443
177	0xbea99c73	-0.33127174
178	0x3cffe970	0.031239241
179	0xbf14dab1	-0.58146197
180	0xbf78351a	-0.96956027
181	0xbd103946	-0.03521087
182	0x3d09e76d	0.03366797
183	0x3d3e98e7	0.046532538
184	0x3cae3013	0.021263158
185	0xbd3818ff	-0.044945713
186	0x3c66099c	0.014040377
187	0xbd91a816	-0.07112138
188	0xbeb28721	-0.3486872
189	0xbe69aa67	-0.2281891
190	0xba9e71c0	-0.0012088344
191	0xbf475a78	-0.7787242
192	0xbdc9b676	-0.09849255
193	0x3de1bf25	0.11022786
194	0x3f0a804a	0.54102004
195	0x3e39908c	0.18121547
196	0xbf4b7157	-0.7946982
197	0x3e7ca064	0.24670559
198	0xbd48727f	-0.048937317
199	0x3d5ef795	0.05443533
200	0x3d483fc1	0.048888925
201	0xc04a9d7a	-3.1658616
202	0xbd4405a8	-0.047856957
203	0x3e685e20	0.22692156
204	0xbf053c97	-0.5204558
205	0x3d492024	0.049102917
206	0x3d2ac56a	0.041692175
207	0x3e682109	0.22668852
208	0xbeaad018	-0.33361888
209	0x3f234778	0.6378093
210	0x3dda3216	0.106540844
211	0x3ea15565	0.31510463
212	0xbd15f279	-0.036608193
213	0x3e74ffa8	0.2392565
214	0x3def39b8	0.11680931
215	0xbd890aaf	-0.06691491
216	0xbbd71204	-0.006563427
217	0x3dbc746a	0.09201892
218	0xbcc2c788	-0.023776785
219	0xc069ce17	-3.6532037
220	0xbe7a8c1e	-0.24467513
221	0xbe24173e	-0.16024491
222	0x3f44ecfa	0.769241
223	0xbd3505d9	-0.04419503
224	0x3e6ad074	0.22931081
225	0x3d80bd6b	0.062861286
226	0xbf7c4d07	-0.98555034
227	0xbe08e531	-0.1336868
228	0x3e880d6c	0.2657274
229	0xc076b490	-3.8547707
230	0xbd6def62	-0.05808962
231	0x3e2f7dbe	0.1713781
232	0xbf39e3cb	-0.7261321
233	0x3ee8dfff	0.45483395
234	0xbf95fbdd	-1.1717488
235	0x3d4b5245	0.049639005
236	0xbfea55aa	-1.8307393
237	0xbe244267	-0.16040955
238	0xbdafb7be	-0.08579968
239	0x3e391a89	0.18076529
240	0xbda5cfd9	-0.080962844
241	0xbed2da01	-0.4118195
242	0xc018016e	-2.3750873
243	0x3e83eb26	0.25765342
244	0x3deb0a51	0.11476577
245	0xbe3d9f9d	-0.18517919
246	0xbcca5878	-0.024700388
247	0xbe471d12	-0.19444683
248	0x3f3898a2	0.721079
249	0xc0563fab	-3.347636
250	0x3cac615a	0.021042515
251	0xbeeb8aaa	-0.4600423
252	0x3dd02dd7	0.10164993
253	0xbec3e0ed	-0.38257542
254	0x3e945a33	0.28975067
255	0x3e495ad9	0.19663562

cluster_projector.2.bias f4 [50]
0	0x3e9b486b	0.30328688
1	0xbe585c71	-0.21129014
2	0x3e08e2da	0.13367787
3	0x3e89ce55	0.2691523
4	0x3e6a7cfb	0.22899239
5	0xbec24daf	-0.37949893
6	0xbcf7835f	-0.03021401
7	0xbe447cd4	-0.19188243
8	0x3e36474e	0.17800638
9	0x3e4fea90	0.20304322
10	0x3dc8d286	0.09805779
11	0xbe1e244e	-0.15443537
12	0x3dd1b42d	0.10239444
13	0xbe000ca7	-0.12504826
14	0xbecd14f9	-0.40055063
15	0x3e163e00	0.14672089
16	0x3d455804	0.04817964
17	0x3dbd831c	0.09253523
18	0x3e91c1df	0.28468224
19	0xbe5590dc	-0.2085604
20	0xbdf43246	-0.119236514
21	0x3e801c47	0.25021574
22	0xbd6ae619	-0.057348344
23	0x3e378906	0.17923364
24	0xbe460099	-0.19336165
25	0x3ecbb18f	0.39783904
26	0xbe0fd823	-0.14047293
27	0x3d22a2bb	0.039705973
28	0x3e66a4d2	0.22523811
29	0x3e2d4e9f	0.16924523
30	0xbe0230a7	-0.12713872
31	0xbe3a49cd	-0.18192215
32	0x3e89d629	0.26921204
33	0x3ec4ee59	0.38463095
34	0x3eb87cd4	0.36032736
35	0x3dd5150b	0.10404404
36	0x3e99e868	0.30060124
37	0x3ebb8d20	0.36631107
38	0x3e1070ae	0.14105484
39	0xbe6f6ab9	-0.23380555
40	0xbddc2349	-0.107489176
41	0x3e5483fb	0.20753472
42	0x3e485a14	0.19565612
43	0x3c9d2e36	0.019187074
44	0xbe186d5c	-0.14885467
45	0x3e5b8e1e	0.21440932
46	0xbe323fbc	-0.17407125
47	0xbe49313d	-0.19647689
48	0x3f1862a4	0.59525514
49	0x3c7a5106	0.015278107

exp_avg f4 [128, 20]
0	0xbe97bde1	-0.29637054
1	0xbda96b1a	-0.08272381
2	0xbd045538	-0.032307833
3	0xbd759e4e	-0.059965424
4	0xbd466ebb	-0.048445445
5	0xbc91ad3f	-0.017782805
6	0xbb52f436	-0.0032189018
7	0xbcac1350	-0.021005303
8	0xbd8f4d77	-0.06997197
9	0x00000000	0.0
10	0xbb78ea27	-0.0037981363
11	0xbbec33bf	-0.007208317
12	0xbbebffdd	-0.007202132
13	0xbd61213a	-0.054963328
14	0xbd5a86d2	-0.05335123
15	0xbd5cf59f	-0.05394518
16	0xbbec1ced	-0.0072055967
17	0xbb812fc1	-0.0039424603
18	0xbb1453d6	-0.0022632978
19	0xba1330c4	-0.00056148716
20	0xbdeaa3b9	-0.11457009
21	0xbd30f180	-0.043199062
22	0xbcc12f3c	-0.023582093
23	0xbd150134	-0.0363781
24	0xbcf0dd35	-0.029402355
25	0xbd02e1da	-0.03195367
26	0xbbbf5a07	-0.0058395895
27	0xbd010616	-0.031499945
28	0xbc3ba5cd	-0.011453104
29	0x00000000	0.0
30	0xbb59daaf	-0.0033241918
31	0xbb65d2d1	-0.0035068283
32	0xbb6311eb	-0.003464813
33	0xbcf42ad2	-0.029805575
34	0xbceb0057	-0.028686685
35	0xbced852e	-0.02899417
36	0xbb63cdbb	-0.0034760076
37	0xbb35c43f	-0.002773538
38	0xbb2c6d5e	-0.0026310305
39	0xb9e16e0e	-0.0004299734
40	0xbf922272	-1.1416762
41	0xbddfef36	-0.10934298
42	0xbc6cdf97	-0.014457605
43	0xbc2dd830	-0.010610625
44	0xbc835f3f	-0.016036628
45	0xbd49a06c	-0.049225256
46	0xbd9a3641	-0.07529879
47	0xbd613dbd	-0.05499052
48	0xbce8746a	-0.028375823
49	0x00000000	0.0
50	0xbba5bdde	-0.0050580343
51	0xbc849642	-0.01618493
52	0xbc8ad56f	-0.016947476
53	0xc19e5694	-19.792274
54	0xc19e5e05	-19.795908
55	0xc19e5a41	-19.79407
56	0xbc893e9a	-0.016753484
57	0xbc47c424	-0.01219276
58	0xbbbe78c9	-0.0058127386
59	0xbb784680	-0.0037883818
60	0x3b0536f5	0.0020326946
61	0x3ab037e8	0.0013444396
62	0x39ba62f5	0.00035550413
63	0x3a7123ea	0.0009198772
64	0x3aa187c6	0.0012323789
65	0x3ac502d0	0.0015030745
66	0x38aa6006	8.1241174e-05
67	0x3ac4f440	0.0015026405
68	0xb77509e5	-1.4605442e-05
69	0x00000000	0.0
70	0x394a2927	0.00019279552
71	0x3932ab09	0.00017039118
72	0x39352c8b	0.00017278099
73	0xba642913	-0.00087036303
74	0xba8512a9	-0.0010152656
75	0xba790ff4	-0.00095009734
76	0x3933ecc7	0.00017158977
77	0xb9847485	-0.00025263816
78	0x38f15718	0.00011507998
79	0x37c75483	2.3762002e-05
80	0x3d0cbe3f	0.03436112
81	0x3c45a629	0.012063541
82	0x3a4b1a03	0.00077477115
83	0x3c00348e	0.00782503
84	0x3c358bec	0.011080723
85	0x3c019d09	0.007910975
86	0xb9183514	-0.00014515623
87	0x3c04c2f8	0.008103125
88	0x3b505c3c	0.0031793257
89	0x00000000	0.0
90	0x3aa17f62	0.0012321288
91	0x3a8f65ef	0.0010940413
92	0x3a957a2a	0.0011404206
93	0x40cfc4cc	6.492773
94	0x40cfc20c	6.4924374
95	0x40cfc45b	6.492719
96	0x3a916f1d	0.0011095736
97	0x3a1cc1d1	0.00059798086
98	0x3a871774	0.0010306672
99	0x39028996	0.00012449021
100	0xbdaa89e3	-0.08327081
101	0xbc289175	-0.010288586
102	0x38c88991	9.562367e-05
103	0x3b438277	0.0029832402
104	0x3b992de7	0.0046746614
105	0xbc348b04	-0.011019472
106	0xbc7ed388	-0.015553363
107	0xbc1cc127	-0.0095675355
108	0x3afeb2c0	0.0019431934
109	0x00000000	0.0
110	0x39a87208	0.00032128417
111	0xba554a15	-0.0008136344
112	0xba557e78	-0.00081441505
113	0x40861e29	4.1911817
114	0x40861b49	4.1908307
115	0x40861b9e	4.1908712
116	0xba5d65cf	-0.00084456516
117	0xba9f1605	-0.00121373
118	0xb955d87d	-0.00020393911
119	0xb90e0de7	-0.00013547354
120	0x3eeb69a7	0.45979044
121	0x3ddda826	0.108230874
122	0x3cd4d7a2	0.025981728
123	0x3d8060ce	0.06268464
124	0x3d8dfc4a	0.06932886
125	0x3d251950	0.040307343
126	0x3c969b6c	0.018384658
127	0x3d24bc71	0.040218774
128	0x3d7ea9db	0.062173706
129	0x00000000	0.0
130	0x3be4f937	0.0069877165
131	0x3c7a92bc	0.015293773
132	0x3c76ee32	0.015071439
133	0x3d811aa2	0.06303908
134	0x3d7c6030	0.06161517
135	0x3d7eb0dd	0.06218039
136	0x3c799284	0.015232686
137	0x3baa78e7	0.005202401
138	0x3ba20f14	0.004945645
139	0x3a89f0de	0.0010524055
140	0xbe97017b	-0.29493317
141	0xbd30d559	-0.043172214
142	0xbbf0cc35	-0.007348562
143	0x3b3d3e74	0.0028876336
144	0x3b45fff8	0.0030212384
145	0xbc618f09	-0.013767012
146	0xbd3d0043	-0.046142828
147	0xbc716f06	-0.014735943
148	0xbca08639	-0.019595252
149	0x00000000	0.0
150	0x3ae10790	0.0017168391
151	0xbb6137b8	-0.0034365486
152	0xbb5b7ffc	-0.0033493033
153	0xc1b74361	-22.9079
154	0xc1b74559	-22.908861
155	0xc1b743d9	-22.908129
156	0xbb5e7431	-0.0033943767
157	0xbaf6e4eb	-0.0018836533
158	0x3a633145	0.00086667045
159	0x3818b787	3.6410547e-05
160	0xbee45bac	-0.4460119
161	0xbd52f587	-0.051503684
162	0xbc8bef6a	-0.017081935
163	0xbc831d1a	-0.016005088
164	0xbc92e63a	-0.017932046
165	0x3728a381	1.0051649e-05
166	0x36999c98	4.5779852e-06
167	0xbca2f59c	-0.019892506
168	0xbd14599f	-0.03621828
169	0x00000000	0.0
170	0xbc0e2947	-0.0086768335
171	0xbce2aa99	-0.027669238
172	0xbcd75e3c	-0.026290052
173	0xc1cc6861	-25.550966
174	0xc1cc69bf	-25.551634
175	0xc1cc6827	-25.550856
176	0xbcde68ee	-0.027149644
177	0xbbb0cf6c	-0.0053958204
178	0xbaf8d60a	-0.0018984687
179	0xb96ce313	-0.00022591306
180	0xbd5c8df0	-0.0538463
181	0xbc026c0d	-0.007960332
182	0x39aa3c19	0.00032469703
183	0x3a9080e7	0.0011024744
184	0xba06a8a5	-0.00051368243
185	0xbbde139b	-0.0067772395
186	0xbbfc94bb	-0.0077081597
187	0xbbaaf3aa	-0.0052170353
188	0xbad7e8a1	-0.0016472527
189	0x00000000	0.0
190	0xba173339	-0.00057678256
191	0xb80110bb	-3.0771578e-05
192	0xb8345748	-4.299663e-05
193	0x40168ec7	2.3524644
194	0x401691fc	2.3526602
195	0x40168f3f	2.352493
196	0xb8144a7b	-3.5355315e-05
197	0xb9bf738b	-0.00036516445
198	0x38342efd	4.2959105e-05
199	0x38af8ae2	8.370519e-05
200	0xbdce6e97	-0.10079687
201	0xbc198741	-0.009370626
202	0xbb33d2a5	-0.0027438786
203	0xbb50c72a	-0.0031856992
204	0xbbc5aa65	-0.0060322755
205	0x38496091	4.801207e-05
206	0xba19f416	-0.00058728585
207	0xbb4676dd	-0.003028325
208	0xbc0aea8c	-0.008478772
209	0x00000000	0.0
210	0xba9b118f	-0.0011830794
211	0xbb3475d2	-0.0027536047
212	0xbb48d3b0	-0.0030643754
213	0xbb7a8d2f	-0.0038231125
214	0xbb871a64	-0.004123019
215	0xbb810c69	-0.003938247
216	0xbb403bd6	-0.002933254
217	0xba9ae614	-0.0011817836
218	0xba802b59	-0.0009778544
219	0xba5c56f5	-0.00084052916
220	0x3e19e5ce	0.1502907
221	0x3cdc0e67	0.026862336
222	0xbb3e5cda	-0.0029047043
223	0xbc862b2a	-0.016378004
224	0xbb7f878b	-0.0038990702
225	0xbca7118f	-0.020394115
226	0xba73466f	-0.000928021
227	0xbcb6b339	-0.022302257
228	0x3d18d4d0	0.03731233
229	0x00000000	0.0
230	0xbbd91e01	-0.006625891
231	0x3b6c5b32	0.0036065099
232	0x3b215640	0.002461806
233	0xc28818b5	-68.048256
234	0xc288190f	-68.04894
235	0xc288194e	-68.04942
236	0x3b4cfcde	0.003127865
237	0xba1b7f46	-0.0005931746
238	0xbb2c5f16	-0.0026301793
239	0xba4da5a1	-0.000784481
240	0x3e825973	0.2545887
241	0x3d6ec5a0	0.05829394
242	0xbb2f0ecc	-0.00267117
243	0xba8adcb4	-0.0010594339
244	0xb803f3a3	-3.145974e-05
245	0x3cfe4cde	0.031042513
246	0x3d1b5027	0.037918236
247	0x3d02c7da	0.031928875
248	0x3b027e18	0.0019911584
249	0x00000000	0.0
250	0x3bb3fbaf	0.0054926495
251	0x3bcca8ac	0.006245693
252	0x3bc1b341	0.0059112613
253	0x3cae9314	0.021310367
254	0x3cb87b14	0.022519626
255	0x3cb73810	0.0223656

exp_avg_sq f4 [128, 20]
0	0x41404dbd	12.018979
1	0x3f38a3bc	0.7212484
2	0x3c3a4b16	0.011370441
3	0x3e4e673a	0.20156565
4	0x3e483e61	0.19555046
5	0x3e09c35c	0.1345343
6	0x3dba6337	0.09100955
7	0x3e0db023	0.13836722
8	0x3e5ae70f	0.21377204
9	0x00000000	0.0
10	0x3b03b0fc	0.0020094505
11	0x3b70180c	0.0036635427
12	0x3b751773	0.003739801
13	0x4336c799	182.77968
14	0x4336c46a	182.76724
15	0x4336c628	182.77405
16	0x3b71c54e	0.0036891284
17	0x3ac18e1a	0.0014767081
18	0x3a8e6664	0.0010864255
19	0x37050f7d	7.931024e-06
20	0x3f9f3801	1.2438966
21	0x3dda56be	0.10661076
22	0x3b8d534d	0.0043129087
23	0x3d7d3cd3	0.061825585
24	0x3d720b90	0.059093058
25	0x3c880d43	0.016607886
26	0x3a89bc38	0.0010508364
27	0x3c9348fc	0.017979138
28	0x3d59f705	0.05321409
29	0x00000000	0.0
30	0x3a073ba2	0.0005158727
31	0x39d55bf8	0.00040695048
32	0x39e1234b	0.0004294164
33	0x3f91dddc	1.1395831
34	0x3f918ab1	1.137045
35	0x3f91a3c4	1.1378102
36	0x39da5819	0.00041645838
37	0x39340ef1	0.00017171704
38	0x39938bef	0.00028142284
39	0x36a14792	4.806506e-06
40	0x411bfd98	9.749413
41	0x3dbae0f6	0.09124939
42	0x3abe6bda	0.0014527992
43	0x3aebd616	0.001799288
44	0x3b2902f8	0.0025789123
45	0x3ca9ed8c	0.020743154
46	0x3d270bed	0.040782858
47	0x3cdd27c8	0.026996508
48	0x3bf2a7d1	0.007405259
49	0x00000000	0.0
50	0x39fe6695	0.00048523085
51	0x3b159ee1	0.0022830295
52	0x3b1f6f0b	0.0024327661
53	0x467de788	16249.883
54	0x467debfe	16250.998
55	0x467de83b	16250.058
56	0x3b1f160c	0.0024274616
57	0x3aa82e85	0.0012831247
58	0x39eb9b94	0.00044938608
59	0x399a09da	0.0002938051
60	0x3b0fc869	0.0021939522
61	0x3a09dc32	0.0005258947
62	0x38456a26	4.706732e-05
63	0x398aacec	0.00026450248
64	0x39735c1b	0.00023208598
65	0x3a071f2f	0.0005154488
66	0x35ca1bfb	1.5058316e-06
67	0x3a076240	0.00051644817
68	0x338d6367	6.583905e-08
69	0x00000000	0.0
70	0x3751effa	1.2513245e-05
71	0x36484972	2.9845073e-06
72	0x365896fc	3.2274393e-06
73	0x3a2362d4	0.0006232683
74	0x3a212708	0.00061474787
75	0x3a2131da	0.0006149091
76	0x3650aa68	3.1093605e-06
77	0x378cad0f	1.6769887e-05
78	0x36ff7c66	7.614074e-06
79	0x3462f290	2.1136134e-07
80	0x3e06a74f	0.1314976
81	0x3c403765	0.011731957
82	0x379479f9	1.7699773e-05
83	0x3ba8b646	0.005148682
84	0x3ba9a23a	0.0051768096
85	0x3ad9cc97	0.0016616759
86	0x3730bee8	1.0534866e-05
87	0x3aee6d97	0.0018190619
88	0x3b99db47	0.0046953293
89	0x00000000	0.0
90	0x38727670	5.78076e-05
91	0x38873b35	6.44833e-05
92	0x388a8207	6.604572e-05
93	0x453a23de	2978.2417
94	0x453a20b3	2978.0437
95	0x453a22ef	2978.1833
96	0x38882cdc	6.493341e-05
97	0x3809b8fe	3.2835633e-05
98	0x382d889a	4.1373634e-05
99	0x3520d5bd	5.9915675e-07
100	0x3eb33818	0.35003734
101	0x3c3ac60c	0.011399757
102	0x39426070	0.00018537208
103	0x3ab8841d	0.0014077459
104	0x3b022a7c	0.0019861748
105	0x3b4142c2	0.0029489254
106	0x3b23f882	0.0025019948
107	0x3b6f2a15	0.0036493589
108	0x3ad39973	0.0016143754
109	0x00000000	0.0
110	0x38b47062	8.604002e-05
111	0x39079f03	0.0001293384
112	0x390c8927	0.00013402534
113	0x450f64f0	2294.3086
114	0x450f64cc	2294.2998
115	0x450f64ee	2294.308
116	0x390aa57f	0.00013222358
117	0x3891537c	6.929689e-05
118	0x382fa7e0	4.1879597e-05
119	0x36a2fcb6	4.8573957e-06
120	0x3f9aec5c	1.2103381
121	0x3d7ac477	0.06122252
122	0x3b5eb7a7	0.0033983977
123	0x3cba6f56	0.022758167
124	0x3ce8697e	0.028370615
125	0x3bf58ad9	0.0074933586
126	0x3ad154ff	0.0015970765
127	0x3c0a2879	0.008432501
128	0x3cd0ee07	0.025504125
129	0x00000000	0.0
130	0x39c1785d	0.00036901506
131	0x3a8dd232	0.0010820089
132	0x3a91e306	0.001113028
133	0x3caf0477	0.021364434
134	0x3ca89b44	0.020581849
135	0x3caa948c	0.020822786
136	0x3a912126	0.0011072501
137	0x39358319	0.00017310343
138	0x396c8c46	0.0002255897
139	0x380ff1f3	3.431919e-05
140	0x4026ab2e	2.604198
141	0x3e250c0f	0.16117881
142	0x3b817ecc	0.003951883
143	0x3d2ed76a	0.042685904
144	0x3d502ad3	0.05082209
145	0x3cefb91a	0.029263068
146	0x3c904295	0.017609874
147	0x3cf4f411	0.029901536
148	0x3d3b4ee4	0.045729533
149	0x00000000	0.0
150	0x39e5e305	0.00043847426
151	0x3a6a6f81	0.0008943007
152	0x3a6e64f8	0.0009094025
153	0x4721d503	41429.01
154	0x4721d341	41427.254
155	0x4721d47b	41428.48
156	0x3a6aed5e	0.0008961762
157	0x399f5868	0.0003039271
158	0x39840221	0.00025178588
159	0x35e8d2d4	1.7346706e-06
160	0x408eaa0f	4.458259
161	0x3d4f2925	0.050576348
162	0x3b202115	0.002443378
163	0x3b12d8e1	0.0022407102
164	0x3b67b7ba	0.0035357312
165	0x35e12c04	1.6776617e-06
166	0x36142aa6	2.2078543e-06
167	0x3c15b5dc	0.009137597
168	0x3c17a0f2	0.009254681
169	0x00000000	0.0
170	0x3b868d97	0.0041062343
171	0x3c2d1141	0.010563196
172	0x3c2ea0bd	0.01065844
173	0x45ce57c3	6602.97
174	0x45ce5e8f	6603.82
175	0x45ce5a1b	6603.263
176	0x3c30a11e	0.010780601
177	0x3abbd4b7	0.0014330362
178	0x3a6d66b3	0.0009056136
179	0x3a218680	0.00061617047
180	0x3f8e2aef	1.1106852
181	0x3c45b1c9	0.012066313
182	0x394f7ced	0.00019787597
183	0x3972023e	0.00023079754
184	0x39d3c880	0.0004039444
185	0x3b59913a	0.0033198134
186	0x3bb9cc8d	0.0056701363
187	0x3ba25543	0.0049540116
188	0x3a128cce	0.00055904395
189	0x00000000	0.0
190	0x399de0ba	0.00030112808
191	0x3a1bc496	0.00059420743
192	0x3a10d512	0.0005524914
193	0x450dc51e	2268.3198
194	0x450dc5c7	2268.361
195	0x450dc484	2268.2822
196	0x3a15d97c	0.00057163066
197	0x383cbbc7	4.4997574e-05
198	0x358d4e4f	1.052811e-06
199	0x35d1b0d5	1.5623178e-06
200	0x3e973b1a	0.29537278
201	0x3aeeb5bc	0.001821212
202	0x3985d528	0.0002552655
203	0x398e6bb6	0.00027164601
204	0x3a597712	0.0008295636
205	0x36e6eca7	6.882084e-06
206	0x37b5fb96	2.1694035e-05
207	0x39b0fc6d	0.00033757408
208	0x3a98b210	0.0011649746
209	0x00000000	0.0
210	0x39016c93	0.00012342846
211	0x394441b7	0.00018716497
212	0x394f55b4	0.00019772985
213	0x39d07257	0.0003975804
214	0x39df1a23	0.00042553348
215	0x39d94f14	0.00041448383
216	0x394b44f7	0.0001938528
217	0x37f06a7f	2.865982e-05
218	0x37c4060c	2.3367837e-05
219	0x375ce78f	1.3166936e-05
220	0x412ed007	10.925788
221	0x3f81a0ad	1.0127159
222	0x3dd31944	0.103075534
223	0x3f01918e	0.50612724
224	0x3f224e8a	0.6340109
225	0x3ddaeac7	0.106893115
226	0x3ba9e02d	0.0051841945
227	0x3e05bb19	0.13059653
228	0x3f0b2903	0.54359454
229	0x00000000	0.0
230	0x3ba23977	0.004950698
231	0x3c28d750	0.010305241
232	0x3c2f8a29	0.010714092
233	0x482f7d38	179700.88
234	0x482f7ab6	179690.84
235	0x482f7cac	179698.69
236	0x3c2ce0b4	0.01055162
237	0x3af09c33	0.0018357098
238	0x3b3bbc5b	0.0028646204
239	0x393c6438	0.00017966412
240	0x4112b4a7	9.169105
241	0x3e38102e	0.17974922
242	0x3a0a22b9	0.00052694563
243	0x3a4c0168	0.0007782192
244	0x3a94290c	0.0011303737
245	0x3db03276	0.08603375
246	0x3e184994	0.14871818
247	0x3d9db85b	0.07701179
248	0x3b124195	0.0022316922
249	0x00000000	0.0
250	0x39f8d594	0.00047461374
251	0x3ae97618	0.0017811684
252	0x3ae470a9	0.0017428595
253	0x3e39e531	0.18153836
254	0x3e3c4bf5	0.1838835
255	0x3e3c00de	0.18359706
